results/torch_naive_mlp_model.pt (torch, 29983 bytes, 2 tensors)

output_layer.weight f4 [9, 784]
00000000: 72c3 633d 4ebb 3c3d 4492 1a3d aba6 1d3d
00000010: 7585 bc3c 3d08 983c 7eb1 363d f942 f7bb
00000020: e843 023d 6c8a d73c 9f7c 493d 8eb1 1f3c
00000030: 69ac 403d c9b4 7c3b a9d7 fabb abec 213d
00000040: 6f55 5f3d 5990 413d a78e e83c 8d13 dfbc
00000050: abb8 d63c 5975 293d 82e8 3e3d 1b48 2f3d
00000060: 04b4 093d 7569 d33c 7417 d23c 66bc 493d
00000070: 57bb 893d cc65 803c 0dbb de3b 44f4 c43c
00000080: 1d76 013d 9434 a6bb 3852 64bc 2505 8c3c
00000090: 5d78 003d 2212 62bc fa74 70b9 a0b9 3b3c
000000a0: 330a 6abc 943b 933c 816f 3e3d 3f35 d63b
000000b0: f8f4 9d3c 9902 65bc c51d a93c b902 32bc
000000c0: de71 723c 3f42 7ebc de58 013c eda2 833c
000000d0: 2d48 9d3a 67f4 e73c 2f07 ed3b bbf1 513d
000000e0: 3422 2d3d 8c7b 5e3c 7ae8 c93c 28ed db3b
000000f0: 2fa4 a13c c99b 573b f2e8 b33c e26b 85bb
00000100: 73e3 11ba e508 333c ac95 a63b c232 023c
00000110: 4696 353d 74bb b73c 289a e4bb 79dc dc3b
00000120: 820f 093d a080 89bc d7be ef3c 910c ed3b
00000130: 1672 33bc 3753 bc3c 6ce1 003d bf82 79ba
00000140: 3c8c 04bc 20d0 d93c b7a8 933b 7c74 703d
00000150: 9f41 873d 442b 333d 69c8 193d 62b5 a13c
00000160: 4256 973c 3680 cb3c d548 e63c b3ab 14bc
00000170: 0991 063b 1bbd a53b 2486 213c 60f5 063c
00000180: 54e1 293d 1a68 8abc cc4e c73c 5e6e bb3c
00000190: 1f03 ddbb 2361 0f3d 7c41 833c 7675 a73c
000001a0: c7a4 84bc cf1c e13c b60c e93c 545e 113d
000001b0: cecb d23c 4494 223c 6b01 083d 00c2 d23c
000001c0: ac9d a73c 3851 233b ee8d 763b 11d7 e33b
000001d0: 0aa7 473c 3dee cc38 a527 4dbc 1bb3 dd3a
000001e0: fda0 eb3c 32f0 293c 1a8f 203c 2f5e 2c3d
000001f0: 799b df3c e6e5 a33c 3449 36bc 8792 aa3c
00000200: ddc4 97bc a0eb c7bc 929e ba3c 2e15 5d3b
00000210: d3f5 f13c 67c0 9cbc 50d0 a73c 65ce 863c
00000220: f3ed ce3c 74df 983c 56db 42bb 9557 b03c
00000230: 4610 0c3d 8c44 903a 204e 363d dca3 7d3c
00000240: 5ea2 b0ba 48c7 323b 76b3 d83c e8b8 223d
00000250: d9c5 b63c be82 8e3c cac6 193c 049f 3a3a
00000260: 7f5c 20bb 9dc8 21bc f8a7 c53b 79fa c83c
00000270: a72d f83c afe7 2b3c 308b 19bc 7736 f43b
00000280: f431 bf3c e1a3 a03c 0e5b 2abc 0371 c03b
00000290: f168 77bc 8a51 a5bc 6ecf ed3c d06f ba3b
000002a0: 5571 d83c 1dfa 253d 9ab5 af3c 80fa 32bc
000002b0: e808 8b3c a0b6 2cbb 33fd 1b3c cd9b 20bb
000002c0: 7191 373c 575c bdbc 00db c5bb 5d2e c93c
000002d0: 7e73 d9ba 8b9c 65bc 8aa1 8e3c 5afc ee3c
000002e0: 3123 7a3c 33bd bdbc d84d a93c 432c 1c3c
000002f0: 7686 97bc d8ec 033c c59b f23c 9b99 09ba
00000300: 30fe 283b 5f6f 153d 3577 2abc bb93 3a3d
00000310: c6d8 dfba 0ca7 953c 1856 f53c 6484 96ba
00000320: 485a 533d bc40 4c3d 4dbc 8b3c c5d5 9f3b
00000330: a53a 11bd f86b 123d 978d 703c 0813 c83c
00000340: eca3 033c 13cf a63b ea06 b03b 805e b43b
00000350: 0b2a bc3c 16e9 02bd 01bb e8bc 476b ef3c
00000360: 9841 623a f957 fb3c a0c8 3ebc 5b0e 1bba
00000370: 6122 f23c 6439 f8bb be60 083d 0aec ed3c
00000380: 97ad 023d 33a3 e83c 5e65 f2ba cd72 08bc
00000390: de84 19bc 2e65 d6bc 17a0 f3bb a8e1 adbb
000003a0: 431a b53c b241 edbc 7ae9 26b9 d396 0c3c
000003b0: 5336 7ebb 58e5 59bc f95a 383d 6ab0 9cbc
000003c0: a2ed 9e3c 561d 6ebc 5519 cfbc c554 ae3c
000003d0: 30e5 a7bc 6756 0d3c 688d 06ba 471c 8abc
000003e0: 902d 0a3c af8a d43c 134b f9bb 8f56 563d
000003f0: e9e0 ae3c 15ac 993c 8296 173d 7012 88bc
0.055606313 0.046077065 0.037737146 0.038489025 0.023012856 0.018558616 0.044602863 -0.0075458256
0.03180304 0.026311122 0.049191114 0.009746922 0.047039423 0.0038559905 -0.007655103 0.039532345
0.054524835 0.0472568 0.028388334 -0.027231002 0.026211103 0.041371677 0.046608455 0.042793375
0.033618942 0.025807122 0.025645949 0.049251936 0.06725185 0.01567354 0.0067972005 0.024042256
0.031606782 -0.005072186 -0.013935618 0.017092297 0.031364787 -0.0137982685 -0.00022931761 0.011457831
-0.014284658 0.017972745 0.046493057 0.006537109 0.01928185 -0.01397767 0.020644078 -0.010864907
0.014797656 -0.015518724 0.007894723 0.0160689 0.001199966 0.028314782 0.0072335224 0.051255923
0.042268947 0.013579261 0.024646986 0.006711621 0.01973161 0.0032899252 0.021961663 -0.0040716985
-0.00055652036 0.010927414 0.0050837602 0.007946672 0.044332765 0.022428252 -0.0069763847 0.0067401496
0.033462055 -0.016784966 0.029265804 0.007234164 -0.010952493 0.022988899 0.03146498 -0.0009518079
-0.008090075 0.0265885 0.0045061964 0.05870484 0.06604313 0.043742433 0.03754464 0.01973981
0.018473748 0.02484141 0.0281109 -0.009074139 0.0020533225 0.0050579435 0.009858642 0.008237213
0.041474655 -0.016895343 0.024329565 0.022879776 -0.006744757 0.035004746 0.016022436 0.020441752
-0.016191853 0.027479557 0.028448444 0.03549035 0.025731947 0.009923045 0.033204477 0.025727272
0.020460926 0.0024920236 0.0037621218 0.006953128 0.012185821 9.7718534e-05 -0.012521659 0.001691434
0.028763289 0.010372208 0.009799743 0.042082008 0.027295815 0.020007085 -0.011125851 0.020821823
-0.018526489 -0.024404347 0.02278069 0.0033734548 0.029536163 -0.019134713 0.020485073 0.016455838
0.025259947 0.018661238 -0.0029732785 0.021526137 0.034195207 0.0011006757 0.0445081 0.015480962
-0.0013476124 0.0027279425 0.026452761 0.03972712 0.022311138 0.017396327 0.009385774 0.0007119032
-0.0024469194 -0.00987449 0.0060319863 0.024533497 0.030295206 0.010492249 -0.009371564 0.007452782
0.02333925 0.019609394 -0.010397686 0.005872847 -0.015100704 -0.020180482 0.029029574 0.0056895986
0.026421228 0.04052173 0.021448899 -0.010923982 0.01697202 -0.002635397 0.009520817 -0.0024506927
0.0112041095 -0.02311532 -0.0060380697 0.02455824 -0.0016590205 -0.0140143735 0.017411012 0.029173065
0.015267179 -0.023161506 0.020667002 0.009532037 -0.018496733 0.008052073 0.029615292 -0.0005249024
0.0025786273 0.036483165 -0.010404398 0.045551043 -0.0017078153 0.01826813 0.02994828 -0.0011483547
0.05159977 0.049866423 0.017057562 0.0048777782 -0.03545632 0.0357475 0.014682195 0.024423137
0.0080346875 0.005090603 0.005371918 0.0055044293 0.022969266 -0.03196057 -0.028409483 0.029225959
0.000863099 0.030681597 -0.011644512 -0.000591492 0.029557409 -0.007575201 0.033295386 0.029043216
0.03190383 0.028398132 -0.0018493345 -0.008328152 -0.009370057 -0.026171293 -0.0074348557 -0.0053064413
0.02210725 -0.02896199 -0.0001591797 0.008580881 -0.0038789704 -0.013299309 0.045008633 -0.01912709
0.019400422 -0.014533361 -0.025280634 0.021280656 -0.020495027 0.008626557 -0.00051327655 -0.016859187
0.0084337145 0.025945036 -0.0076078265 0.052328642 0.02134748 0.018758813 0.03700877 -0.016610354

output_layer.bias f4 [9]
00000000: 2b61 02c0 c10c 63be eb1f a53f 086f d53f
00000010: b46c 89be b14a 593f abc6 8d3e 09ef 1f3f
00000020: e2f1 fd3f
-2.0371807 -0.22172834 1.2900366 1.6674509 -0.26840746 0.84879595 0.27690634 0.62474114
1.9839442
