results/torch_linear_model.pt (torch, 29907 bytes, 2 tensors)

linear_layer.weight f4 [9, 784]
0.035454717 0.029831452 0.024585595 0.022276718 0.024498623 0.027816612 0.015692808 0.015066222
0.015915846 0.0053836396 0.026490886 0.010145153 0.011054503 0.022510977 0.016819227 0.0071590077
0.030818181 0.01757818 0.01622911 0.0032457658 0.003419685 0.018655457 0.015597812 0.027490906
0.008019165 0.019084807 0.024347078 0.045618553 0.0395047 0.02531443 0.01180937 0.009323859
0.005469294 0.014635809 -0.0026034452 0.012578415 0.017210037 0.0030650152 0.013301768 0.013499327
0.013972661 0.020288935 0.008662268 0.009910353 0.018406274 0.0049562715 -0.0017194834 0.0044089146
-0.0024681347 0.0112725785 0.0058598937 0.013878375 0.014416218 0.011696778 0.018342698 0.040394064
0.029813444 0.025692565 0.018338207 0.016992256 0.008051617 0.014603401 -0.00054998486 0.0049457513
-0.0003374788 0.004121258 0.0012568383 0.01297459 0.01129076 0.012533154 0.013712048 -0.00065844064
0.018524645 0.02184421 0.004670532 0.0067654965 0.005475138 0.025428567 0.006482717 0.00976398
0.015504178 0.013700869 0.022668235 0.028788323 0.03249185 0.02346967 0.0047855093 0.0101456465
0.008784416 0.015126116 0.0033380645 -0.002869295 -0.004529768 0.00081439805 0.01341699 0.013365942
0.017935969 0.004993273 0.011745229 0.011123195 0.0044185016 0.012752828 0.013029621 0.002122939
0.008865145 0.01955737 0.015702203 0.009464189 0.0043003815 0.0113667445 0.0070759845 0.009014835
0.01994914 0.019012071 0.011154034 0.005926002 0.012232966 0.011852394 0.008929664 0.010437616
0.0038379235 0.007984638 0.011660182 0.01804601 0.01120677 0.0010129288 0.0030056757 0.016717793
-0.0010207016 -0.0036224662 0.003469856 0.006741049 0.0057834005 0.00044580255 0.018621434 0.013307977
0.012620419 0.0043206783 0.011241185 0.014116025 0.02429228 0.014524099 0.0087539675 0.0014278577
0.001495141 0.0076051718 0.011640677 0.012629197 0.011582983 0.007797482 0.0014244373 0.01635266
0.0010550087 0.007168779 0.0074605173 0.011504548 0.010946924 0.0012250354 -0.0038371142 0.011654598
0.013189329 0.009480949 0.016849706 0.00672788 0.01222897 0.015529411 0.008897285 0.019875001
0.011755522 0.015603657 0.012083851 0.008131964 0.0112686 0.011795251 0.014052804 -0.002304025
0.006579768 -0.001288463 0.011001684 -0.0006499145 0.0067995996 0.004355971 0.0014835561 0.016266698
0.0020530794 0.00049881736 0.009162348 0.0053085545 0.0046769017 0.012475034 0.013094455 0.0096245585
0.010557642 0.011856067 0.0024944216 0.030777054 0.010794708 0.021245208 0.017993994 0.013096006
0.010393489 0.0126125775 0.007550904 -0.012262737 -0.007365852 0.0044682706 0.010435742 0.0047346894
0.015143053 0.009721097 0.002685021 0.009717855 0.001987299 -0.004313055 0.0014691714 0.006845204
0.0051385793 0.0075782025 -0.00092222996 -0.0009474806 2.2807435e-05 0.007794276 0.02450231 0.043323517
0.017537862 0.013055446 0.0054494906 -0.0024603433 0.0052910303 0.0050268276 0.00021440507 -0.011785371
-0.010024194 0.0009661974 -0.002269582 -0.004695685 0.005866765 0.004444765 0.013550602 -0.0028052526
-0.0015706188 -0.0125929555 -0.0033385174 0.0048369267 0.006118021 -0.0066590486 0.006221843 0.0075884564
0.0011713806 -0.003543992 0.0068242373 0.02860231 0.002681213 0.0005021681 0.004551174 0.006338975
00000000: f738 113d 1761 f43c bb67 c93c aa7d b63c
00000010: 56b1 c83c aadf e33c 348e 803c 51d8 763c
00000020: f361 823c 3e69 b03b 6a03 d93c db37 263c
00000030: f21d 353c f168 b83c 7ac8 893c 1c96 ea3b
00000040: 6976 fc3c 1e00 903c e9f2 843c eab6 543b
00000050: cb1c 603b 54d3 983c f78d 7f3c 9c34 e13c
00000060: d162 033c be57 9c3c 8673 c73c 85da 3a3d
00000070: aecf 213d 3560 cf3c 167c 413c 19c3 183c
00000080: c337 b33b 08cb 6f3c 909e 2abb b215 4e3c
00000090: 10fc 8c3c 6cde 483b a9ef 593c 482c 5d3c
000000a0: 97ed 643c fb34 a63c 2fec 0d3c 095f 223c
000000b0: c1c8 963c 3868 a23b 4a60 e1ba a878 903b
000000c0: 6ec0 21bb 9fb0 383c 5a04 c03b 2062 633c
000000d0: 0032 6c3c d8a3 3f3c 6d43 963c 3f74 253d
000000e0: 533b f43c 3779 d23c 023a 963c 5833 8b3c
000000f0: eeea 033c 1a43 6f3c dc2c 10ba f80f a23b
00000100: a3ef b0b9 9e0b 873b 7fbc a43a 6093 543c
00000110: e1fc 383c dc57 4d3c 7fa8 603c 349b 2cba
00000120: ffc0 973c a1f2 b23c 430b 993b 19b1 dd3b
00000130: c968 b33b 924f d03c f96c d43b 1af9 1f3c
00000140: 3c05 7e3c 9c79 603c bcb2 b93c 7dd5 eb3c
00000150: 2d16 053d 7743 c03c c3cf 9c3b ed39 263c
00000160: 83ec 0f3c 87d3 773c 6ec3 5a3b c80a 3cbb
00000170: 736e 94bb 547d 553a efd2 5b3c d3fc 5a3c
00000180: 74ee 923c 9c9e a33b 106f 403c 103e 363c
00000190: 14c9 903b 3df1 503c 317a 553c 0221 0b3b
000001a0: 1d3f 113c c736 a03c e8a1 803c b00f 1b3c
000001b0: 37ea 8c3b 953b 3a3c a9dd e73b f5b2 133c
000001c0: 616c a33c 34bf 9b3c 69bf 363c e82e c23b
000001d0: c76c 483c 8b30 423c ba4d 123c 8902 2b3c
000001e0: ac85 7b3b 00d2 023c 590a 3f3c 3ad5 933c
000001f0: 9a9c 373c 40c4 843a dffa 443b c1f3 883c
00000200: 10c9 85ba e666 6dbb 8666 633b 04e4 dc3b
00000210: ae82 bd3b 9bba e939 fa8b 983c b309 5a3c
00000220: e0c5 4e3c 7a94 8d3b f22c 383c e646 673c
00000230: 9b00 c73c 7df6 6d3c cd6c 0f3c f426 bb3a
00000240: 9bf8 c33a ce34 f93b 8ab8 3e3c b1ea 4e3c
00000250: 8dc6 3d3c 0582 ff3b 2fb4 ba3a 03f6 853c
00000260: 3848 8a3a 14e8 ea3b 5b77 f43b 927d 3c3c
00000270: ba5a 333c 5e91 a03a 1878 7bbb edf2 3e3c
00000280: 0e18 583c fb55 1b3c 6508 8a3c 8c75 dc3b
00000290: 055c 483c 126f 7e3c ebc5 113c e6d0 a23c
000002a0: 3c9a 403c 7ba6 7f3c 58fb 453c ee3b 053c
000002b0: ef9f 383c de40 413c bb3d 663c 20ff 16bb
000002c0: 189b d73b a5e1 a8ba 6840 343c 065f 2aba
000002d0: 2dcf de3b 88bc 8e3b e273 c23a bd41 853c
000002e0: f58c 063b 11c3 023a ac1d 163c 62f3 ad3b
000002f0: b240 993b 1664 4c3c 208a 563c 53b0 1d3c
00000300: f6f9 2c3c f33f 423c 7379 233b 2920 fc3c
00000310: 49dc 303c 6e0a ae3c 2468 933c a190 563c
00000320: 7449 2a3c fca4 4e3c 936d f73b a6e9 48bc
00000330: 3f5d f1bb 926a 923b adfa 2a3c 7425 9b3b
00000340: 911a 783c 3c45 1f3c 2df7 2f3b a337 1f3c
00000350: 583d 023b 8754 8dbb 3691 c03a bc4d e03b
00000360: 8761 a83b 9252 f83b cec1 71ba 5960 78ba
00000370: 9852 bf37 2067 ff3b 12b9 c83c 0074 313d
00000380: 90ab 8f3c 82e6 553c a491 b23b b63d 21bb
00000390: 6160 ad3b 16b8 a43b ecd1 6039 6e17 41bc
000003a0: 843c 24bc 6948 7d3a 44bd 14bb 43de 99bb
000003b0: fe3d c03b 64a5 913b 5803 5e3c 54d8 37bb
000003c0: 39dd cdba af52 4ebc 07cb 5abb 157f 9e3b
000003d0: ae79 c83b 2634 dabb 9ae0 cb3b 96a8 f83b
000003e0: 0389 993a 5242 68bb da9d df3b 644f ea3c
000003f0: 4ab7 2f3b eea3 033a 0422 953b 2db7 cf3b

linear_layer.bias f4 [9]
-2.0910082 0.7254238 0.39470255 0.5843189 -0.6688478 0.19050117 0.03782742 0.019172538
0.7973582
00000000: 14d3 05c0 60b5 393f 7416 ca3e ec95 153f
00000010: 9c39 2bbf bd12 433e edf0 1a3d ba0f 9d3c
00000020: ab1f 4c3f
