results/torch_1L_bi_lstm_model.pt (torch, 427323 bytes, 10 tensors)

lstm.weight_ih_l0 f4 [400, 28]
-0.068533294 -0.09521669 0.072439596 -0.0022814171 -0.10036557 0.06997666 -0.016904572 -0.09333793
0.06368879 0.0138416905 0.07163077 0.054398045 -0.046283115 -0.04587814 -0.07615541 -0.0777826
-0.04603302 0.010729657 0.026615052 -0.05815548 -0.02482547 -0.06022358 0.06713848 0.04243248
-0.041732855 -0.007647252 -0.048275597 0.06375254 -0.03684471 0.064445645 0.04828128 -0.05313733
-0.0003883042 -0.052607063 0.017542163 -0.055017922 -0.047174066 -0.019705784 0.029933745 -0.109228946
0.04114514 -0.07027396 0.056545902 0.0634428 -0.017845195 -0.03702223 -0.023037735 -0.02651689
-0.09000619 -0.037261207 -0.09512716 0.02353248 -0.086735636 0.019341957 0.07167243 -0.09573149
-0.07605986 -0.10435449 -0.06964899 -0.07136036 -0.01414209 -0.11262511 -0.07005841 0.025754474
-0.032912284 0.040323038 0.06256229 -0.07143591 0.061276697 0.01173762 -0.04870875 -0.04378829
-0.11279913 0.009816437 -0.082590625 -0.013045053 -0.032018136 -0.054742515 -0.050114192 -0.0094558885
0.04255072 0.045935214 0.014856237 -0.08991797 0.030572882 0.12569511 0.09254203 0.054062232
0.03179968 0.06808786 0.10356926 -0.018047603 0.10847715 0.08916525 0.0048133573 0.12276939
0.14195652 0.06042948 0.07789052 0.071221724 0.05233907 0.10075619 0.10073696 -0.07241638
-0.02895362 0.03259357 -0.038017992 -0.019627107 0.016499102 -0.0046902136 -0.06928974 0.030389614
-0.057070132 -0.046980426 0.056843963 0.06185222 -0.0653664 -0.106336325 -0.11654822 0.044117924
-0.082920164 0.022319762 0.023806784 -0.06197271 -0.04846344 -0.06632449 -0.07963283 -0.06572527
0.0032078119 -0.09067975 -0.033112578 0.023350075 -0.10671075 -0.034003932 -0.011418901 0.06523469
-0.024166645 0.011859186 -0.0551656 -0.016955875 0.018414475 0.04645585 0.017009288 0.06117848
-0.03437461 0.02636581 0.0766088 0.022625377 0.035184428 -0.03341232 -0.036419433 0.06002442
0.07210591 0.12408047 0.0521305 0.00021881225 -0.042523008 -0.029214013 -0.06393291 -0.0551535
0.09273784 -0.07910493 0.11024376 -0.007001914 0.109795526 0.09448975 0.04013862 -0.04659138
-0.0076415883 0.00095082476 -0.0615267 -0.053822793 0.06939981 0.021103105 0.04730316 0.02331731
-0.03813948 0.051354825 0.08566885 0.002077854 0.07203952 -0.011585886 -0.019157434 -0.04582036
0.008573362 -0.013903504 0.066943504 0.015008816 -0.05859074 0.06533979 -0.025379147 0.071393885
-0.017658971 -0.04559345 0.08442706 0.08623657 -0.053655338 -0.07241759 0.028546896 -0.031783022
-0.08671004 0.058687713 0.035491373 -0.017165514 0.078140154 -0.071697116 -0.067978665 -0.039890327
-0.10797994 -0.07679027 0.013978171 -0.0030473182 0.055463072 -0.06988181 -0.02256909 0.010370386
-0.09419153 0.057747558 -0.09102867 0.072943024 0.028649071 0.06159351 0.035944093 0.028147783
0.039181743 0.091942094 0.0102312295 0.0766786 0.058452673 0.087784275 0.08928119 -0.0064258855
-0.040373147 -0.06295717 0.065717004 -0.05826544 0.09428583 0.09300179 0.10188481 0.028875867
0.09467533 -0.043625172 -0.09745561 -0.10089297 -0.030322555 -0.016363427 -0.025671214 0.09776732
0.010425462 0.11097588 0.08257073 0.14843102 -0.055856034 0.08658233 -0.05898112 0.0790353
00000000: 2f5b 8cbd f800 c3bd 365b 943d d483 15bb
00000010: 778c cdbd ec4f 8f3d 757b 8abc f527 bfbd
00000020: 456f 823d 42c8 623c 27b3 923d 7cd0 5e3d
00000030: 5d93 3dbd b7ea 3bbd 5ef7 9bbd 7c4c 9fbd
00000040: 1f8d 3cbd 71cb 2f3c cf07 da3c 7134 6ebd
00000050: c95e cbbc 00ad 76bd e67f 893d aecd 2d3d
00000060: 12f0 2abd cd95 fabb a2bc 45bd b190 823d
00000070: 7bea 16bd 14fc 833d 97c2 453d 87a6 59bd
00000080: 4f95 cbb9 817a 57bd 95b4 8f3c 795a 61bd
00000090: 9839 41bd 066e a1bc 9d37 f53c 6db3 dfbd
000000a0: ce87 283d cbeb 8fbd ad9c 673d 4cee 813d
000000b0: 1630 92bc 9fa4 17bd a2b9 bcbc f339 d9bc
000000c0: 2a55 b8bd 359f 18bd 07d2 c2bd 30c7 c03c
000000d0: 74a2 b1bd 0673 9e3c ffc8 923d df0e c4bd
000000e0: 46c5 9bbd cfb7 d5bd 21a4 8ebd 6125 92bd
000000f0: 3ab4 67bc fea7 e6bd c97a 8fbd 0cfb d23c
00000100: 08cf 06bd c529 253d a820 803d fe4c 92bd
00000110: 46fd 7a3d 264f 403c d482 47bd 5a5b 33bd
00000120: 3b03 e7bd 1fd5 203c 4625 a9bd ebba 55bc
00000130: 7325 03bd b039 60bd 8a44 4dbd dfec 1abc
00000140: aa49 2e3d 9026 3c3d 9367 733c ea26 b8bd
00000150: fb73 fa3c 38b6 003e ad86 bd3d 5c70 5d3d
00000160: 6240 023d a671 8b3d 1f1c d43d 91d8 93bc
00000170: 4529 de3d 459c b63d 5eb9 9d3b 856e fb3d
00000180: 0d5d 113e e784 773d 1185 9f3d b2dc 913d
00000190: 7e61 563d 4359 ce3d 2e4f ce3d 0a4f 94bd
000001a0: 2430 edbc d680 053d c1b8 1bbd 07c9 a0bc
000001b0: 2029 873c 5db0 99bb c7e7 8dbd a4f3 f83c
000001c0: 5fc2 69bd 8c6e 40bd 37d5 683d c158 7d3d
000001d0: d2de 85bd dcc6 d9bd d5b0 eebd ffb4 343d
000001e0: 0cd2 a9bd efd7 b63c 7206 c33c 19d7 7dbd
000001f0: 9a81 46bd 22d5 87bd 8a16 a3bd f89a 86bd
00000200: 273a 523b 4eb6 b9bd 0ea1 07bd a848 bf3c
00000210: 2a8b dabd b547 0bbd 5816 3bbc c499 853d
00000220: 21f9 c5bc 084d 423c 53f5 61bd 0ce7 8abc
00000230: f4d9 963c 7d48 3e3d 1057 8b3c 4996 7a3d
00000240: 64cc 0cbd 1cfd d73c 13e5 9c3d db58 b93c
00000250: 8c1d 103d 5bdb 08bd 8b2c 15bd 2bdc 753d
00000260: 43ac 933d e71d fe3d cb86 553d f770 6539
00000270: 9b2c 2ebd 3a52 efbc 42ef 82bd a3e8 61bd
00000280: 56ed bd3d c401 a2bd 7bc7 e13d 5070 e5bb
00000290: 7adc e03d d883 c13d 6568 243d 9ad6 3ebd
000002a0: 4a66 fabb c540 793a 6c03 7cbd 4a75 5cbd
000002b0: 7d21 8e3d 6be0 ac3c f5c0 413d f103 bf3c
000002c0: 2538 1cbd 7059 523d 2673 af3d 9b2c 083b
000002d0: 7589 933d bad2 3dbc 0df0 9cbc 21ae 3bbd
000002e0: 4977 0c3c 86cb 63bc ad19 893d 89e7 753c
000002f0: d8fc 6fbd ded0 853d eee7 cfbc f536 923d
00000300: 8ca9 90bc 33c0 3abd 18e8 ac3d cc9c b03d
00000310: b3c5 5bbd ac4f 94bd 2edb e93c ea2e 02bd
00000320: 0995 b1bd 8762 703d 675f 113d b19e 8cbc
00000330: f207 a03d f0d5 92bd 6638 8bbd 0a64 23bd
00000340: 9624 ddbd 3844 9dbd b304 653c 84b5 47bb
00000350: 3f2d 633d 321e 8fbd d0e2 b8bc 8de8 293c
00000360: 7de7 c0bd b488 6c3d 3d6d babd 2763 953d
00000370: 75b1 ea3c 7a49 7c3d 1d3a 133d 2e96 e63c
00000380: 097d 203d 234c bc3d e3a0 273c ab09 9d3d
00000390: 126c 6f3d 3ec8 b33d 0ed9 b63d 3c90 d2bb
000003a0: 505e 25bd b0ef 80bd a396 863d bea7 6ebd
000003b0: ee18 c13d b977 be3d fca8 d03d 158d ec3c
000003c0: 24e5 c13d 4fb0 32bd cf96 c7bd f9a0 cebd
000003d0: 0267 f8bc 980c 86bc 704c d2bc 3c3a c83d
000003e0: 8fcf 2a3c 5247 e33d d81a a93d 4dfe 173e
000003f0: 4cc9 64bd 1452 b13d 3096 71bd 42dd a13d

lstm.weight_hh_l0 f4 [400, 100]
0.07702719 -0.08062575 0.027417924 0.10551176 0.05110814 0.07328682 0.0107023325 0.026432727
-0.019277856 -0.028653877 -0.05209441 -0.073128566 -0.035154514 0.057684463 0.07567991 0.05836965
0.038553495 0.0749914 -0.0927999 -0.010760067 0.02148972 -0.028597845 -0.070966706 -0.09881373
0.074680656 0.01945739 -0.020632114 0.040403254 -0.08732048 0.025161002 -0.007909776 0.07092522
0.019738313 -0.02238481 0.014408569 -0.0037499424 -0.005474674 -0.046175964 -0.0415966 -0.05688202
0.0650122 -0.049556367 0.08314362 0.081261575 0.05724385 0.024446314 -0.08325307 -0.106305614
0.029924419 -0.0074330335 0.063233875 -0.058027074 0.10233933 0.09608099 0.08024741 0.054560326
0.102165006 -0.054732334 -0.05779372 -0.047902953 0.06331427 0.07181551 0.09263063 -0.07411814
-0.092912085 0.022858696 -0.094631754 0.058593284 -0.03919176 0.02503461 -0.020311173 -0.0037093607
-0.021057665 -0.08531752 0.07722403 0.0856178 0.032408487 -0.08359161 -0.045946214 0.0046998663
-0.010321989 -0.048414662 0.09539786 0.0068592113 0.0068118176 -0.03928469 -0.048675224 0.0028603836
-0.004067777 -0.06478536 0.00024244699 -0.10293993 -0.016457446 -0.01038694 0.09077756 0.098998874
-0.03789254 0.08492213 -0.08981605 0.016593896 0.05293546 0.07434946 0.0011996593 0.035665218
-0.038050674 -0.007722467 -0.044208888 0.07544705 -0.0034376825 0.06005711 -0.101056024 -0.0025451246
0.10378776 -0.036421 0.08064812 0.05132598 -0.062383685 0.023621948 -0.051272612 0.03743112
0.01328313 0.025875932 0.038582154 0.085895106 -0.07978779 0.0074393665 0.016896464 0.04975833
0.070376605 -0.07282442 -0.07859389 0.10185693 0.033992395 -0.014042548 -0.093564406 0.045338593
-0.049755424 -0.019660333 0.020361809 -0.04567743 0.019171443 0.07975584 0.055843867 0.083057106
0.065031745 0.016207138 0.07512383 0.08128599 -0.058338072 0.08719773 0.07608714 -0.083283335
0.10906923 -0.012171694 -0.033280138 -0.0430393 -0.01607484 -0.015931161 -0.061699886 -0.09430557
-0.07819051 0.06267151 -0.07267103 -0.047375657 0.008520367 0.078101866 -0.031413905 -0.058025748
-0.024853578 -0.060579572 0.0652543 -0.105406165 0.07004016 -0.026048476 -0.117412284 -0.092913605
0.009596747 0.084532164 -0.06766892 -0.035022475 0.02184429 0.013481478 -0.06792391 -0.02401036
0.009987239 0.03444668 -0.04614756 -0.007410652 0.09042237 -0.08854078 -0.024245346 0.00615692
0.059365917 0.043148983 0.0988222 0.08794578 0.016909625 -0.0035806268 0.009753342 0.043055836
0.05814267 0.05547928 0.04903617 0.07984474 0.096903555 -0.065558195 -0.07386747 0.0078354115
-0.0869403 0.08244554 0.09204515 -0.017314319 -0.047375634 -0.06442076 -0.058322355 -0.023598347
-0.084251225 0.007829277 0.021229547 0.09401149 0.028406845 -0.08207529 0.07658883 0.0022481764
0.06949509 0.03887712 0.08957988 -0.044571795 -0.09678918 -0.023867462 0.05812998 -0.045682035
0.007311424 -0.02140125 0.0059416457 0.07794086 -0.092669636 0.09408659 0.024629798 0.01583013
0.061767664 0.03691485 0.026862498 0.08313561 0.029483695 -0.08667895 0.03561345 -0.018296974
-0.062938794 0.075989746 0.05200316 -0.087645054 -0.06364874 -0.011902027 -0.05315504 0.06586031
00000000: 6ec0 9d3d 1d1f a5bd 8e9b e03c 8d16 d83d
00000010: c556 513d 6617 963d d658 2f3c 7289 d83c
00000020: 98ec 9dbc 89bb eabc f360 55bd 6ec4 95bd
00000030: 2efe 0fbd 8b46 6c3d 12fe 9a3d 0415 6f3d
00000040: 45ea 1d3d 1795 993d e00d bebd fe4a 30bc
00000050: 360b b03c 0746 eabc fe56 91bd da5e cabd
00000060: 2cf2 983d 1b65 9f3c ae04 a9bc e27d 253d
00000070: 14d5 b2bd 721e ce3c 0198 01bc 3e41 913d
00000080: 3eb2 a13c 5960 b7bc eb11 6c3c 98c1 75bb
00000090: e564 b3bb 0223 3dbd 3261 2abd 1ffd 68bd
000000a0: 1e25 853d 9efb 4abd 3447 aa3d 786c a63d
000000b0: 8778 6a3d a343 c83c 9680 aabd c2b6 d9bd
000000c0: 0e24 f53c ce90 f3bb c380 813d ccad 6dbd
000000d0: 4897 d13d 1cc6 c43d c158 a43d a67a 5f3d
000000e0: e33b d13d 032f 60bd 1cb9 6cbd e335 44bd
000000f0: e9aa 813d 0314 933d 21b5 bd3d 40cb 97bd
00000100: b148 bebd 2942 bb3c 4bce c1bd 83ff 6f3d
00000110: 8a87 20bd 6215 cd3c 9e63 a6bc bf18 73bb
00000120: 2081 acbc f4ba aebd a227 9e3d 6358 af3d
00000130: c3be 043d 1432 abbd 1932 3cbd 5601 9a3b
00000140: 8f1d 29bc 744e 46bd f45f c33d 3cc3 e03b
00000150: ab35 df3b fce8 20bd ac5f 47bd 4675 3b3b
00000160: fd4a 85bb 30ae 84bd 5e39 7e39 2cd2 d2bd
00000170: c4d1 86bc fc2d 2abc 96e9 b93d ecbf ca3d
00000180: 3535 1bbd a7eb ad3d 7af1 b7bd ecef 873c
00000190: dad2 583d 8844 983d e33d 9d3a b115 123d
000001a0: 06db 1bbd c00c fdbb 6114 35bd fc83 9a3d
000001b0: be4a 61bb 72fe 753d 76f6 cebd 1bcc 26bb
000001c0: ad8e d43d 302e 15bd d72a a53d 313b 523d
000001d0: 0986 7fbd d182 c13c 3b03 52bd 6051 193d
000001e0: 7ca1 593c c3f9 d33c 5208 1e3d c6e9 af3d
000001f0: c867 a3bd eec5 f33b 746a 8a3c 64cf 4b3d
00000200: 9c21 903d f824 95bd d5f5 a0bd 5e9a d03d
00000210: 9c3b 0b3d b712 66bc b29e bfbd f6b4 393d
00000220: 58cc 4bbd b50e a1bc cfcd a63c 4218 3bbd
00000230: 6e0d 9d3c 0857 a33d 8abc 643d d819 aa3d
00000240: 5d2f 853d d5c4 843c 86da 993d 4579 a63d
00000250: e7f3 6ebd b994 b23d 93d3 9b3d 7490 aabd
00000260: b05f df3d c96b 47bc c150 08bd fa49 30bd
00000270: 62af 83bc 1182 82bc 05b9 7cbd 4723 c1bd
00000280: 5922 a0bd ec59 803d 8dd4 94bd fa0c 42bd
00000290: 0299 0b3c dff3 9f3d deab 00bd 68ac 6dbd
000002a0: bb99 cbbc 4922 78bd 0ca4 853d 30df d7bd
000002b0: 3771 8f3d 9d63 d5bc da75 f0bd 7d49 bebd
000002c0: ad3b 1d3c 331f ad3d 0196 8abd ba73 0fbd
000002d0: ccf2 b23c 6be1 5c3c b11b 8bbd 60b1 c4bc
000002e0: 84a1 233c f617 0d3d 3905 3dbd 0ed5 f2bb
000002f0: 5d2f b93d de54 b5bd 2d9e c6bc fdbf c93b
00000300: ad29 733d fdbc 303d 4b63 ca3d eb1c b43d
00000310: 0e86 8a3c f3a8 6abb 7bcc 1f3c 515b 303d
00000320: 0227 6e3d 3e3e 633d 27da 483d a485 a33d
00000330: 5f75 c63d 6043 86bd d447 97bd 1960 003c
00000340: c20d b2bd 35d9 a83d 2b82 bc3d c2d6 8dbc
00000350: f40c 42bd 08ef 83bd 6ce3 6ebd 5251 c1bc
00000360: e88b acbd 5e46 003c 96e9 ad3c 1989 c03d
00000370: 79b5 e83c 1717 a8bd 9bda 9c3d 2456 133b
00000380: 7153 8e3d 9d3d 1f3d a875 b73d ea90 36bd
00000390: 6839 c6bd b285 c3bc b419 6e3d 161d 3bbd
000003a0: ab94 ef3b ad51 afbc 23b2 c23b 759f 9f3d
000003b0: 94c9 bdbd 78b0 c03d 6ec4 c93c 30ae 813c
000003c0: 1700 7d3d 0734 173d be0e dc3c 0143 aa3d
000003d0: ca87 f13c bc84 b1bd 69df 113d 89e3 95bc
000003e0: 0ee6 80bd 83a0 9b3d 4401 553d 407f b3bd
000003f0: 455a 82bd b800 43bc 19b9 59bd c5e1 863d

lstm.bias_ih_l0 f4 [400]
0.0847477 0.14311732 0.04802505 0.13705891 -0.03719057 -0.046890955 0.12669608 -0.06551497
0.0984519 0.057237666 -0.020231089 -0.04229525 0.10621285 0.04640829 0.08938345 0.0019682052
-0.013030241 0.101968765 0.09891539 -0.027423983 0.0970408 0.093200386 -0.0484031 -0.020985669
0.08407202 0.092094064 0.06052854 -0.069883294 0.1438958 0.0371237 0.0010754848 0.11523297
0.16538294 0.109006554 0.04719463 0.06513184 0.07199889 0.00973364 -0.12390871 0.12531936
-0.05553067 0.022816928 0.06777618 0.12178884 0.061321322 0.077287294 0.18024622 -0.02397934
0.016224604 -0.04931262 -0.008940116 -0.031855464 0.11438126 0.098280154 -0.090038426 0.0915806
0.0653306 0.09401622 0.01541767 0.04491004 0.09557523 -0.07481957 0.01726673 -0.00078719965
-0.020069271 0.021700144 0.0845224 0.06721004 0.08885756 -0.06411796 0.009648991 0.007903948
0.04996153 -0.042247005 0.15331486 0.11591455 0.15344864 0.1000695 0.07270103 0.08611677
-0.044835143 0.08697929 0.087241165 0.07051678 0.051872574 0.07062043 0.008941766 0.28327575
-0.0031240832 0.03797825 -0.05620802 -0.012518961 0.12275396 -0.08108184 -0.02935392 -0.032611776
-0.03641447 -0.00803078 0.07839728 -0.022811987 -0.039868288 0.16221082 0.036600515 0.015476125
0.024659766 0.08297916 0.095535055 -0.010764197 0.16748014 0.32628196 -0.04458061 -0.06722399
0.17013815 0.27731168 0.20734446 0.12396545 -0.0069043655 0.0035993052 0.08778607 0.0090686865
0.13887829 0.15578485 0.13078487 0.1641555 0.08647101 -0.009714064 0.12117852 0.09476819
0.095792785 0.0017990448 0.0023276652 0.028385932 0.11482258 0.086199306 0.16250567 0.19193028
0.24282388 -0.0227823 0.21125154 0.083341286 0.20166184 0.09159097 -0.02866973 -0.020136857
0.1738072 0.016504437 0.10405774 0.13570172 -0.014524191 -0.008118371 0.12679818 0.2428177
0.1298555 0.09726134 0.023188835 -0.04111176 -0.049199235 0.03756113 -0.033536598 0.09186356
0.03436742 0.10789283 0.14924215 0.09514373 0.07363754 0.21645224 0.0053445837 0.12915516
0.028772919 0.019673858 -0.0018297546 0.13484213 0.126814 0.14978698 0.08100542 -0.027638331
-0.03064477 0.02322975 0.07946029 0.24282731 -0.008597226 -0.014318752 -0.019514637 0.053630333
-0.0464566 0.08479554 -0.058341287 0.10447064 -0.041205127 0.22068095 -0.05519787 0.1563956
-0.023470433 0.034529805 -0.055823594 0.11032219 0.026690602 0.012427394 0.08062585 -0.079594925
-0.038533483 0.0011385081 -0.122549295 0.13861023 0.01585404 -0.07752475 -0.08334231 0.010823814
0.15928861 -0.041721 -0.009006866 0.06605743 0.57181597 -0.29301175 0.013045831 -0.051870238
0.02149837 0.0072923293 -0.035302103 0.14701214 -0.016675742 0.067677885 0.14763121 0.17412888
0.13880168 -0.034076806 -0.10160435 0.09068472 -0.20387018 -0.057927057 -0.04317269 -0.008086263
-0.054527126 -0.08013828 0.10515435 0.24618821 0.012491556 0.14396104 -0.34203884 0.039014358
-0.7380482 0.109474264 0.20600368 -0.0863694 -0.044648618 0.066826284 -0.17883961 -0.010694473
0.033279847 -0.08141327 0.08547277 -0.30274287 -0.08064115 0.39218774 0.036075097 0.008997363
00000000: 3490 ad3d 598d 123e eab5 443d 2c59 0c3e
00000010: 2455 18bd bb10 40bd 9ebc 013e b62c 86bd
00000020: 26a1 c93d 0b72 6a3d abbb a5bc c93d 2dbd
00000030: 1f86 d93d 9e16 3e3d ac0e b73d 01fd 003b
00000040: cb7c 55bc 00d5 d03d 2794 ca3d 43a8 e0bc
00000050: 54bd c63d d8df be3d 5442 46bd 23ea abbc
00000060: f42d ac3d d09b bc3d c6ec 773d f91e 8fbd
00000070: 6c59 133e 050f 183d 48f7 8c3a 43ff eb3d
00000080: 255a 293e d43e df3d 284f 413d d863 853d
00000090: 2774 933d d879 1f3c dac3 fdbd b853 003e
000000a0: 2174 63bd 91ea ba3c 3dce 8a3d 6d6c f93d
000000b0: 112c 7b3d cd48 9e3d 7792 383e 5270 c4bc
000000c0: 76e9 843c 08fc 49bd 9079 12bc e07a 02bd
000000d0: b940 ea3d 1b47 c93d 1166 b8bd 9c8e bb3d
000000e0: 0dcc 853d 938b c03d 659a 7c3c 97f3 373d
000000f0: f2bc c33d 013b 99bd f572 8d3c 135c 4eba
00000100: 5068 a4bc 80c4 b13c 141a ad3d 6ba5 893d
00000110: f4fa b53d 4750 83bd cd16 1e3c 907f 013c
00000120: 76a4 4c3d 320b 2dbd 92fe 1c3e 9c64 ed3d
00000130: a421 1d3e 3df1 cc3d 47e4 943d fd5d b03d
00000140: 0ea5 37bd 3322 b23d 7fab b23d 1a6b 903d
00000150: 5678 543d 72a1 903d 7c80 123c 8509 913e
00000160: 6bbd 4cbb 158f 1b3d 613a 66bd 541c 4dbc
00000170: 6e66 fb3d 3c0e a6bd a277 f0bc ed93 05bd
00000180: 5727 15bd 8893 03bc c18e a03d 34e0 babc
00000190: ee4c 23bd 981a 263e 6cea 153d 938f 7d3c
000001a0: 4703 ca3c faf0 a93d e2a7 c33d 515c 30bc
000001b0: ea7f 2b3e 6e0e a73e 289a 36bd bbac 89bd
000001c0: b238 2e3e ccfb 8d3e 1b52 543e 99e1 fd3d
000001d0: 043e e2bb 52e2 6b3b 2fc9 b33d d494 143c
000001e0: 1c36 0e3e 1086 1f3e 78ec 053e 6118 283e
000001f0: b717 b13d bd27 1fbc 722c f83d d315 c23d
00000200: 022f c43d edcd eb3a be8b 183b 9d89 e83c
00000210: 1a28 eb3d 4389 b03d e367 263e 5f89 443e
00000220: d3a6 783e f2a1 babc 5352 583e d6ae aa3d
00000230: 7180 4e3e 0c94 bb3d c8dc eabc 0df6 a4bc
00000240: 84fa 313e 5034 873c 391c d53d 64f5 0a3e
00000250: dff6 6dbc ea02 05bc 62d7 013e 34a5 783e
00000260: d7f8 043e f430 c73d 83f6 bd3c ce64 28bd
00000270: 2385 49bd b3d9 193d ac5d 09bd f622 bc3d
00000280: dac4 0c3d ebf6 dc3d efd2 183e b7da c23d
00000290: 47cf 963d a8a5 5d3e 9e21 af3b 4041 043e
000002a0: 2fb5 eb3c 122b a13c 60d4 efba 0e14 0a3e
000002b0: 87db 013e c261 193e 2be6 a53d c869 e2bc
000002c0: be0a fbbc 514c be3c 14bc a23d b9a7 783e
000002d0: 61db 0cbc 3399 6abc 29dd 9fbc 7bab 5b3d
000002e0: 4749 3ebd 49a9 ad3d 46f7 6ebd b4f4 d53d
000002f0: b5c6 28bd 30fa 613e 2917 62bd 2b26 203e
00000300: 1145 c0bc 206f 0d3d 48a7 64bd 9af0 e13d
00000310: 40a6 da3c 459c 4b3c 2a1f a53d aa02 a3bd
00000320: 49d5 1dbd fe39 953a 20fb fabd d7ef 0d3e
00000330: 55e0 813c 4cc5 9ebd 5faf aabd 5e56 313c
00000340: 8e1c 233e a4e3 2abd 8991 13bc 1e49 873d
00000350: 8862 123f a305 96be 2ebe 553c e375 54bd
00000360: 5a1d b03c 7ef4 ee3b f098 10bd 5a8a 163e
00000370: 919b 88bc b49a 8a3d a32c 173e d74e 323e
00000380: 0722 0e3e 1f94 0bbd f115 d0bd e9b8 b93d
00000390: 58c3 50be ec44 6dbd d9d5 30bd 3f7c 04bc
000003a0: d657 5fbd 8a1f a4bd 2a5b d73d c318 7c3e
000003b0: 62a9 4c3c 866a 133e b71f afbe 85cd 1f3d
000003c0: baf0 3cbf 0b34 e03d a1f2 523e 71e2 b0bd
000003d0: 78e1 36bd 38dc 883d bb21 37be df37 2fbc
000003e0: 7350 083d 00bc a6bd 590c af3d 1d01 9bbe
000003f0: 3027 a5bd d5cc c83e 7bc3 133d ad69 133c

lstm.bias_hh_l0 f4 [400]
-0.032890312 0.042711876 0.04248888 0.10682879 -0.042298198 0.09625175 0.02426874 0.016596884
0.047294836 -0.05926549 -0.0708844 -0.039585505 0.011534362 -0.06723826 0.044654027 -0.060519744
0.020369273 0.12045798 0.014697857 0.10586124 0.09026174 0.02494208 0.013082959 -0.05279347
0.1853434 0.12671527 -0.005118768 0.09566658 0.035176545 -0.05699602 0.0676057 0.05296197
0.15068458 0.1333355 0.14340161 0.09651095 0.11507312 0.01664156 -0.16483428 0.19647978
0.11831495 -0.021792257 0.17409533 -0.022933299 0.14647949 0.08779565 0.016850982 -0.012417154
0.012844095 0.0064138286 0.13117197 -0.027012633 0.023965532 0.09496165 -0.030734621 -0.037293985
-0.0015222947 -0.03863984 -0.055724636 0.03576684 0.008931484 -0.07325471 0.058128186 -0.05198178
0.0127754165 0.10774174 0.12295893 -0.04401246 0.10517648 0.110856466 0.12583065 -0.019069154
-0.06056077 0.013137598 0.24453881 -0.03311879 0.05170093 0.07271298 0.093074374 0.16170724
0.053789027 -0.04650872 0.121033154 0.053805266 0.09802959 0.09483279 0.09905428 0.30982795
0.10789205 -0.016541513 0.09272152 -0.020974867 0.050499447 0.06239822 -0.02381508 0.09597731
0.06865358 0.1126436 0.045500647 -0.061163798 0.107353896 0.051804177 -0.0028283014 0.13383909
0.12120951 0.21538574 0.07459167 0.06269214 0.115093164 0.3270508 0.09211249 -0.017831763
0.16550809 0.26235417 0.21521823 -0.005316781 -0.0031143585 -0.06137971 0.08088701 0.06242349
0.08485612 0.00773128 0.08572162 0.25025108 0.07767459 0.06567825 -0.00050416304 0.03188766
-0.015583726 0.069874965 0.054567404 0.13604622 0.18698213 0.15939093 0.05194148 0.21982394
0.15432276 0.047648165 0.24764241 0.072576955 0.11831314 0.08889601 0.10074798 0.15940781
0.063722685 0.15695609 0.107459314 0.03421128 0.094595864 0.1523651 0.15605192 0.15707701
0.03343404 0.03391695 -0.027275773 0.120032616 0.12832956 0.03118129 0.09827799 0.044840306
0.10670133 -0.06422456 0.023142459 -0.07250673 0.0005678655 0.025096573 -0.011270406 0.024391163
0.053274386 -0.0020876003 -0.03907553 0.12764508 0.10601267 0.1048705 0.12422293 0.035095736
0.0017078862 0.08393143 0.1505254 0.17662193 -0.0065134815 0.17270361 0.04798106 0.2097288
0.011421055 0.10699942 -0.027138233 0.08406402 0.103276 0.2167921 0.058528494 0.14325231
-0.003992543 -0.0936628 -0.016377147 0.018644627 0.017627563 -0.045870874 0.14129199 -0.016445413
0.029183196 -0.05716498 -0.11567882 0.1772057 -0.11403689 0.051882707 -0.09332881 0.03980937
0.23162493 0.13581617 0.11888153 0.1088305 0.62967265 -0.34401056 0.103582054 -0.08917583
-0.08292256 -0.032368805 0.052624583 0.11036425 0.05164709 -0.064660124 0.10189588 0.3169777
0.078657426 0.005469638 -0.22243722 0.09211861 -0.072276525 0.08845655 0.1467557 -0.052254856
-0.17625797 0.048456952 0.04206373 0.33343577 0.0781349 0.06075724 -0.41369388 0.08189626
-0.60123384 -0.0052369135 0.16568606 -0.105326794 0.029997066 -0.002716531 -0.0549454 -0.08026241
0.058833756 0.094176784 0.029939305 -0.31205907 0.0015174025 0.31959495 -0.03706653 0.110594116
00000000: feb7 06bd a6f2 2e3d d208 2e3d 0dc9 da3d
00000010: e040 2dbd a31f c53d 3dcf c63c 30f6 873c
00000020: 3bb8 413d 5fc0 72bd d72b 91bd 6924 22bd
00000030: 9ffa 3c3c 36b4 89bd 24e7 363d 8de3 77bd
00000040: 76dd a63c acb2 f63d 48cf 703c c7cd d83d
00000050: 26db b83d 5553 cc3c e859 563c f73d 58bd
00000060: a9ca 3d3e a6c1 013e 57bb a7bb d7ec c33d
00000070: 4815 103d a974 69bd db74 8a3d a7ee 583d
00000080: 0f4d 1a3e 1a89 083e dfd7 123e 88a7 c53d
00000090: 75ab eb3d e153 883c 51ca 28be ff31 493e
000000a0: 1c4f f23d ad85 b2bc 0c46 323e 9dde bbbc
000000b0: b8fe 153e 35ce b33d 120b 8a3c 5271 4bbc
000000c0: 0a70 523c 182b d23b f251 063e 9949 ddbc
000000d0: 5d53 c43c 417b c23d 2cc7 fbbc 94c1 18bd
000000e0: bc87 c7ba cf44 1ebd 843f 64bd 4080 123d
000000f0: 5c55 123c 9106 96bd d217 6e3d d9ea 54bd
00000100: fb4f 513c b4a7 dc3d e4d1 fb3d 6946 34bd
00000110: c466 d73d b708 e33d c0d9 003e ea36 9cbc
00000120: 920e 78bd 143f 573c 6268 7a3e 91a7 07bd
00000130: 5bc4 533d 8bea 943d c79d be3d 9596 253e
00000140: e251 5c3d ed7f 3ebd 3be0 f73d e962 5c3d
00000150: bdc3 c83d b237 c23d f8dc ca3d c5a1 9e3e
00000160: 82f6 dc3d 1182 87bc c8e4 bd3d 7cd3 abbc
00000170: 82d8 4e3d 4795 7f3d d817 c3bc c08f c43d
00000180: 409a 8c3d b0b1 e63d e35e 3a3d e486 7abd
00000190: 5cdc db3d 9e30 543d 065b 39bb 1d0d 093e
000001a0: b13c f83d 148e 5c3e 84c3 983d bd64 803d
000001b0: f7b5 eb3d 3473 a73e 79a5 bc3d eb13 92bc
000001c0: f47a 293e 4953 863e 2b62 5c3e 6438 aebb
000001d0: 441a 4cbb 4a69 7bbd 17a8 a53d c6af 7f3d
000001e0: 0cc9 ad3d ad56 fd3b d18e af3d e920 803e
000001f0: db13 9f3d 5182 863d cf29 04ba a39c 023d
00000200: e252 7fbc 9b1a 8f3d 1282 5f3d b34f 0b3e
00000210: 3e78 3f3e 6037 233e 97c0 543d 8719 613e
00000220: c906 1e3e b92a 433d f995 7d3e 3aa3 943d
00000230: 294e f23d 1c0f b63d f554 ce3d cd3b 233e
00000240: 0a81 823d 19b9 203e a113 dc3d 2121 0c3d
00000250: 7abb c13d 9905 1c3e 13cc 1f3e ccd8 203e
00000260: 22f2 083d 80ec 0a3d 7171 dfbc a9d3 f53d
00000270: d368 033e e86f ff3c f945 c93d 78aa 373d
00000280: 3a86 da3d 2b88 83bd 4195 bd3c 697e 94bd
00000290: cfdc 143a 5497 cd3c 82a7 38bc facf c73c
000002a0: 3e36 5a3d 1fd0 08bb aa0d 20bd 64b5 023e
000002b0: 2c1d d93d 58c6 d63d 9768 fe3d 8cc0 0f3d
000002c0: 27db df3a 3ee4 ab3d 5523 1a3e 61dc 343e
000002d0: 0b6f d5bb 37d9 303e ca87 443d 26c3 563e
000002e0: 601f 3b3c 8322 db3d 0051 debc c229 ac3d
000002f0: 5e82 d33d c0fe 5d3e 93bb 6f3d bcb0 123e
00000300: e1d3 82bb 48d2 bfbd 5e29 86bc 9ebc 983c
00000310: ae67 903c 19e3 3bbd d9ae 103e 88b8 86bc
00000320: 9911 ef3c d325 6abd 04e9 ecbd 6975 353e
00000330: 2c8c e9bd f682 543d 2d23 bfbd 260f 233d
00000340: 162f 6d3e 6513 0b3e 2978 f33d 86e2 de3d
00000350: 3a32 213f 2722 b0be d422 d43d d1a1 b6bd
00000360: 4ed3 a9bd 2795 04bd e08c 573d a706 e23d
00000370: e68b 533d 876c 84bd caae d03d e74a a23e
00000380: 2517 a13d a63a b33b 95c6 63be afa8 bc3d
00000390: b705 94bd b528 b53d 2047 163e 3009 56bd
000003a0: f87c 34be cc7a 463d 054b 2c3d 18b8 aa3e
000003b0: 3105 a03d 95dc 783d afcf d3be 3ab9 a73d
000003c0: 76ea 19bf 6a9a abbb 9ba9 293e 93b5 d7bd
000003d0: 68bc f53c d407 32bb 6e0e 61bd 9e60 a4bd
000003e0: aafb 703d c2df c03d 4643 f53c 35c6 9fbe
000003f0: 94e3 c63a f3a1 a33e 13d3 17bd 2b7f e23d

lstm.weight_ih_l0_reverse f4 [400, 28]
2.8944129e-05 0.03818887 0.06499534 -0.08388181 0.09031457 -0.008754091 -0.0046939724 -0.008090686
-0.012976274 0.076697744 0.08121237 0.04746557 0.020894647 -0.06323804 -0.09957633 0.02753531
-0.047809053 -0.005469136 -0.091169536 -0.050208636 -0.007653702 0.038714178 -0.10175859 0.03123168
-0.09334162 -0.09050138 -0.07103145 0.07548179 -0.010517317 0.040511254 0.00266464 0.031711794
0.0137820775 0.023186006 0.03678841 0.06189586 -0.0068739126 -0.068822235 0.09952289 0.04191499
0.022850662 0.05282107 -0.009904004 -0.007471426 0.08433338 0.10045638 0.09941687 0.060601078
0.044213925 -0.07901312 0.074370585 0.082823865 -0.08523508 0.027237104 -0.011198245 0.08824342
0.058833294 0.063703544 -0.036872968 0.07768817 0.07904522 0.07326604 0.037695605 -0.023324737
-0.087972865 -0.053860303 -0.02955732 0.09997109 0.05217626 0.08624725 0.024935037 -0.07817986
0.08806714 0.101497665 -0.01644979 -0.018575715 0.049324982 -0.03621742 -0.05728962 0.014163445
-0.08509728 0.06889627 -0.041186888 -0.0012043656 -0.09086478 0.061801586 -0.07855158 0.049448766
0.09399416 -0.09031501 -0.07209587 0.057480674 0.082172275 0.017104544 -0.088362664 -0.050526887
0.05269734 -0.05559531 0.041132756 -0.062530816 -0.08479416 -0.07219158 0.041304477 0.04040364
-0.023976717 0.005725992 0.051613953 0.036481276 -0.059136834 -0.08526146 -0.057070434 -0.093215935
0.025000028 -0.08030035 -0.07267744 -0.09761683 -0.08315658 -0.0069210483 -0.02350253 -0.009568716
0.030264253 0.09799273 0.06586723 -0.040513 -0.0120239025 -0.07976407 -0.073005095 -0.038803272
0.08749467 0.00441858 -0.0503112 -0.097000055 0.094526574 -0.09269087 -0.09017493 0.051003683
-0.05527448 0.0882952 0.0036002006 -0.025900215 -0.035904594 0.014851189 -0.051965673 -0.09311831
0.058352202 0.030364264 0.03621797 0.05756574 -0.01530726 -0.045489132 -0.004222769 -0.05039738
0.002608995 -0.08018176 0.08180716 -0.044877168 -0.025922492 0.095665656 -0.078739464 0.005445304
0.07815075 0.003387787 -0.054390673 -0.00063425 0.0036191123 0.003096889 -0.038743757 -0.07623235
0.008389697 -0.07123252 0.06633905 -0.0666431 -0.06712333 -0.04278357 0.060138945 -0.09228484
-0.00871796 0.057749834 -0.030552378 0.0526357 0.093391076 -0.06181193 -0.07946747 0.05588857
0.09694001 -0.07919541 -0.08628448 0.011519326 0.058395077 0.06650308 0.014172756 0.05261133
0.013322619 0.050985914 0.033866897 -0.011653428 0.094622105 -0.08412816 -0.05522639 -0.045999266
-0.07224945 -0.060046144 -0.09209179 -0.074142486 -0.03959413 -0.064521894 -0.090786055 0.08684171
0.0064266725 0.011578072 0.0456602 0.0031010292 0.047033437 -0.0549298 -0.08147476 0.038238466
-0.056609284 -0.016251193 0.0025571364 0.011822821 -0.0642881 0.0759308 -0.02828278 -0.08748284
0.04847563 -0.0898006 -0.09918724 0.09656191 0.09895434 0.0545987 -0.065184824 -0.011085298
-0.03816781 -0.073728375 0.08824671 0.027651208 0.05858077 0.09906101 -0.074802354 -0.0022897816
-0.033249415 0.055330936 0.005255944 -0.014909455 0.02718357 0.09447217 0.09022112 0.08318966
-0.021445148 0.094141774 0.004183175 -0.072169594 -0.08481405 -0.097377874 0.04526197 -0.009470316
00000000: 0bcd f237 ef6b 1c3d 471c 853d 3aca abbd
00000010: d8f6 b83d 526d 0fbc e5cf 99bb cc8e 04bc
00000020: 709a 54bc b513 9d3d ac52 a63d 426b 423d
00000030: 402b ab3c f282 81bd adee cbbd bb91 e13c
00000040: 6dd3 43bd 7036 b3bb 18b7 babd 92a7 4dbd
00000050: e8cb fabb c292 1e3d cf66 d0bd 95d9 ff3c
00000060: e429 bfbd ca58 b9bd f078 91bd 3296 9a3d
00000070: d350 2cbc 21ef 253d 3ea1 2e3b 3ae4 013d
00000080: 39ce 613c 94f0 bd3c 72af 163d 8386 7d3d
00000090: 8f3e e1bb acf2 8cbd a8d2 cb3d 0daf 2b3d
000000a0: 5031 bb3c e85a 583d 6744 22bc ddd2 f4bb
000000b0: fbb6 ac3d 13bc cd3d 129b cb3d d638 783d
000000c0: a919 353d a1d1 a1bd 9b4f 983d 8f9f a93d
000000d0: bb8f aebd 5920 df3c d878 37bc f7b8 b43d
000000e0: 2efb 703d 0177 823d 1c08 17bd fa1a 9f3d
000000f0: 76e2 a13d 810c 963d b566 1a3d 8513 bfbc
00000100: 1e2b b4bd 9f9c 5cbd 3122 f2bc a5bd cc3d
00000110: c6b6 553d 66a2 b03d 9044 cc3c c31c a0bd
00000120: 8b5c b43d 02de cf3d b6c1 86bc 192c 98bc
00000130: fe08 4a3d b858 14bd 85a8 6abd cb0d 683c
00000140: 7c47 aebd 7d19 8d3d 95b3 28bd cedb 9dba
00000150: 5017 babd a923 7d3d a7df a0bd ca8a 4a3d
00000160: 0380 c03d 13f7 b8bd 00a7 93bd db70 6b3d
00000170: f049 a83d d41e 8c3c 7cf7 b4bd 48f5 4ebd
00000180: 2ad9 573d e8b7 63bd d27a 283d 2810 80bd
00000190: 90a8 adbd 2ed9 93bd e22e 293d 4a7e 253d
000001a0: d26a c4bc 1aa1 bb3b 2769 533d 646d 153d
000001b0: 7739 72bd 8f9d aebd b0c2 69bd ffe7 bebd
000001c0: dccc cc3c 8374 a4bd e9d7 94bd 55eb c7bd
000001d0: ff4d aabd f6c9 e2bb 6188 c0bc 1bc6 1cbc
000001e0: bdec f73c 6ab0 c83d 66e5 863d f6f0 25bd
000001f0: e7ff 44bc 585b a3bd b283 95bd 2ef0 1ebd
00000200: 6830 b33d bcc9 903b 1e13 4ebd f7a7 c6bd
00000210: 2697 c13d b6d4 bdbd a2ad b8bd 3de9 503d
00000220: 7e67 62bd 1dd4 b43d 58f1 6b3b b02c d4bc
00000230: b210 13bd 6752 733c f5d9 54bd d0b4 bebd
00000240: b802 6f3d 7abe f83c 4b59 143d 0eca 6b3d
00000250: 4dcb 7abc d052 3abd 275f 8abb 7c6d 4ebd
00000260: acfb 2a3b 5636 a4bd 838a a73d 1fd1 37bd
00000270: 685b d4bc 5bec c33d 2842 a1bd 856e b23b
00000280: 800d a03d a205 5e3b c1c8 5ebd cc43 26ba
00000290: a12e 6d3b 2df5 4a3b c6b1 1ebd b51f 9cbd
000002a0: f174 093c 5be2 91bd c5dc 873d 2d7c 88bd
000002b0: f577 89bd d33d 2fbd 4154 763d d6ff bcbd
000002c0: c6d5 0ebc 178b 6c3d fb48 fabc 8898 573d
000002d0: d243 bf3d 822e 7dbd d7bf a2bd 6aeb 643d
000002e0: 7c88 c63d 3431 a2bd ebb5 b0bd 8ebb 3c3c
000002f0: ad2f 6f3d c432 883d d934 683c fa7e 573d
00000300: 1d47 5a3c 9bd6 503d 04b8 0a3d 05ee 3ebc
00000310: 3cc9 c13d 624b acbd 1135 62bd ba69 3cbd
00000320: 85f7 93bd f2f2 75bd 9f9a bcbd 04d8 97bd
00000330: 742d 22bd 0e24 84bd 0aee b9bd 11da b13d
00000340: d696 d23b f4b1 3d3c 3106 3b3d a33a 4b3b
00000350: 22a6 403d 12fe 60bd 3ddc a6bd f09f 1c3d
00000360: 23df 67bd 3921 85bc a195 273b 81b4 413c
00000370: 7ba9 83bd 9b81 9b3d 4ab1 e7bc 342a b3bd
00000380: 628e 463d 61e9 b7bd ae22 cbbd 40c2 c53d
00000390: 93a8 ca3d e3a2 5f3d 9f7f 85bd 1c9f 35bc
000003a0: d955 1cbd e7fe 96bd b1ba b43d c984 e23c
000003b0: 64f2 6f3d 80e0 ca3d fa31 99bd 2910 16bb
000003c0: 8a30 08bd b1a2 623d 0e3a ac3b c946 74bc
000003d0: 14b0 de3c a07a c13d dac5 b83d 575f aa3d
000003e0: bcad afbc 67cd c03d 0413 893b a7cd 93bd
000003f0: fdb2 adbd 0d6e c7bd 9e64 393d 6229 1bbc

lstm.weight_hh_l0_reverse f4 [400, 100]
0.09409667 0.0537725 -0.04518285 -0.0251254 0.051159017 -0.053133 -0.08166772 0.04572796
-0.07920448 0.056438826 0.07674534 0.021021664 0.029067703 -0.005190052 -0.013906576 -0.04570489
-0.04470519 0.06610707 -0.061161567 -0.021417782 -0.060712982 -0.09493183 0.08303968 0.03809721
0.08453531 -0.010289922 -0.07963483 0.012860872 -0.083069906 -0.05897987 0.056246586 0.03226418
-0.07424257 0.03171765 0.09102314 -0.021655738 -0.06489806 0.037179403 -0.021067187 0.04675246
-0.072378695 -0.052568365 0.06726069 -0.004818402 -0.08755564 -0.05222113 0.031038858 0.040940575
0.09619518 -0.08641088 0.09095823 0.07259678 0.097061984 -0.03174962 -0.041353215 -0.051291704
-0.09857545 -0.034716867 -0.055392157 0.076681964 -0.017074205 -0.01621934 -0.05618156 -0.01846578
0.040255524 -0.059796896 0.00830064 -0.09036478 0.0060070306 -0.09326959 -0.09951239 0.084678285
0.051787935 0.00888069 0.0065788776 -0.02737479 0.029910155 -0.0008518696 0.013631806 0.01679822
0.06857941 -0.03742665 0.053657107 -0.018814005 -0.03668593 -0.07190885 0.050872408 0.0062831044
0.06031079 0.026878767 0.085319646 0.031081416 0.041101836 -0.09974461 0.043641783 0.05294215
-0.08472498 -0.06457639 0.008137621 0.026062064 -0.03605666 -0.069366574 0.06549702 -0.045206405
0.044169657 0.07051354 -0.019368708 -0.054492928 0.007802546 0.057218023 -0.028701201 0.029173829
-0.055847015 0.07033438 -0.07361126 -0.009879366 0.024116755 -0.04938562 -0.08597745 0.051149346
0.0038338453 0.07172681 -0.08770915 0.082258366 0.07224297 0.05799771 -0.020916678 0.016841985
-0.08229724 -0.047331512 0.019604966 0.08295839 -0.018569276 0.061914988 0.006826222 0.08179814
-0.048266448 -0.021879375 0.044687398 0.026908763 -0.09349865 0.089102276 -0.08996653 0.0067396536
-0.066845804 0.089268096 -0.043372836 0.06144678 -0.011566594 0.034141667 -0.08490441 -0.0024987832
0.06345374 0.07626171 0.0042439327 -0.059965875 -0.07350632 -0.08110193 -0.057941355 0.03157208
0.09160868 -0.030377828 -0.08917522 -0.06347403 0.004849121 0.08781517 0.06670267 -0.044373345
-0.030352846 0.009855762 -0.071742214 -0.015734516 0.059024937 0.08266956 0.031382106 -0.075128615
0.05633975 -0.042528618 0.028707184 0.049607806 0.039279483 0.05775974 0.07703682 -0.018857501
-0.032649696 0.047831245 0.030557998 0.0021509677 -0.013572611 0.06125968 -0.068324 -0.005170986
-0.004407525 0.084908314 -0.022272527 0.035119005 0.0070824623 -0.040091693 0.025825746 0.028476588
0.0853622 -0.011482157 -0.027887538 0.046321593 -0.08370875 -0.07749627 0.058359645 -0.06440516
0.061844952 0.07067878 -0.03889532 -0.0619902 -0.048411466 -0.04394908 -0.060237028 0.026302226
0.055579774 -0.095458545 -0.08247741 -0.019464955 -0.031092308 -0.03210312 0.051990278 -0.058203485
-0.09400165 0.029647656 0.08507276 0.002092436 -0.07635733 0.051668055 0.08974107 -0.020186625
-0.029619634 0.091599576 0.007779002 0.02167765 -0.082579866 0.062356107 0.07825164 -0.040953327
0.09594203 -0.07792322 -0.09789946 -0.0023168102 -0.08882339 -0.0064846426 0.08969634 0.08693119
0.06762657 -0.053452697 0.018270954 -0.023958482 -0.05327758 0.029226474 -0.008488335 -0.019058421
00000000: c1b5 c03d 8e40 5c3d a711 39bd c8d3 cdbc
00000010: 1e8c 513d fda1 59bd 6841 a7bd 3e4d 3b3d
00000020: f535 a2bd 662c 673d a92c 9d3d a035 ac3c
00000030: 641f ee3c 5011 aabb 68d8 63bc 0d35 3bbd
00000040: ca1c 37bd 2563 873d 8d84 7abd 5874 afbc
00000050: 2dae 78bd 9f6b c2bd b510 aa3d d20b 1c3d
00000060: d920 ad3d 1097 28bc 9617 a3bd 68b6 523c
00000070: 8e20 aabd e094 71bd d262 663d 7227 043d
00000080: 7d0c 98bd 5eea 013d 576a ba3d 6067 b1bc
00000090: 46e9 84bd 6e49 183d 1895 acbc 827f 3f3d
000000a0: 483b 94bd ed51 57bd f9bf 893d b0e3 9dbb
000000b0: 5f50 b3bd d3e5 55bd 3445 fe3c 4eb1 273d
000000c0: fb01 c53d 30f8 b0bd 4f48 ba3d 9fad 943d
000000d0: 6fc8 c63d e40b 02bd fd61 29bd 4017 52bd
000000e0: ede1 c9bd 4633 0ebd e3e2 62bd 6f0b 9d3d
000000f0: 34df 8bbc 6cde 84bc a31e 66bd 8c45 97bc
00000100: fae2 243d 97ed 74bd 68ff 073c 2b11 b9bd
00000110: a0d6 c43b 2004 bfbd 27cd cbbd cf6b ad3d
00000120: 961f 543d 5080 113c a093 d73b 1841 e0bc
00000130: 2406 f53c 0050 5fba f057 5f3c 6c9c 893c
00000140: 5d73 8c3d b04c 19bd 8ec7 5b3d d41f 9abc
00000150: fc43 16bd f244 93bd 965f 503d 80e2 cd3b
00000160: 7208 773d dc30 dc3c 11bc ae3d 749e fe3c
00000170: 665a 283d e746 ccbd bac1 323d ded9 583d
00000180: 4a84 adbd a040 84bd a853 053c 1c80 d53c
00000190: 26b0 13bd 1010 8ebd 4d23 863d 5a2a 39bd
000001a0: 3eeb 343d 6769 903d 20ab 9ebc fa33 5fbd
000001b0: 80ac ff3b 725d 6a3d c81e ebbc f4fd ee3c
000001c0: d7bf 64bd 790b 903d 80c1 96bd 10dd 21bc
000001d0: 8090 c53c 9348 4abd f214 b0bd fa81 513d
000001e0: 4041 7b3b 81e5 923d dba0 b3bd 1377 a83d
000001f0: 1ff4 933d 028f 6d3d 7459 abbc 34f8 893c
00000200: 758b a8bd b0de 41bd 989a a03c 17e6 a93d
00000210: 981e 98bc 929a 7d3d 80ae df3b c985 a73d
00000220: 0ab3 45bd 603c b3bc 220a 373d c46f dc3c
00000230: 387c bfbd 417b b63d 5f40 b8bd 50d8 dc3b
00000240: 74e6 88bd 31d2 b63d b7a7 31bd 9eaf 7b3d
00000250: d081 3dbc 22d8 0b3d 5de2 adbd a0c2 23bb
00000260: 09f4 813d 192f 9c3d b010 8b3b c79e 75bd
00000270: 7b8a 96bd c518 a6bd ea53 6dbd ba51 013d
00000280: 559d bb3d ecda f8bc 7fa1 b6bd acfe 81bd
00000290: 60e5 9e3b 71d8 b33d 699b 883d d3c0 35bd
000002a0: 88a6 f8bc 107a 213c 95ed 92bd ace5 80bc
000002b0: 22c4 713d a94e a93d 868a 003d 08dd 99bd
000002c0: 82c4 663d 7d32 2ebd 542b eb3c 8e31 4b3d
000002d0: 86e3 203d 7a95 6c3d 7bc5 9d3d 0c7b 9abc
000002e0: b0bb 05bd b2ea 433d c454 fa3c 40f7 0c3b
000002f0: a85f 5ebc 6eeb 7a3d 74ed 8bbd 6071 a9bb
00000300: 006d 90bb 69e4 ad3d e074 b6bc f2d8 0f3d
00000310: 0014 e83b 3037 24bd 8490 d33c bc47 e93c
00000320: 61d2 ae3d a81f 3cbc 6874 e4bc b6bb 3d3d
00000330: 7e6f abbd 5db6 9ebd 860a 6f3d dae6 83bd
00000340: 2251 7d3d 09c0 903d b350 1fbd 70e9 7dbd
00000350: 1a4b 46bd f303 34bd 1abb 76bd c477 d73c
00000360: 9ea7 633d c57f c3bd ebe9 a8bd f874 9fbc
00000370: 4cb5 febc 907e 03bd c2f3 543d c766 6ebd
00000380: f083 c0bd a4df f23c a13a ae3d 4021 093b
00000390: 3b61 9cbd e2a1 533d 2bca b73d 6c5e a5bc
000003a0: e0a4 f2bc 8f98 bb3d 00e7 fe3b 5495 b13c
000003b0: a21f a9bd 1e69 7f3d 6542 a03d adbe 27bd
000003c0: 417d c43d 3696 9fbd 837f c8bd a0d5 17bb
000003d0: 0ae9 b5bd 207d d4bb b7b2 b73d fb08 b23d
000003e0: cd7f 8a3d 37f1 5abd f8ac 953c 9444 c4bc
000003f0: 9739 5abd 5c6c ef3c a812 0bbc 6820 9cbc

lstm.bias_ih_l0_reverse f4 [400]
-0.00901039 -0.06289129 0.07936425 0.052131686 0.09071186 -0.028503003 -0.06090071 -0.07766813
0.051541906 -0.027034467 -0.037345327 -0.04020743 0.07945169 -0.049050394 -0.047064878 0.07855739
0.0625214 -0.08351847 -0.07369441 0.058731295 -0.0064774286 -0.039718162 0.043072507 -0.030279787
-0.061835743 0.029851463 -0.09242883 -0.030467382 0.07445728 0.029988134 0.06990899 -0.07743701
-0.046705738 0.099410504 -0.015960488 -0.017147386 0.061236612 0.025413327 0.07789265 -0.07191755
-0.089078195 -0.041152086 -0.05743081 -0.006826684 -0.015038379 0.022679098 -0.032418177 -0.09523026
0.054220244 -0.0027101596 -0.015578995 0.09884181 0.08223595 0.008168917 0.0011204471 -0.050005026
0.04181346 0.058189094 -0.047893815 -0.06402271 -0.04879419 -0.08255873 -0.067952484 0.012633387
-0.0030523927 -0.03492234 -0.002817814 -0.01735311 -0.07240041 0.060900453 -0.03411993 -0.057589255
0.009567255 -0.004593876 -0.0072497814 0.062509745 0.099395335 -0.018363392 -0.029467545 -0.06627056
0.062750585 -0.020200728 0.079782136 0.049374945 0.039853193 -0.0145785725 -0.032746136 0.009647338
0.07572025 -0.017426865 0.089191906 0.0012701392 0.0038118032 -0.068353474 0.07367525 0.07813942
0.083237596 0.0021078293 0.07978411 0.07490058 -0.042945076 -0.0128094405 0.031624682 -0.052290168
0.070790075 0.07056882 0.080346964 0.09646798 -0.035014488 -0.084170714 0.0993857 1.9744039e-05
-0.0838334 0.012122527 0.015008248 0.09128552 0.020845257 -0.050321676 -0.018108174 -0.028729126
-0.092835486 -0.041341305 -0.0680652 -0.056844283 0.089339666 0.054345317 -0.09925022 -0.001955375
0.038730435 0.06411309 0.052134223 0.09468757 0.09861166 -0.04227222 0.09735032 0.038397335
0.081965275 -0.0008157715 0.08309867 0.0003630072 -0.05140697 0.095511265 -0.097919725 0.085240014
-0.098599605 -0.086622335 -0.058370102 0.06349892 0.09557638 -0.09570862 -0.053208996 -0.00702174
-0.06036358 -0.053771783 -0.041797247 -0.09252484 -0.08727614 0.056328483 -0.08740524 -0.066341974
0.004457809 -0.021037795 0.05301138 0.07264312 0.07166595 0.07229527 0.05556535 -0.021578252
-0.054078963 0.07847785 -0.011269629 0.019680783 -0.08540934 0.06448955 -0.03766351 -0.08869945
0.078348644 -0.07112016 0.005011216 0.09415058 0.06495618 -0.037038207 0.08070987 -0.06428452
-0.0338801 0.08011224 0.037996165 -0.08978992 -0.012638114 -0.011146843 -0.09546256 0.0070891157
-0.004223369 -0.04619185 -0.05593094 -0.07150698 -0.07481156 -0.09441594 0.073953696 0.008983828
-0.10358561 0.08859854 -0.080589384 0.09267082 0.044208635 0.0063314256 0.048252355 0.09823895
-0.103748 0.07724485 -0.012683586 -0.045684505 -0.022905452 0.05607764 -0.034803253 0.021528263
0.0030008059 0.07914805 0.022140615 -0.042182133 -0.029383434 -0.09465843 0.039037805 -0.09507905
0.102185346 0.07423174 0.0154936835 -0.0069038616 -0.016550368 -0.038183674 -0.07126461 -0.07060441
-0.0056798086 -0.06913116 -0.017728738 0.051142942 -0.053047854 -0.09907214 -0.047226023 0.07565025
0.07317549 0.02272328 -0.039537158 -0.020364266 -0.07283678 0.035850085 -0.02939521 0.08922743
0.08056365 0.004033961 0.077370666 -0.09980738 -0.034811553 -0.0874936 0.0030271458 0.07214439
00000000: 51a0 13bc 26cd 80bd b989 a23d 0988 553d
00000010: 24c7 b93d 217f e9bc 0673 79bd 7810 9fbd
00000020: 9b1d 533d 6377 ddbc 6af7 18bd 8cb0 24bd
00000030: 91b7 a23d 11e9 48bd 1ac7 40bd b2e2 a03d
00000040: 380b 803d bb0b abbd 18ed 96bd 3a90 703d
00000050: 9c40 d4bb 83af 22bd cc6c 303d 510d f8bc
00000060: 7a47 7dbd 0e8b f43c 544b bdbd bb96 f9bc
00000070: 0f7d 983d ada9 f53c 722c 8f3d 4c97 9ebd
00000080: 844e 3fbd bc97 cb3d 92bf 82bc ad78 8cbc
00000090: 3ed3 7a3d 9c2f d03c 2f86 9f3d 8249 93bd
000000a0: a16e b6bd 178f 28bd 923c 6bbd 60b2 dfbb
000000b0: 8863 76bc 84c9 b93c ecc8 04bd 1508 c3bd
000000c0: 0c16 5e3d ef9c 31bb 0b3f 7fbc 936d ca3d
000000d0: 526b a83d ecd6 053c f7db 923a 12d2 4cbd
000000e0: 9744 2b3d b057 6e3d 4e2c 44bd 571e 83bd
000000f0: 6bdc 47bd 8d14 a9bd ac2a 8bbd 44fc 4e3c
00000100: a70a 48bb ba0a 0fbd 13ab 38bb 1c28 8ebc
00000110: ab46 94bd c172 793d 57c1 0bbd b6e2 6bbd
00000120: fabf 1c3c 3a88 96bb 938f edbb 1c05 803d
00000130: c88f cb3d d36e 96bc ec65 f1bc dcb8 87bd
00000140: 6183 803d ff7b a5bc d164 a33d 623d 4a3d
00000150: 1a3d 233d f7da 6ebc d020 06bd de0f 1e3c
00000160: 3813 9b3d c9c2 8ebc 3faa b63d cd7a a63a
00000170: 72cf 793b e8fc 8bbd 0de3 963d 8f07 a03d
00000180: 7978 aa3d 8223 0a3b da65 a33d 7a65 993d
00000190: 2de7 2fbd b0de 51bc e288 013d 372e 56bd
000001a0: 63fa 903d 6386 903d f38c a43d 0191 c53d
000001b0: 5a6b 0fbd b261 acbd bb8a cb3d 00a0 a537
000001c0: d8b0 abbd 909d 463c 28e5 753c e7f3 ba3d
000001d0: acc3 aa3c 1a1e 4ebd 9857 94bc 5859 ebbc
000001e0: 8820 bebd 8055 29bd c465 8bbd 8dd5 68bd
000001f0: b7f7 b63d 3299 5e3d b343 cbbd c025 00bb
00000200: cea3 1e3d b94d 833d b28a 553d 8feb c13d
00000210: e9f4 c93d a325 2dbd 9b5f c73d 8646 1d3d
00000220: 69dd a73d 80d9 55ba a32f aa3d 0052 be39
00000230: 1d90 52bd 699b c33d 238a c8bd 5192 ae3d
00000240: 97ee c9bd 0d67 b1bd 7d15 6fbd b90b 823d
00000250: 8dbd c33d e202 c4bd adf1 59bd a016 e6bb
00000260: cd3f 77bd cd3f 5cbd 9733 2bbd aa7d bdbd
00000270: d5bd b2bd b2b8 663d 8501 b3bd 4dde 87bd
00000280: d012 923b 7457 acbc 7622 593d ebc5 943d
00000290: 99c5 923d 8b0f 943d 7e98 633d e0c4 b0bc
000002a0: e781 5dbd ffb8 a03d 40a4 38bc 9839 a13c
000002b0: 18eb aebd 1913 843d 0d45 1abd 0fa8 b5bd
000002c0: 4175 a03d 72a7 91bd 2035 a43b 05d2 c03d
000002d0: bf07 853d 60b5 17bd 374b a53d 9aa7 83bd
000002e0: dcc5 0abd e311 a43d dea1 1b3d c7e3 b7bd
000002f0: 1810 4fbc 40a1 36bc e081 c3bd d04b e83b
00000300: 3064 8abb aa33 3dbd d717 65bd 4072 92bd
00000310: ce36 99bd 255d c1bd 0975 973d e830 133c
00000320: b124 d4bd 2773 b53d 0c0c a5bd 33ca bd3d
00000330: 1d14 353d d977 cf3b 43a4 453d 8131 c93d
00000340: d579 d4bd 8c32 9e3d d1ce 4fbc ad1f 3bbd
00000350: 37a4 bbbc abb1 653d db8d 0ebd 0a5c b03c
00000360: 2ba9 443b 5f18 a23d 3c60 b53c 2cc7 2cbd
00000370: 87b5 f0bc 47dc c1bd 1be6 1f3d ceb8 c2bd
00000380: 8d46 d13d cf06 983d 38d9 7d3c ca39 e2bb
00000390: a394 87bc 7c66 1cbd 2ef3 91bd 0b99 90bd
000003a0: b01d babb a394 8dbd dc3b 91bc 437b 513d
000003b0: b548 59bd 56e6 cabd 1370 41bd 85ee 9a3d
000003c0: 08dd 953d 2c26 ba3c b7f1 21bd f6d2 a6bc
000003d0: 732b 95bd 8ad7 123d 39ce f0bc dfbc b63d
000003e0: 8efe a43d 512f 843b 8374 9e3d d067 ccbd
000003f0: 8f96 0ebd d82f b3bd 1463 463b 70c0 933d
