results/torch_linear_model.pt (torch, 29907 bytes, 2 tensors)

linear_layer.weight f4 [9, 784]
00000000: c658 253d 0d16 263d 8fa3 e73c 9a9d c53c
00000010: 03d0 dd3c 3b86 f53c 1d0a 8b3c ef5b 4f3c
00000020: 639e 8a3c 91ab 493c 8bf6 003d 8e39 c53c
00000030: 9f5c ae3c 9784 ab3c 0436 873c 4b7e 853c
00000040: 3f9a f93c 1d34 c13c e1e6 9f3b 831f aa3a
00000050: 86a3 3d3c e328 e33c e3bb b83c fa0e d43c
00000060: 66db 8e3c 39bd f03b d48f d93c 11ec 323d
00000070: 0253 213d 6c6e ff3c fce2 833c 5ac0 363c
00000080: ab66 523c a8df 2a3c a3e3 2bba fb24 073a
00000090: 6cbf 033c 5f7d 123c 6391 683c a876 fd38
000000a0: 44aa 003c 6fbb 973c 8c1e 9e3c 30f5 403c
000000b0: c3a1 203c 2c97 233c 94d9 adbb e69f e539
000000c0: bac5 bf3b 65ac 983c ef43 823c 6abd 913c
000000d0: 4f44 f23b db87 9fbb 9173 303c f826 1f3d
000000e0: 5fd3 283d cc5d cf3c 2f2e a53c e1f0 c23b
000000f0: fae4 713c 2fb7 183b 23ac 26bb 6ed6 e7bb
00000100: 0bc8 8b3b ae76 e13b ea2d 433c a1bc 2b3c
00000110: b3a7 943c 36f8 773c f0e0 373c 7a96 893b
00000120: 1d76 fb3b bb14 913c 7605 d13b bdae c83b
00000130: 8643 873c 74d8 e63c 0a50 a83c 2518 d53b
00000140: 94fb 1d3c 5ebc 7f3c 2eaf 8b3c b31d 1e3d
00000150: c20f f73c aca3 9d3c 4778 363c 0085 103c
00000160: 6bd9 b23c 4250 973c cb61 bc3b df67 9e3a
00000170: 5336 e639 37a7 fc3a 59b9 a83c 81e0 c03c
00000180: d99b b23c 1dd2 9e3b a559 1c3c ef01 ae3c
00000190: 6177 183c a4b6 103c c2ef 853a 78ab dd3a
000001a0: a16a 0f3c 2d4a ad3c 34ef 5a3c b971 1bba
000001b0: 1803 403c 4556 8e3c 2967 633c a70b 5e3c
000001c0: 3ae0 9d3c ad3d 863b 7d2d 023c 621d 1e3b
000001d0: d381 283c 2f2a 793c 821d 6f3b 2b15 913b
000001e0: 41a2 523c f8ca 683c fb07 373c 2123 7c3c
000001f0: a0e9 0c3c 6bf4 d33b cf02 423c 8416 773c
00000200: ea20 0e3c f7e6 d9bb 40c0 4b3b 5a48 f43b
00000210: a946 a33a 0621 d93b a417 683c f76b ed3b
00000220: 077e 143c 2520 273c e385 923c 6e4e 663c
00000230: c894 ab3c 9e11 703b 398e 293c 4d08 9d3b
00000240: 6f6c a4bb 122d f43b f09b 2f3c 7c0c b9b9
00000250: 327d 833c 3d04 4b3c 33b4 523b f73e 5c3c
00000260: 2459 113b 79e8 0fba 3ffb 143a eb23 df3b
00000270: 7fe8 173c ae6f 20bc 70b2 20bb 1e9c 7b3c
00000280: a706 733b 23d2 cc3b fd68 ad3c 5e37 6b3c
00000290: 5ca7 473c 0511 f23b c4e7 4b3c 72b7 3c3c
000002a0: 1654 1f3c e262 4a3c 0d1f ad3c 4971 833c
000002b0: e890 3e3c 98c4 af3b f0ad 363c 2689 e7bb
000002c0: 2c12 a9bb 1017 78b9 8d49 bb3b 16f1 ae3b
000002d0: 550f e53b 7b55 a93b 60b9 0f3c a4bb bf3c
000002e0: ed48 a33b 721b 463c 193d 2d3c b899 873b
000002f0: 4e29 553c c2ab a33c c0ea 0e3c 0158 5a3b
00000300: 3de1 123c 4808 173b 8836 ab3b df28 f23c
00000310: 0b29 9a3b 248f 6f3c fc4f a13c 9269 3a3c
00000320: 9bfb 933c 7f22 2b3c 9e4e 813b bc3e 44bc
00000330: cc0c 0ebc cf3b 57bb 8076 1f3a d465 273b
00000340: de98 a73c ba77 363c 5108 c83b 4091 373c
00000350: 22d5 ce3a d749 b6bb 4f0d 433b dc0b e53b
00000360: 3470 073c f2e4 d83b 46b9 973a d1f0 ec3b
00000370: 1683 c53b 9292 bd3b 5892 883c a179 483d
00000380: 54f7 1b3c 7756 ad3c 7c75 373c c047 15ba
00000390: 3df3 b13b 0337 ecba b5c2 b2bb 1fe5 7abc
000003a0: 4846 bdba 9e4c e63b 4034 1ebb ca8e 86bb
000003b0: 3c3c e63b ecec 183c 95e9 f63b 5ab0 02bb
000003c0: 13ab c2bb 9400 5fbc 484e 3fba 8cb1 ca3b
000003d0: e0b9 383c dc92 943a 6359 743c 5006 433c
000003e0: bc5f b23a 1927 a539 7e78 083c 9ad8 043d
000003f0: 2034 783c b612 a8ba 30f7 68bb 83d8 aabb
0.040367864 0.040548373 0.028276233 0.024123002 0.027076727 0.029971233 0.016972596 0.012656196
0.016921228 0.012308971 0.03148512 0.024075296 0.0212844 0.020937247 0.016505249 0.016295573
0.030469058 0.02358442 0.004879818 0.0012979362 0.011574632 0.027729457 0.022550529 0.025886048
0.017438602 0.007346776 0.02655784 0.04368216 0.039385803 0.031180583 0.016099446 0.011154259
0.012841861 0.0104293 -0.0006557053 0.0005155352 0.008041244 0.008941024 0.014194819 0.000120860816
0.0078530945 0.018521992 0.019301675 0.011777207 0.009804192 0.009984773 -0.0053054783 0.00043797417
0.0058524283 0.018636892 0.015901534 0.017790515 0.007393397 -0.00486849 0.010769741 0.038855523
0.041217204 0.02531328 0.020163624 0.005949125 0.014764065 0.0023302545 -0.0025432191 -0.0070751226
0.0042657903 0.006880603 0.011912802 0.010481984 0.018146371 0.015134862 0.011223063 0.0041988464
0.0076739923 0.01771008 0.006378825 0.006124346 0.01651169 0.028179385 0.020545978 0.0065031224
0.0096425 0.015608875 0.017051306 0.038602542 0.030158881 0.019243084 0.011137075 0.008820772
0.021832189 0.018470887 0.0057489625 0.0012085399 0.00043909493 0.0019275908 0.020596193 0.023544552
0.02180283 0.004846825 0.009542857 0.021241156 0.009305806 0.008832607 0.0010218548 0.0016912064
0.00875345 0.021153534 0.0133626945 -0.0005929727 0.011719488 0.01737512 0.013879576 0.013552583
0.019271959 0.004096708 0.007945416 0.00241264 0.010284859 0.015207811 0.0036486094 0.0044275722
0.012856067 0.014208548 0.011171336 0.015389235 0.008600622 0.006468346 0.01184149 0.015081052
0.0086748395 -0.0066498476 0.0031089932 0.007454914 0.0012456971 0.006626251 0.014165793 0.0072455364
0.00906325 0.010200535 0.017886108 0.014056785 0.020944968 0.0036631594 0.01034885 0.0047922493
-0.005017809 0.007451662 0.010718331 -0.0003529525 0.016050909 0.012391147 0.0032150864 0.013442746
0.0022178376 -0.0005489658 0.00056831905 0.0068097017 0.00927174 -0.0097922515 -0.002452042 0.015357045
0.0037082823 0.006250636 0.021168226 0.014356462 0.012185898 0.007387283 0.012445394 0.011518346
0.0097246375 0.012352677 0.02113297 0.01604523 0.011631228 0.005364012 0.011149868 -0.00706591
-0.005159637 -0.00023659714 0.005715555 0.0053387983 0.006990353 0.005167661 0.008772224 0.023404904
0.0049830587 0.012091504 0.010573649 0.0041381977 0.013010336 0.019979361 0.008722961 0.0033316615
0.008964834 0.0023045707 0.0052250065 0.029560504 0.0047045997 0.01462153 0.01969146 0.011377709
0.01806431 0.010445236 0.0039461395 -0.011977848 -0.008670043 -0.0032842045 0.00060830265 0.0025542872
0.020458635 0.0111369435 0.006104507 0.011204064 0.0015780071 -0.0055630016 0.0029762571 0.006989939
0.008266497 0.0066190893 0.0011575602 0.007230856 0.0060275896 0.005785295 0.016671345 0.04894412
0.009519417 0.021159394 0.011197444 -0.00056945905 0.0054306076 -0.0018021766 -0.00545534 -0.015313416
-0.0014440501 0.0070281764 -0.002414003 -0.0041063773 0.0070262235 0.00933383 0.0075351694 -0.001994154
-0.005940804 -0.013610978 -0.00072977366 0.006185716 0.011274785 0.0011335271 0.01491389 0.0119033605
0.0013608853 0.00031500382 0.008329509 0.03243313 0.015149146 -0.0012822959 -0.0035547726 -0.0052137985

linear_layer.bias f4 [9]
00000000: 4280 09c0 4602 3e3f 7354 ce3e f4dc 163f
00000010: bcf8 2bbf 3494 4d3e 0df4 333d f811 123d
00000020: 7f2b 4e3f
-2.1484532 0.7422222 0.40298805 0.589309 -0.67176414 0.20076066 0.043933917 0.035661668
0.8053512
