results/torch_1L_lstm_model.pt (torch, 214431 bytes, 6 tensors)

lstm.weight_ih_l0 f4 [400, 28]
00000000: d509 35bd 8378 673e 43f6 7a3d 23d3 8fbd
00000010: 1a53 b23d 2d85 aebe 3953 c23d 003f 29bb
00000020: 4b85 44be 83f4 27be 6082 74bd 39db d23c
00000030: 0980 f0bd 9ec9 26bd 1b2c 54be 593f 04bd
00000040: 84ef d6bd 713c 083e 2cfb e23d 8420 90be
00000050: 8c27 d0be 71af a83c b6d2 5cbe 8974 76be
00000060: 691c 25bc af49 fd3d 4dd4 ad3e 63ca 613e
00000070: 20d1 4dbe 68d4 32be ff64 9cbd 6d89 c13d
00000080: c5e8 df3c 9238 5b3e fa4c 7f3d 2ab7 66bd
00000090: a766 073e 8ea7 d83c 5271 4bbd c8d8 cebe
000000a0: 8416 ddbd 745e 8e3c 3a35 263e cca6 263e
000000b0: bc8e 72be 6612 82bd 3135 25bd 5de1 4fbe
000000c0: 877c aebe 1de2 9fbe bd56 95be 9b4e 5dbe
000000d0: 7b0a 1a3e c3ab 193f 9dfa 5a3e 9ed2 acbd
000000e0: 0f46 a2bc baa2 da3b ddf8 323e 8981 133e
000000f0: d301 2f3e 6fd9 173e 2c02 363e f3cd 363e
00000100: ae09 54bd 5327 1e3e 5fca 8a3d da6c 88bc
00000110: 149b cd3d b6f5 273d b83c 983e d196 5d3e
00000120: 4f92 963d f288 c4bd b76f 1f3d d416 23be
00000130: f1b6 16be 8bdc 323d 2de8 ca3c 25ed 13bd
00000140: 898c 8dbd 73ff 33bb 951b 233d e1e3 2c3c
00000150: ba79 1a3e 3942 d4bc a174 0d3d 13f3 233e
00000160: 1840 75be 9c0f 34be 5533 4ebe a7e6 97be
00000170: f4f7 9abe 7356 a6be 941f 05be 11f7 01bf
00000180: 1f32 09bf 2ad6 13bd d287 1ebd 637d 333e
00000190: a2b2 b9bd e78e 193e 7e82 e63e b36a 813e
000001a0: d335 2d3e 848e dc3d 2d68 fabb d746 1f3d
000001b0: 79c9 64bb 224a 21be 6b93 c3bd f42f 3f3e
000001c0: 886c 32be 6db0 12bd 85d5 26bd fa22 68be
000001d0: 8906 223d 9c8d 49bd 3a09 183d 276f 9fbd
000001e0: 4eb0 16be 7d15 86bd 22c1 b33d 23cf 2f3d
000001f0: 216b 6e3e ee19 013f d68c 873f cffc 823f
00000200: b731 d03e d606 36be 7eee 383e 96cb da3e
00000210: 6b75 713e 4027 a93c 8311 5e3e ebd9 04be
00000220: b499 43bc 637b 833e 236a c33e f587 92bd
00000230: 9540 09be c8f1 3c3d 9145 9f3e 0340 773d
00000240: 70b2 513e bf81 983e d9f1 813d 272b a4bc
00000250: ca9c ef3e 1b4b 853e 1ee6 603d 0745 7dbe
00000260: 78a0 36be 7609 9fbd 7efb 86bd 3821 ae3d
00000270: 69d6 91bd 0e61 1fbe 9445 b33d 0624 873c
00000280: 3753 85be 8993 72be 01c0 193d 81fe 103e
00000290: a586 183e 9771 4e3e 16a9 343e a026 dd3d
000002a0: 6ed3 37bc 18ae 49be ee1e 85bd a13f 50be
000002b0: 4147 743b 81e1 10be 9a99 e83d 6e75 893d
000002c0: e892 6ebe 5821 b6be a35c 2abe 78c2 033d
000002d0: 2f26 24bd 4f4f a23d 4193 83bd eac6 de3d
000002e0: bc15 873d 5385 3c3e 3d4d 513d c985 4cbe
000002f0: bacb 4abe fdf8 11bc 6713 41be c722 b03c
00000300: 4eef a33e 3f39 c83e 3483 973e 5b21 bfbd
00000310: 4ed1 d73d 82fd 343e ef07 3c3e f907 fa3d
00000320: 410a 843d 0735 153e 0ffd 7f3e dee5 963c
00000330: 3f8d a33d 1583 c53d f132 09bb 94fb 173e
00000340: 6bb0 663e b41b 043e 40b0 393e bade 5a3e
00000350: ed1e 553e d545 173e 19fa 48bd f670 fa3d
00000360: 987c f83d 998e 533e 3403 043e e632 99bd
00000370: a3b9 de3c 7ac6 a23d 27bc 313e ca69 5a3d
00000380: c85a 6cbe 761b 1fbe b0a5 d83c eeae 053e
00000390: 4540 9bbd eaca afbd fcee bb3c 30d3 73be
000003a0: a28e 0abe a3e0 873d 8c47 27be 39f8 c93d
000003b0: 9934 7f3d ff8b cbbd d857 4dbb f104 a5bb
000003c0: c86d 34bd 60b5 abbe e921 77bd 00d5 1c3d
000003d0: 83d8 35bb a35c 143d d617 b53d 2b80 29be
000003e0: 787c 84be 6220 5ebd 2576 adbe 79c4 04be
000003f0: 0240 a03e d2bc 223e ef42 993e 36b7 fb3d
-0.04419883 0.22604565 0.06127001 -0.07022693 0.087072566 -0.3408598 0.0948853 -0.0025824904
-0.19191472 -0.16401868 -0.059694648 0.0257393 -0.11743171 -0.04071962 -0.2071995 -0.032286976
-0.10494903 0.13304307 0.110830635 -0.28149807 -0.40655172 0.02059147 -0.21564755 -0.24067892
-0.010077574 0.1236757 0.33951035 0.2204986 -0.20099306 -0.17463839 -0.07636451 0.0945004
0.027332673 0.21408299 0.06232927 -0.056327023 0.13222753 0.026447084 -0.049668618 -0.40399766
-0.1079531 0.017379023 0.16231242 0.16274565 -0.23687261 -0.063511655 -0.04033393 -0.20300813
-0.34079382 -0.31227198 -0.2916774 -0.21612017 0.1504306 0.6002771 0.21384664 -0.084386095
-0.019808797 0.0066722305 0.17477746 0.14404882 0.1709054 0.14829038 0.17774266 0.17852001
-0.051767044 0.15444688 0.067768805 -0.016653467 0.100393444 0.041005813 0.29733825 0.21639563
0.07352125 -0.09596433 0.0389249 -0.15926677 -0.14718224 0.043667357 0.024768913 -0.03611483
-0.069115706 -0.0027465492 0.039821226 0.010552377 0.15085497 -0.025910484 0.034535054 0.16010694
-0.23950231 -0.1758408 -0.20136769 -0.2966816 -0.30267298 -0.3248783 -0.13000327 -0.5076762
-0.53592104 -0.036092915 -0.038703747 0.175283 -0.09067275 0.14995919 0.45021433 0.25276718
0.16915064 0.1076937 -0.0076418133 0.038885918 -0.0034910126 -0.15750936 -0.09549602 0.18670636
-0.17424214 -0.035812784 -0.04073097 -0.22669592 0.039557014 -0.049207315 0.037118174 -0.077848725
-0.14715692 -0.06547067 0.087770715 0.04292215 0.23283054 0.5043019 1.0589855 1.0233401
0.4066293 -0.17776045 0.18059728 0.4273345 0.23579948 0.020648599 0.21686368 -0.12973754
-0.011938501 0.25680074 0.38166913 -0.07154838 -0.13403542 0.046129018 0.31107762 0.06036378
0.20478225 0.29786488 0.06344957 -0.020040108 0.46799308 0.26033863 0.054906957 -0.24733363
-0.17834651 -0.077654764 -0.06590937 0.0850243 -0.071209736 -0.15564367 0.08753505 0.01649667
-0.2604005 -0.23689093 0.037536625 0.14159586 0.14895113 0.20160519 0.17642626 0.10798383
-0.011219842 -0.19695318 -0.0650004 -0.20336773 0.0037273916 -0.14148523 0.11357422 0.06711851
-0.23298228 -0.35572314 -0.166369 0.03216788 -0.040075477 0.07925283 -0.06424571 0.108777836
0.065959424 0.18410234 0.05109905 -0.1997291 -0.19804278 -0.008909461 -0.18855058 0.021500958
0.32018512 0.39106175 0.29592288 -0.09332534 0.105379686 0.1767483 0.18362401 0.12208552
0.06447268 0.1457101 0.24998878 0.018420156 0.07985925 0.096441425 -0.0020934904 0.14842063
0.22528236 0.12901193 0.1813364 0.21374026 0.20812578 0.14772733 -0.049066637 0.12228577
0.12133139 0.20659865 0.12891847 -0.07480411 0.027188128 0.07948013 0.1735693 0.053323545
-0.23081505 -0.1553782 0.026446193 0.13055012 -0.07580618 -0.08583625 0.022941105 -0.2381103
-0.13530973 0.06634643 -0.16335887 0.09861798 0.06230602 -0.099388115 -0.0031332877 -0.0050359895
-0.044050008 -0.33536816 -0.060335074 0.03828907 -0.002774746 0.036221158 0.08842437 -0.16552798
-0.25876212 -0.0542301 -0.338792 -0.12965573 0.31298834 0.15892342 0.2993388 0.12290804

lstm.weight_hh_l0 f4 [400, 100]
00000000: 628c 9e3d f33c c2bc 14e6 833d cfd2 bb3d
00000010: 2463 b53c ebc6 4f3e b613 843e a0f2 82be
00000020: 2f64 d8be fdba b2be 50b5 323c 1f0f 47bd
00000030: ba20 d1bd a813 8b3e ef6c 763e 24a1 b3bd
00000040: ca9e 593a c8eb 9e3e e322 f0bc 2cc9 9a3e
00000050: 037e b83e 5498 273d 8382 953e aa7f 72be
00000060: 945b 9a3e d41f 01be 2ad3 633e 2c0d 05be
00000070: 549a 24be 1cc6 debd 4976 88be cd1b 11be
00000080: 70e6 abbe 3f28 753d be13 b33e ad46 6e3e
00000090: 5bb2 bfbc 1237 813d 8034 903d 96ba 943e
000000a0: 8e7b 0f3e 3b96 3bbe 60e8 973d aa17 13be
000000b0: 09e7 d6be e74e 973d 0d90 a13e f341 c43c
000000c0: 7c70 2dbe 3348 143e d777 a2bd 491b c4bc
000000d0: f9ce 39bd 08f0 c1bc 717a 253e 7084 cb3e
000000e0: 3d25 f7bc d9d8 3b3e a8a8 66be ed49 c73d
000000f0: b2cf 07be ea47 9c3d 8591 7bbd aad2 b9bd
00000100: 3363 cbbe 20c0 213e 713a b4bd 9f66 833e
00000110: 59ce debd 36c9 e73d 103c 893e ea5a febb
00000120: 4438 f53d bab9 723e 45b9 3fbe e2c6 983e
00000130: 28cc 36ba 959d 66bd 43f5 613e 244d 353e
00000140: 786d 78bd cb60 3cbe 1d6d 5d3d f468 653a
00000150: 8966 c43c a03a e9bd bda2 39be 1cab d3bb
00000160: 40d1 03bf 3acd 4a3e 7cc8 d5be 8279 29be
00000170: 4d53 103e 48c0 a83e eea9 cd3d e8f1 0dbe
00000180: 08eb 753e ff23 f23d 4f82 6e3e 5793 843e
00000190: fab0 bd3e fece 2e3d 8eb6 5b3e d529 b4be
000001a0: 5ee8 f43c 6ff5 063e 6193 d03d b21f 913e
000001b0: b0a3 1d3c 4c20 fa3d 4187 1fbe fbd0 353e
000001c0: a143 ed3d d73b 4dbe 023e 19be e0d9 0ebe
000001d0: d89c 1b3c ba7a 703e 1032 2e3c 3b90 5d3e
000001e0: e538 b03e bdfb 823e 7368 fd3c c0a1 993e
000001f0: 3462 883d 4009 2b3d f19b 873a 5c06 f73d
00000200: 705a 94bd a6ae 673d c5ba ba3d a28f 4ebd
00000210: 5b27 a8bc 2986 18be fdf0 13be a091 843e
00000220: 70b9 2e3e 09fa 36be 9da9 213e af08 573e
00000230: 94ec cd3c e26d 74bd 26bd d0bd 1129 90be
00000240: c42b 55be 4371 8b3e a2a7 533e e7be 843e
00000250: ba4e c53e fe67 573c 1dda ac3d 0642 713e
00000260: b70e c2bd 0a40 cd3c 2c72 2d3e b343 843b
00000270: c2f8 abbd f91b 043f 32a9 c9bd 4dc2 e23d
00000280: bd1e a2be 430f 843d 72c1 26be e937 b23d
00000290: 177d 28bd 2153 3b3e 268c 873e 17e4 29bd
000002a0: 939c 9e3d e4c5 97bd 0ef5 35bd 3ecd 64bd
000002b0: 5d99 5fbc 853e 71bd c8f0 f23d bd99 22bd
000002c0: e29a ee3d 8082 993e 7774 29be 6893 e0bd
000002d0: 79d3 0cbe e937 4bbe dfd8 903e 0281 7c3d
000002e0: 93ac e83d 2ca4 f53c 8dfc d83c 1c79 70be
000002f0: 0d61 f2bd f048 5ebe f441 953e 4aff 2dbe
00000300: 7a5e 413d 9ec6 a1bd a718 473e 21d0 2cbe
00000310: b476 363e df1f 333e 7e66 dd3d a36d b33d
00000320: 08f8 5dbd 2e61 0a3d 2232 ac3e c118 ab3d
00000330: 1ea0 57be 2d94 de3d e600 853c 4228 8b3d
00000340: 2c85 043d 63c0 e3bd 104a 12be 415a 08bd
00000350: 8229 2b3e a963 263e a0de 08be 8f42 8c3d
00000360: 3052 be3d ef68 7bbd ea16 62bb cb95 00be
00000370: af02 92ba b90b fb3d bb36 a73d 077e dcbd
00000380: 0376 7abe 6d75 363e 3d48 bfbd edea 483e
00000390: 83f4 a8bc 8197 3dbd 597d 14be 0824 35be
000003a0: 0751 a53d 0627 32be b44a 95bc 7f74 d73c
000003b0: b865 73bd eccf 16be 6d05 163d 49ac 993c
000003c0: e793 9dbd b14a 08be 57ed e43c dcaf b93d
000003d0: 91b0 47bc efea db3d 97db abbd faa2 95bd
000003e0: dbe3 3abd 74ac 913c 8461 97bd fd6f 57bb
000003f0: c6bb eabc 389d 29bd 00ac e6ba b48f 2cbe
0.0774162 -0.023710703 0.06440368 0.09171068 0.022142 0.20290725 0.25796288 -0.25575733
-0.42263934 -0.34908286 0.010907486 -0.048598405 -0.1021132 0.27163434 0.24064992 -0.087709695
0.00083015545 0.31039262 -0.02931351 0.30231607 0.3603364 0.040916756 0.29201135 -0.23681512
0.30147994 -0.12609798 0.22248521 -0.12993306 -0.16074497 -0.1087763 -0.26652744 -0.14170761
-0.33574247 0.059852835 0.34976 0.23269148 -0.023400476 0.06309332 0.070412636 0.29048604
0.14011976 -0.18319027 0.07417369 -0.14364496 -0.4197314 0.07388096 0.31555215 0.023957228
-0.1693744 0.14480667 -0.07933014 -0.023938792 -0.0453634 -0.023674026 0.16159989 0.3974948
-0.030169124 0.1834444 -0.22525275 0.09730897 -0.13262823 0.07630904 -0.061418075 -0.09073384
-0.3972412 0.15795946 -0.08800209 0.2566423 -0.108792014 0.11317675 0.26803637 -0.0077623026
0.119736224 0.23703662 -0.18723018 0.29839236 -0.00069731707 -0.056302626 0.22066216 0.17705208
-0.060651273 -0.18396299 0.054059137 0.0008751296 0.023974674 -0.11388135 -0.18128486 -0.006459607
-0.51491165 0.1980485 -0.4175452 -0.16550258 0.14094277 0.329592 0.10042177 -0.13861811
0.24015439 0.11823272 0.23291896 0.2589366 0.37049085 0.042677872 0.21456358 -0.35188165
0.029895958 0.13179563 0.1018436 0.28344494 0.009621546 0.122131914 -0.15578939 0.17755501
0.11585165 -0.20042358 -0.1496506 -0.139503 0.009497844 0.23484316 0.010632053 0.21637051
0.34418407 0.25582686 0.030933594 0.30006218 0.06659356 0.04175687 0.0010346157 0.1206176
-0.07243812 0.056563042 0.09117655 -0.050429948 -0.020526579 -0.14894928 -0.14447398 0.25892353
0.17062926 -0.17868818 0.15787359 0.20999406 0.025137223 -0.059675105 -0.10192327 -0.2815633
-0.20817477 0.2723485 0.20669416 0.25926897 0.38536626 0.013147352 0.08440039 0.23560342
-0.09475463 0.02505495 0.16938084 0.0040363907 -0.08397056 0.5160518 -0.098467246 0.11072216
-0.31664076 0.064482234 -0.16284731 0.0870207 -0.04113492 0.1829343 0.26474112 -0.04147729
0.07744708 -0.074107915 -0.044423155 -0.055859797 -0.0136474045 -0.058897514 0.11862332 -0.039697398
0.11650635 0.29982376 -0.16548334 -0.109656155 -0.13752545 -0.19845547 0.2829046 0.06164647
0.11361041 0.02998551 0.026487613 -0.234837 -0.11834917 -0.21707511 0.2915188 -0.16991916
0.04720924 -0.07899211 0.19442998 -0.1687627 0.17818719 0.17492627 0.108105645 0.08761146
-0.05419162 0.033784084 0.33631998 0.08354331 -0.21057174 0.10868106 0.01623578 0.06794788
0.032353565 -0.11120679 -0.14286065 -0.033289198 0.16715053 0.16248955 -0.13366175 0.068486325
0.0929302 -0.06137937 -0.003449852 -0.12557141 -0.0011139716 0.12258095 0.08164736 -0.10766225
-0.2445908 0.17818232 -0.0933995 0.19620867 -0.020624405 -0.046287064 -0.14500941 -0.17689526
0.08072095 -0.17397699 -0.018224098 0.026300667 -0.05942318 -0.14727753 0.03662627 0.01875891
-0.07694226 -0.13309743 0.027945204 0.09066746 -0.012188093 0.107381694 -0.08391493 -0.07306476
-0.045627456 0.017782427 -0.073916465 -0.0032873147 -0.02865399 -0.0414097 -0.0017598867 -0.16851693

lstm.bias_ih_l0 f4 [400]
00000000: 0251 01bf 709f c8bd 9abe df3d 2bae 95bd
00000010: b766 cf3e 7a5b 06bf 4b1f b13d 8f83 3f3d
00000020: adc5 cabe 8021 6d3e 2696 1abd 6bb3 d13e
00000030: 7e8f c73d bdde c7be 7751 283c 42a0 bcbd
00000040: 5436 283d afeb 15bf b15b 33be 2bea 123b
00000050: 9aac f7bd 18f7 e4be 785d 30ba 9943 64bf
00000060: ab41 933e cacf 6abd 96bb 1b3e bef0 9dbe
00000070: 1e74 f2be 1d5d a03d 2862 74be 1e9e cdbc
00000080: 99c9 a23d 7854 12bf 9c7d 62be a6a7 8fbe
00000090: ad75 b6bd b66e 7e3d 10b6 d83e f692 c7be
000000a0: f98e a9be 3a5d adbe 70be 2fbe 6b87 82be
000000b0: 8259 fcbd 88aa ccbe 4c05 d9bd e844 1bbe
000000c0: 65bf a8be 4856 eabe ebc5 cebd b7e2 5a3d
000000d0: f7a1 2dbf 4577 923e a249 cabd b839 5a3d
000000e0: 9123 efbe 4d15 8ebf fe62 78bb b40d 50be
000000f0: 2b52 b4be 224f 55be 4b97 a23e d810 28be
00000100: 4331 7dbe 1cd2 ff3d b6c2 07bf 8397 aabe
00000110: d374 143e c335 793f dc29 c6bd 2473 cebe
00000120: e80a 5ebd 67c1 ddbd 03ab 813e b27f a3be
00000130: 0c5e 64be fc36 33be 19da 9cbe 606c f1be
00000140: a637 92bd 0d24 0a3d 05af 3fbc 2d32 9abe
00000150: 5d1c 96be b381 263e 32ed eabd 4495 5c3d
00000160: 098f 0cbf 69cf 44be fa94 7cbe a581 23bf
00000170: a377 0c3d f0a6 8e3a e44e 7fbe eb14 c2be
00000180: 3f74 ccbd df48 11bf 5b2d 49be 910a b9bc
00000190: 031e 4d3f 8f60 cd3e 3904 74bc 80a2 ae3e
000001a0: f650 c8be c6b3 253f c2cc 043e 78b5 9dbd
000001b0: dd3b b73e a9a1 debe 7660 bd3e 4494 89be
000001c0: 106f 69bc acf5 2e3e 3b33 873d 4ef1 97bc
000001d0: 1667 06be 176d 013f a7fe d53e 5a95 803e
000001e0: fa59 323e 73ec 4b3f 0b92 35be 183a 3b3f
000001f0: cc99 59be f697 a43e 30a4 6a3e 7d0b 533e
00000200: d055 613f 9e92 7fbe 52d0 653e b754 043e
00000210: 7751 413e 51c6 2a3f 3ce8 153f 7f7a 0a3f
00000220: 6422 6b3e 2ce9 f23e 242d 5abf 5d1a 513f
00000230: 88b1 dc3e 3806 173e 8a73 903e 0c84 393e
00000240: 6e78 cb3e 159d 563e ec57 dd3e 62d8 833e
00000250: d79b 613f c146 8b3e 459c bd3d 7b62 abbe
00000260: c1ba 2b3f e172 e8be 8286 323e 7574 4e3e
00000270: 4859 043f 9561 4a3f d469 bd3e e439 5c3d
00000280: faf3 8a3e b1ca 093f b995 2fbf e1e2 553e
00000290: 96ac 043f 35c3 b23d 077d c03e 781b b33e
000002a0: a9e6 e03d d29d 05bf a7c3 403e ce33 353f
000002b0: 848c ddbe 3c51 ed3e 55db eebe fb88 593e
000002c0: 3f41 a03e 7d91 c23e 8062 d83e 6f65 633f
000002d0: 8a78 433d 3379 ad3e 3520 fa3e b54d dd3e
000002e0: d186 2d3f e564 f9be 9720 9f3e dc5b 3d3e
000002f0: f1dc fa3e 5e2e d1bd c293 8f3d 769f 133f
00000300: 767f 973e eaba 0b3f 0a66 b93e dd9e 173f
00000310: 5d74 233e cc7e 013f c03d f73e d2a2 973e
00000320: eeeb ebbe 1494 a43e 480a 1c3e fba9 b23e
00000330: eb1f 053f 102f 66be 6dfe 233f f027 173f
00000340: 1f22 05bf 0a7e 6cbe 5dfe 97be 95d1 b73d
00000350: 71bb f63d b88a 5b3d 5389 7ebd f72b 073f
00000360: b6d2 153f 86dd 84bb 17ed 89be 16a0 b9bc
00000370: f9ad aa3e 50f5 853d 1829 0abf c2f4 b93e
00000380: e9cb 12be da4a 3f3f 412c 1dbf 907a a43e
00000390: 6f78 5abf ab65 743f 889d fabc a6fb 583d
000003a0: 1fcb 543f 957d 13be ed1b 55be 1b33 06be
000003b0: 99ee 90be cb52 bebe 8060 0abf 2658 6cbe
000003c0: c56b 9a3e 54a3 1d3e ee16 873d a2ac 20be
000003d0: 2c7a 383f 0e7d 9ebe 8e23 4dbf 8090 f0bd
000003e0: 388d e43a d79e 193f 707d 37bc 747a 343f
000003f0: ce87 db3c 7542 25bd 58ad 1fbf 9d79 42be
-0.50514233 -0.09796035 0.10925026 -0.073086105 0.40508053 -0.5248333 0.08648547 0.046756323
-0.3960394 0.2315731 -0.03774085 0.40957198 0.09744166 -0.39037123 0.010273329 -0.09210254
0.041067436 -0.5856275 -0.17515446 0.0022417407 -0.12093468 -0.44719768 -0.0006727795 -0.89165646
0.28761038 -0.05732707 0.15208277 -0.30847734 -0.47354215 0.0783026 -0.23865569 -0.02509981
0.07948608 -0.5716014 -0.22118229 -0.28057593 -0.089091636 0.0621173 0.42326403 -0.3897931
-0.33116892 -0.3386019 -0.1716249 -0.2549394 -0.1232176 -0.39973855 -0.105967134 -0.15163004
-0.32958522 -0.45768952 -0.100963436 0.05343887 -0.67825264 0.2860662 -0.098773256 0.0532777
-0.46706823 -1.110025 -0.00379008 -0.20317727 -0.3521894 -0.20830968 0.31756052 -0.16412675
-0.24725823 0.12491247 -0.5303148 -0.3331872 0.1449769 0.9734766 -0.09675953 -0.4032222
-0.05420962 -0.10827904 0.25325784 -0.3193336 -0.22301501 -0.17501444 -0.30635145 -0.47152996
-0.0713952 0.033725787 -0.011699443 -0.30116406 -0.29318514 0.16260414 -0.11471023 0.05385329
-0.54905754 -0.19219746 -0.24666205 -0.63869697 0.034293782 0.0010883491 -0.24932438 -0.37906584
-0.0998311 -0.5675182 -0.19646208 -0.022588046 0.8012392 0.4011273 -0.014893585 0.34108353
-0.39124268 0.6472744 0.12968734 -0.07700628 0.3578786 -0.43482712 0.36987656 -0.2687093
-0.014247671 0.17085904 0.06601568 -0.01854768 -0.13125262 0.5055708 0.41795847 0.25113946
0.17417136 0.7965767 -0.17731492 0.7313552 -0.21250075 0.32147187 0.22914195 0.20609851
0.88021564 -0.24958274 0.22442749 0.12922941 0.18878733 0.66708857 0.58557487 0.54093164
0.22962338 0.4744352 -0.8522513 0.8168085 0.43104196 0.14748466 0.2821315 0.18116778
0.39740318 0.2095836 0.43231142 0.25751024 0.8812842 0.27202418 0.09258322 -0.33473572
0.6708184 -0.45400146 0.17434123 0.20161612 0.5169873 0.7905515 0.36994803 0.053766146
0.27139264 0.5382491 -0.68587834 0.20887329 0.51825845 0.08728639 0.37595388 0.34981894
0.10981495 -0.5219394 0.18824635 0.7078217 -0.43271267 0.4635104 -0.46651712 0.2124366
0.3129978 0.38001624 0.4226265 0.8882665 0.047722377 0.3388153 0.48852697 0.43223348
0.6778384 -0.4870979 0.31079552 0.18492073 0.4899669 -0.10213922 0.070106044 0.57665193
0.29589432 0.54582083 0.36210662 0.5922678 0.15962358 0.505841 0.482893 0.2961641
-0.46078438 0.32144225 0.15238297 0.3489531 0.5200183 -0.2247889 0.640601 0.59045315
-0.5200519 -0.23094955 -0.2968625 0.089755215 0.1204747 0.05359909 -0.06214268 0.5280146
0.58524644 -0.004054728 -0.26938698 -0.022659343 0.33335856 0.0654093 -0.53968954 0.36319548
-0.14335598 0.7472359 -0.6139565 0.32124758 -0.8534002 0.95467633 -0.030592695 0.052974366
0.8312244 -0.14403374 -0.20811434 -0.13105433 -0.28307036 -0.3717254 -0.540535 -0.23080501
0.30160347 0.15394336 0.0659617 -0.15690854 0.7206142 -0.30954784 -0.8013238 -0.11746311
0.0017437106 0.60007995 -0.01119934 0.7049935 0.026798155 -0.04034658 -0.62373877 -0.18991704

lstm.bias_hh_l0 f4 [400]
00000000: 1c54 1fbf 5c37 b0bd a76e 853d 0894 18bd
00000010: e5a2 ba3e 9c5f 0cbf 871c 943d 197a 4fbc
00000020: 812d 89be aeff 403e eef3 233d ab89 853e
00000030: 6e57 3b3e dd89 c3be 3ec3 9fbd fe22 4cbd
00000040: 518d 02bd 9a35 f0be 5113 7fbe a5c0 2dbe
00000050: 90bd 88be 6db4 0abf b5c5 873d 232e 6ebf
00000060: 69f4 5c3e ec63 91bc b6ca b63d 7971 27be
00000070: dcfe f0be 2c35 2a3e 51db 43be b718 8f3d
00000080: 6417 5c3c ac80 15bf 0897 3dbe 0cb8 95be
00000090: 0035 543d a47b 19bd 38e6 c33e aa0d 99be
000000a0: 3cf6 62be 16b3 a3be 93f0 72be 1de6 8ebe
000000b0: 86ad 6dbe f55d 87be a497 21bd a464 79be
000000c0: 547c fbbe d095 08bf 8ce5 0ebe 517b 5c3e
000000d0: 21ce 17bf ed9b 803e ceb8 8bbe dc31 213d
000000e0: 3ddf e6be 5b87 88bf c339 5c3d f9ca 7dbe
000000f0: f392 c2be a84f 3ebe 99bc 973e 815d 4a3c
00000100: f46b 35be d1cd 583c 49a4 eabe 3be5 c8be
00000110: dcb2 c83c 23c1 5d3f d052 07be ba95 c3be
00000120: 02f8 633d c3bf 4cbe 4df2 543e b115 82be
00000130: ba91 35be 04f8 67be af99 b9be b1d3 fdbe
00000140: 2ab5 c5bd 8bdb 39bd 5b24 b0bd 9773 61be
00000150: 2681 0ebe 183f 903e 8b9b ae3c 8382 9d3d
00000160: 4047 e4be 07ee 86be de67 a0be 539e 48bf
00000170: 25a2 ef3d de79 06be 8e16 9fbe ba48 83be
00000180: 23a9 c4bd 0551 07bf bb3a 50be d2d2 1fbe
00000190: 97bc 5c3f 5933 d23e 1440 c33d d8ce 993e
000001a0: c093 98be 73c2 033f d3ee 51bc faad 343d
000001b0: cd7e c23e 65a2 cabe 2029 cb3e 9a62 96be
000001c0: 97c0 963d 20e6 f13d eb1c 873d 9c29 4d3b
000001d0: a051 02be 3ba1 b33e f909 d53e de33 4f3e
000001e0: c6e8 9f3d 23ad 453f e3b5 49be 5424 343f
000001f0: da9d 04be 0260 923e f83a 243e 8852 7c3e
00000200: ba21 3f3f d9e7 4cbe 232c db3d 76a9 ed3d
00000210: 31a7 6c3d 8550 233f 94a6 023f 3296 f93e
00000220: 36cc 0f3e d204 d83e b8df 58bf 338d 3c3f
00000230: 0446 ea3e 2e54 1d3e b9b6 3d3e e4c6 4a3e
00000240: e9b8 113f 9f92 573e 3f0b 133f 74f9 9c3e
00000250: f12e 533f a1c3 b03e c1cb e53d 8bf8 afbe
00000260: 71a6 373f ad97 acbe 96c7 7f3d 7de6 de3d
00000270: f6db 0a3f 8115 473f 9ae1 913e 8197 f1bb
00000280: d139 513e dcb6 e33e fde8 31bf 7d86 8e3e
00000290: 8e89 d53e f351 db3d bd66 be3e 6bda 4c3e
000002a0: c12e db3d 972c cbbe 7058 5e3d ac77 1b3f
000002b0: 12b8 e3be c6e9 de3e 3145 d1be 8ec8 a23e
000002c0: c53a 843e ad76 803e 6ddc 103f c75e 843f
000002d0: c727 993d 3f35 b73e 414e e63e 0d24 c53e
000002e0: b3d6 2c3f 0c00 a4be b198 c73e aadf 3f3e
000002f0: ea3d 0c3f a067 b4bd a335 963b b67d 233f
00000300: 4085 eb3e 7a70 e43e 1621 f93e fdbf 1d3f
00000310: 83e7 493e 419d f23e 2c88 f53e 78bf a63e
00000320: 6709 07bf 8e1d b83e 31cd d13d d356 903e
00000330: 834b 033f 3491 88be 135c 2d3f eb85 f83e
00000340: 57f5 04bf 48d5 6ebe bffb 95be 2542 e23d
00000350: ecc4 813e 8145 873d 749c f0ba bbed 083f
00000360: 1ac5 0f3f 21de 88bd 3138 bbbe 008a ddb9
00000370: ee5e 5d3e 947a 85bd f6c9 1cbf 1048 d03e
00000380: 60d3 ddbd 7ea4 353f 7fcd 0abf a2d2 d93e
00000390: e9bc 5ebf f0cd 883f 2f9f d4bc e72e bf3d
000003a0: eb61 283f 6d50 9dbd ad32 79be 1d8b c7bb
000003b0: 21bb b9be 171b d6be 92b4 19bf 1904 5fbe
000003c0: 8bd8 b03e f095 673e daa9 3cbd 0646 9dbe
000003d0: c255 0f3f 521f 93be d419 5bbf 3442 fabd
000003e0: e28c c5bc 25b4 2b3f 86a1 2fbe 1a72 573f
000003f0: 2ced 213d f341 253d 007d 1abf 23ae b7be
-0.62237716 -0.08604309 0.06515246 -0.03725055 0.36452404 -0.5483339 0.07232004 -0.012663388
-0.2679253 0.18847534 0.04002755 0.26081595 0.1829507 -0.3819112 -0.07800911 -0.04983806
-0.03187305 -0.46915895 -0.24909712 -0.1696802 -0.26707125 -0.5418156 0.066295065 -0.9303915
0.2157761 -0.017747842 0.08925383 -0.1635188 -0.47069442 0.16621846 -0.19126631 0.06987136
0.013433311 -0.5839946 -0.18514645 -0.2924198 0.051808357 -0.03747143 0.3826158 -0.29893237
-0.22164243 -0.3197257 -0.23724584 -0.27909938 -0.23210725 -0.2643887 -0.039451256 -0.24354798
-0.49118292 -0.53353596 -0.13954753 0.21531416 -0.592989 0.25118962 -0.27289432 0.03935419
-0.45092192 -1.0666307 0.053766023 -0.24784459 -0.38002738 -0.18585074 0.29636076 0.012351395
-0.17716962 0.013232664 -0.45828465 -0.3923739 0.02449935 0.8662283 -0.13215184 -0.3820017
0.05565644 -0.19995026 0.20795555 -0.25407174 -0.17731372 -0.22653204 -0.36250064 -0.4957557
-0.09653695 -0.045375388 -0.08600684 -0.2201675 -0.13916454 0.28173137 0.021314403 0.07690909
-0.4458561 -0.26353475 -0.31329244 -0.78366584 0.117008485 -0.13132426 -0.31071895 -0.25641423
-0.09602573 -0.52858 -0.20334904 -0.15607765 0.86225265 0.410548 0.09533706 0.30040622
-0.29800224 0.5146858 -0.012813288 0.04411123 0.37987366 -0.39577022 0.39679813 -0.29372102
0.07360952 0.11811471 0.065973125 0.0031305319 -0.1272645 0.35083947 0.4160917 0.2023463
0.0780807 0.7721731 -0.1969829 0.7036793 -0.1295084 0.28588873 0.1603812 0.24640858
0.7466084 -0.20010318 0.10701778 0.11604588 0.057776634 0.6379474 0.5103543 0.48747402
0.14042744 0.42191178 -0.8471637 0.7365295 0.45756543 0.15364143 0.18526734 0.19802433
0.56922776 0.21052025 0.57439035 0.30659068 0.824935 0.34524253 0.112205036 -0.3436931
0.71738344 -0.3370947 0.0624462 0.10883806 0.54241884 0.7776719 0.28492433 -0.007372797
0.20432211 0.44475448 -0.69496137 0.2783698 0.41706508 0.1070899 0.37187758 0.20005195
0.10702277 -0.39682457 0.05428356 0.6072948 -0.44476372 0.4353773 -0.408731 0.31793636
0.25826088 0.25090542 0.56586343 1.0341424 0.0747829 0.3578281 0.44981578 0.38504067
0.67515105 -0.32031286 0.38983682 0.18737665 0.54781973 -0.088088274 0.0045840307 0.63863695
0.460001 0.44617063 0.48658055 0.61621076 0.19717221 0.473856 0.47955453 0.32567954
-0.5274872 0.35960048 0.10244215 0.28191242 0.51287097 -0.2667328 0.6771862 0.4853967
-0.5193686 -0.23323548 -0.2929363 0.11047772 0.25345552 0.06605054 -0.0018357174 0.5348775
0.5616013 -0.06682993 -0.36566308 -0.00042255223 0.21618244 -0.065175205 -0.6124567 0.4067998
-0.10831332 0.7095412 -0.5421981 0.42543513 -0.87007004 1.0687847 -0.02595481 0.09335118
0.6577441 -0.076813556 -0.24335738 -0.0060895816 -0.3627558 -0.41817543 -0.60041153 -0.21778907
0.3454021 0.2261579 -0.04606042 -0.30717486 0.5599023 -0.28734833 -0.85586286 -0.122196585
-0.02411503 0.67071754 -0.1715146 0.8415848 0.039532825 0.040346097 -0.60346985 -0.35875043

fully_connected.weight f4 [9, 100]
00000000: 3f62 9b3f 7e32 dabe f2e6 f4be 2da7 9fbf
00000010: e001 dfbe faf2 4e3e 50e5 153f b9ae c03b
00000020: 0fbd 1cbf bd87 673e 5020 9c3e 40ce 873e
00000030: 92e0 83bd 1ef5 3ebf b217 c7bc d8c2 5d3e
00000040: 6caf bf3e 4831 09bf beed 70bf 9fec 16be
00000050: 73e2 3a3e f05b 30bf 35db fb3e aa5e 2cbe
00000060: e80b 26be ffd1 0abf 8414 5e3e 4d75 91be
00000070: c1d6 2e3f 11d1 e5be c6f3 523d f544 a9be
00000080: df7f 4cbe 656d 18bf 80c9 633e d39b 8c3e
00000090: 8d38 8bbe 5d57 29be 6466 ba3d 0a37 8fbf
000000a0: a2ab 433f e073 cb3e 8c35 0bbd 1aba 4f3d
000000b0: 5bba 893e 80b7 8bbe 1437 223f 4682 923e
000000c0: a2d8 ff3e cb6a 1b3d fcff 04bf f8f6 d5be
000000d0: 2465 83bd 9d31 b5be 1e82 6dbf 2d6a 523f
000000e0: 3b20 653d 8af0 943f 1388 38be 0025 893f
000000f0: 3df2 903e 68eb 08be 1237 333e 9684 193e
00000100: 7dba d83e d879 343f f788 ca3e 2120 0fbf
00000110: d21d fa3c 107a b9be 9d9c 0f3d a540 00bf
00000120: 83db d63e 569f 34be d6e7 803e 452d 453f
00000130: c76c ebbd 6a48 c5be 4afc aa3d 8b99 fcbe
00000140: 7765 0c3f 1ab4 6c3e 1cd6 8c3f e0b9 6a3e
00000150: 13e1 7f3f 7b48 293f bd1a 063f c1f2 25be
00000160: a2c9 563f e237 0a3f d863 60bf 7ac8 87be
00000170: 7209 02bf f6da fcbe cc0a 5abe ba20 57bf
00000180: e87d 3e3f 74c9 4cbf 4510 60be e1f0 85bd
00000190: 7a81 6a3f 8df8 50bf f485 debb 6e8e da3e
000001a0: 303e 3bbd a25f acbe 7d42 afbe ccfc 9c3d
000001b0: 56b9 52be 5bd4 36bf 710d 6f3e 89a7 dd3e
000001c0: be9d f03e 4f7e 0dbe 88f0 98bd 9268 63be
000001d0: 0833 2e3f 9fa9 06bf c650 2d3f 8f24 3b3f
000001e0: 2593 213f 58f1 9fbd e642 a43e 3f4f c53f
000001f0: 92c7 4b3e 8a4c 883c 9ecc 883e 2043 74bf
00000200: 58f3 9d3c 0c85 91be 86c0 943f f64c 973f
00000210: 0a2d 47bf 1517 093e 6c7f ed3e f8aa 9dbd
00000220: a03a 903c 7545 3bba 5a88 e73d 7366 013d
00000230: 8ff9 273f 0e94 b93d 99d3 563e 33c3 37be
00000240: be94 02bf e7a1 0dbf eb36 073f eb91 53bf
00000250: 8bd1 f0bd 0776 323f 9743 5d3e a6b4 db3e
00000260: eecf 903f a671 8dbe 4352 823e e590 793f
00000270: 2cb7 38bf 1192 873f a932 a5be 79ba 67be
00000280: 37c5 523f 1a52 2d3f 0d48 8ebe f2fd 6abd
00000290: 86b6 69be 9d98 a73e 1f65 11bd dcf3 cf3e
000002a0: ccbf bb3e 4e3a 0cbe d911 b33d df13 2bbf
000002b0: 82b4 52bf 2e29 8dbf d0e3 eabd 2419 69bf
000002c0: 82ae b6bf f79c 643f 187d 48bf 559b 273f
000002d0: 9de7 74be 4cef b83e 7587 763f f3a0 963e
000002e0: 310a de3b bc44 f53b 3b61 36bf e3d6 e73e
000002f0: 831b 6fbf 4b76 a3be 8cbc 12bf 236d 633e
00000300: e9e3 3cbf 49ee ffbd b7d1 bcbe 3503 2abf
00000310: 3b9a 423f 3fd7 63be 8bcb 3c3f fe72 163f
00000320: d890 a3bf 9d08 8ebe 1ccb 753e c917 333f
00000330: c2ce e13e d133 93bf 115e 39bf 706d 403c
00000340: 893a 2d3f 2aaa f0be 119d 58be 8678 2abe
00000350: d823 19bf 7860 993f 62e0 4c3e 16d4 08bf
00000360: e0ad 3abe df65 4a3f 18f1 9f3e a8b4 0ebd
00000370: 93ec 7b3d 922b 2c3e 9a84 e3be 9e78 85be
00000380: d6ae 1dbe 37c5 193f 3006 97be 50c3 8b3f
00000390: b121 ee3f 5394 623d 509d ea3e 6d30 23be
000003a0: 6d6f f23d cb08 ae3e 5de8 86bf 2319 9cbe
000003b0: b8b2 183d 1a28 91bd f61f 0cbf db91 503f
000003c0: a03f 643f 8f8f 7dbf 11a9 01bf 7641 0cbf
000003d0: 23fd 983f b445 413f 0a2c 74bf 8fff 4e3f
000003e0: c6fc 9dbf e2fc dc3d c84d a23e 8d2a 1a3f
000003f0: 2e1a c5be 1ce1 c93e c27f 0cbf 0b72 dd3c
1.2139357 -0.42616647 -0.47832447 -1.2472893 -0.43556118 0.20209876 0.5855303 0.0058802036
-0.6122598 0.22610374 0.30493402 0.26524544 -0.06439318 -0.7459277 -0.024303291 0.21656358
0.37438524 -0.5359082 -0.94112766 -0.14738701 0.18250446 -0.68890285 0.4919068 -0.16832986
-0.1621548 -0.5422668 0.21687514 -0.28409806 0.6829644 -0.44886068 0.05150201 -0.33060423
-0.19970654 -0.5954192 0.22244835 0.27462634 -0.27191582 -0.16537233 0.09101561 -1.1188672
0.76433766 0.39736843 -0.033986613 0.05071459 0.2689999 -0.27288437 0.6336529 0.28615016
0.49969965 0.037943643 -0.519531 -0.41789985 -0.064157754 -0.35389414 -0.9277667 0.8219326
0.05593894 1.1635907 -0.18020658 1.0714417 0.28309813 -0.1337105 0.17501476 0.14991984
0.4232978 0.7049842 0.3955762 -0.559084 0.030531798 -0.3622594 0.035061467 -0.5009864
0.4196435 -0.17638907 0.25176877 0.770222 -0.11495357 -0.3853181 0.083489016 -0.49335894
0.54842323 0.23115578 1.1002841 0.22922468 0.9995281 0.6612622 0.5238455 -0.16205885
0.8390142 0.5399152 -0.8765235 -0.2652014 -0.5079566 -0.49385804 -0.21293181 -0.8403431
0.7441087 -0.79994893 -0.21881206 -0.06540085 0.91603816 -0.8162926 -0.006790871 0.4268679
-0.045713603 -0.33666712 -0.34230414 0.07665405 -0.20578513 -0.7141778 0.23344971 0.43291882
0.46995348 -0.13817714 -0.07467753 -0.22207859 0.6804662 -0.5260257 0.67701375 0.7310266
0.6311515 -0.078097045 0.3208229 1.5414809 0.19900349 0.01663806 0.2671861 -0.95414925
0.019281074 -0.2842182 1.1621253 1.1820362 -0.778031 0.13387711 0.46386278 -0.07698625
0.01760608 -0.0007143834 0.11305304 0.031591844 0.6561517 0.09061442 0.20979156 -0.17945556
-0.5100821 -0.5532517 0.52818173 -0.8264453 -0.11758717 0.69711345 0.21607815 0.4291126
1.1313455 -0.2762577 0.25453386 0.97486717 -0.721545 1.0591451 -0.32265213 -0.22629727
0.82332176 0.677034 -0.27789345 -0.057371087 -0.22823533 0.32733622 -0.035496827 0.40615737
0.36669767 -0.13694116 0.087436385 -0.66827196 -0.82306683 -1.1028192 -0.11469233 -0.91053987
-1.4272006 0.8930201 -0.7831588 0.6547139 -0.23916478 0.3612007 0.9630044 0.2941967
0.0067761173 0.0074850004 -0.7124211 0.45281133 -0.93401355 -0.31926188 -0.5731895 0.22209601
-0.73785263 -0.12496621 -0.3687875 -0.66411144 0.76016587 -0.22250079 0.7374808 0.58769214
-1.2778578 -0.27740946 0.24003261 0.6995817 0.44103056 -1.1500188 -0.7240916 0.011744842
0.6766744 -0.47004825 -0.21153666 -0.16647539 -0.5982032 1.1982565 0.2000747 -0.5344862
-0.1823039 0.7906169 0.31238627 -0.034840256 0.06150491 0.16813496 -0.44437104 -0.26068586
-0.15398726 0.6006655 -0.29496908 1.091898 1.8604032 0.055317234 0.45823145 -0.15936442
0.11837659 0.33991084 -1.0539662 -0.30487928 0.037279814 -0.07087727 -0.5473627 0.8147256
0.89159584 -0.9904718 -0.506486 -0.54787385 1.1952251 0.75496984 -0.953797 0.808587
-1.2342765 0.10790421 0.31699967 0.6022118 -0.38496536 0.39429557 -0.5488244 0.027031919

fully_connected.bias f4 [9]
00000000: 1297 16be 94f5 9f3f 6a41 4740 f473 7dbf
00000010: 67cc f23f 8ed1 0a40 27b3 c53e 2634 fe3f
00000020: 6d95 1340
-0.14706066 1.249682 3.1133676 -0.99005055 1.8968629 2.1690402 0.38613245 1.9859664
2.3059952
