results/torch_1L_bi_lstm_model.pt (torch, 427323 bytes, 10 tensors)

lstm.weight_ih_l0 f4 [400, 28]
0.032965988 0.1278356 -0.037626676 0.18556218 0.20178832 0.01213507 0.02649443 0.043410912
0.044188187 0.09284584 0.13356102 0.075342946 -0.0060699414 -0.012871453 -0.029749874 -0.028626733
-0.042318176 0.13711315 0.11994943 0.14285679 0.08866447 0.048592087 0.022516135 -0.066192195
0.026630701 -0.043994844 0.030030673 -0.048118725 0.026955986 -0.08159819 -0.03202173 0.048199456
-0.07591959 -0.043494143 -0.057486124 0.0911045 0.05687633 0.008282635 0.06515657 -3.7013495e-05
0.053336944 0.010848313 -0.028495371 0.03727332 0.07282478 -0.08542107 0.06720669 0.045179572
-0.045253724 -0.13541108 -0.03605155 -0.030701296 0.11908567 -0.027966391 0.08469918 -0.060010135
0.09525068 0.10662689 -0.0016401105 0.08055464 0.010095776 -0.0832754 0.05393705 0.0342503
0.10196951 -0.07211795 -0.06054388 -0.013527343 -0.06246534 -0.06745378 0.13431923 0.049637314
0.08663834 -0.03987222 0.08134311 0.08348042 -0.041332696 -0.013031672 -0.0847497 -0.12853658
-0.12285872 -0.0018050906 -0.005752335 -0.12750459 0.18970826 0.23933429 0.15911779 0.18300447
0.09845334 0.06390343 0.07920019 0.12010754 -0.015189751 0.084500484 0.084391885 0.01503649
-0.027555741 0.0063606994 -0.07940243 -0.07158294 0.111292556 0.0928677 0.17864938 -0.010495648
0.008786346 0.1556425 0.06609859 0.10365923 0.12916136 0.183006 0.07398568 0.10706881
0.041378442 0.05375114 -0.08120858 -0.0804317 -0.044864163 0.008286479 0.069006726 0.09435287
-0.05153539 0.0023905241 -0.08129137 -0.08546602 0.065561846 0.0069267703 -0.10540022 -0.027514469
0.07374106 0.022144867 -0.04411086 0.041104406 0.020154074 -0.080982216 -0.098124735 -0.09042562
-0.08032661 0.031528484 -0.047240134 -0.08321384 0.0020097138 0.016242623 0.0144899255 0.0964087
0.098068684 -0.08493122 -0.15346053 0.021898007 0.034207623 0.07425625 -0.06317931 0.008734459
-0.08141524 -0.04220356 0.045701824 -0.10935595 -0.007754763 0.047841925 -0.12482236 -0.0790453
0.06524588 -0.08420134 -0.04890478 0.05919579 0.034914024 0.04106979 0.054870028 0.102328055
-0.054260124 0.017313574 0.060159545 0.03144639 0.093143694 -0.015818821 0.077582605 -0.09180263
0.080257185 -0.044719413 0.0118540665 -0.07339517 0.062580794 -0.023739034 0.068077914 0.08817994
0.10209588 -0.03742733 -0.09130104 -0.08721972 -0.1061453 0.07184562 0.044490352 -0.062322043
0.008004717 -0.10748875 0.0025042647 -0.0855248 0.027912479 -0.0549059 -0.016181847 -0.027752813
0.013437004 0.11279798 0.12241895 0.07968814 0.014460396 -0.071526885 -0.05240442 -0.019566266
0.05573858 -0.045751847 -0.01964645 0.08160104 -0.057678625 0.0077869263 -0.08027419 0.012432057
-0.03189524 -0.054482438 -0.08034116 0.099032775 -0.019820143 0.09290806 -0.0020851088 0.050407354
0.13094041 -0.00618003 0.106317155 0.15123501 0.1202015 0.17529592 0.07229834 0.14601293
0.16145797 0.10452987 0.027521232 0.12851836 0.0645081 0.00980447 0.1047557 0.0301699
0.090079464 0.23846523 0.15727013 0.15379807 0.13246958 0.10698555 0.21823089 0.1778208
0.08128671 0.18657725 0.09452838 0.14779478 0.2502602 0.09366135 0.03857524 0.10767394
00000000: 5807 073d 56e7 023e 6e1e 1abd 0304 3e3e
00000010: 99a1 4e3e 2cd2 463c d90a d93c a4cf 313d
00000020: acfe 343d f625 be3d 38c4 083e 674d 9a3d
00000030: 5ce6 c6bb c9e2 52bc 02b6 f3bc 9c82 eabc
00000040: d355 2dbd 6467 0c3e 0ca8 f53d 0d49 123e
00000050: b895 b53d 7f08 473d c273 b83c c68f 87bd
00000060: a128 da3c f033 34bd e302 f63c 2418 45bd
00000070: cdd2 dc3c f41c a7bd 3829 03bd cb6c 453d
00000080: bb7b 9bbd ea26 32bd 9276 6bbd ff94 ba3d
00000090: 28f7 683d e4b3 073c cf70 853d f03e 1bb8
000000a0: d777 5a3d 1fbd 313c 206f e9bc e9ab 183d
000000b0: 2925 953d 3ef1 aebd a9a3 893d 370e 393d
000000c0: f85b 39bd 34a9 0abe caaa 13bd 4981 fbbc
000000d0: 30e3 f33d c619 e5bc c476 ad3d 30cd 75bd
000000e0: ca12 c33d 335f da3d faf8 d6ba d5f9 a43d
000000f0: c168 253c 4b8c aabd 19ed 5c3d 0b4a 0c3d
00000100: 64d5 d03d 93b2 93bd dcfc 77bd caa1 5dbc
00000110: a8db 7fbd 3525 8abd fb8a 093e 7f50 4b3d
00000120: 716f b13d 0e51 23bd 3797 a63d c8f7 aa3d
00000130: 794c 29bd cb82 55bc 4091 adbd 189f 03be
00000140: 5a9d fbbd ca98 ecba 157e bcbb 9090 02be
00000150: e242 423e 0c14 753e c6ef 223e 8665 3b3e
00000160: e8a1 c93d cddf 823d b633 a23d f1fa f53d
00000170: 6fde 78bc 970e ad3d a7d5 ac3d 9c5b 763c
00000180: 94bc e1bc 6a6d d03b be9d a2bd 149a 92bd
00000190: 5aed e33d 6c31 be3d ddef 363e f0f5 2bbc
000001a0: 9bf4 0f3c bf60 1f3e b35e 873d 4a4b d43d
000001b0: e042 043e ed65 3b3e ce85 973d e446 db3d
000001c0: 717c 293d 282a 5c3d af50 a6bd 60b9 a4bd
000001d0: 7cc3 37bd 03c4 073c 6653 8d3d 143c c13d
000001e0: c616 53bd 57aa 1c3b 177c a6bd cf08 afbd
000001f0: 4a45 863d f6f9 e23b 12dc d7bd 0666 e1bc
00000200: 8e05 973d 2769 b53c 97ad 34bd 185d 283d
00000210: 281a a53c 01da a5bd 9ff5 c8bd 1131 b9bd
00000220: 4782 a4bd 0324 013d df7e 41bd 056c aabd
00000230: 67b5 033b 400f 853c 2767 6d3c ed71 c53d
00000240: 3cd8 c83d 6bf0 adbd c224 1dbe 7363 b33c
00000250: 4b1d 0c3d a913 983d 2764 81bd fa1a 0f3c
00000260: 09bd a6bd a4dd 2cbd d631 3b3d 03f6 dfbd
00000270: ab1b febb e5f5 433d dea2 ffbd 81e2 a1bd
00000280: a29f 853d c171 acbd 6150 48bd 4977 723d
00000290: 0202 0f3d cc38 283d 65bf 603d 5f91 d13d
000002a0: dd3f 5ebd 32d5 8d3c db69 763d eecd 003d
000002b0: 1fc2 be3d 7996 81bc a1e3 9e3d 0403 bcbd
000002c0: e15d a43d b42b 37bd 8f37 423c 3550 96bd
000002d0: 5c2a 803d 5d78 c2bc 6f6c 8b3d af97 b43d
000002e0: a517 d13d 664d 19bd 0afc babd 41a0 b2bd
000002f0: b562 d9bd cc23 933d 843b 363d 6645 7fbd
00000300: 3726 033c 1023 dcbd 971e 243b a027 afbd
00000310: b6a8 e43c 02e5 60bd cb8f 84bc de59 e3bc
00000320: e126 5c3c a102 e73d c9b6 fa3d 8933 a33d
00000330: 4ceb 6c3c b07c 92bd 04a6 56bd 6f49 a0bc
00000340: 234e 643d 4a66 3bbd 98f1 a0bc 721e a73d
00000350: 6c40 6cbd 7929 ff3b cb66 a4bd d4af 4b3c
00000360: 95a4 02bd fa28 5fbd e889 a4bd b2d1 ca3d
00000370: da5d a2bc 9546 be3d 52a6 08bb f177 4e3d
00000380: 3e15 063e d981 cabb cfbc d93d 5add 1a3e
00000390: 342c f63d c680 333e 2711 943d 6a84 153e
000003a0: 3d55 253e c213 d63d 3574 e13c 519a 033e
000003b0: d31c 843d eea2 203c 288a d63d de26 f73c
000003c0: 957b b83d 3b30 743e 6c0b 213e 3e7d 1d3e
000003d0: 1ba6 073e 3d1b db3d eb77 5f3e a816 363e
000003e0: a679 a63d 1b0e 3f3e 1898 c13d 8457 173e
000003f0: 1b22 803e 86d1 bf3d 1201 1e3d 2884 dc3d

lstm.weight_hh_l0 f4 [400, 100]
-0.038297307 0.041289695 0.11062127 -0.073778816 0.04179241 -0.045246698 -0.07340825 0.084292576
0.30039996 0.011678869 0.11657702 0.099073336 0.0672996 0.04402673 -0.051195312 -0.021804066
0.062019184 0.0283818 0.012459873 0.025771964 0.10514713 0.06009711 -0.040660642 -0.07643509
-0.0042197425 0.072231434 0.058662202 -0.051174354 0.046101082 -0.008979106 0.061713107 -0.049830835
0.10829923 0.08062136 -0.075391464 0.054078523 0.009138752 0.103227235 -0.042366914 -0.068555206
-0.079002865 0.0045925234 -0.106245235 0.05001199 0.013776272 -0.04302357 0.0028494033 0.034530386
0.037438013 0.04782764 -0.037750155 0.0063957297 -0.032091603 0.0731134 -0.12875727 -0.029809754
0.012896189 0.025162388 0.09451276 -0.030380422 -0.13962753 -0.05738488 -0.10631684 -0.067983106
-0.087157644 -0.06169816 -0.12009239 0.028696418 0.06391494 -0.022181457 0.103692956 -0.0009622216
-0.031906687 0.117149286 0.019372227 -0.066046745 -0.12657663 -0.1066519 -0.052764036 -0.07840151
0.023863522 -0.109444454 -0.08967335 -0.09429177 0.00012821068 0.02076638 0.060791902 -0.009072349
-0.04866094 -0.09920054 0.035693288 0.081487015 0.1421126 -0.010631077 -0.06685934 0.071390934
-0.065956764 -0.064289354 -0.05432216 0.041894667 0.07960371 -0.041017555 -0.054693907 -0.012087445
0.06671931 0.063080065 0.046624202 -0.07031717 0.003005983 -0.09243613 0.1066637 -0.0031644197
-0.012489188 0.0033376806 0.0145826135 0.03941469 0.06844593 -0.034282625 0.03297921 -0.0040775896
0.09992045 0.0820373 -0.06048128 -0.07343672 0.06856999 -0.040975958 -0.02154633 0.01611842
0.022910029 -0.07798981 -0.040846087 0.0138156 0.009972601 -0.09596942 0.02938021 -0.03974086
0.0749825 0.092937924 0.016525462 -0.0742509 0.02748852 -0.037325393 0.043545894 -0.041158788
0.093011156 -0.07277271 -0.0012513185 0.034994178 0.03407001 -0.03593392 0.07949804 -0.094141014
-0.04178792 0.05193112 -0.09537731 0.014089768 0.033768922 -0.03742006 0.038722195 -0.011131279
0.058794525 0.10711063 -0.108413 0.03423224 0.006633622 -0.0696379 -0.086080596 0.083613284
-0.057474174 0.05418763 -0.049210556 0.10466068 0.10120213 0.054908454 -0.062078036 0.018123223
-0.011396665 0.064290054 -0.087108314 -0.039747737 0.038970143 -0.008213244 0.022736832 0.070498876
0.037662517 -0.02011132 0.056385625 0.09691181 0.089610405 -0.05371809 -0.06278876 0.09911969
0.0927319 0.036907785 -0.019473778 0.042594675 0.0035985957 0.085920945 0.083974436 -0.0068803634
-0.03708572 -0.026252003 -0.11932335 -0.0017908703 -0.026231932 -0.043277133 -0.002391833 0.10643788
0.17712332 0.04593353 0.10119858 0.09259111 -0.00634153 -0.01938731 -0.08367406 0.09104042
-0.08753557 -0.048167735 0.025564529 0.04861875 0.004958956 -0.054678336 0.003440039 0.043878116
-0.07505861 0.08648846 0.018481238 -0.012134366 0.010827722 -0.020444477 0.016644502 -0.010786118
0.09622464 -0.00040393654 -0.005541789 -0.09879239 -0.07515939 -0.08730285 0.06548298 -0.061966516
-0.09716914 0.07305599 -0.0712664 -0.013747077 0.065690674 0.023028335 0.009568953 -0.045580544
0.0014544654 -0.0809173 0.08382542 0.028695596 -0.014541563 0.07172025 -0.06334868 -0.027098943
00000000: a3dd 1cbd 621f 293d 688d e23d 5919 97bd
00000010: 852e 2b3d 9a54 39bd 1157 96bd 96a1 ac3d
00000020: 06ce 993e ba58 3f3c efbf ee3d f6e6 ca3d
00000030: 5fd4 893d 5f55 343d 2db2 51bd 719e b2bc
00000040: d407 7e3d f380 e83c 7f24 4c3c ba1f d33c
00000050: 6157 d73d 6328 763d c68b 26bd 008a 9cbd
00000060: c445 8abb 13ee 933d c747 703d 339c 51bd
00000070: 7dd4 3c3d 1a1d 13bc e2c6 7c3d 6b1b 4cbd
00000080: fdcb dd3d d01c a53d d766 9abd 7181 5d3d
00000090: b4ba 153c cd68 d33d ee88 2dbd ac66 8cbd
000000a0: 41cc a1bd e17c 963b 1a97 d9bd 5fd9 4c3d
000000b0: dfb5 613c 7c39 30bd 0ebd 3a3b bc6f 0d3d
000000c0: 9a58 193d eae6 433d e89f 1abd 4593 d13b
000000d0: 7c72 03bd 7abc 953d f2d8 03be 9633 f4bc
000000e0: 894a 533c 5a21 ce3c e88f c13d 5de0 f8bc
000000f0: 85fa 0ebe 680c 6bbd a5bc d9bd ba3a 8bbd
00000100: b57f b2bd 36b7 7cbd 00f3 f5bd c014 eb3c
00000110: d6e5 823d e3b5 b5bc f95c d43d 993d 7cba
00000120: 96b0 02bd f7eb ef3d 81b2 9e3c 8443 87bd
00000130: 4e9d 01be 506c dabd 1a1f 58bd f990 a0bd
00000140: 6f7d c33c 6a24 e0bd a9a6 b7bd 0b1c c1bd
00000150: 4b70 0639 411e aa3c ee00 793d 31a4 14bc
00000160: b250 47bd a729 cbbd 2033 123d aae2 a63d
00000170: f785 113e f82d 2ebc 8ded 88bd 6935 923d
00000180: 5714 87bd 23aa 83bd ea80 5ebd be99 2b3d
00000190: 4507 a33d 0602 28bd b806 60bd 6b0a 46bc
000001a0: 22a4 883d 1f30 813d 05f9 3e3d 7302 90bd
000001b0: 0700 453b 274f bdbd 7f72 da3d 2762 4fbb
000001c0: 749f 4cbc fdbc 5a3b eaeb 6e3c 4c71 213d
000001d0: 612d 8c3d f06b 0cbd 3515 073d 4d9d 85bb
000001e0: 18a3 cc3d 2c03 a83d 38bb 77bd fe65 96bd
000001f0: 6c6e 8c3d 68d6 27bd ee81 b0bc c70a 843c
00000200: d0ad bb3c 1fb9 9fbd 3a4e 27bd d45a 623c
00000210: 1f64 233c 9e8b c4bd c4ae f03c 50c7 22bd
00000220: 6d90 993d 3d56 be3d 6860 873c db10 98bd
00000230: 9b2f e13c 83e2 18bd 2e5d 323d 1e96 28bd
00000240: a27c be3d dc09 95bd 4803 a4ba 0e56 0f3d
00000250: ff8c 0b3d 722f 13bd decf a23d 01cd c0bd
00000260: cf29 2bbd bab5 543d 2e55 c3bd c5d8 663c
00000270: 4851 0a3d c745 19bd 2a9b 1e3d f85f 36bc
00000280: 87d2 703d d15c db3d a307 debd 1b37 0c3d
00000290: db5e d93b 519e 8ebd 064b b0bd 713d ab3d
000002a0: 0a6a 6bbd d9f3 5d3d 0291 49bd 5758 d63d
000002b0: 1043 cf3d b0e7 603d 8a45 7ebd 2777 943c
000002c0: 14b9 3abc 81aa 833d d865 b2bd 86ce 22bd
000002d0: 289f 1f3d d890 06bc 9842 ba3c b761 903d
000002e0: 0344 1a3d 7fc0 a4bc 9df4 663d b379 c63d
000002f0: a985 b73d 8007 5cbd 6597 80bd 44ff ca3d
00000300: 39ea bd3d 9e2c 173d 7987 9fbc c177 2e3d
00000310: 6bd6 6b3b 52f7 af3d cafa ab3d ac74 e1bb
00000320: 32e7 17bd 710e d7bc cd5f f4bd a3bb eaba
00000330: 59e4 d6bc 5d43 31bd 4dc0 1cbb 1afc d93d
00000340: d15f 353e cc24 3c3d 3341 cf3d 68a0 bd3d
00000350: 9ccc cfbb 23d2 9ebc 4e5d abbd 6673 ba3d
00000360: d945 b3bd 884b 45bd b46c d13c 7424 473d
00000370: bd7e a23b 64f6 5fbd 4772 613b 8ab9 333d
00000380: 54b8 99bd dd20 b13d f765 973c 38cf 46bc
00000390: c266 313c 2d7b a7bc 0d5a 883c 42b8 30bc
000003a0: 6d11 c53d 72c7 d3b9 e597 b5bb aa53 cabd
000003b0: 2bed 99bd d6cb b2bd f11b 863d 9ad0 7dbd
000003c0: 9d00 c7bd 619e 953d 1ef4 91bd 6c3b 61bc
000003d0: d588 863d eba5 bc3c 19c7 1c3c aab2 3abd
000003e0: c3a3 be3a f8b7 a5bd a9ac ab3d 0713 eb3c
000003f0: bc3f 6ebc 11e2 923d f4bc 81bd 9afe ddbc

lstm.bias_ih_l0 f4 [400]
0.33130142 -0.029758804 0.1148503 0.22402264 0.044126388 -0.10057279 0.008466959 0.08310772
0.4311925 0.13025215 0.011211422 0.052365854 0.19300176 0.27588013 0.10684803 0.24368903
0.10731484 -0.012442671 0.07981484 0.015478315 -0.5920625 0.1186987 0.062262904 0.011742301
0.021997448 -0.054959696 0.017830873 0.085199825 0.10226254 -0.029338073 -0.039028026 -0.020752212
0.15659504 0.011455378 0.1246931 0.075862244 0.013027067 0.067105815 0.0041249846 0.0745394
-0.002651746 -0.031296104 0.00058604614 -0.05723912 0.06936253 -0.009981815 0.13592395 0.04944374
-0.15294234 -0.24047723 0.13199183 0.07712125 0.07388778 0.51576066 0.0018640199 0.14730747
0.030354243 0.0222201 0.09360502 0.11291727 0.29411665 0.12615582 0.111349314 0.012976783
-0.050739855 0.052138112 0.06258049 0.17246293 -0.22959282 -0.17301884 0.1907334 0.05222656
0.03854673 0.0318261 0.19233094 0.047725253 0.019002298 0.17343628 0.07532263 -0.001029007
-0.0045044497 0.029287878 0.06538794 0.10550275 0.11950023 0.19304776 0.11959523 0.16611922
0.14308968 0.0024710563 0.11647347 -0.037847616 0.1674941 -0.085218094 0.0670167 -0.24862748
0.15338579 -0.13139668 0.094823405 0.07320703 0.026909802 0.001154151 -0.050651435 -0.13588916
0.13444728 0.30871257 0.111734666 0.14371347 -0.32510716 -0.15725414 0.21140406 0.19147718
0.02751232 0.20913585 0.02814434 0.18198588 0.071416035 0.008748121 0.19450152 0.23890087
0.49601817 0.18931717 0.24435323 0.10695942 0.18453808 0.18971469 0.5021854 -0.019048883
0.10471512 0.117256485 0.14907575 0.20424853 0.036730688 0.29045302 0.16973479 0.21635962
0.16729513 0.2067902 0.00041720632 0.021768158 0.09450277 0.18994822 0.06369544 0.0016607067
0.16919132 -0.078815036 0.047353003 0.028971072 0.079265065 0.23149738 0.30819187 0.11861652
-0.021446165 -0.5538181 0.3318412 0.016537853 0.3402085 0.18459052 0.24211735 0.24694224
-0.40000564 0.14305484 0.010150333 0.22048442 0.2843666 0.01958076 0.16525844 0.2694606
0.3696792 0.4658635 0.045282505 0.06952396 0.051340725 0.30142373 0.18566862 0.18584394
0.2690359 -0.05394126 0.33200276 0.2950887 0.23566088 0.1614579 0.20482948 0.045814004
0.37495413 0.017117498 0.18926154 0.11808683 0.0017462672 0.06886565 0.11570332 0.17133272
0.11007392 0.24866578 0.04173122 0.30558935 0.053887956 0.19100556 0.084149845 0.21535106
-0.023641337 -0.09574129 -0.071749784 0.24011551 -0.009655408 0.03230436 -0.24589604 -0.15321456
0.44621733 0.32775012 -0.05878326 0.030958908 -0.0031290422 -0.25649866 0.17725772 -0.11348187
-0.072273575 0.1083213 -0.3625496 -0.1775128 0.18346086 0.13985549 -0.12220924 -0.050156265
-0.02728809 -0.008525584 0.3019505 0.0902306 -0.063287884 0.14135431 -0.3037679 -0.11665196
-0.055492915 -0.01754049 0.10096116 0.047818102 0.13724212 -0.2409508 0.18956389 0.08544593
-0.07968633 -0.0784405 0.07990839 0.06678143 0.114775755 -0.017343257 -0.124965586 0.03370946
-0.479529 -0.070711926 0.12214417 0.10365568 0.1603843 0.64967984 -0.04310052 0.11136789
00000000: 57a0 a93e bcc8 f3bc a236 eb3d 3166 653e
00000010: dfbd 343d 1bf9 cdbd 00b9 0a3c 6134 aa3d
00000020: 43c5 dc3e d260 053e 1db0 373c 947d 563d
00000030: 41a2 453e 2940 8d3e 24d3 da3d 9e89 793e
00000040: e2c7 db3d 58dc 4bbc f675 a33d c298 7d3c
00000050: 6891 17bf 4e18 f33d 6307 7f3d c862 403c
00000060: fe33 b43c 6b1d 61bd 0d12 923c 3f7d ae3d
00000070: 066f d13d 6656 f0bc dadb 1fbd 8b00 aabc
00000080: 735a 203e 56af 3b3c 195f ff3d aa5d 9b3d
00000090: 7b6f 553c c66e 893d e12a 873b 1da8 983d
000000a0: eac8 2dbb 5830 00bd e4a0 193a 9173 6abd
000000b0: f10d 8e3d c48a 23bc a62f 0b3e 8585 4a3d
000000c0: eb9c 1cbe aa3f 76be de28 073e bff1 9d3d
000000d0: 7a52 973d e408 043f 2152 f43a c5d7 163e
000000e0: 76a9 f83c ed06 b63c fdb3 bf3d 2b41 e73d
000000f0: 7596 963e fe2e 013e 1c0b e43d 939c 543c
00000100: 98d4 4fbd c68e 553d 332a 803d 1f9a 303e
00000110: 611a 6bbe da2b 31be 9e4f 433e 84eb 553d
00000120: 2de3 1d3d 165c 023d 67f2 443e 8e7b 433d
00000130: b5aa 9b3c 4899 313e c042 9a3d bfdf 86ba
00000140: 109a 93bb 22ed ef3c 1dea 853d d311 d83d
00000150: 89bc f43d 50ae 453e 58ee f43d 281b 2a3e
00000160: 1a86 123e 72f1 213b a589 ee3d 1a06 1bbd
00000170: 9383 2b3e d386 aebd 0d40 893d 3498 7ebe
00000180: 2a11 1d3e da8c 06be c632 c23d 91ed 953d
00000190: f271 dc3c e246 973a e177 4fbd 8726 0bbe
000001a0: 8cac 093e 930f 9e3e 25d5 e43d a029 133e
000001b0: 7274 a6be 3b07 21be 4e7a 583e 9812 443e
000001c0: 8461 e13c b527 563e f58e e63c 825a 3a3e
000001d0: 9242 923d 4754 0f3c 682b 473e 6ea2 743e
000001e0: 18f6 fd3e 5cdc 413e bc37 7a3e 8a0d db3d
000001f0: 8df7 3c3e 9144 423e 398f 003f 670c 9cbc
00000200: e174 d63d 2b24 f03d 50a7 183e 8726 513e
00000210: eb72 163d 42b6 943e f5ce 2d3e 608d 5d3e
00000220: 6a4f 2b3e cfc0 533e 7cbc da39 2353 b23c
00000230: ab8a c13d c981 423e c172 823d 12ac d93a
00000240: 7d40 2d3e c769 a1bd 39f5 413d be54 ed3c
00000250: b955 a23d a60d 6d3e 53cb 9d3e 38ed f23d
00000260: deaf afbc 06c7 0dbf 17e7 a93e 647a 873c
00000270: cf2f ae3e 4c05 3d3e 9ced 773e 6dde 7c3e
00000280: 8acd ccbe f87c 123e 954d 263c abc6 613e
00000290: 8098 913e d467 a03c 8239 293e bdf6 893e
000002a0: 9846 bd3e a985 ee3e 267a 393d 9462 8e3d
000002b0: a74a 523d 3654 9a3e ea1f 3e3e e04d 3e3e
000002c0: 13bf 893e 83f1 5cbd 44fc a93e de15 973e
000002d0: 1651 713e 3855 253e d2be 513e 77a7 3b3d
000002e0: fdf9 bf3e ff39 8c3c c7cd 413e 82d7 f13d
000002f0: 01e3 e43a 6f09 8d3d ddf5 ec3d d871 2f3e
00000300: 6f6e e13d 3ea2 7e3e 5bee 2a3d 3576 9c3e
00000310: 9eb9 5c3d f696 433e c156 ac3d fd84 5c3e
00000320: 7aab c1bc 0214 c4bd 8df1 92bd d7e0 753e
00000330: b731 1ebc 9451 043d 2ccc 7bbe 47e4 1cbe
00000340: 9976 e43e ddce a73e b7c6 70bd 899d fd3c
00000350: 9e10 4dbb cb53 83be 0c83 353e 2f69 e8bd
00000360: 2b04 94bd 8fd7 dd3d 1aa0 b9be eac5 35be
00000370: 2add 3b3e 4736 0f3e d748 fabd a870 4dbd
00000380: 468b dfbc e4ae 0bbc 4299 9a3e d2ca b83d
00000390: 149d 81bd 2fbf 103e 7787 9bbe 39e7 eebd
000003a0: 8a4c 63bd 13b1 8fbc bac4 ce3d eadc 433d
000003b0: 3389 0c3e cebb 76be 091d 423e 47fe ae3d
000003c0: 9632 a3bd 6aa5 a0bd 03a7 a33d b4c4 883d
000003d0: 8d0f eb3d 7213 8ebc f5ed ffbd ee12 0a3d
000003e0: d384 f5be 6ad1 90bd b926 fa3d 6e49 d43d
000003f0: c83b 243e 6b51 263f 2c8a 30bd d914 e43d

lstm.bias_hh_l0 f4 [400]
0.21473242 0.019588098 -0.0040916135 0.27154213 -0.038330678 -0.027443366 0.11437931 0.0103763025
0.53530294 0.17772406 0.037850637 -0.050116085 0.040318206 0.1951176 0.043793753 0.08810129
0.028736759 0.08053426 0.10666023 0.05371718 -0.50285494 0.15497814 0.20205401 0.02742441
0.122409604 0.066363655 0.033414528 -0.02910399 0.15092328 -0.024407022 0.020242844 0.14570865
0.14907189 0.07607802 0.003121678 0.10905555 0.091613606 0.13475275 0.049920432 0.13702564
0.048044227 0.008067687 0.14068115 0.031956773 0.15153228 -0.07500336 0.08572049 0.13468568
-0.16765027 -0.22515824 0.031607 -0.008943702 0.08643077 0.48272046 -0.005155883 0.017806154
0.03582623 -0.035926074 -0.0030509096 -0.068138905 0.14303309 0.022750396 0.09176813 0.038703814
-0.0063397773 0.021252649 -0.016525533 0.012943162 -0.08451073 -0.18878132 0.1838682 0.0037449675
0.0683992 -0.035512544 0.1671742 0.112395324 -0.011205048 0.14617917 -0.07917823 -0.04047819
-0.09437287 0.006451885 0.04181083 0.23972102 -0.04004115 0.11536682 0.018699007 0.046807967
0.058266304 0.026154054 0.13989973 0.06250876 0.16719644 -0.049489673 0.06368845 -0.2968103
-0.0034740753 -0.0046039564 -0.00014274797 0.06727571 -0.041241486 0.0841589 0.05742899 -0.10284718
0.0012548724 0.316106 0.033851806 0.068973206 -0.35690075 -0.023332378 0.113216035 0.16259235
0.10857647 0.1661473 0.15387568 0.010825377 0.16325332 0.067628846 0.14755794 0.22777826
0.6101685 0.25530326 0.2700217 0.070133984 0.15577842 0.10306733 0.5529357 0.12262138
0.09141994 0.21101166 0.16887146 0.09219669 0.11924317 0.19129506 0.02083317 0.16417989
0.22657305 0.32049882 -0.009430209 0.19558118 0.024870772 0.24241377 0.1418455 0.120912015
0.1905966 -0.06771413 0.043733474 -0.013929788 0.120684214 0.3333634 0.20762375 0.019510726
0.14685719 -0.5557368 0.2765222 0.14334577 0.2701312 0.06320373 0.19333443 0.19340827
-0.38116783 0.26939175 -0.024407718 0.25773954 0.29656148 0.058562946 0.08246158 0.14730443
0.32959872 0.46460912 -0.01738075 0.18367322 0.042578127 0.33008468 0.040821977 0.23409355
0.25182638 -0.01977627 0.21570535 0.16658136 0.21683374 0.041975304 0.23731652 0.061644007
0.26061246 0.054983173 0.16823192 0.03413212 0.10958559 0.10502296 0.18738581 -0.00843825
0.071830906 0.37366357 0.064113654 0.3388029 0.065747626 0.24952419 0.06300789 0.030406041
-0.14335261 0.01729454 -0.037047226 0.24185495 -0.034749914 0.21864243 -0.24650785 -0.10588764
0.47939727 0.27043185 -0.101775795 -0.034677535 0.1543866 -0.08952331 0.13386586 -0.039872173
0.05849932 -0.04321148 -0.32922834 -0.14171162 0.15651315 0.11386531 -0.048480507 -0.047443844
0.07110856 0.040592067 0.1429369 0.1005151 -0.059750523 0.04372067 -0.25425896 -0.04103062
0.03252747 -0.098369256 0.10906725 0.060399033 0.14557947 -0.24610999 0.13571577 0.14333798
-0.08046396 0.0074755857 -0.06539325 0.044328682 0.10506709 0.10815917 -0.06374359 0.18919376
-0.506753 -0.101214275 0.0935629 0.10985015 0.16745919 0.70055264 0.037270427 0.13480172
00000000: d1e2 5b3e 3877 a03c f112 86bb 9207 8b3e
00000010: a100 1dbd e9d0 e0bc b33f ea3d 5e01 2a3c
00000020: 9d09 093f 4cfd 353e 4509 1b3d 8646 4dbd
00000030: b424 253d e8cc 473e 1461 333d 736e b43d
00000040: 5a69 eb3c 25ef a43d ae70 da3d 8c06 5c3d
00000050: 1abb 00bf 97b2 1e3e 3fe7 4e3e 28a9 e03c
00000060: e3b1 fa3d abe9 873d acdd 083d 7e6b eebc
00000070: a28b 1a3e 3cf1 c7bc 52d4 a53c a634 153e
00000080: 4da6 183e cbce 9b3d 1195 4c3b 8458 df3d
00000090: ea9f bb3d a0fc 093e 5e79 4c3d 7350 0c3e
000000a0: 06ca 443d 552e 043c b80e 103e 1be5 023d
000000b0: 472b 1b3e 5d9b 99bd 398e af3d 0beb 093e
000000c0: 83ac 2bbe e28f 66be 5776 013d 9b88 12bc
000000d0: 9e02 b13d 2327 f73e aef2 a8bb 36de 913c
000000e0: 86be 123d 3827 13bd c5f1 47bb 698c 8bbd
000000f0: 4477 123e 0a5f ba3c eef0 bb3d e487 1e3d
00000100: e8bd cfbb 091a ae3c 8e60 87bc 8e0f 543c
00000110: f613 adbd e44f 41be f247 3c3e 216e 753b
00000120: e114 8c3d 9a75 11bd b72f 2b3e 852f e63d
00000130: 6195 37bc feaf 153e 3228 a2bd 75cc 25bd
00000140: 9046 c1bd 566a d33b d541 2b3d 6d79 753e
00000150: 3002 24bd 7045 ec3d a92e 993c b6b9 3f3d
00000160: a6a8 6e3d 0741 d63c e041 0f3e 9804 803d
00000170: 8b35 2b3e afb5 4abd 176f 823d 85f7 97be
00000180: 50ad 63bb c9dc 96bb 9eae 15b9 d9c7 893d
00000190: d5ec 28bd 805b ac3d a93a 6b3d 8ba1 d2bd
000001a0: 887a a43a a5d8 a13e 31a8 0a3d d341 8d3d
000001b0: b2bb b6be 8b23 bfbc cfdd e73d 9c7e 263e
000001c0: 575d de3d 8522 2a3e 9691 1d3e ec5c 313c
000001d0: e12b 273e fe80 8a3d 6e19 173e b43e 693e
000001e0: 0134 1c3f 1cb7 823e 4940 8a3e 68a2 8f3d
000001f0: 6184 1f3e f714 d33d 328d 0d3f eb20 fb3d
00000200: 613a bb3d 7113 583e a4ec 2c3e 9ed1 bc3d
00000210: c335 f43d dae2 433e 53aa aa3c c61e 283e
00000220: c402 683e 6c18 a43e 2a81 1abc 6f46 483e
00000230: cabd cb3c 513b 783e f23f 113e b8a0 f73d
00000240: c12b 433e b5ad 8abd df21 333d c439 64bc
00000250: 4929 f73d 9cae aa3e 529b 543e f5d4 9f3c
00000260: bb61 163e c444 0ebf 5194 8d3e 3cc9 123e
00000270: a34e 8a3e f570 813d 76f9 453e d10c 463e
00000280: 6e28 c3be b7ed 893e b2f2 c7bc 70f6 833e
00000290: e8d6 973e b3df 6f3d 9ee1 a83d f9d6 163e
000002a0: 2ac1 a83e 3fe1 ed3e 1362 8ebc d514 3c3e
000002b0: 6766 2e3d dc00 a93e f234 273d 38b6 6f3e
000002c0: 63ef 803e d801 a2bc dde1 5c3e 4e94 2a3e
000002d0: aa09 5e3e 4cee 2b3d 1a03 733e 6d7e 7c3d
000002e0: ff6e 853e 0936 613d fd44 2c3e 1fce 0b3d
000002f0: 696e e03d 4716 d73d 11e2 3f3e 9640 0abc
00000300: 151c 933d d550 bf3e 054e 833d 9377 ad3e
00000310: b1a6 863d 4583 7f3e 480a 813d 1716 f93c
00000320: 07cb 12be 47ad 8d3c d5be 17bd d3a8 773e
00000330: ed55 0ebd cde3 5f3e 8e6c 7cbe 9edb d8bd
00000340: 8f73 f53e 0b76 8a3e d46f d0bd 080a 0ebd
00000350: 8517 1e3e ff57 b7bd 2214 093e 0151 23bd
00000360: fc9c 6f3d 85fe 30bd 9e90 a8be da1c 11be
00000370: fc44 203e 3732 e93d 7f93 46bd 7a54 42bd
00000380: 5da1 913d de43 263d 0d5e 123e dcda cd3d
00000390: f7bc 74bd 7214 333d 3b2e 82be b90f 28bd
000003a0: 863b 053d d275 c9bd a65e df3d fa64 773d
000003b0: c912 153e 4204 7cbe 13f9 0a3e 31c7 123e
000003c0: 4aca a4bd c2f5 f43b e5ec 85bd fe91 353d
000003d0: 6a2d d73d 8e82 dd3d 008c 82bd 02bc 413e
000003e0: 91ba 01bf 6e49 cfbd e89d bf3d 1ef9 e03d
000003f0: 6c7a 2b3e 6b57 333f e0a8 183d 7609 0a3e

lstm.weight_ih_l0_reverse f4 [400, 28]
-0.023341885 -0.09212741 0.08643963 -0.05269192 -0.06498884 0.08445836 -0.0884355 -0.04117177
-0.028642053 0.015722098 -0.082602605 0.016567543 0.06774584 -0.0072242646 -0.04588695 0.02377445
-0.06265182 0.06206044 -0.073415816 0.0128280325 0.04417066 -0.06549737 0.022563053 -0.03562396
0.032241423 -0.024842866 -0.09278953 -0.09374982 -0.018789336 -0.074621566 0.05517015 -0.09576844
0.0642667 -0.062905245 0.007892187 -0.06484444 0.06743091 0.06206603 0.026857061 0.07016686
-0.057423085 -0.051191144 -0.09744907 -0.074859075 0.060441863 -0.0861208 -0.03759393 -0.09644762
-0.083202735 -0.07145742 0.075548135 -0.010947575 -0.086921476 -0.032068945 -0.06135213 0.098262094
-0.042255282 0.025047349 -0.011663923 0.044431433 -0.051018555 0.0054333955 0.10035478 0.09988778
-0.037803717 0.08539357 -0.07380904 -0.0014896543 0.008332192 -0.0054457025 0.09923628 -0.020172732
-0.057770427 -0.0842994 0.02237814 -0.024582678 -0.082987815 -0.014731907 -9.2263246e-05 -0.00038603373
-0.029403113 -0.07229603 0.017759256 0.0054182624 0.045468684 -0.052884612 0.08959191 0.08016455
0.06613792 -0.09987518 -0.034785096 -0.0010593816 -0.004021694 0.07809058 0.0876253 -0.04596946
-0.06319845 -0.010812292 -0.07769452 0.041664004 -0.07854832 -0.09115742 -0.007998901 0.05142326
0.076120466 0.026321985 0.06809165 0.07203711 0.016130712 -0.038160823 0.042926874 -0.05158882
0.04767527 0.020227667 0.07877408 -0.023785384 -0.07519956 -0.016056955 0.09681233 0.007370756
0.010163387 0.035816327 0.03140486 -0.09800104 0.07022242 0.012447946 -0.03250483 -0.001659664
0.048331454 0.06230881 -0.020860441 -0.013388838 -0.017577272 -0.048852827 0.020501705 0.0697983
-0.08264129 0.08864399 -0.098723516 -0.025544016 0.0328935 0.051996194 0.07374481 0.06978534
-0.0043791705 -0.025330435 0.019706614 -0.057030424 -0.01894093 0.087933354 0.056328688 0.04054104
-0.017109066 0.017984461 0.00525277 0.08210135 0.034935195 -1.8496394e-05 0.025280701 -0.08204886
-0.034069546 0.019841686 0.04265455 0.050348938 0.0088887755 0.029527279 0.08776352 0.049386904
0.082081854 -0.041221865 -0.050899886 -0.06798287 0.074838735 0.01994477 -0.05542529 0.04807553
0.021110075 -0.008180629 -0.084327504 -0.032371268 0.081406556 -0.08332644 0.010843311 0.016528174
-0.04460816 0.041667867 0.095291205 -0.022777315 0.08900904 -0.04245073 0.013689659 -0.09817193
0.011677224 0.07358172 -0.030998971 0.051337667 0.024014328 -0.07552983 -0.096635 -0.059945446
-0.06829175 0.018122891 -0.07150239 -0.031569786 0.039435174 -0.03300615 -0.05419377 -0.0749339
0.0045259544 -0.02965516 0.01304068 0.04500849 -0.0135099655 0.016255738 -0.08432478 0.08155576
-0.06380118 0.07463118 -0.05398312 0.04808165 0.0015738477 0.0615881 -0.07472664 -0.078534715
0.059895687 -0.007893352 -0.029490253 -0.01031639 -0.0046271654 -0.05553726 0.039325252 -0.08698721
0.08866401 -0.10043408 -0.079444475 0.04025096 -0.06214803 -0.07712562 0.030976664 0.05736878
0.08252129 -0.08910464 0.06036136 0.08297518 0.0097503625 -0.06341186 -0.07749681 0.08621581
-0.014795164 0.08844173 0.06318556 0.07612236 0.020174477 -0.028513173 -0.07425032 0.0112189
00000000: 7b37 bfbc 4cad bcbd 4307 b13d 7cd3 57bd
00000010: de18 85bd 81f8 ac3d ac1d b5bd bba3 28bd
00000020: bda2 eabc a1cb 803c 8e2b a9bd a8b8 873c
00000030: 55be 8a3d 86b9 ecbb f4f3 3bbd a3c2 c23c
00000040: 994f 80bd 1733 7e3d 085b 96bd ab2c 523c
00000050: 4bec 343d 7c23 86bd 27d6 b83c 6eea 11bd
00000060: 950f 043d 4483 cbbc 7008 bebd e8ff bfbd
00000070: 18ec 99bc 31d3 98bd 18fa 613d 3e22 c4bd
00000080: 429e 833d 77d4 80bd 3b4e 013c 29cd 84bd
00000090: 3819 8a3d f338 7e3d 5703 dc3c a5b3 8f3d
000000a0: 7834 6bbd cead 51bd 6193 c7bd b74f 99bd
000000b0: e391 773d 1a60 b0bd 18fc 19bd 5486 c5bd
000000c0: 3266 aabd 4558 92bd fbb8 9a3d 755d 33bc
000000d0: e303 b2bd ba5a 03bd 5f4c 7bbd a33d c93d
000000e0: e013 2dbd 1930 cd3c 0a1a 3fbc bcfd 353d
000000f0: d5f8 50bd a00a b23b cf86 cd3d f791 cc3d
00000100: 12d8 1abd d3e2 ae3d 3229 97bd 8140 c3ba
00000110: bf83 083c dd71 b2bb 643c cb3d 4941 a5bc
00000120: afa0 6cbd 2aa5 acbd 5c52 b73c 9d61 c9bc
00000130: 84f5 a9bd 195e 71bc 747d c1b8 9264 cab9
00000140: ccde f0bc f10f 94bd dc7b 913c ae8b b13b
00000150: 5f3d 3a3d 899d 58bd f77b b73d 502d a43d
00000160: 5173 873d 5c8b ccbd d17a 0ebd f3da 8aba
00000170: 6ac8 83bb f4ed 9f3d e574 b33d 794a 3cbd
00000180: 306e 81bd 0a26 31bc 4e1e 9fbd e0a7 2a3d
00000190: f1dd a0bd beb0 babd d30d 03bc 32a1 523d
000001a0: 0ce5 9b3d 34a1 d73c a373 8b3d 3188 933d
000001b0: 8e24 843c 864e 1cbd 17d4 2f3d cc4e 53bd
000001c0: 2547 433d 7eb4 a53c 4e54 a13d 91d9 c2bc
000001d0: 3a02 9abd e089 83bc 8b45 c63d 6286 f13b
000001e0: 5684 263c 24b4 123d 62a2 003d c5b4 c8bd
000001f0: c6d0 8f3d 78f2 4b3c c923 05bd 1589 d9ba
00000200: 34f7 453d 8637 7f3d 84e3 aabc db5c 5bbc
00000210: 36fe 8fbc e719 48bd 31f3 a73c 69f2 8e3d
00000220: d63f a9bd fb8a b53d 8e2f cabd af41 d1bc
00000230: 56bb 063d f6f9 543d 8507 973d 9eeb 8e3d
00000240: 257f 8fbb c681 cfbc c46f a13c bc98 69bd
00000250: 022a 9bbc 6716 b43d e9b8 663d 5d0e 263d
00000260: 5028 8cbc 2654 933c 6e1f ac3b c124 a83d
00000270: 3518 0f3d b428 9bb7 7919 cf3c 3c09 a8bd
00000280: 828c 0bbd 088b a23c 8ab6 2e3d b03a 4e3d
00000290: 3aa2 113c 31e3 f13c 5cbd b33d ec49 4a3d
000002a0: 881a a83d 42d8 28bd 667c 50bd 9a3a 8bbd
000002b0: 0d45 993d 3763 a33c a105 63bd d9ea 443d
000002c0: 09ef ac3c 0c08 06bc e6b3 acbd bc97 04bd
000002d0: 7bb8 a63d 0da7 aabd 25a8 313c 1866 873c
000002e0: 0cb7 36bd edab 2a3d 0928 c33d 7e97 babc
000002f0: 5f4a b63d d1e0 2dbd 974a 603c 5d0e c9bd
00000300: d451 3f3c 03b2 963d 8ef1 fdbc 7247 523d
00000310: b2b9 c43c 62af 9abd 92e8 c5bd 5b89 75bd
00000320: 8cdc 8bbd 7576 943c d86f 92bd 524f 01bd
00000330: c786 213d 7531 07bd 49fa 5dbd f276 99bd
00000340: 754e 943b 61ef f2bc 94a8 553c d35a 383d
00000350: e758 5dbc c12a 853c 78b2 acbd b506 a73d
00000360: 31aa 82bd 3bd8 983d 671d 5dbd 44f1 443d
00000370: 9149 ce3a ce43 7c3d 480a 99bd cfd6 a0bd
00000380: 2e55 753d 1e53 01bc 8b95 f1bc 1306 29bc
00000390: 7a9f 97bb 0a7b 63bd 8413 213d 5a26 b2bd
000003a0: 7a95 b53d 62b0 cdbd c9b3 a2bd 31de 243d
000003b0: ef8e 7ebd 09f4 9dbd c6c2 fd3c 87fb 6a3d
000003c0: ec00 a93d 7e7c b6bd 793d 773d e4ee a93d
000003d0: fcbf 1f3c 14de 81bd a6b6 9ebd ea91 b03d
000003e0: 6a67 72bc f020 b53d 6e67 813d 0ae6 9b3d
000003f0: f244 a53c 7594 e9bc 8d10 98bd 7acf 373c

lstm.weight_hh_l0_reverse f4 [400, 100]
0.095000125 -0.02765143 -0.037993122 -0.07286976 -0.044314113 -0.03642629 0.0018111616 -0.07314819
-0.024846934 -0.035984084 -0.0889848 0.07633459 0.02570463 0.03326682 0.036472626 -0.053765904
-0.07970017 0.022876441 -0.022222266 -0.0094595775 -0.064927 -0.013586357 -0.027633324 0.09218218
0.034251697 0.07206931 -0.09079317 -0.08125681 -0.009239748 0.071886845 -0.049488045 -0.017106809
-0.0032474175 0.07892824 0.043866612 -0.067378685 -0.039064255 0.08111807 -0.08564701 -0.047591794
-0.019957423 -0.040008344 -0.06669386 0.03714513 0.034484304 0.07745763 0.070241086 0.076278396
0.04441642 -0.015488505 -0.044821262 0.017372131 0.09730645 -0.0040353537 -0.015409768 -0.028915368
0.087265916 -0.031792358 -0.06501381 -0.0036875978 0.05054558 -0.07042085 0.040834986 -0.021766089
-0.033790812 0.048034243 -0.09043022 -0.00062303245 0.044886537 0.056908526 0.012162052 0.085939534
0.07523502 -0.079462156 0.074828066 0.0007619709 0.0050508752 -0.08928219 -0.04000317 0.010271847
-0.07585442 0.09606535 -0.034859754 -0.0468848 0.04540596 0.09219495 -0.037925925 -0.015941098
0.04243911 0.07933331 -0.014911607 -0.080686234 -0.010350212 0.054193743 0.07685111 0.08416181
0.02204778 0.08271981 -0.06551409 -0.04171553 0.01034075 -0.025508896 0.06840683 -0.012084842
-0.019720696 0.0943101 -0.005942419 -0.09664273 0.05692763 0.0013824925 0.0036103278 0.06368602
0.021309331 0.08845153 0.06496102 0.004981421 0.0009841323 0.019463703 -0.038917102 -0.0753482
0.088157944 -0.0994875 0.0012506992 0.026105054 0.06542633 0.0861102 0.06595484 -0.09188811
-0.0383569 -0.07679944 0.040241547 0.025895216 0.017055176 -0.08621519 -0.0025461316 0.07151944
0.008397266 -0.098167196 0.08796454 -0.03325782 0.09423681 0.05949629 0.013820872 -0.0776781
0.089740165 -0.038789954 -0.086749874 0.08765771 0.068449356 0.0021276325 -0.02009523 0.045349948
0.0064352974 -0.058384646 0.089180835 -0.06830402 0.09910602 0.08869744 0.09954258 -0.024655744
-0.059391834 0.089687265 -0.06778346 0.096829675 0.026842542 0.007514283 0.03055682 0.01369296
-0.04029007 0.014613494 -0.028959706 -0.040492773 -0.08806498 0.009354845 0.0153916925 0.0022767559
0.008734152 -0.019637085 0.029551812 0.0005565062 -0.022391513 -0.06642319 -0.09846307 -0.037236452
0.017871812 -0.025333464 -0.09461961 -0.09977879 0.048281543 -0.061972704 0.064962186 0.09233611
0.01463823 -0.084182166 0.087421335 -0.018370666 0.039652534 -0.0065714344 -0.054451443 0.040098645
0.01584705 -0.09352086 -0.0067591295 0.009741224 -0.07253249 -0.064324416 -0.097724676 -0.005760029
0.09581115 -0.03606113 -0.00899519 -0.052281786 -0.076079175 -0.09980481 -0.0026784316 0.07422737
-0.07425897 -0.09836177 0.017445877 0.025761671 0.0846755 0.00922896 -0.03387864 0.023148969
0.077022634 0.055573367 0.081215195 -0.08403115 -0.08751585 -0.010708347 -0.045245197 0.078432135
-0.013394035 -0.037964046 0.05118016 0.03654579 0.05713243 0.05785305 0.065734096 -0.013557717
0.036857612 0.07618127 0.072831936 -0.012173831 -0.013243042 0.017337658 -0.06268434 -0.08767706
0.07387223 0.08805243 0.031815432 -0.05864781 -0.05343267 0.05140675 -0.028645433 -0.014283478
00000000: 6d8f c23d 4085 e2bc ad9e 1bbd be3c 95bd
00000010: b782 35bd bc33 15bd 8064 ed3a b8ce 95bd
00000020: cc8b cbbc 0c64 13bd aa3d b6bd 4f55 9c3d
00000030: 8492 d23c ca42 083d 5264 153d a339 5cbd
00000040: d839 a3bd 6067 bb3c 780b b6bc 58fc 1abc
00000050: 72f8 84bd 5099 5ebc 485f e2bc 03ca bc3d
00000060: 824b 0c3d 1399 933d c5f1 b9bd f869 a6bd
00000070: 5062 17bc 6939 933d fab3 4abd 9423 8cbc
00000080: a0d2 54bb 21a5 a13d 7aad 333d d6fd 89bd
00000090: d701 20bd 3b21 a63d b367 afbd 9def 42bd
000000a0: c07d a3bc cadf 23bd ca96 88bd 7e25 183d
000000b0: 6a3f 0d3d 1ba2 9e3d 8fda 8f3d d937 9c3d
000000c0: feed 353d 80c3 7dbc 8096 37bd 0050 8e3c
000000d0: 9b48 c73d 003b 84bb 4079 7cbc ecdf ecbc
000000e0: 79b8 b23d b438 02bd f625 85bd a0ab 71bb
000000f0: e208 4f3d ce38 90bd 9642 273d cc4e b2bc
00000100: 3c68 0abd 8ebf 443d 7b33 b9bd 0053 23ba
00000110: f2da 373d ea18 693d 5843 473c 1101 b03d
00000120: d114 9a3d 0ebd a2bd 753f 993d 00bf 473a
00000130: d081 a53b 95d9 b6bd 5dda 23bd 404b 283c
00000140: 9059 9bbd e9bd c43d 1ac9 0ebd 470a 40bd
00000150: 9afb 393d b5d0 bc3d 3758 1bbd e896 82bc
00000160: a2d4 2d3d 8179 a23d d04f 74bc d33e a5bd
00000170: f093 29bc 42fa 5d3d 1d64 9d3d 075d ac3d
00000180: 8c9d b43c 0169 a93d 402c 86bd e7dd 2abd
00000190: 406c 293c 08f8 d0bc e118 8c3d 80ff 45bc
000001a0: 4c8d a1bc a725 c13d a0b8 c2bb a0ec c5bd
000001b0: f22c 693d c034 b53a 409b 6c3b d16d 823d
000001c0: e890 ae3c 1326 b53d 490a 853d 303b a33b
000001d0: 00fe 803a 5872 9f3c 8a67 1fbd 2850 9abd
000001e0: 278c b43d 1ac0 cbbd 80ee a33a 44da d53c
000001f0: 3dfe 853d 8b5a b03d 5513 873d d52f bcbd
00000200: 201c 1dbd 0649 9dbd 52d4 243d 3422 d43c
00000210: 4cb7 8b3c 9791 b0bd 00dd 26bb c978 923d
00000220: b094 093c e20b c9bd c126 b43d 5a39 08bd
00000230: 3bff c03d 62b2 733d f070 623c b215 9fbd
00000240: b1c9 b73d 37e2 1ebd eba9 b1bd e385 b33d
00000250: 2d2f 8c3d c06f 0b3b c09e a4bc dec0 393d
00000260: 30df d23b bd24 6fbd 71a4 b63d fae2 8bbd
00000270: 19f8 ca3d 01a7 b53d fbdc cb3d d8fa c9bc
00000280: da44 73bd f5ad b73d 0ed2 8abd a34e c63d
00000290: e4e4 db3c 603a f63b 4c52 fa3c 7058 603c
000002a0: 3307 25bd 706d 6f3c e83c edbc c0db 25bd
000002b0: 6a5b b4bd 1045 193c 702d 7c3c a035 153b
000002c0: b019 0f3c f4dd a0bc a416 f23c 80e2 113a
000002d0: 686e b7bc e208 88bd 02a7 c9bd 4085 18bd
000002e0: e867 923c 2088 cfbc edc7 c1bd d258 ccbd
000002f0: dec2 453d 17d7 7dbd e50a 853d b71a bd3d
00000300: 30d5 6f3c b367 acbd f509 b33d 147e 96bc
00000310: b26a 223d 3055 d7bb 7a08 5fbd 7a3e 243d
00000320: acd1 813c dd87 bfbd b07b ddbb a899 1f3c
00000330: ea8b 94bd 85bc 83bd e023 c8bd a0be bcbb
00000340: a338 c43d d6b4 13bd 9060 13bc 6d25 56bd
00000350: 66cf 9bbd 7766 ccbd a088 2fbb 8504 983d
00000360: 1615 98bd e571 c9bd a8ea 8e3c 240a d33c
00000370: 596a ad3d 1035 173c 54c4 0abd e8a2 bd3c
00000380: 0bbe 9d3d e6a0 633d 2754 a63d 8618 acbd
00000390: 833b b3bd 1072 2fbc 0753 39bd 07a1 a03d
000003a0: a872 5bbc 3080 1bbd 4aa2 513d 0ab1 153d
000003b0: b203 6a3d 52f7 6c3d 999f 863d 3021 5ebc
000003c0: 02f8 163d ed04 9c3d e928 953d c074 47bc
000003d0: 58f9 58bc b407 8e3c a660 80bd 0890 b3bd
000003e0: 534a 973d d554 b43d e650 023d b038 70bd
000003f0: 37dc 5abd e28f 523d d4a9 eabc 4005 6abc

lstm.bias_ih_l0_reverse f4 [400]
-0.08240897 0.022709288 -0.06824328 0.02504694 0.03949535 -0.055389304 0.00980376 -0.012995861
-0.0037573967 -0.056880143 -0.08548786 0.084796265 0.03387667 -0.05832209 0.03135795 -0.07190633
-0.02646528 -0.05889288 -0.03671019 -0.033103734 0.09579011 -0.028368367 0.03563324 0.00012487019
0.0026580242 -0.0618114 0.09472305 0.06688244 -0.053548153 0.009325067 0.059039455 -0.0039942856
-0.02909755 0.034390885 0.026662538 -0.020383392 0.059122335 -0.06232594 0.014506305 -0.08434828
0.060215827 0.026446082 0.007235894 -0.0053570434 -0.0018780074 0.0024674586 0.009609508 -0.08619519
-0.052614514 -0.012184098 -0.087444626 -0.06503996 -0.043176986 -0.025997931 0.060971845 0.036349814
0.029330283 0.083691955 0.0323851 0.074705586 0.020709045 0.015561551 0.035297807 0.065260716
0.038899593 -0.043737646 0.05999309 0.018471634 -0.09881964 -0.090557314 0.026451126 0.040454846
0.012659875 0.009354275 0.05810744 -0.04380813 -0.053655457 0.09656282 -0.041542802 -0.081748836
-0.005257771 0.013726139 0.09258983 0.01833952 -0.057657782 0.07430103 -0.03703734 -0.06489481
-0.0637789 0.0724852 0.087561905 0.058383495 0.07433341 0.07981463 0.08778812 -0.08255133
-0.031679478 0.025087547 -0.01855841 0.020314636 -0.025491498 -0.014304057 0.05698826 -0.05531627
-0.04104023 0.09236706 -0.033714235 -0.03325756 0.017403759 -0.04461683 0.09747516 -0.084606126
0.053152822 0.046340026 -0.013494208 -0.036441185 0.097410224 0.0007709861 0.016777769 0.048386164
0.06317531 -0.02122797 0.03551451 0.09792373 0.07327985 0.016119167 -0.05170671 0.041312017
-0.09843127 -0.09825416 0.07703782 -0.043020822 0.053234167 0.06263509 -0.050520875 -0.017252788
-0.030797876 0.0011318475 -0.054593503 0.07291008 0.02559895 0.0040452257 0.011057951 -0.019384682
0.05469992 -0.009882189 -0.06525549 0.08346886 0.0047648326 -0.03739594 -0.09655624 -0.025775649
0.00046290457 -0.08994728 -0.018647894 -0.034710802 -0.04552895 -0.05668763 -0.0022017807 -0.07997745
0.03215941 0.09091797 0.0783812 -0.08273252 -0.036555313 0.093179606 0.099075116 0.038862653
0.052781887 -0.033479176 0.005331859 0.021965683 0.032309882 0.031001784 0.07715697 0.052947752
-0.059691917 -0.08488973 -0.02081146 0.0036307722 0.0071900934 0.034501143 -0.08642248 -0.0016191453
0.01823169 -0.075688384 -0.073560975 0.026736267 -0.08615788 -0.07590882 0.0035425574 -0.019264556
-0.017393127 0.06559313 -0.049153995 -0.025938548 -0.0138252005 -0.0136059895 0.010193706 0.060731344
-0.090561554 0.10752391 -0.05150803 -0.013669176 -0.006494362 -0.052290037 -0.06818313 -0.0376678
0.09178383 0.07796861 -0.054079756 -0.077255465 0.103676476 -0.06515261 0.044706903 0.054632604
0.098159 0.0454713 -0.09930439 0.06082145 -0.084150836 -0.14758159 0.014073032 0.17070928
-0.101994924 0.102985375 -0.12498531 0.04063057 0.12592608 -0.00031196774 -0.011998979 0.03687907
-0.056488704 -0.11372206 -0.13455059 -0.069458775 -0.081600465 -0.031224675 -0.08311467 -0.023671698
0.026802892 0.0353576 -0.07723983 0.118512616 -0.118133396 -0.08366901 -0.05706787 -0.042426974
-0.052322686 -0.12264585 -0.085742906 0.055502065 0.1103243 -0.028222669 0.025148679 -0.083650835
00000000: 09c6 a8bd d408 ba3c 22c3 8bbd 3e2f cd3c
00000010: e0c5 213d e5df 62bd f39f 203c 97ec 54bc
00000020: a83e 76bb 27fb 68bd 4214 afbd aaa9 ad3d
00000030: 43c2 0a3d 25e3 6ebd 3271 003d a043 93bd
00000040: b7cd d8bc a939 71bd 6d5d 16bd c897 07bd
00000050: 9b2d c43d c764 e8bc 29f4 113d 96ef 0239
00000060: 3f32 2e3b f32d 7dbd 29fe c13d a9f9 883d
00000070: 4f55 5bbd 2ac8 183c 5bd3 713d 7fe2 82bb
00000080: fc5d eebc 75dd 0c3d 656b da3c 12fb a6bc
00000090: 432a 723d 7c49 7fbd daab 6d3c cbbe acbd
000000a0: dfa4 763d 74a5 d83c 141b ed3b 238a afbb
000000b0: 7927 f6ba 16b5 213b 3371 1d3c 1b87 b0bd
000000c0: 5182 57bd d09f 47bc 2b16 b3bd ac33 85bd
000000d0: 5ada 30bd 9df9 d4bc 9dbd 793d 8be3 143d
000000e0: 1046 f03c b066 ab3d 3da6 043d 3eff 983d
000000f0: 04a6 a93c e0f5 7e3c 6f94 103d 69a7 853d
00000100: 2e55 1f3d 3f26 33bd 50bb 753d d351 973c
00000110: f461 cabd 1d76 b9bd 08b0 d83c fbb3 253d
00000120: 5d6b 4f3c ac42 193c 1102 6e3d 2770 33bd
00000130: d3c5 5bbd bac2 c53d c928 2abd ef6b a7bd
00000140: 6149 acbb 9ae3 603c bd9f bd3d c33c 963c
00000150: 912a 6cbd 232b 983d 77b4 17bd 92e7 84bd
00000160: 839e 82bd 1f73 943d a853 b33d 8823 6f3d
00000170: 1d3c 983d da75 a33d 42ca b33d ac10 a9bd
00000180: 57c2 01bd 6684 cd3c cf07 98bc e16a a63c
00000190: 8cd3 d0bc 905b 6abc 866c 693d 5093 62bd
000001a0: cd19 28bd f12a bd3d f017 0abd 1439 08bd
000001b0: 5492 8e3c 23c0 36bd 0fa1 c73d fa45 adbd
000001c0: c6b6 593d 0acf 3d3d d016 5dbc 5a43 15bd
000001d0: 037f c73d 001c 4a3a 8871 893c 9230 463d
000001e0: 0f62 813d 48e6 adbc aa77 113d 3d8c c83d
000001f0: bf13 963d 580c 843c 6aca 53bd ca36 293d
00000200: 5596 c9bd 7a39 c9bd 01c6 9d3d 9a36 30bd
00000210: 120c 5a3d d346 803d faee 4ebd b855 8dbc
00000220: d44b fcbc 805a 943a 709d 5fbd e151 953d
00000230: e4b4 d13c d08d 843b 682c 353c a0cc 9ebc
00000240: 060d 603d e8e8 21bc aca4 85bd b9f1 aa3d
00000250: 5022 9c3b 7c2c 19bd 47bf c5bd 7427 d3bc
00000260: 00b2 f239 4836 b8bd 78c3 98bc ea2c 0ebd
00000270: 907c 3abd 4a31 68bd c04b 10bb 38cb a3bd
00000280: 96b9 033d 3333 ba3d 5386 a03d ab6f a9bd
00000290: 06bb 15bd f3d4 be3d e5e7 ca3d 722e 1f3d
000002a0: d231 583d 7621 09bd e0b6 ae3b 60f1 b33c
000002b0: 5e57 043d 74f7 fd3c 7904 9e3d bedf 583d
000002c0: 837f 74bd abda adbd cc7c aabc 40f2 6d3b
000002d0: e09a eb3b 1251 0d3d 45fe b0bd 8039 d4ba
000002e0: a05a 953c 8302 9bbd 23a7 96bd 0406 db3c
000002f0: 8b73 b0bd 1576 9bbd 402a 683b b4d0 9dbc
00000300: 087c 8ebc b155 863d b355 49bd 147d d4bc
00000310: 1883 62bc a8eb 5ebc 8003 273c 6ec1 783d
00000320: 5678 b9bd 7f35 dc3d 16fa 52bd aef4 5fbc
00000330: a8ce d4bb 142e 56bd 99a3 8bbd 8d49 1abd
00000340: 29f9 bb3d 02ae 9f3d bc82 5dbd 1d38 9ebd
00000350: 5554 d43d bb6e 85bd 961e 373d 70c6 5f3d
00000360: 9607 c93d 1d40 3a3d 1a60 cbbd ea1f 793d
00000370: 4657 acbd a11f 17be 9392 663c 6ace 2e3e
00000380: b7e2 d0bd ffe9 d23d 4cf8 ffbd 3e6c 263d
00000390: c4f2 003e 9a8f a3b9 5e97 44bc 820e 173d
000003a0: b360 67bd 1de7 e8bd a1c7 09be 6740 8ebd
000003b0: 251e a7bd e4ca ffbc 0638 aabd 26eb c1bc
000003c0: bd91 db3c 21d3 103d ea2f 9ebd beb6 f23d
000003d0: ecef f1bd a85a abbd 00c0 69bd e8c7 2dbd
000003e0: 5050 56bd bf2d fbbd fa99 afbd 2256 633d
000003f0: b5f1 e13d 3a33 e7bc 9a04 ce3c 2151 abbd

lstm.bias_hh_l0_reverse f4 [400]
-0.06453837 0.06997402 0.027867733 -0.069199 -0.026695177 -0.047157295 -0.0002776472 0.012176805
0.033062384 -0.042740967 -0.025679236 0.018613413 -0.024248824 -0.07576205 0.045330424 -0.098742366
-0.08261927 0.070205 0.04702409 0.067976765 -0.012038187 0.018607778 -0.00450372 0.10087712
-0.065597154 0.078599945 0.010859072 0.070343845 0.0948907 0.070638746 -0.009365276 0.019704323
0.082293265 -0.070938274 0.00987323 0.020234551 0.060065325 -0.06479062 -0.014211511 -0.04861281
-0.024926536 0.08868623 -0.06095889 -0.043432664 0.042489205 -0.08012218 -0.08068653 0.0012574934
0.015627163 0.053062923 -0.07036564 0.09238552 0.05878569 0.047456723 0.035902087 0.058666658
-0.0043289214 0.099616244 -0.050818462 -0.09655781 -0.062207356 -0.036251914 -0.039480153 0.09854684
-0.025164662 0.07105081 0.030345816 -0.062784195 -0.07136044 0.096232384 0.073483855 -0.05996264
0.08317642 -0.075365126 0.042113278 0.04943403 -0.024422709 -0.007837726 -0.00213399 0.039441872
-0.0472703 -0.06446754 0.09971153 0.07992812 0.023682803 -0.03020627 0.051823203 0.007048824
-0.07424118 0.0016162087 0.008981973 -0.02462688 0.031433374 0.071853176 -0.06319172 0.030653385
0.09916804 0.045443203 0.029339576 0.076127864 -0.06650917 -0.053628575 0.047701605 -0.04237279
-0.048909545 0.07675717 0.06136716 -0.039033007 -0.08350773 -0.04311211 -0.0460899 -0.08658562
0.074796624 0.07573057 -0.050238587 -0.09016242 0.02459699 -0.022769973 -0.04020095 0.09252072
-0.08194234 -0.06301818 0.09512635 -0.09800841 -0.07845428 -0.024909303 -0.09010052 0.09272463
-0.08303434 0.06522035 -0.030820847 -0.022230968 0.0771201 0.030684657 0.008176163 -0.09760877
0.08468387 0.03814704 -0.08060396 -0.09916586 -0.07789099 0.04324294 -0.04103228 -0.008411765
-0.09434139 -0.038930286 -0.013739958 -0.05397463 0.029285975 0.010684982 0.03372886 -0.021978363
0.015634157 0.06803494 0.04742963 -0.017777428 0.019833386 -0.09935575 -0.0030410513 0.09861677
0.036789082 0.02608221 0.0041937605 0.055482753 -0.08383904 0.08202992 -0.012571059 0.026212476
0.013943478 0.07230427 0.05634802 -0.084209666 -0.014337704 -0.011350907 0.0221235 0.080478914
-0.06473927 0.075994946 0.0041346923 -0.016305923 0.06803391 -0.01963836 -0.008910798 0.04634843
-0.022191063 0.0852529 -0.019000754 0.023660064 0.07174457 0.06624872 -0.07361533 -0.009217955
0.030298583 0.0561843 -0.070777856 -0.08344682 -0.07289682 0.019291602 0.04293471 -0.025856137
-0.12184313 0.06098671 0.06617142 0.036123093 0.117396556 -0.03890819 0.04578861 -0.09305794
-0.022710582 0.013450879 0.012848076 0.010362933 -0.0059002736 -0.058921106 -0.09268311 -0.0070773964
-0.046825547 0.14527956 0.0049241884 -0.09714827 -0.03180651 -0.16983448 0.08997365 0.14906242
-0.13878931 0.03622394 -0.0705987 0.07775035 0.12457354 0.054991387 -0.020719783 -0.025473494
0.05638485 -0.020013236 -0.1407267 -0.084659345 -0.15853712 -0.06658333 0.10464561 -0.02748486
0.04456101 -0.09453541 0.04974326 0.1030474 -0.10181342 0.015354245 0.026212037 0.01085122
-0.015887607 -0.04726523 -0.13767248 0.039274268 0.067774184 -0.0547449 0.09928188 0.09732487
00000000: b12c 84bd 8a4e 8f3d df4a e43c 35b8 8dbd
00000010: d8af dabc 0228 41bd 2d91 91b9 3981 473c
00000020: 6c6c 073d 2711 2fbd 435d d2bc 287b 983c
00000030: 78a5 c6bc 2229 9bbd 65ac 393d 7039 cabd
00000040: 4b34 a9bd a4c7 8f3d 559c 403d 6737 8b3d
00000050: d13b 45bc 576f 983c f193 93bb aa98 ce3d
00000060: cd57 86bd 02f9 a03d 40ea 313c 6f10 903d
00000070: 0e56 c23d 0cab 903d d170 19bc f66a a13c
00000080: 5f89 a83d 1648 91bd 54c3 213c eec2 a53c
00000090: 0f07 763d f2b0 84bd 66d7 68bc 3a1e 47bd
000000a0: bc32 ccbc 20a1 b53d 07b0 79bd 73e6 31bd
000000b0: 2909 2e3d 1917 a4bd fb3e a5bd 7ad2 a43a
000000c0: 8904 803c 8258 593d dc1b 90bd 9f34 bd3d
000000d0: 44c9 703d fb61 423d 110e 133d 734c 703d
000000e0: a0d9 8dbb 9a03 cc3d 0527 50bd 1ac0 c5bd
000000f0: 24cd 7ebd e37c 14bd f1b5 21bd edd2 c93d
00000100: 1f26 cebc 1683 913d ca97 f83c 0095 80bd
00000110: 6c25 92bd 7c15 c53d b47e 963d 639b 75bd
00000120: 6658 aa3d 0859 9abd f97e 2c3d 567b 4a3d
00000130: 2212 c8bc ce69 00bc 69da 0bbb cd8d 213d
00000140: 819e 41bd 8f07 84bd 8f35 cc3d 5bb1 a33d
00000150: 7002 c23c 2473 f7bc 9144 543d d2f9 e63b
00000160: c30b 98bd f7d6 d33a 2029 133c 50be c9bc
00000170: 48c0 003d c227 933d a96a 81bd cf1c fb3c
00000180: 9d18 cb3d a722 3a3d 8d59 f03c ede8 9b3d
00000190: f635 88bd a3a9 5bbd c262 433d 178f 2dbd
000001a0: 6055 48bd dd32 9d3d 225c 7b3d 13e1 1fbd
000001b0: 1a06 abbd 5396 30bd c3c8 3cbd cd53 b1bd
000001c0: f92e 993d a118 9b3d fac6 4dbd 13a7 b8bd
000001d0: a07f c93c 1888 babc c0a9 24bd 817b bd3d
000001e0: 63d1 a7bd ad0f 81bd 9bd1 c23d a2b8 c8bd
000001f0: a3ac a0bd 980e ccbc 9f86 b8bd 69e6 bd3d
00000200: e80d aabd 3f92 853d 007c fcbc b81d b6bc
00000210: 25f1 9d3d 645e fb3c 50f5 053c 1be7 c7bd
00000220: bd6e ad3d 1240 1c3d b013 a5bd 7817 cbbd
00000230: 5085 9fbd 821f 313d 7711 28bd 80d1 09bc
00000240: 0f36 c1bd 5d75 1fbd 901d 61bc 8014 5dbd
00000250: 24e9 ef3c 1010 2f3c 4627 0a3d f80b b4bc
00000260: 3413 803c e755 8b3d 9245 423d f8a1 91bc
00000270: a079 a23c 077b cbbd 604c 47bb 97f7 c93d
00000280: 26b0 163d 5caa d53c d06b 893b e241 633d
00000290: cdb3 abbd 4dff a73d d8f6 4dbc 8cbb d63c
000002a0: 3073 643c 4314 943d 2ecd 663d 1e76 acbd
000002b0: b0e8 6abc 28f9 39bc 583c b53c 21d2 a43d
000002c0: 0696 84bd 3da3 9b3d 507c 873b 0094 85bc
000002d0: 5d55 8b3d a0e0 a0bc 98fe 11bc dad7 3d3d
000002e0: 08ca b5bc 1399 ae3d 78a7 9bbc c0d2 c13c
000002f0: d1ee 923d 69ad 873d a2c3 96bd e806 17bc
00000300: bc34 f83c 8221 663d fbf3 90bd 2be6 aabd
00000310: ee4a 95bd 6c09 9e3c 4edc 2f3d 40d0 d3bc
00000320: e488 f9bd 33cd 793d e284 873d cff5 133d
00000330: 9b6d f03d 325e 1fbd d68c 3b3d 2995 bebd
00000340: 8b0b babc 1361 5c3c bd80 523c 4bc9 293c
00000350: 1557 c1bb 4257 71bd a4d0 bdbd 81e9 e7bb
00000360: 25cc 3fbd 2ac4 143e 165b a13b acf5 c6bd
00000370: 8b47 02bd 17e9 2dbe 1b44 b83d d2a3 183e
00000380: c91e 0ebe 8e5f 143d 0d96 90bd 933b 9f3d
00000390: 6a20 ff3d a63e 613d 89bc a9bc caad d0bc
000003a0: cdf3 663d ccf2 a3bc a91a 10be e161 adbd
000003b0: 8e57 22be d75c 88bd 7050 d63d ee27 e1bc
000003c0: 9b85 363d c89b c1bd 97bf 4b3d 840a d33d
000003d0: 8e83 d0bd 5f90 7b3c a0ba d63c 51c9 313c
000003e0: ba26 82bc 3099 41bd 04fa 0cbe 0ede 203d
000003f0: 31cd 8a3d 303c 60bd 4c54 cb3d 4352 c73d
