results/torch_2L_lstm_model.pt (torch, 538839 bytes, 10 tensors)

lstm.weight_ih_l0 f4 [400, 28]
000000 bf cb c2 3c ba 55 85 3c 19 51 5d 3b 35 25 3f bd
       0.023778794 0.01627623 0.0033770262 -0.046666343
000010 0f 76 fa bc 04 5c ca bb a4 1f 21 3d a2 ec 16 bc
       -0.030573873 -0.00617552 0.039336815 -0.009211691
000020 9b 70 30 bd 1e 58 82 bd 02 99 b1 3d b8 87 e0 3d
       -0.04307614 -0.06364463 0.08671762 0.10963386
000030 95 2f 83 3d 79 01 ca 3d 90 48 99 3d 0a 57 23 3d
       0.0640556 0.09863562 0.07484543 0.03987793
000040 54 6d 9f 3d c0 b0 6f 3c 05 9b d0 bc 45 df b8 3d
       0.077845246 0.014629543 -0.025464544 0.0902696
000050 60 9d 06 3d 6a 98 c8 bc 1b 85 76 3d 89 e4 43 3d
       0.03286493 -0.02448674 0.060185533 0.04782537
000060 b8 72 a0 bd 33 d7 c7 3d 8e ee 4b bc f6 34 9a bd
       -0.07834381 0.09757843 -0.012447013 -0.07529633
000070 72 f4 b3 3d fc 2e 95 3d e3 dc 59 bd 74 41 50 3d
       0.087868586 0.07284352 -0.05318917 0.05084367
000080 e2 81 de bc 8d a6 06 3e 95 49 05 3e b4 7e 99 3c
       -0.027161542 0.13149472 0.1301635 0.018737175
000090 85 d4 f9 bc d2 a2 98 3b 70 47 f5 3c 43 81 e1 ba
       -0.030496845 0.0046580816 0.02994129 -0.0017204661
0000a0 c7 fe 97 3d f1 dc 35 3d 69 ac 70 bd 38 50 f0 3d
       0.07421642 0.04440016 -0.058758173 0.117340505
0000b0 73 2d 70 bc 54 81 ac bd 5f ca 88 3d 42 57 b1 bb
       -0.014659273 -0.08423105 0.06679224 -0.0054120133
0000c0 0e 50 84 bc 70 6a 80 bd b0 92 96 3d c3 d5 dd bd
       -0.016151454 -0.06270301 0.07352197 -0.108317874
0000d0 c8 bd 81 3d 9c 57 ae bb cc eb 26 bd fd af 26 3d
       0.06335026 -0.0053205024 -0.040752217 0.04069518
0000e0 7c a5 1f 3d 05 74 57 bd e6 68 08 39 49 71 6a 3d
       0.038976178 -0.05260088 0.00013009048 0.057236943
0000f0 6d 35 1a bd ca 2b 4a 3d a7 b1 b8 3d ff 9f a6 bd
       -0.037648607 0.049358167 0.090182595 -0.081359856
000100 b5 5a d0 3d 0e b3 86 bc 96 67 47 bd 5f 73 08 bd
       0.10173551 -0.016442802 -0.04868277 -0.03331315
000110 4f 9c 89 3d 6a a9 8f 3c 21 c5 82 3d 2b 3e 87 bd
       0.067192666 0.017536838 0.063852556 -0.066036545
000120 5c 42 a4 bd 89 d5 62 bd 75 ec 69 3d 12 62 25 3b
       -0.080204695 -0.055379424 0.05711027 0.0025235456
000130 98 11 86 bd 68 74 4a 3d 5d e4 16 bc 1a 3d ee bd
       -0.065463245 0.04942742 -0.0092097195 -0.11632748
000140 fc c1 97 bd 81 00 da 3c eb 9f b2 bd e0 2f 48 3c
       -0.074100465 0.026611568 -0.08721908 0.012218446
000150 a7 4e 5b be 45 88 d3 bc f5 a2 44 bc 87 28 2a be
       -0.21416722 -0.025821814 -0.012001743 -0.16617022
000160 7e 9b 80 bb 91 f4 df 3d 03 4f 08 3d 53 56 6a bd
       -0.003924786 0.10935319 0.033278476 -0.05721123
000170 58 93 e4 bd 11 a9 f8 bd 8e e1 83 be 25 4e c8 bd
       -0.11160916 -0.12141622 -0.25758022 -0.0978053
000180 dd 8b f8 bd 44 97 09 bd 14 4e 34 be 32 5e 82 3d
       -0.12136052 -0.033591524 -0.1760791 0.063656226
000190 42 5f 8c 3c aa 2f 41 bd c3 65 3f be c5 54 a1 bc
       0.017135266 -0.047164597 -0.18691163 -0.019693742
0001a0 13 a1 f4 bd 79 74 f6 3d 9d 4a 60 ba 6d 0e 16 3d
       -0.11944785 0.12033934 -0.000855604 0.03663485
0001b0 31 7e 44 bd 85 28 47 3d 10 32 4d 3e 0f 07 63 3e
       -0.047971908 0.048622627 0.20038629 0.22170661
0001c0 c6 c1 b1 3c 17 24 54 3d fb 9e ab 3d 95 15 3a 3d
       0.021698844 0.05179223 0.083799325 0.04543074
0001d0 c6 71 58 bd 21 84 1d 3e 2c 51 09 3e b8 b0 34 3d
       -0.052842878 0.15382434 0.13409871 0.044113845
0001e0 8b e2 a3 bd 4b b9 b4 3a d8 73 c6 bb df 51 ab 3d
       -0.08002194 0.0013788132 -0.00605629 0.08365225
0001f0 e2 a2 90 3d ec 1b cf 3a e2 b3 c3 3d d5 15 07 be
       0.070623174 0.0015801168 0.09555794 -0.13191922
000200 60 5b 39 bc 05 05 87 3d 04 62 be bc 37 44 fc bc
       -0.011313289 0.06592754 -0.023240097 -0.030794246
000210 08 e0 1d 3c f6 e4 81 bc 08 e5 bc 3d 97 61 4e bd
       0.009635933 -0.015856247 0.09223372 -0.050386038
000220 73 21 c2 3c 35 5e dc bc 1d 27 15 3e 97 5f ea 3d
       0.02369759 -0.02690039 0.14565702 0.114440136
000230 8e 62 da bd 21 a6 1f be 8f 48 72 3d 1f 37 07 3d
       -0.10663329 -0.15590717 0.05915123 0.033011552
000240 df d2 b3 3d 62 42 32 3d 56 fe a5 bd f4 57 27 bd
       0.08780455 0.04352034 -0.08105151 -0.040855363
000250 13 cc ef 3c 2d bd 4c bd cd 5a 1c bd fe 55 99 bc
       0.029272115 -0.0499851 -0.038172532 -0.018717762
000260 b9 d1 00 3e 1b 8a 91 3b 24 60 88 ba de 2d 45 bc
       0.12580003 0.0044415123 -0.0010404629 -0.012034861
000270 7f b2 1e 3e 8a 33 0f 3e bb 96 50 bd a5 01 a6 3d
       0.15497778 0.13984504 -0.050924998 0.081057824
000280 6f 28 d3 bc dc 2d 61 3d 2d 6b 8d bc 7c 40 7d 3d
       -0.025776116 0.054975376 -0.01726302 0.061829075
000290 86 05 3c 3d e1 07 39 3d 18 d2 d9 3d 12 a7 e2 3d
       0.045903705 0.04517353 0.10635775 0.110670224
0002a0 ca 73 95 3d 68 d9 98 3c be 33 a4 3d bd 10 e8 bc
       0.07297476 0.018658355 0.080176815 -0.028328294
0002b0 14 0c 66 3d 90 1d 51 3d 17 35 2b bd 9e d4 3e bc
       0.056163862 0.051053584 -0.041798677 -0.011647372
0002c0 20 29 da 3b e4 3c 93 bd 2a 1f 61 bd 6b 80 91 3c
       0.0066577345 -0.07189348 -0.05496136 0.01776143
0002d0 04 af 6f bd d6 f4 4a 3d 73 7d 69 bd 82 56 22 ba
       -0.058516517 0.0495499 -0.057004403 -0.00061927
0002e0 9e 74 69 bc ef 14 84 bd c4 8e a5 3d 4e 38 7c 3d
       -0.014248995 -0.06449305 0.08083871 0.061577134
0002f0 9b 5d 9e 3c ca 94 75 3c 8f ad a8 bd 6e 22 5a 3d
       0.019331744 0.014989087 -0.08236229 0.05325549
000300 40 f8 b5 bd c2 df 0f bb 62 04 c6 3c b4 3b 5c 3d
       -0.088852406 -0.0021953438 0.024172012 0.053767875
000310 67 35 5f bd c5 a5 5f bd 23 42 b4 3d 8d 66 26 bd
       -0.054494288 -0.05460145 0.08801677 -0.040625144
000320 ce 82 4c bd 2a 9c bf bd bc bf a2 bd 44 26 9b bd
       -0.049929433 -0.09355958 -0.07946727 -0.07575658
000330 f4 b4 58 3d 35 43 65 3d e4 e8 9c 3b d6 fe 6e bd
       0.052906945 0.055972297 0.004788505 -0.0583485
000340 17 2e 9e bd 14 d3 be bd 62 89 38 3d 50 32 c4 bd
       -0.07723635 -0.09317604 0.045052893 -0.09579909
000350 70 c1 d9 bd d6 a5 31 3d 99 33 8b bd a7 48 cd bd
       -0.106325984 0.043371044 -0.06796951 -0.10023623
000360 ef 02 58 bc 13 1d 31 3d 17 3c ca bd 64 68 ff bd
       -0.013184293 0.043240618 -0.098747425 -0.12471083
000370 1d fe a2 bd e0 70 eb 3b 9d e5 36 3d 94 c5 9a 3c
       -0.079586245 0.0071850866 0.04465257 0.01889304
000380 fd 03 bd bb 2d 34 44 3d 85 f5 86 3d 15 7d 32 3e
       -0.0057682977 0.04790132 0.06589798 0.17430528
000390 77 1d 22 3e f0 a6 ae 3c 50 2c b3 3c 3f b0 04 bc
       0.15831552 0.021319836 0.021871716 -0.008098661
0003a0 11 8e 1f 3e 76 81 51 3d 39 66 cd bc a3 fe 07 3e
       0.15581538 0.051148854 -0.025073158 0.1328073
0003b0 b8 f4 47 ba 81 8e d9 bd 66 00 e5 bd 2e 1e 4a be
       -0.00076277135 -0.106228836 -0.111817166 -0.19738075
0003c0 f4 1e 6e be 89 c7 86 be ea ec 18 be 56 e4 04 be
       -0.23253995 -0.26324108 -0.14934126 -0.12977728
0003d0 9c 1d 38 be 7e 63 f2 bc d2 45 25 bc 2c 61 7c 3d
       -0.17980045 -0.029588457 -0.010087447 0.061616108
0003e0 56 c8 36 3e 6b 5c 54 3e ae 0a 9e 3d 36 d4 d0 3c
       0.1784986 0.2073838 0.07716881 0.025491815
0003f0 77 c7 8a 3c 51 ef 5e 3d 91 2c 6c 3d e4 4a 8c 3c
       0.016940815 0.05442745 0.05765969 0.017125554

lstm.weight_hh_l0 f4 [400, 100]
000000 69 eb 46 bd fb dc 8a 3d 74 88 1f 3d 7e f5 7f 3d
       -0.04856435 0.0678043 0.03894849 0.06248998
000010 7e 4b 84 bd b7 d0 ce 3d c2 08 1d 3d 1e 17 64 3c
       -0.064597115 0.10098403 0.03833843 0.013921527
000020 3d cf a6 bd f8 41 2d ba 5e 6d 44 bd be fa 9a bd
       -0.08144996 -0.00066092564 -0.047955863 -0.075673565
000030 cf 5e 62 bd e2 71 95 bd 6d b2 4a bd 02 c8 b2 3d
       -0.055266198 -0.07297112 -0.049486566 0.08729555
000040 fa a3 98 bd a4 25 d1 bc ab 4a 09 bc 90 6c 2a bd
       -0.07453151 -0.025530644 -0.008379619 -0.04160744
000050 c2 fb 33 3d bb 75 dd 3c 1e 22 49 bc 79 24 d1 bc
       0.043941267 0.027033677 -0.012276201 -0.025530087
000060 f9 0b 24 bd 15 e9 53 bd cf ba 4b 3d 1c 29 14 3d
       -0.04005048 -0.051735956 0.0497387 0.036172017
000070 af 5a b8 bd d5 9f d3 3d e9 41 8e 3d 95 0b 15 3c
       -0.090016715 0.1033322 0.06946165 0.009097
000080 7b df 2a 3d 4f ba d2 3c 7e 44 a1 bc e7 12 96 3d
       0.041717034 0.025723604 -0.01968598 0.07327824
000090 22 0f 60 bc 84 f5 59 3c da 86 c0 3c 27 77 a5 bd
       -0.013675483 0.013303164 0.023501802 -0.08079367
0000a0 37 92 b6 bd 58 5c 1b bc ed c1 97 3c 82 fd 5e 3d
       -0.08914607 -0.009482466 0.018525088 0.054440983
0000b0 91 d8 8c bd cf 92 ab 3d 24 64 81 bd d0 d5 ac bd
       -0.06877244 0.08377611 -0.063179284 -0.08439219
0000c0 2c b6 36 bd 85 ae 37 3d 13 a2 01 bd c5 82 ad 3b
       -0.044607326 0.04484417 -0.031648707 0.00529513
0000d0 84 ee 33 bd a8 96 c8 bc 62 52 a5 bd e2 d5 5c bd
       -0.043928638 -0.024485901 -0.08072354 -0.053914912
0000e0 79 6d 21 bd f1 6a 87 3c eb ce 8c bd 43 f8 22 3b
       -0.039411042 0.016530486 -0.06875404 0.0024867214
0000f0 1a b8 9f 3d 39 74 89 bc 46 a3 a7 bd de b0 78 bc
       0.077987865 -0.016779052 -0.08185439 -0.015178887
000100 d2 49 91 3d 0d 86 66 bd d3 d1 65 3d 4d c7 a8 bd
       0.07094158 -0.056280185 0.056108307 -0.082411386
000110 34 8f 85 3d f5 3c fd bc f1 9e 0f 3b f0 8c 1a 3d
       0.065214545 -0.030912856 0.0021914805 0.037732065
000120 5f 19 3d 3c 5d 0e 18 3d 62 6b 50 3b 35 26 1b 3d
       0.0115416935 0.037123073 0.0031802286 0.037878234
000130 1a e2 4c bd 60 e2 87 3c 8a b0 42 3d 53 9f 9d 3b
       -0.050020315 0.016587436 0.047531642 0.0048102527
000140 b2 e2 47 3d fd 55 b9 bd 6c 3b aa bd 21 39 63 3d
       0.048800178 -0.09049604 -0.08312115 0.055474404
000150 dc a6 49 3d f3 9c db bb 92 ba 7b bd 1e 18 9b 3c
       0.049231395 -0.0067020594 -0.061457224 0.018932398
000160 cd 36 6b 3d 92 d1 45 bd 45 6d 46 3d 2b e1 41 bc
       0.05742531 -0.048295565 0.04844405 -0.011833469
000170 32 8f 53 3d 5f 27 a6 bd 84 b4 7a 3b 04 d1 4a 3d
       0.051650234 -0.08112978 0.0038254568 0.04951574
000180 38 6e 81 3d f1 b5 41 3d e3 25 9d bd d9 83 d0 bd
       0.06319851 0.047292653 -0.07673242 -0.10181398
000190 8e 69 48 bd 3b ab 42 3c 35 71 96 3d 79 9d 6d 3d
       -0.04892879 0.011881645 0.07345811 0.058011506
0001a0 f2 99 96 3d 7b ed c4 3c 9e b0 be 3d fa 72 c5 bd
       0.073535815 0.02403902 0.09311031 -0.09641071
0001b0 54 57 8d 3c 0b 34 40 bb 39 5a b2 bb 1a a8 1a bd
       0.017253555 -0.0029327895 -0.0054428843 -0.03775797
0001c0 14 ff 70 3d 0a eb ae 3d 75 1c b9 3d 29 e4 ac 3d
       0.05883701 0.08540924 0.09038631 0.084419556
0001d0 46 0b 3e 3c ea f7 2b 3d 78 20 de 3c 7d 38 11 3d
       0.0115993675 0.041984476 0.027115092 0.035454262
0001e0 82 e1 7f 3d d7 f4 b4 bc 43 3b e9 3d a5 59 15 bd
       0.06247092 -0.022089405 0.113882564 -0.036462445
0001f0 69 2f c1 3d 4f b7 c6 3d 4c c4 d0 bc ad 1b 89 bd
       0.09432871 0.09702932 -0.025484227 -0.06694732
000200 81 1a a7 bd f6 a8 26 3c 8a aa a8 3d 80 71 2e bd
       -0.08159352 0.010172119 0.08235653 -0.04258871
000210 b5 52 9c bd ba ef a0 3d 0e 53 95 3d 1d 0c 5a bd
       -0.076329626 0.07858224 0.07291232 -0.05323421
000220 50 7c 1a 3d 6b 22 99 3d f8 c9 0e 3b 55 41 63 bd
       0.03771621 0.07477268 0.0021787863 -0.055482227
000230 f3 d3 5f bd 6b e0 7c 3d 34 d2 91 bd 2d 16 b0 3c
       -0.05464549 0.06173746 -0.07120171 0.02149495
000240 b1 4c 07 3d f4 c8 aa bd 78 1a 0b 3c 32 fc c7 3d
       0.033032123 -0.0833911 0.008490197 0.09764899
000250 30 e1 84 3d 30 7f b5 bd 81 d7 39 bc bd 19 d6 ba
       0.064882636 -0.0886215 -0.011342884 -0.0016334575
000260 1c 27 87 3d 55 fe ba 3d 89 a4 00 bd af 46 e7 3c
       0.065992564 0.09130541 -0.031406913 0.028231947
000270 1b 59 2f 3d c5 30 cb 3c 5c 72 78 bd cb d4 ee bc
       0.042809587 0.024803529 -0.060655937 -0.029154202
000280 09 13 0b 3c 77 46 cb 3d 9a 45 c2 bc 27 96 82 3c
       0.008488425 0.099255495 -0.02371483 0.015940739
000290 df 2f 86 bc 20 eb ae bd 65 7b c5 bd f2 32 d3 3d
       -0.016380249 -0.0854094 -0.09642676 0.103124514
0002a0 13 41 01 bd e4 04 08 3d 34 26 78 3d bc d0 62 bd
       -0.0315562 0.03320779 0.06058331 -0.055374846
0002b0 db 4a 75 bd 20 9c 97 3d 45 b0 d6 3c 62 eb b3 3d
       -0.05988584 0.07402825 0.026207099 0.0878513
0002c0 5c 98 c7 3b 67 d0 11 3d 07 ea ab bd 47 e5 06 bc
       0.0060911607 0.03559914 -0.083942465 -0.008233375
0002d0 36 02 74 bd 02 ed ce bc 0e 99 08 3c 05 a9 fb bc
       -0.05957242 -0.025259499 0.008337272 -0.030720243
0002e0 7a 93 cc bc aa 7c 66 ba 6c 7b 56 3d a1 b6 0b bd
       -0.024972666 -0.000879238 0.052363798 -0.034109715
0002f0 6e 29 17 bd e1 5f 52 bc 98 73 ef bc 74 40 89 bd
       -0.036904745 -0.012840242 -0.029229924 -0.067017466
000300 a0 dd 5f 3d 93 df b5 bc 82 b4 86 bc 73 57 8c bc
       0.054654717 -0.022201335 -0.016443495 -0.017131543
000310 5e 71 1d 3c 03 90 fc bc a3 44 f2 bb ba 3a 70 bb
       0.009609548 -0.030830389 -0.007393436 -0.0036656098
000320 ae b7 c9 bd e8 03 11 bd 51 2a 5d 3c be 8a ab bd
       -0.09849487 -0.035404116 0.013498859 -0.08376072
000330 a4 d2 a0 3d c7 b7 09 3e d7 ad b9 bc 93 02 ec 3d
       0.078526765 0.13449012 -0.022665901 0.115239285
000340 90 23 10 3d 50 1e 39 3d fe cd 91 bc 73 f7 1d 3d
       0.035190165 0.045194924 -0.01779842 0.038566064
000350 77 60 82 3d 21 46 23 be 17 35 f8 bd f6 0f b4 3d
       0.063660555 -0.15944721 -0.12119501 0.08792107
000360 77 5f b2 3d 87 0e 34 3d 2b 99 35 3d 8e 9c e1 bc
       0.08709615 0.043959167 0.044335525 -0.027540471
000370 16 02 87 3d 52 33 d1 bd 63 8f bd 3d 89 91 c2 3d
       0.06592195 -0.10214867 0.092558645 0.09500415
000380 71 8e ae bd 42 3a a1 3b 16 8e 95 3d ee be da ba
       -0.08523262 0.004920275 0.07302491 -0.0016688982
000390 d8 d3 2c 3c 11 93 0f 3e 05 18 c6 3c 09 01 3a 3d
       0.010548554 0.14020945 0.024181375 0.045411143
0003a0 58 c6 78 bd 1b 89 67 3c 8c fe bc 3d 36 c8 ba 3d
       -0.06073603 0.01413181 0.092282385 0.091202185
0003b0 08 2b d4 bc 40 04 d4 bd 25 e5 f1 3d f2 bc 78 3d
       -0.025899425 -0.10352373 0.11811284 0.060727067
0003c0 d2 a8 aa 3d 11 62 86 3d a1 3a c0 3d df c6 c7 3c
       0.08332981 0.065616734 0.093861826 0.024386821
0003d0 2f 59 90 3d 3d cb 43 3d 20 be dd bd fd 29 67 3c
       0.070482604 0.047801245 -0.10827279 0.014109132
0003e0 b5 f0 ab bd 34 51 e8 3c 40 cd d0 3d 95 9a d2 3c
       -0.083955206 0.028359033 0.10195398 0.025708476
0003f0 40 d8 a8 3d 19 81 41 bd d7 bb bf 3d 52 2d 20 3b
       0.082443714 -0.047242258 0.093619995 0.0024441076

lstm.bias_ih_l0 f4 [400]
000000 36 62 d5 3d 54 be 89 3d b2 28 50 3e 2b 74 a7 bc
       0.10419123 0.06725755 0.20328024 -0.020441135
000010 e4 e5 2f 3e 7d bc 7d 3e c2 0d 0a 3e 6b 21 a5 3d
       0.1717754 0.24778934 0.1348181 0.080630146
000020 fc b3 42 3e 83 c2 0a bc 80 fd d5 3d d4 44 c0 3d
       0.19013971 -0.008469227 0.10448742 0.09388128
000030 64 7b 3b 3e 0a fa b2 3e 5f 28 47 3e 4a cd 60 bd
       0.18308789 0.3495639 0.19448994 -0.05488328
000040 52 c2 0b bd 13 50 66 3d 06 4c 6b 3e f5 5e a9 3d
       -0.034120865 0.05622871 0.2297822 0.08270065
000050 2a 06 2b 3e e7 8d bf bd 2d fc 3c 3e 7d d5 78 3d
       0.1670157 -0.093532376 0.18455572 0.060750473
000060 52 5b 85 3a b7 31 dc 3d 54 c5 6b 3d cb b7 e9 3e
       0.001017431 0.1075167 0.057561234 0.45648035
000070 e0 d4 13 3c 10 27 c6 3e 61 79 10 bc 16 c3 d4 3d
       0.009022921 0.38701677 -0.0088180015 0.10388772
000080 00 83 30 3e e1 d1 fe 3d 48 ad 4f 3e 0e 68 9f 3d
       0.17237473 0.12442375 0.20280945 0.07783519
000090 ba 98 5a 3e e7 f2 fa 3d ce 20 e1 3d 2f 3f 95 bc
       0.21347323 0.12253361 0.10992585 -0.018218605
0000a0 3d 07 75 3c e0 80 17 3e 7b 19 32 3e 24 aa 89 3e
       0.014955339 0.14795256 0.17392533 0.2688762
0000b0 e6 b8 b7 3d 1b e2 91 3d 6b 35 25 3e ab 39 23 3d
       0.089708135 0.07123204 0.16133659 0.03984992
0000c0 ad 68 5a bd bf 14 ea 3d c0 d8 c2 3d 00 32 e7 3d
       -0.053322483 0.11429738 0.09513998 0.112888336
0000d0 b0 d8 24 3e 9d 6f 8a 3e a4 8c 33 3e 27 b6 95 3d
       0.16098285 0.2703828 0.17534119 0.073101334
0000e0 37 df 3c 3e c0 69 3e 3e 55 1c ad 3b af 35 16 3e
       0.18444525 0.18595028 0.0052829185 0.14668916
0000f0 b4 d9 32 3f 48 ac d7 3e 6e 4b 09 3e 2d cf 30 3e
       0.6986344 0.42123628 0.1340768 0.17266531
000100 1f 44 2f ba a8 6c c7 bc b6 c5 09 3e 35 57 88 3d
       -0.0006685871 -0.024343804 0.13454327 0.066572584
000110 9e e9 f9 3d 36 37 be 3d 30 02 81 3d d5 5b 25 bd
       0.12202762 0.092878744 0.06299245 -0.04037078
000120 96 cf 52 3d a3 28 95 bd ff 61 e0 3d d9 ef b2 3d
       0.0514675 -0.072831415 0.10956191 0.087371536
000130 8d c4 e0 3d f7 51 11 3e da f6 0f 3e 8e 69 ef 3d
       0.10974989 0.14191423 0.1405901 0.11690055
000140 6f a6 fe 3d f5 8e d9 3d b3 6a 0c 3e 1a 94 cc 3b
       0.124340884 0.1062297 0.13712578 0.006243241
000150 37 d2 1e 3d db 0d 8a 3d 0c a7 a1 3d 1f c7 72 bc
       0.038774695 0.06740924 0.0789319 -0.014817982
000160 7f c2 65 3b 12 74 9c 3d fd de 78 3d 72 83 83 3d
       0.0035058556 0.07639326 0.060759533 0.064215556
000170 e7 04 6f bc 6e fb a8 3e 38 1c 2b 3c ba 79 00 3e
       -0.014588571 0.33004326 0.01044374 0.12546435
000180 6e 9f 70 3e a6 81 47 3d 19 cc 1a 3c d4 fe 2a 3e
       0.23498318 0.048707627 0.009448075 0.16698772
000190 c4 8a ac 3d c1 6b 73 bd 0d df cd 3b 8c 3d 7f 3e
       0.08424905 -0.059428934 0.0062826932 0.24925822
0001a0 fc be 58 3e 73 fe b4 bd 16 ad 33 3d 87 14 ba 3d
       0.21166605 -0.08837595 0.04386624 0.090859465
0001b0 2b c5 67 be ce fd 91 3c ab db 21 3e 7a 56 71 3d
       -0.22633807 0.017821219 0.15806453 0.05892036
0001c0 dc 8c e1 3d 9a 90 ce bd 36 f0 9a b9 bb 92 3e bc
       0.11013195 -0.10086174 -0.0002955214 -0.011631663
0001d0 bf f6 6d 3d e4 3b 0a 3b 19 f9 18 3d 70 0e da 3d
       0.058096644 0.0021092827 0.037346933 0.10647285
0001e0 b3 7e 8a bc 8a d2 1b be df 2d 37 bc 5d ca 00 3e
       -0.016906118 -0.15217033 -0.01118037 0.12577195
0001f0 ad e3 db bc 41 bb 09 bd 86 ea 03 bd 87 ed f4 bd
       -0.026841963 -0.033625845 -0.03220608 -0.11959367
000200 b5 0f 40 3d 50 00 71 be cb c3 83 3c 72 df 32 3d
       0.04688998 -0.23535275 0.016084572 0.043670125
000210 c6 0f 70 bd e1 2f ab 3d d5 0d 0f 3e bd 8a 74 3d
       -0.058608793 0.083587416 0.1397012 0.059702624
000220 5a ea ee bd 37 1a 64 3d 51 fc 72 bc 0a 93 57 bc
       -0.11665793 0.055689063 -0.014830665 -0.013157615
000230 04 59 ff 3d db 81 22 3e cd 28 ad bc f3 67 f4 3c
       0.1246815 0.15869848 -0.02113762 0.029834723
000240 93 90 06 3e 31 70 d7 3d 31 31 b7 3d bc 13 ec 3c
       0.13141088 0.10519446 0.089449294 0.028818004
000250 bc 96 3c bb c1 bf 1a 3e b9 a6 87 3d 3e 36 20 3b
       -0.0028776368 0.15112211 0.06623597 0.0024446393
000260 1a 0f 05 3e d1 8c 85 3d 8d 22 9c 3d 4d ea cd 3c
       0.12994042 0.06520999 0.076237775 0.025136137
000270 f4 bd 83 3e 91 8e b0 39 45 97 0e bd 98 08 ba bd
       0.2573086 0.00033675556 -0.03481223 -0.090836704
000280 00 e6 29 bf 12 85 c6 bd 2b be 95 3d be c1 94 b9
       -0.6636658 -0.0969335 0.07311662 -0.0002837311
000290 06 0b 79 bc d0 77 b0 bc c4 3d 3c 3d b9 b1 6f 3d
       -0.015200382 -0.021541506 0.04595734 0.0585191
0002a0 28 e1 5e 3d 83 bb 11 3e 57 59 17 3d e0 1f 8b 3d
       0.054413944 0.14231686 0.036950435 0.06793189
0002b0 0a c2 75 3d a9 5c d3 bd 90 a3 08 3d c2 a2 6c 3d
       0.059999503 -0.10320408 0.03335911 0.057772405
0002c0 5d 17 67 3d 9e 4d 95 bd 8a 21 fe 3c 33 f8 30 3e
       0.056418765 -0.07290195 0.031021852 0.1728218
0002d0 f6 66 44 bd 19 75 6a 3d c7 13 02 3e 8f df 63 3e
       -0.047949754 0.05724058 0.12702857 0.2225325
0002e0 97 13 bb 3d 3b 7a 53 3c 0e 01 d1 3d 7b 86 4b 3d
       0.09134596 0.01290756 0.10205279 0.049688797
0002f0 5e f2 a9 bd 05 f4 a4 bd 43 fa 16 3e 56 4e 32 bd
       -0.08298181 -0.080543555 0.14743905 -0.04353174
000300 d4 07 db bc b1 6f 18 bf 39 01 c2 3d 3d f3 83 bd
       -0.026737131 -0.5954543 0.094728895 -0.064428784
000310 13 ab 89 bb f9 7a 2d 3b 3a ad f2 3c 7f 18 87 be
       -0.004201302 0.0026471002 0.029623616 -0.26385877
000320 21 d3 3b bb 93 44 c0 bd 08 f3 94 be 3a b6 8f 3e
       -0.0028659778 -0.093880795 -0.29091668 0.28068715
000330 ca 4d 96 3e f5 c6 9c 3d 26 e2 07 bd 9c 07 b9 3d
       0.29356223 0.076551355 -0.033174656 0.090346545
000340 41 18 61 3d 5b fa fc 3c 03 d2 80 3d 9c 00 2a 3e
       0.05495477 0.030881098 0.062900566 0.16601795
000350 ff 4e 3c 3c 7a 64 d9 be 8f 2d e9 3e 1c ed 68 3d
       0.0114934435 -0.4245947 0.4554257 0.05686675
000360 52 f4 2d be a9 70 2d 3d 1e 94 87 be b7 04 6f bd
       -0.16987732 0.04234377 -0.26480192 -0.058354106
000370 10 11 57 3d f8 65 3a bf 44 10 db bd 86 09 88 3d
       0.052506506 -0.7281184 -0.10696462 0.066424415
000380 15 7a 8c bd b6 ec 38 be 24 36 32 bd 72 23 63 be
       -0.06859223 -0.18059048 -0.043508664 -0.2218149
000390 4f 68 99 3d d6 1f a5 3d ef 37 e8 bc 0d 9d c6 3d
       0.074905984 0.08062713 -0.028346984 0.09697924
0003a0 ef 40 1d be 11 71 54 be ac 5a 53 3e 92 ac b2 bd
       -0.15356801 -0.20746256 0.20640057 -0.087243214
0003b0 ff ac d2 3d cc 50 ba 3e 6e 36 3a 3d 10 34 34 be
       0.10286903 0.36389768 0.045462064 -0.17597985
0003c0 83 45 5a bc 21 06 04 be 1c f5 50 3e 24 a0 8c 3e
       -0.013322237 -0.12892963 0.20406002 0.27465928
0003d0 61 b3 8a bd 09 fa 90 be 12 93 bd bd c4 74 9a bd
       -0.06772495 -0.28315762 -0.09256567 -0.075418025
0003e0 cb 1e 0a 3e 50 b5 21 3e 92 e9 99 3d 96 9b 0d bc
       0.13488309 0.15791821 0.07515253 -0.008643052
0003f0 10 f7 52 3c 69 bf 89 bc 2f 60 db 3d 7e 33 f2 be
       0.012876287 -0.016814904 0.10711705 -0.4730491

lstm.bias_hh_l0 f4 [400]
000000 f1 5f 14 3d ae 35 37 3d da 92 60 3e 64 01 4d bd
       0.03622431 0.044728927 0.2193102 -0.050050154
000010 ec 64 f3 3d db c7 83 3e 8d 6c 74 3d a2 12 5e bd
       0.11884484 0.25738415 0.059673835 -0.05421699
000020 2b a1 61 3d 48 57 80 3c 4f 73 55 3d 1d 56 93 bb
       0.055085342 0.015666619 0.05211192 -0.0044963495
000030 7c bf d1 3d 4a 61 54 3e 65 51 1f 3e b2 f5 85 3d
       0.10241601 0.20740238 0.15558393 0.06541003
000040 4d 48 e9 3c 9f fa 49 3d 8a 3c 87 3e e3 7f 29 3e
       0.028476859 0.049311277 0.26413375 0.16552691
000050 35 cc 6c 3d 7f 0a 21 be 4b 0e fb 3d 0c e0 8f 3c
       0.057811935 -0.1572666 0.122585855 0.017562889
000060 da a6 ee 3d f1 34 00 3d 29 91 f3 3c 67 5c dc 3e
       0.11652918 0.03130049 0.029732304 0.43039247
000070 a8 35 81 3d f8 ac c5 3e 61 ec 42 bd d6 70 14 3e
       0.06309062 0.38608527 -0.04758871 0.14496168
000080 c2 1d d1 3d b4 db e7 3d 92 71 ca 3d ce 53 cb 3d
       0.10210754 0.11321202 0.09884943 0.09928094
000090 fd 72 85 3e 6f f8 8c 3e 00 d4 9b 3d b9 3b b0 3d
       0.26064292 0.2753329 0.07608795 0.08605141
0000a0 48 aa 9a 3d 69 2b 27 3e a7 d4 05 3e 85 9f 3f 3e
       0.0755201 0.16325153 0.13069402 0.18713196
0000b0 04 9c b8 3c a9 ec 05 3e df 06 4e 3e 0d 7a 02 3e
       0.022535332 0.1307856 0.20119809 0.12741871
0000c0 13 a1 97 3c 08 af 91 3c a4 e6 ea bc 2a 5e e3 3d
       0.018509423 0.017783657 -0.028674431 0.11101945
0000d0 48 cd 04 3e 3e 86 49 3e 13 74 ea 3d 2e a9 40 3d
       0.12968934 0.19680116 0.11447921 0.047036342
0000e0 d9 d5 d0 3d 0c d2 ad 3d dd fd cd bc a5 3f 83 3d
       0.10197038 0.08487329 -0.025145466 0.064086236
0000f0 fc 1a 18 3f c8 49 d4 3e e2 dd bf bc 85 17 1a 3d
       0.59416175 0.4146254 -0.023421232 0.037620086
000100 5a 59 32 3b 38 7c fc bb 56 7f 13 3e 96 ab 65 3e
       0.0027213902 -0.0077052377 0.14404044 0.22428736
000110 6a a3 f6 3d 60 c9 49 3d 6b 7e 68 3d bd dd 4b 3d
       0.120428875 0.04926431 0.056761187 0.049772013
000120 ef 37 b2 3d 3d 71 f5 bd 78 f4 8a 3e 2b 13 ee 3d
       0.08702075 -0.11984489 0.2713964 0.1162475
000130 2e 01 01 bc ad 13 17 3e ba ce 05 bd 6c 91 40 3d
       -0.007873816 0.147536 -0.032667853 0.047013685
000140 e7 82 90 3d 32 9b 00 bc a5 50 06 3e 8e 45 ab 3d
       0.07056218 -0.007849501 0.13116701 0.08362876
000150 42 1c cf 3c 37 03 b8 3d 45 b4 8a 3c 98 5e fb 3d
       0.025282029 0.08984988 0.016931662 0.12273902
000160 2d 21 eb 3d d8 f7 a2 3d fd 0b 70 3d 65 bf bb 3d
       0.11480937 0.07957429 0.058605183 0.09167365
000170 eb bd 16 3e 12 a9 c1 3e 11 27 14 3e 72 d6 31 bc
       0.14720885 0.37824303 0.14468028 -0.01085435
000180 3b c1 cc 3d c6 53 11 3e 64 e2 7a bd 28 b6 3b 3e
       0.09997793 0.14192113 -0.06125106 0.18331206
000190 e8 97 5c 3d a0 bb 53 3b 29 21 bc 3d 7a b4 ae 3e
       0.053855807 0.0032307878 0.09186012 0.34122068
0001a0 9d 2f 2e 3d f3 fe 34 3d 45 be a2 3d 7f e0 a7 3d
       0.042525876 0.04418845 0.07946447 0.08197116
0001b0 93 85 ba bd d5 50 7a 3d bf 6c 17 3d fc e8 13 3d
       -0.091075085 0.061112244 0.036968943 0.036110863
0001c0 f4 e3 0f 3e bb 5f 0c be 6b 92 7a ba 67 7a 89 3d
       0.14051801 -0.13708393 -0.0009558561 0.067127995
0001d0 93 e7 32 bd dc 14 0b 3d 02 1d 6e bc 7a 2c 80 bc
       -0.043677878 0.03395544 -0.014533283 -0.015646208
0001e0 2b b3 4a 3d d1 2c 38 3c b2 46 07 3d e8 17 83 3c
       0.049487274 0.011241154 0.033026405 0.01600261
0001f0 62 d5 71 bd 8f 51 68 3d 37 5f c7 3d f6 5e 0b bd
       -0.05904139 0.056718405 0.09734958 -0.03402611
000200 5a 43 52 bc 4a 04 1e be 9a 1c ac 3c e0 b6 50 3d
       -0.012833441 -0.15431324 0.021009732 0.050955653
000210 a4 fd 18 bd 4c 20 28 3e 1f 7a 9d 3c f7 1b 50 bd
       -0.037351266 0.1641857 0.019223271 -0.05080792
000220 bb 46 2c 3c 56 de 95 3d c4 13 40 3d f4 cf b0 3c
       0.01051491 0.07317798 0.04689385 0.021583535
000230 2c b2 48 bd 9d a9 d7 bc 67 b1 ec 3c 73 4b ac 3d
       -0.048998043 -0.026325995 0.028893186 0.08412828
000240 0d 65 bb 3d 41 73 e4 3d fc 16 1f 3e e3 8d 12 bd
       0.09150133 0.111547954 0.15536112 -0.035779845
000250 12 3c 24 3e fe 9b 0a 3e b8 19 2e 3e 42 fa 42 3d
       0.1603854 0.13536069 0.17001998 0.047601946
000260 41 c4 4f 3d 93 d2 ad 3c af e6 b0 3d 1e 64 59 bd
       0.05072427 0.021218574 0.086377494 -0.053073995
000270 ba c9 83 3e 23 9e a8 bc e9 1c 0c 3c 9c 31 a7 3d
       0.25739843 -0.020583218 0.008551815 0.08163759
000280 30 8b 12 bf 0c 1e c9 bc c3 74 0a bd f4 9e c1 3d
       -0.57243633 -0.02455046 -0.03380276 0.09454146
000290 57 fd 4e bb 1e 45 b4 3d da aa ce 3d 6c 0f 09 3e
       -0.0031584108 0.088022456 0.10091181 0.13384789
0002a0 5d 13 07 3e 1b 2f 4d 3e 2d 15 3d bd a0 5d d7 3c
       0.1319098 0.200375 -0.046162773 0.026289761
0002b0 f2 76 1a bd 2a 82 21 bc e3 59 38 bd 0e e3 93 3c
       -0.03771109 -0.009857694 -0.045007598 0.018052604
0002c0 c3 14 e1 3d 4e bc 96 bd 06 e2 d4 bc f7 c1 01 3c
       0.10990288 -0.07360135 -0.025986683 0.00791978
0002d0 d0 b3 03 3a 63 50 a8 3c d9 b3 f6 3d 57 9e 64 3e
       0.00050240476 0.020546144 0.12046022 0.22326027
0002e0 09 bc 3c 3e de ab 8f bd c2 fe 19 3c 5e 9f 93 bd
       0.18431105 -0.07015203 0.009399118 -0.07208131
0002f0 01 c5 2f 3d 15 55 9b bd 6c 81 96 3d 89 04 81 bd
       0.042912487 -0.075845875 0.07348904 -0.06299693
000300 50 74 e1 bc 63 f4 21 bf a7 31 00 3e 55 19 db bc
       -0.027521282 -0.6326353 0.12518941 -0.026745478
000310 a7 13 3c 3c d3 59 92 3d a1 fc 1f bd f5 3d 90 be
       0.011479295 0.07146039 -0.039059285 -0.2817227
000320 27 a9 b8 bd 2d 56 6d bd e8 f9 50 be ed 9a 2a 3e
       -0.09016638 -0.05794351 -0.20407832 0.16660662
000330 03 9e 5c 3e 15 8b 26 3d 9a 75 68 bd 64 da 06 3e
       0.21544652 0.040659983 -0.05675278 0.13169247
000340 9f 1d 92 3d c9 cd a5 bc a7 c7 e3 3d d7 4e 1b 3d
       0.07134556 -0.020239728 0.11122065 0.037916984
000350 e1 ff 83 3c 5a dc db be 21 ff ed 3e fc 61 bf 3d
       0.016113224 -0.42941552 0.4648371 0.09344861
000360 f1 78 cf bd f0 25 03 3e 20 96 a9 be ec 2f 90 3b
       -0.101304896 0.12807441 -0.3312235 0.004400244
000370 d4 6b b6 bb 10 61 4a bf af 00 09 be 72 d9 aa 3d
       -0.0055670533 -0.79054356 -0.13379167 0.08342256
000380 59 35 8f bd 38 6c 50 bd 18 f3 f0 bd d6 29 69 be
       -0.06992597 -0.050884455 -0.117651165 -0.22769865
000390 08 a9 34 3d 9e 35 c6 3d c9 bc f8 3c 73 c4 c4 3d
       0.044106513 0.096781954 0.030363457 0.09607782
0003a0 6d 9e 11 be 75 12 3e be 74 4a 56 3e 30 64 ae 3d
       -0.14220591 -0.18561728 0.20926839 0.08515203
0003b0 95 29 1a 3e ec 37 94 3e 9a 15 73 3c a0 6f 91 be
       0.15054925 0.28948915 0.014836693 -0.28405476
0003c0 c7 f7 7d 3c 2b af 07 be 02 74 8e 3e 3e c8 c6 3e
       0.015500969 -0.13250415 0.27822882 0.38824648
0003d0 9d f3 14 bd b5 77 79 be d8 d1 d2 bc 7d b7 2e 3d
       -0.03636514 -0.24362071 -0.025734827 0.042655457
0003e0 48 d8 92 3e 1c 8f 50 3e 24 56 20 3e a6 31 c7 bd
       0.28680634 0.20367092 0.1565786 -0.097262666
0003f0 33 2c 06 3e 53 ea c7 bd 2d d2 5c 3e 36 70 ce be
       0.13102798 -0.09761491 0.2156455 -0.40319985

lstm.weight_ih_l1 f4 [400, 100]
000000 be 9e a2 bd e8 da 61 bc ec 7e f1 3b 75 c9 ec bd
       -0.07940434 -0.0137851015 0.0073698666 -0.115618624
000010 55 25 e6 bd 9f 12 88 3a e8 b9 47 3d 07 64 9e 3d
       -0.11237589 0.0010381526 0.04876128 0.077339225
000020 6d 3b 8c 3d 69 56 9d bd a7 41 38 3d b1 c1 6b 3d
       0.06847272 -0.07682497 0.044984486 0.057557765
000030 67 b2 10 bd a5 08 4c 3d d6 96 44 3d c4 5e c4 bd
       -0.035326388 0.04981293 0.04799541 -0.095883876
000040 5c 0f ef 3c 6d c2 2b bd 24 89 ab bd b5 b1 18 3d
       0.029182129 -0.041933466 -0.08375767 0.03727885
000050 a7 a8 bf bd dc 78 4d bd c2 5c 14 3d 0f d9 49 3a
       -0.0935834 -0.05016409 0.036221273 0.0007699886
000060 6b 78 95 bd 70 05 a7 bc bb 45 a4 bd b2 9b df 3d
       -0.072983585 -0.020388335 -0.080211125 0.109183684
000070 90 38 50 bd d0 1b b6 bd fe 03 84 bd 9f 0d 21 bd
       -0.050835192 -0.088920236 -0.06446074 -0.03931963
000080 57 b2 21 bd 6d 3b d4 3d c3 8a bc bc 96 94 00 bc
       -0.03947672 0.10362897 -0.023015385 -0.007847926
000090 68 e8 e7 38 df d2 a4 3b 41 b1 de bd 52 de 5f bd
       0.000110582274 0.0050300206 -0.10873652 -0.05465538
0000a0 fa d7 68 bd 6d c2 cd 3d 9f 5c a5 bd 55 f9 89 bd
       -0.056846596 0.100468494 -0.08074307 -0.067370094
0000b0 39 21 78 3c a1 15 f5 3d 9f 85 c4 3b 9d 56 c8 3d
       0.01514464 0.11967016 0.005997374 0.09782145
0000c0 a9 96 ea bc 49 3f be bd a7 ed 3d 3d 82 f6 35 3d
       -0.028636293 -0.092894144 0.04636922 0.04442454
0000d0 0a c4 5e bc 6f c3 9d 3d 5d 4a 82 bd 71 6e 8b bb
       -0.013596544 0.077032916 -0.0636184 -0.004255109
0000e0 fe 87 9c 3d fc c5 90 3d 02 40 c3 bc 76 55 e8 3c
       0.07643126 0.070690125 -0.023834232 0.028361063
0000f0 38 73 ce bd 5e 43 1a 3e c0 d3 f0 3d 66 f0 b8 3d
       -0.1008057 0.15064761 0.11759138 0.09030227
000100 c7 12 fd bd 67 c9 8f bd 2f 77 57 bc 4d 36 fc 3c
       -0.12357097 -0.07020836 -0.013150974 0.030787611
000110 69 90 bd bd 86 5f 79 bd aa 51 88 3d 62 9b 5e 3d
       -0.0925606 -0.060882114 0.06656201 0.054347403
000120 ef e4 6f 3b 0d 26 ab 3c 56 8a 05 3d 35 da b2 3d
       0.003660496 0.020892167 0.03260263 0.08733026
000130 1e 56 35 bc f3 e9 d6 3a 4f ba 8f 3c 9e b4 32 bd
       -0.011067895 0.0016396627 0.017544894 -0.04362928
000140 2a 4c 05 bd 21 8e 8c b9 81 66 cd bd 59 c5 0b bd
       -0.03254334 -0.00026808775 -0.10029317 -0.034123752
000150 80 1d 2d 3d ad 22 13 3b 14 28 4a 3d 54 96 91 3b
       0.04226446 0.0022451088 0.049354628 0.0044429693
000160 0d 23 e0 3c f3 ed 56 3d d1 c0 33 bc 7f 98 74 3d
       0.027360464 0.05247302 -0.010971264 0.059715744
000170 d7 a9 86 bc 70 68 8d 3d 1f 50 93 bd eb 16 35 3d
       -0.016438408 0.069046855 -0.07193016 0.04421131
000180 8b a9 35 3b 96 22 99 bd 75 61 39 bd 05 f9 65 bd
       0.0027719464 -0.074773 -0.045258958 -0.056145687
000190 ec b1 df 3c 62 3a 9a ba 9e 40 99 bd 70 49 26 3d
       0.02730652 -0.0011766667 -0.07483028 0.04059738
0001a0 8f 94 de 3d 1b a7 c2 bc 44 f9 95 3d 3b 4e 7c ba
       0.10868179 -0.023761323 0.07322934 -0.00096246944
0001b0 29 08 e3 bc a5 12 a9 bc ca b0 eb 3c d2 89 87 3c
       -0.027713852 -0.020638773 0.028770823 0.01654521
0001c0 c3 40 7f 3d b4 30 34 3d 35 bb ae 3c e4 9b b6 bd
       0.06231762 0.04399176 0.021329502 -0.089164525
0001d0 93 8d a8 bd 44 8f 7e 3d ba f8 93 bd 37 ad c7 3c
       -0.08230128 0.062148347 -0.07225175 0.024374587
0001e0 b6 5a 5d bc 66 55 89 ba b8 08 98 3d cc 09 4e bd
       -0.013510397 -0.0010477721 0.07423538 -0.05030231
0001f0 b3 c8 26 3c 21 98 90 bd 35 0f d6 3d 31 da a0 3d
       0.010179686 -0.07060266 0.10452119 0.07854117
000200 e0 93 9d 3c 06 47 dd ba 2f 3d 47 bd a7 ba 79 3d
       0.019235551 -0.0016882129 -0.048642334 0.06096902
000210 3e 5b 7e bd 19 69 c0 bd 25 b7 85 3b 59 81 d9 bc
       -0.062098734 -0.09395046 0.0040806704 -0.026550936
000220 bf 76 fe 3c 79 c6 87 3c b1 c7 3d 3d f6 24 b3 bb
       0.031062482 0.016574131 0.04633302 -0.0054670526
000230 3e 9d ad bd a3 fd 34 bd d9 fe 98 3c af e5 7a bb
       -0.08477257 -0.0441872 0.018676208 -0.0038283875
000240 cf 5e 40 bd 6b 30 dc 3d 87 ce 99 3d 39 35 c5 bd
       -0.046965417 0.107514225 0.07510095 -0.09629292
000250 89 2f 51 bd f8 f2 d9 bd de db c6 3c 3a 5b 8d 3d
       -0.051070724 -0.10642046 0.024274763 0.06902166
000260 8a 79 a5 bc ac e4 b9 bc 62 34 2b bd d3 b5 24 be
       -0.020199556 -0.022692047 -0.041798003 -0.16084985
000270 86 f1 7e bd ef 3c bc 3d a0 e8 0d ba 1d 3a 79 bd
       -0.062242053 0.0919131 -0.0005413387 -0.060846437
000280 0c 40 41 3e 0a 7a dd bd 61 97 5e 3d 05 e7 c8 ba
       0.18872088 -0.10814293 0.054343585 -0.0015327638
000290 46 58 77 bd 07 76 7b 3d ed e6 a4 bd 77 58 a1 bd
       -0.06038692 0.061391857 -0.08051858 -0.078782015
0002a0 49 e0 e8 3c 9c 06 0e 3d 81 a2 38 3d a4 b1 82 bd
       0.02842726 0.034674272 0.04507685 -0.063815385
0002b0 0c a7 7f 3c 9f 54 e3 3c 3a a8 2c bc ad 8e 06 3d
       0.015603792 0.027750311 -0.010538155 0.03285091
0002c0 36 5d 99 3c 7b de 01 bc fe a3 5b ba bb c2 47 bc
       0.018721204 -0.007926579 -0.0008378624 -0.012192423
0002d0 f3 4e f0 bc 63 24 1e bd 30 6f a0 bd 6c 72 7d 3c
       -0.02933452 -0.03860892 -0.07833707 0.015469175
0002e0 b2 42 ac ba ed f8 cf 3d 94 fd 8d 3d 86 7f 8a 3d
       -0.0013142435 0.10154901 0.06933132 0.067626044
0002f0 a6 c1 25 bd 53 64 52 3d 29 2e 43 3d a7 94 13 bd
       -0.04046788 0.051365208 0.047651444 -0.036030438
000300 1b f8 be 3d 3f b6 33 ba d4 88 62 bc 6e 37 d8 3d
       0.09324666 -0.0006855465 -0.013826568 0.105574474
000310 c9 af 95 3d f6 6a 46 3d 8a 74 6f bd fb e3 65 3d
       0.07308919 0.04844185 -0.05846075 0.056125622
000320 a9 33 64 3d 1b 3b bd 3d 80 11 d7 bd 27 5d 5e 3d
       0.05571333 0.09239789 -0.10501385 0.054288056
000330 85 3c 63 3c 97 4b a8 bd 18 f2 0c bc af 1d aa bc
       0.013869409 -0.082175426 -0.0086026415 -0.020766107
000340 50 8c a8 3d f7 21 29 3d af 70 a3 3c e8 4e 16 bd
       0.082298875 0.041292157 0.019951193 -0.036696345
000350 e6 71 89 bc 16 7e 3b ba e7 c1 c4 3c bb 10 5c 3d
       -0.016777944 -0.0007152272 0.024018241 0.053726893
000360 59 81 04 3d 38 70 88 3d 0f d0 e7 3c 08 e8 81 3c
       0.032349918 0.06662029 0.028297452 0.015857711
000370 29 2a b6 bc 90 4d ad 3d 21 23 ab bd 07 fa f7 bb
       -0.0222369 0.084620595 -0.0835631 -0.0075676474
000380 a8 36 bd 3d e2 13 0e bd 83 4a d9 3c 70 3e 4b bd
       0.092389405 -0.03468693 0.026524788 -0.049620092
000390 f2 49 81 bd 85 ea e3 3d 74 60 30 3d b7 2b 8b bd
       -0.06312932 0.111287154 0.043060735 -0.06795447
0003a0 66 73 b6 bc ac 20 1b bd e7 d0 93 3c d8 f6 a3 3d
       -0.022271823 -0.037872955 0.018043948 0.08006066
0003b0 4b 2c e1 bd 38 41 0e bc 6d 87 8b bc 5b 4a b2 3d
       -0.10994776 -0.008682542 -0.01703235 0.087055884
0003c0 34 3a 04 3d d2 0f a9 3d ce 2a 8e 3d 9c c5 99 bd
       0.03228207 0.082549706 0.06941758 -0.07508394
0003d0 bc a6 d2 bd cd 91 78 bd 1f ca a4 bd 6d 2e 1a bd
       -0.10285708 -0.06068592 -0.08046364 -0.03764193
0003e0 20 ec c5 bd 9b 4e 81 bd ca ce 8e 3b 4b da 39 bd
       -0.09664178 -0.06313821 0.0043581473 -0.045374196
0003f0 02 a6 9c bd 07 69 c3 3d cd 3b cd 3d 07 bd ae 3d
       -0.07648851 0.09541517 0.10021172 0.08532148

lstm.weight_hh_l1 f4 [400, 100]
000000 33 b4 18 3d 33 50 2a bc b6 dd 70 bd 59 d8 a0 bd
       0.037281226 -0.010395098 -0.05880519 -0.07853765
000010 24 fe 1a bd 39 27 6b bd 2a 2f b9 bd 60 a6 27 bd
       -0.037840024 -0.057410453 -0.09042199 -0.040930152
000020 4c 57 a1 bc 35 b4 c0 bc 7d 64 b6 3d 40 8e f8 bc
       -0.019694947 -0.02352343 0.08905885 -0.030341268
000030 d1 12 a5 bc cf de 20 3d 99 74 da 3c da b9 d8 bc
       -0.020150574 0.039274987 0.026666926 -0.026455808
000040 26 c2 d6 3d 10 a2 a4 3d 60 36 94 3d 9f f1 a9 bd
       0.104862496 0.080387235 0.07236934 -0.08298039
000050 ca dd 86 bc f8 cf 62 3b b7 52 1c 3d 53 a3 b3 3d
       -0.01646318 0.0034608822 0.03816482 0.08771386
000060 04 4e be bd 97 dd c9 bd 39 c9 85 bd 82 a9 c0 bd
       -0.09292224 -0.09856718 -0.06532521 -0.09407331
000070 88 c0 6d bd cb 80 ee 3c c4 51 78 bd 00 96 96 3d
       -0.05804494 0.029114148 -0.060624853 0.07352829
000080 69 a0 f5 bc 45 be be 3d 81 52 14 bd 78 09 9a 3d
       -0.029983716 0.09313635 -0.036211494 0.07521337
000090 dc 9e 71 bd 8e fe 8e bc 58 bc 2a bd e9 15 3d 3d
       -0.05898939 -0.017455366 -0.041683525 0.046163473
0000a0 a7 ea 8d 3c ca ad 32 bb a0 9a bc bd cc 45 00 3d
       0.017323805 -0.002726423 -0.0920918 0.031316563
0000b0 ab 46 10 3d 00 7f af 3d b0 d4 82 3d 00 8c 86 3d
       0.035223644 0.08569145 0.06388223 0.06569672
0000c0 fc 46 86 bd 5a 68 d7 3c 61 f6 82 bd 0e 72 a5 bd
       -0.06556508 0.026294876 -0.06394649 -0.08078395
0000d0 03 9b 1e bc 38 ff 3a 3c 5e 78 89 3d d1 a2 af 3d
       -0.009680512 0.011413388 0.06712411 0.08575977
0000e0 d9 55 b1 3c 91 36 7c 3b ba 89 93 3a 8e 81 bc 3d
       0.02164738 0.0038484673 0.0011256256 0.09204398
0000f0 36 ad 31 bd aa f4 bd bd a7 6b 1b bd 76 a7 3e 3d
       -0.043378077 -0.092751816 -0.037944462 0.046546422
000100 51 35 c7 bd ac 92 41 3c 88 7a 37 bd e1 d0 b2 3d
       -0.09726966 0.011814754 -0.04479459 0.08731247
000110 c8 c7 0b 3d 3d 1e bf bd 3b db 49 3d c8 a2 33 bd
       0.034126073 -0.09331939 0.04928134 -0.043856412
000120 07 8b a9 3c b9 e8 c4 bd 57 2d 5e bd 45 a6 43 bc
       0.020696176 -0.09614701 -0.05424246 -0.011941497
000130 b4 8a bd 3d dc 72 f7 bb 9a 4e ba 3d b5 4e ba 3a
       0.09254971 -0.007551534 0.09097023 0.001421413
000140 62 43 98 bd 03 ec 7c 3d 5c 3e a7 bd 7d 11 e1 3b
       -0.07434727 0.061748516 -0.08166191 0.00686854
000150 cd 9c 2a 3c 09 f0 bd 3d f4 f7 3e bd 13 9a 47 bd
       0.010413361 0.09274299 -0.046623185 -0.04873092
000160 21 7f 8e 3c 2a 21 91 bd 8d 4e 96 bd 89 77 b5 3d
       0.017394604 -0.07086404 -0.07339201 0.0886069
000170 3e 4b 4e 3d 15 de 2c 3d e1 a8 3d 3d 7f 1f 5b bb
       0.050364725 0.04220398 0.046303634 -0.0033435521
000180 3b 75 95 bd 23 77 df ba b8 aa 29 bd 83 a5 e3 3d
       -0.072977506 -0.0017049055 -0.041422576 0.11115553
000190 88 c2 27 3d 80 21 79 3d 21 b7 4f bd 63 86 8c ba
       0.040957004 0.060822964 -0.050711755 -0.0010721203
0001a0 6a ce ac bd 6b f7 c3 bd 6f bd 82 bc 50 28 1e bd
       -0.08437808 -0.095686756 -0.01595947 -0.038612664
0001b0 a2 cb 95 bd 03 83 18 bc 7a 73 cc 3d db 32 c6 bd
       -0.073142305 -0.009308579 0.09982963 -0.09677669
0001c0 1a 30 4f 3d bd e5 77 3d f1 f0 ca 3d 46 d0 8f 3d
       0.050582983 0.06052183 0.09909237 0.07022147
0001d0 86 49 72 3d 6f 18 d6 3c 06 4d d5 ba 4d c5 05 3d
       0.05915215 0.026134698 -0.0016273565 0.032658864
0001e0 e2 a7 6c bc 23 a0 14 bc 4d 21 2f bc 1e 9d 87 3d
       -0.014444323 -0.009071383 -0.010689092 0.066217646
0001f0 9f f5 c3 3c 3c 56 be 3d 2e 35 df 3d 96 e3 93 ba
       0.023920832 0.09293792 0.10898815 -0.0011283036
000200 e0 4e dd bc 13 24 87 bd 28 3e 55 3d d5 86 a9 3d
       -0.02701515 -0.065986775 0.05206123 0.0827767
000210 82 05 49 3d 46 c5 22 bc d8 73 a0 3d e4 08 fe bd
       0.04907752 -0.009934729 0.078345954 -0.124040395
000220 f0 de 8e 3d 79 73 a1 3d b9 f8 8a ba bd 42 99 3d
       0.06976116 0.07883353 -0.001060269 0.074834324
000230 a2 9f b2 3d 57 fe e1 bc 1b e8 02 bd 1f de 38 bd
       0.08721854 -0.027587099 -0.031959634 -0.045133706
000240 b5 0d 83 3d 7e 3a fa 3c 57 34 9e bd 7f 3c 21 3d
       0.06399099 0.03054547 -0.07724827 0.039364334
000250 bd 5d 22 3d d1 0b 5d bb 48 49 ee 3d 9b 9c fa bc
       0.039640177 -0.0033728967 0.11635071 -0.030592253
000260 f2 91 8e ba de 9d 9a bb f4 34 a3 3d 31 9c 5c bd
       -0.0010877235 -0.0047185263 0.079690844 -0.053859893
000270 0c b0 92 bd b4 55 9d 3d cb 22 b1 3d 9c 03 d3 bd
       -0.071624845 0.07682362 0.08649214 -0.10303423
000280 bf ff e4 bd 7e f2 b6 bc 97 5f e5 bc bc 9d 34 bd
       -0.11181592 -0.022332426 -0.027999682 -0.04409574
000290 b7 34 e1 ba 69 fb 75 3d e4 1f 3b bd fa b1 f6 bd
       -0.0017181848 0.060054217 -0.04568471 -0.12045665
0002a0 0f 11 ad bb 5c 72 8d 3c 04 2c 5b 3d 63 96 c9 3d
       -0.0052815746 0.017266445 0.053508773 0.09843137
0002b0 4a 0e dd 3a db 1c a0 bd 30 57 3c bd 50 3b 79 bc
       0.001686522 -0.07818004 -0.045981586 -0.015211895
0002c0 11 76 e8 bc 7b 69 7c 39 ec 4d 88 bb d6 de 5d bd
       -0.028376611 0.00024071887 -0.0041596796 -0.05416759
0002d0 31 46 70 3a f0 ce bb bc 11 a2 7c 3d 78 ff ba bc
       0.0009165733 -0.022925824 0.061677996 -0.022826895
0002e0 89 92 67 bd 33 a0 e6 3c 08 6a ae bd 02 3e fd 3c
       -0.05653623 0.02815256 -0.085163176 0.030913357
0002f0 ac 99 c3 bc 60 be b5 3b b4 32 4b bd b4 0e cf 3d
       -0.023876987 0.005546376 -0.0496089 0.10110226
000300 ad 12 54 bd a1 0a bb bc 78 d4 6f bd b7 43 d5 bd
       -0.051775623 -0.022832217 -0.058552235 -0.10413306
000310 d2 98 a2 3d 35 dc d3 3b 25 33 3c 3c fe c6 bb 3c
       0.079393044 0.0064654597 0.011486803 0.022922035
000320 73 71 9a bd bf 77 81 3d 4f a3 62 bd 9d bb 23 bd
       -0.0754117 0.06321668 -0.055331524 -0.039973844
000330 ed 38 f7 3c 02 99 b8 bd 77 dc 8e 3d 7a c5 af 3d
       0.030178512 -0.09013559 0.06975644 0.085825875
000340 ed ec a5 bd 51 98 64 bd 32 36 17 3d 97 c8 a7 bd
       -0.08101831 -0.055809323 0.03691692 -0.08192556
000350 28 39 b7 3d 30 7c 0c bd 03 69 4e bd f7 94 9c bd
       0.089464486 -0.034298122 -0.050393116 -0.076456
000360 4d 85 24 bd 73 46 9c bd f2 4c 8f bb c8 72 37 bd
       -0.040166188 -0.076306246 -0.0043731863 -0.0447872
000370 6d 61 86 3d ad ad a0 3c 99 45 bf bc 8d bb 60 bd
       0.06561551 0.019614065 -0.023348616 -0.054866362
000380 2c 2d 54 bd fc 31 87 bc d5 47 90 bd b9 45 b5 3c
       -0.05180089 -0.016503327 -0.07044951 0.022127973
000390 f3 29 08 bd 37 e4 08 3e 38 ac 08 be fa 93 1d 39
       -0.03324313 0.13368307 -0.13346946 0.00015027812
0003a0 1d 12 83 bd 7a 14 16 3c 76 5b a3 3d 61 e0 b5 bd
       -0.06399939 0.009160155 0.07976429 -0.088806875
0003b0 c7 65 d0 3d 17 22 ae bd 4e 7a 55 3d 0e 8f 8c bb
       0.101756625 -0.08502596 0.052118592 -0.0042895144
0003c0 c0 1f 55 bc d1 ea 32 bc da 56 81 bd ee 98 29 3c
       -0.013008058 -0.010920242 -0.06315394 0.010351403
0003d0 3b c2 4d 3d a0 64 94 bd 60 f9 51 3d 26 87 94 3d
       0.05023406 -0.07245755 0.051263213 0.0725234
0003e0 51 7d 3c bd e0 cd 7b bd b0 f5 82 3b b1 05 a2 bd
       -0.04601795 -0.061475635 0.0039965734 -0.07911242
0003f0 c8 46 13 bd 09 aa 7e bd 20 90 f7 3c d5 02 a0 bb
       -0.035956174 -0.062173877 0.030220091 -0.00488315

lstm.bias_ih_l1 f4 [400]
000000 f6 b8 7b 3d 26 86 ed 3d f7 83 66 3d eb c0 4f be
       0.06145569 0.115978524 0.056278195 -0.20288436
000010 5b 9a 01 3e 5d 07 7f 3d 9e a0 08 be 84 71 bd bd
       0.12656538 0.06226288 -0.1334252 -0.09250167
000020 86 ea c1 bc 58 14 c3 3c fe f7 8b bd 1f 0f c6 3d
       -0.0236714 0.023813412 -0.0683441 0.09670853
000030 20 32 c2 3b 97 76 0e bd 14 9e 1e bd 22 a2 f7 bd
       0.0059263855 -0.034781065 -0.038724974 -0.12091471
000040 b6 df 49 bb d0 5d 16 bb 56 3b cd 3d 65 95 90 bd
       -0.0030803508 -0.00229441 0.10021083 -0.07059745
000050 3a b6 df bd 23 53 ff 3d f8 74 3b 3a ae fe f8 3d
       -0.10923429 0.12467029 0.00071509136 0.12157951
000060 c4 85 93 be 8c 80 9a 3c af 24 4b bc d9 42 00 3e
       -0.28812993 0.018860124 -0.012398883 0.125255
000070 09 a4 05 bd 0a 2b 2a 3e ae 1d 03 3e 8f ee 46 3d
       -0.03262714 0.1661798 0.1280429 0.04856735
000080 96 5d c4 3d 6f e5 9f 3d b8 3d 63 3d cf 1c 3b 3c
       0.095881626 0.07807433 0.05547878 0.011420443
000090 f6 93 0d 3e 06 31 dc 3d fe 1b 44 3d 86 5b 93 bc
       0.13825974 0.10751538 0.047878258 -0.017987978
0000a0 ee 23 0c 3e 17 be 18 3e 8b fb 71 bd 9c d0 23 3c
       0.13685581 0.14916264 -0.05907778 0.009998467
0000b0 41 49 42 bd 1b 8b 56 3e 1b 40 84 3c 6b 65 13 3d
       -0.04743314 0.20951502 0.01614385 0.03598539
0000c0 94 99 22 3d 75 f8 c3 bc f7 06 03 bc 10 6c b2 bc
       0.039697245 -0.023922184 -0.007997266 -0.021780044
0000d0 2a a1 9a 3d eb 96 bb 3d d7 4c d4 3d 8c c3 ce 3d
       0.07550271 0.09159645 0.103662185 0.10095891
0000e0 bf bb aa 3d 33 fb 1a 3e 64 e2 c9 3d ad 2a 25 bc
       0.08336591 0.15134887 0.09857634 -0.0100809755
0000f0 8d 04 dd bc f8 39 a6 bd d0 57 ec 3d af a4 1e 3d
       -0.026979709 -0.081165254 0.115401864 0.038731273
000100 70 c0 85 3d 18 dc aa 3c 37 a3 03 3d b8 74 2e bd
       0.06530845 0.020856902 0.032138076 -0.04259178
000110 5d 97 b1 3d fe 70 81 3d cf ed 04 bd 1e d4 95 3d
       0.086714484 0.0632038 -0.032453354 0.07315849
000120 f0 41 94 3d 7e af fb 3d 16 ee 2a 3d e1 84 02 bd
       0.07239139 0.12289332 0.041730963 -0.031865004
000130 52 bf 42 3b f0 ed 4e 3c 98 97 99 3d c3 fc 4d bd
       0.0029716087 0.012629971 0.07499617 -0.05028988
000140 ed 52 92 bd 69 15 e7 3d b5 f5 b7 3d 9d 66 79 be
       -0.07144723 0.112833805 0.08982412 -0.2435555
000150 1d e0 bd 3d 61 f0 55 bc bf 87 24 3e 2e 77 e3 3d
       0.09271262 -0.013057799 0.16067408 0.11106716
000160 7f 40 fc 3d 38 68 e8 3b ef 88 29 bd a4 ec c4 bc
       0.12316989 0.007092502 -0.041390356 -0.02403862
000170 00 82 e6 bd 60 67 9e 3d b7 3e d8 3c c4 90 1b bb
       -0.11255264 0.07734561 0.026397092 -0.002373741
000180 56 71 80 3d e1 38 e3 3c 9a 7d ff 3d 73 77 3a be
       0.06271617 0.027737083 0.124751285 -0.18209629
000190 cf fc 06 3e 09 f8 57 3e b9 6d eb 3d a1 df c5 3e
       0.13182376 0.21090712 0.11495537 0.38647178
0001a0 4c 3e 16 3e a6 9d 0b 3e a6 87 cc 3e c5 2e ee 3d
       0.14672202 0.13634357 0.39947242 0.11630014
0001b0 7f 68 02 3d be b8 c3 3d 5d 94 ad bb af e1 13 3e
       0.031837936 0.09556721 -0.0052972273 0.1444156
0001c0 18 6e 35 3e aa 91 fa 3d bd b6 3c 3d 7c 89 dd 3e
       0.17717779 0.122348145 0.04607271 0.43268955
0001d0 95 16 8c 3e 7b c8 0b 3e 6e 52 db 3d de ca 36 3e
       0.2736098 0.13650696 0.107090816 0.17850825
0001e0 db eb 00 3f d1 ba 4e 3e 61 dd 6b 3e e5 d4 33 3e
       0.50359887 0.20188452 0.23033668 0.17561682
0001f0 bb a6 25 3f e5 93 10 3e c0 c9 25 3e 0c 22 19 3d
       0.64707536 0.14118917 0.16190243 0.037385985
000200 e5 ec 97 3e aa 3c 12 3e aa 21 b0 3c 6c 43 47 3e
       0.29672924 0.14280954 0.021500427 0.19459313
000210 8e 78 f5 ba 32 4f 9e bc 15 3b bb 3c 69 21 05 3e
       -0.0018727945 -0.019324873 0.022855321 0.13001026
000220 76 1d e0 3d 61 f8 11 3e 78 25 65 3e af 40 0d 3e
       0.10943119 0.14254905 0.22377574 0.13794206
000230 0e bd fc 3d 8d 7a f0 3c e3 48 95 3e 3e 60 5d 3d
       0.12340747 0.029355312 0.2915717 0.05404686
000240 08 2b 9e 3d 08 e9 a0 3d 48 d5 5b bc 64 c8 69 3e
       0.07723051 0.07856947 -0.013417549 0.22830349
000250 8d 6d 30 3e 7b 31 e5 3c 96 47 86 3e 69 29 d0 3d
       0.1722929 0.027977696 0.2622649 0.10164148
000260 e9 1b 35 3e b8 5a 3f 3e 20 df b6 3d 5a 91 8c bc
       0.17686428 0.1868695 0.089292765 -0.017159153
000270 ff b0 84 3d 61 69 99 bc 1e bf 81 bc f5 69 fc 3d
       0.06479072 -0.018727006 -0.015838202 0.12324897
000280 b5 df 1d 3e d3 11 c4 3e 7d 8b 23 3e b0 5f 15 3e
       0.15417369 0.3829485 0.1597118 0.14587283
000290 93 55 d5 3d 39 bf 34 3d 34 74 01 3c 71 8a 47 3d
       0.104167126 0.044127677 0.00790124 0.048716012
0002a0 f2 fb 72 3e 4b d6 23 3e 0d 09 4e 3e 7b b7 d1 3d
       0.23728922 0.15999715 0.2012064 0.10240074
0002b0 54 b4 a2 3e e9 70 99 3d 6d 19 c4 3c 79 f9 a7 3d
       0.31778204 0.07492239 0.023937905 0.0820188
0002c0 d1 69 52 3e 5d 11 a3 3c 42 3f 5d 3e aa 49 05 3e
       0.20548178 0.01990574 0.21606162 0.13016382
0002d0 f9 51 0e 3e 2d 3b 23 3e 9b f4 24 3e b6 bf be 3e
       0.13898458 0.15940543 0.16108935 0.3725564
0002e0 55 fe 94 3e 3d 5d 0f 3e e9 d5 b3 3d 0f a6 07 bc
       0.2910029 0.14000411 0.087810345 -0.008279338
0002f0 9c 8b 95 3e 68 01 06 3e 61 2e 85 3e b7 22 a5 3e
       0.29208076 0.13086474 0.26011947 0.32253048
000300 d3 1a ba 3e 85 a4 a4 3d ea bf 18 bd e5 61 48 3d
       0.3634859 0.08039192 -0.0372924 0.048921485
000310 bb 44 8c 3e 00 3d 81 3c 66 d2 9b 3d 43 7c 0a 3f
       0.27396187 0.015776157 0.0760849 0.5409586
000320 e5 66 24 be 32 46 1e bc cd 01 86 bc 70 8f 07 3f
       -0.16054876 -0.009660291 -0.01635828 0.52953243
000330 bc 0b d7 bd 1d e0 42 be 54 c5 42 be 8c 49 dd bd
       -0.10500285 -0.19030805 -0.19020587 -0.108050436
000340 12 91 5b 3d b2 95 1f 3e 65 66 5e 3c 31 31 2a be
       0.053605147 0.15584448 0.013574217 -0.16620328
000350 d3 ca 0d bd 7b 71 7d bb 1e e2 fc 3d bf b8 e7 3d
       -0.034617256 -0.0038672376 0.12347816 0.113145344
000360 1a 07 d6 bd 73 dd 1a 3e a9 58 6a bd 70 73 25 bd
       -0.10450573 0.15123539 -0.05721346 -0.040393293
000370 2e 15 5d 3d 1a c8 2b be c5 0f a6 3e db 9d 9f 3d
       0.053975277 -0.16775551 0.32433906 0.077937804
000380 d9 de 41 3e 25 fb d8 bd 8e 47 38 bd 16 02 14 3e
       0.18932666 -0.10594777 -0.044990115 0.1445392
000390 09 59 29 be 61 a9 96 3d e6 03 51 be 82 e0 37 3e
       -0.1653787 0.07356525 -0.20411643 0.17956737
0003a0 04 43 fa 3d 5e 33 ee bd 78 72 3a 3e d7 7f 1e be
       0.122198135 -0.11630891 0.18207729 -0.15478455
0003b0 e5 aa bb 3b 4e 4b e3 3d c3 59 23 bc ea b2 8c bc
       0.0057271593 0.110983476 -0.009970131 -0.017175157
0003c0 ac d8 45 3e 45 5a 12 bd 1a a5 81 3c 43 5c 25 3e
       0.19320935 -0.03573062 0.015825797 0.16148476
0003d0 51 ca 1a 3e 54 fb d9 3d 3d d3 ba bd 8b 7a 1b 3d
       0.1511624 0.1064364 -0.09122322 0.037958663
0003e0 a1 c7 33 bc 02 95 ad 3d f7 e4 88 3d 73 47 68 bd
       -0.010972888 0.084756866 0.066842966 -0.056708764
0003f0 99 05 38 be 4c a4 24 bd 6e 1d 6c 3e f2 20 20 3d
       -0.17970885 -0.04019575 0.23058102 0.03909392
