results/torch_cnn_model.pt (torch, 74647 bytes, 6 tensors)

convolutional_layer_1.0.weight f4 [16, 1, 5, 5]
000000 76 18 c2 be 8a 67 e3 3e 94 0c c8 3e f6 a7 3c 3e
       -0.37909287 0.44414932 0.39072096 0.18423447
000010 86 ae 0e 3d cc 2a c1 3e 17 aa 3d 3e ca a9 2a bf
       0.034834407 0.37727964 0.18521915 -0.6666533
000020 76 cd a0 bf 68 28 3e bf c1 ea 48 3f d4 78 55 be
       -1.2562702 -0.74280405 0.78483206 -0.20846874
000030 3d 03 83 bf 10 93 96 3f 9c 4c 2f 3f 3b 99 8d be
       -1.0235363 1.176363 0.6847627 -0.27655968
000040 5b 31 8c bf 56 25 30 3f e2 45 a6 bd df 98 ad be
       -1.0952562 0.6880697 -0.08118798 -0.33905694
000050 75 81 92 be e2 fd af 3e 97 bc 9b 3e 4d 22 4a be
       -0.28614393 0.34373385 0.3041732 -0.19739647
000060 59 e8 bf 3e ff 2f 77 3d 92 4d d7 be 22 9d 34 bf
       0.37481955 0.060348507 -0.4205137 -0.70552266
000070 7a c9 f2 3e 31 73 9b 3e a6 25 dd 3c 1f 56 90 3f
       0.4741934 0.30361322 0.026995491 1.1276282
000080 19 7c a3 bf d9 dc e4 bf d8 6f 5b 3d ee c0 06 be
       -1.2772247 -1.7879897 0.05357346 -0.13159534
000090 9d 28 a4 3f 7a a2 09 40 1e c4 29 bf 4a d4 25 bf
       1.2824894 2.1505418 -0.66314876 -0.6477705
0000a0 f1 67 bc be 1f e2 6b bf a0 34 63 3f f3 34 6c 3f
       -0.3679805 -0.9214191 0.88752174 0.92268294
0000b0 6a c9 40 be 1f dc 89 3e b7 16 58 be a5 8b dc bd
       -0.18826833 0.26925752 -0.21102415 -0.107688226
0000c0 c6 2f 2e 3e 7a 29 39 bd 01 8f 8a 3e bd 0f 21 be
       0.17010412 -0.04520557 0.27062228 -0.1572866
0000d0 51 bf ef 3c 14 a4 5e 3e 5f 81 4a 3e 00 c6 80 be
       0.029266031 0.21742278 0.19775914 -0.25151062
0000e0 e7 da c8 3e f3 9e 08 be d5 5f 63 3e 69 89 bb be
       0.3922951 -0.13341884 0.22204526 -0.36628273
0000f0 e2 4a be 3d 57 ce 5e be 4e d0 c2 3e 54 82 9c bf
       0.092916265 -0.217584 0.3804955 -1.2227273
000100 06 86 e3 3f e6 09 12 3f 02 18 52 bf cb aa 8b 3f
       1.7775276 0.57046354 -0.82067883 1.0911497
000110 91 4b 06 bf 6e 20 3a 3d 5e be 0b bf 8d 5f 3f 3f
       -0.52459055 0.045441084 -0.5458735 0.74755174
000120 f5 33 1b bf eb d1 92 3d d1 65 98 3e 1c 72 a8 bd
       -0.60626155 0.07168945 0.2976518 -0.0822489
000130 d6 0a 03 3e 5b 44 1d bf 8c 96 cb be 17 b1 94 bd
       0.12797102 -0.6143243 -0.39763296 -0.0726034
000140 6d d1 12 be c3 15 d3 bd 90 ea 43 3e 90 a2 ed 3e
       -0.14337702 -0.10306885 0.19132447 0.46413088
000150 47 78 9e 3f 8a a9 2e 3e 47 87 8f bd 2f c0 bb bf
       1.2380456 0.17056862 -0.07008224 -1.4668025
000160 4e ad 17 3f 06 82 04 bf 0f 9e 5f be 3e 3a 00 bf
       0.59248817 -0.517609 -0.21837638 -0.5008887
000170 13 b1 30 be a8 f1 2e 40 57 1c 33 bf 38 f3 26 be
       -0.17255048 2.7334995 -0.6996512 -0.16303718
000180 0b e6 6b 3e 74 82 e7 3e b2 be 9f 3e 37 d5 9a bf
       0.23036973 0.45216715 0.31200176 -1.2096318
000190 ea 8d 2f 3e f4 33 98 bf 25 34 19 bf ee c9 0c 3e
       0.1714398 -1.1890855 -0.5984519 0.13748905
0001a0 2d f1 80 3d fc b2 8f be ac 81 30 c0 fb 94 ae bf
       0.06296001 -0.28066242 -2.7579145 -1.3639215
0001b0 04 28 91 3c 75 ed 32 3d a2 38 d3 bc f3 e9 39 be
       0.017719276 0.043683488 -0.02578384 -0.18155651
0001c0 38 f0 1a 3e 49 3a 0d 3e 4c d9 95 3d 06 9a ff 3d
       0.15130699 0.13791765 0.07316837 0.124805495
0001d0 7f c0 7e 3e dc 9f 72 3e 29 84 25 bd a8 d9 e4 3d
       0.24878119 0.23693794 -0.04040924 0.11174327
0001e0 b0 6d 58 3e 4a 4c 88 3e 20 3f 5a 3e ee 95 9b 3d
       0.21135592 0.26620704 0.21313143 0.07596956
0001f0 20 b4 a9 3e 64 26 ac 3e 90 57 56 bf c8 bb c0 be
       0.33145237 0.3362304 -0.8372736 -0.37643266
000200 c7 cc b4 3f da 3b ba be dd f2 07 3f ae d1 24 3f
       1.4124993 -0.36373788 0.53104955 0.64382446
000210 fe c3 97 bd 18 c1 0f bf 2a f5 e2 be cf ef a5 bf
       -0.074104294 -0.5615401 -0.4432767 -1.2963809
000220 49 00 f4 be 8f 24 32 bf c8 c3 c5 be c4 61 02 3f
       -0.47656468 -0.69587034 -0.38625932 0.5093043
000230 b0 1b 4e 3f c4 a9 58 3f 69 7c 19 bf fc 09 6f 3e
       0.80511 0.8463404 -0.5995546 0.23343652
000240 b1 eb 45 3f 59 6f 11 be 27 a2 d0 be 96 d7 9b 3e
       0.7731276 -0.14202632 -0.40748712 0.30437917
000250 14 17 fd be 71 86 9d be 3d 94 38 3e 21 2d cf 3e
       -0.4943167 -0.30766633 0.18025298 0.40464118
000260 a1 2e 44 bf 82 90 54 3e 7f 4e d1 bd ae aa 2a bf
       -0.7663365 0.2075825 -0.1022005 -0.66666687
000270 f1 72 97 bf a7 cd f6 3e 20 8a d9 be 09 58 0e bf
       -1.1831952 0.48203775 -0.42488194 -0.5560308
000280 3e 2b 60 3f d8 c7 f5 3f 66 30 84 3f 37 5d 63 3f
       0.8756598 1.9201612 1.032727 0.8881411
000290 50 e0 b0 3f 0e cf 87 bf 51 e3 fd bf ce cd 04 c0
       1.3818455 -1.0610063 -1.9834996 -2.0750613
0002a0 68 d9 52 bf 37 40 ad bf 60 24 96 3e 2a b2 3c 3f
       -0.82362986 -1.3535222 0.29324627 0.73709357
0002b0 cc 65 7a 3f 1b 56 9c 3e e7 f9 d2 3e aa 9d 83 3d
       0.9781158 0.30534443 0.41206285 0.064265564
0002c0 e6 c2 a7 be 3f 29 1a be 3e fa 5d be 63 26 3d be
       -0.32765883 -0.15054797 -0.21677491 -0.18471675
0002d0 90 47 45 be a6 73 c3 be 88 9d f5 be 50 40 48 be
       -0.1926558 -0.3817417 -0.4797175 -0.19555783
0002e0 54 72 e7 bc 4c f4 40 bf 63 19 50 bf 22 be 94 3e
       -0.028252758 -0.7537277 -0.8128874 0.2905131
0002f0 a8 30 45 3d b7 f8 50 3e f1 b1 76 bf fe 7c bb 3c
       0.048142105 0.20407377 -0.9636527 0.02288675
000300 66 5a c4 3e c2 79 9d 3e c0 4e 92 3e 25 a2 09 bf
       0.3835022 0.30756956 0.28575706 -0.5376304
000310 73 37 35 3f 6f cd 88 3f d8 11 76 3f 22 7a 31 3f
       0.70787734 1.0687693 0.9612098 0.69326985
000320 51 e8 c1 3e 59 0d cb 3d 45 b6 22 bf 9e f5 15 3f
       0.37872556 0.09914655 -0.6355937 0.5857791
000330 17 1a 8c be fa a0 d2 be 90 2d d3 3f cd 7a 1a c0
       -0.27363655 -0.4113844 1.649828 -2.4137452
000340 d4 39 b6 3f e1 1b e2 be 6c f3 02 bf b5 de e7 3f
       1.4236398 -0.44161895 -0.5115268 1.811484
000350 e6 ce 18 c0 f2 ef a3 3f e7 27 c6 be 57 84 0f bf
       -2.387628 1.28076 -0.38702318 -0.5606131
000360 27 ae 87 3f ba d3 0e bf d4 9a ec be 8b 34 0c 3f
       1.0600022 -0.5579182 -0.46211874 0.54767674
000370 be b4 69 3e 6f 13 11 bf 9c 9c 39 3f 8c 47 0b bf
       0.22822854 -0.5667028 0.7250459 -0.54406047
000380 99 1f 06 3e 64 2e 7b 3d 81 91 51 bc 79 16 b9 3d
       0.13097991 0.06132354 -0.0127910385 0.090374894
000390 60 a1 c0 bd 71 60 d1 be 16 a3 8f 3e 4b c9 8f 3e
       -0.0940578 -0.4089389 0.28054112 0.28083262
0003a0 00 13 8b 3e a9 f7 89 3e e5 0d 82 be e7 37 06 3f
       0.27162933 0.26946762 -0.25401226 0.5242905
0003b0 92 13 1a 3f 0e 34 1a 3f 4d 61 cd 3e 3c 9c af be
       0.6018611 0.6023568 0.40113297 -0.34298885
0003c0 d1 bf 07 3f 5f 23 22 3f 31 6a 40 3f 5f 85 cb 3e
       0.53027064 0.6333522 0.75162035 0.39750192
0003d0 e1 ec d2 be 48 30 05 3f d3 f2 25 3f c3 95 e5 3e
       -0.4119635 0.52026796 0.64823645 0.44840822
0003e0 6a ed d3 bd 81 ef c8 be dc 81 19 3f 01 10 f3 bf
       -0.103480175 -0.39245227 0.59963775 -1.8989259
0003f0 3d 03 a0 3f cc 1a 2e 3f ef 03 fe be 07 29 38 bd
       1.2500988 0.6800964 -0.49612376 -0.044961

convolutional_layer_1.0.bias f4 [16]
000000 64 51 a1 be 8b 4c 46 be 02 56 17 bf f7 f0 24 bf
       -0.3150741 -0.19365136 -0.5911561 -0.64430183
000010 a6 05 d6 bd d9 3f ce be e7 00 16 be af 09 14 be
       -0.10450296 -0.40283087 -0.14648782 -0.14456819
000020 30 78 09 be 15 49 2d c0 ee 07 4a be e5 65 01 be
       -0.13424754 -2.7075856 -0.19729587 -0.12636526
000030 49 05 aa 3e 29 6f 8b be 05 e4 11 be 29 c8 27 be
       0.33207157 -0.27233246 -0.14247139 -0.16384949

convolutional_layer_2.0.weight f4 [32, 16, 5, 5]
000000 17 93 98 bd eb 5c 1b 3d 32 ac 94 3d ca f7 d5 3d
       -0.0744993 0.03793041 0.07259406 0.10447653
000010 73 46 d0 3d c0 a6 f6 bd a1 c8 b6 bd dd ff ed 3d
       0.10169687 -0.12043524 -0.08924986 0.11621068
000020 17 a7 5c bc 03 2c a9 bc 3b f1 a2 3d d0 22 04 3e
       -0.013467572 -0.02065087 0.07956167 0.12903905
000030 2b 55 ba 3d 60 b8 b4 bd 2d ab ca bd 59 8b 82 3d
       0.09098276 -0.08824229 -0.098959304 0.06374235
000040 77 89 0d 3d a4 e6 83 bd fe d2 13 bd 87 20 48 bd
       0.034554925 -0.064404756 -0.03608989 -0.048859145
000050 c3 38 92 bc 56 ee 9b bd 66 b2 a4 bc 65 c1 6d bc
       -0.017849332 -0.07613818 -0.020104598 -0.014511441
000060 16 e0 35 3d 37 95 e1 bb 9c 12 9b be 90 d3 a6 be
       0.044403158 -0.006884243 -0.30287635 -0.32583284
000070 b6 18 26 be 40 81 ff bd 38 ab 95 ba 57 36 a9 be
       -0.16220364 -0.12475824 -0.0011418825 -0.3304927
000080 a9 70 a2 be 9f 55 11 be c8 35 98 bd 08 6a 48 be
       -0.31726578 -0.14192818 -0.07432133 -0.19571698
000090 9e 13 cc be 5d 9f 58 3c 37 d9 3b 3e e4 d0 3a 3e
       -0.39858717 0.013221589 0.1834458 0.18243748
0000a0 65 b6 bb bc b7 99 82 be c0 ab d2 3c 23 60 dd 3c
       -0.02291412 -0.255079 0.025716662 0.02702338
0000b0 5f f1 4f 3e ff a6 6f 3c 76 46 ef 3c f7 39 84 bd
       0.2030692 0.014627217 0.029208403 -0.064563684
0000c0 12 b0 3e be bd 40 06 be 8e 28 9c bc 02 5f a5 bd
       -0.18621853 -0.13110633 -0.019062307 -0.08074762
0000d0 2d b0 8c 3c 9b f4 30 3d 33 bd d1 3c b2 1b 83 bd
       0.01717385 0.043202024 0.025602913 -0.06401767
0000e0 12 f2 f5 3c 6a 16 e8 bc 9c 02 68 bd 4d 43 b6 bd
       0.030022655 -0.028331 -0.056643113 -0.08899555
0000f0 29 58 02 3e 5d 2a 87 3d bb 48 12 be 74 0e 30 3c
       0.12728943 0.06599877 -0.14285557 0.010745633
000100 6b d5 9d 3c 8e 58 2a 3e 5a f9 ab bb a1 9d 09 be
       0.019266805 0.16635343 -0.005248231 -0.13439037
000110 64 b5 9d bc 19 1f 40 bc c3 5f 7c 3d c0 29 85 3d
       -0.019251533 -0.011726164 0.061614763 0.06502104
000120 f8 9a 29 bc a7 e5 59 bd e5 f1 d3 bc a5 39 06 3c
       -0.010351889 -0.05319753 -0.02587218 0.008192454
000130 e8 dd b5 3d 33 4a 84 bd 93 fd 3e bc 49 43 c2 bd
       0.08880216 -0.06459465 -0.0116571365 -0.0948549
000140 de e6 da 3d b5 df 45 3e 34 2f 18 be 13 51 0b be
       0.10688566 0.19323619 -0.14861757 -0.13605146
000150 09 75 e0 bd 76 95 7d 3d b8 70 d1 3d 22 66 04 be
       -0.10959823 0.061910115 0.102265775 -0.12929586
000160 37 cc ad 3c 3c 36 ce bc 2d ab 17 3d 79 77 df bc
       0.021215541 -0.025172345 0.03702848 -0.027278649
000170 5c 64 93 bc 92 f9 28 3d 9a 1b b9 bd f5 56 91 bd
       -0.017992191 0.041253634 -0.09038468 -0.07096664
000180 36 1b 20 be 12 f3 a9 bd d2 9e 4f bd 0d 4a 6a bd
       -0.1563538 -0.08298315 -0.050688572 -0.057199527
000190 1c c9 ab bd b4 f7 a3 3b 76 86 29 3d 5e 16 b2 3c
       -0.08387968 0.0050038937 0.041387998 0.021739181
0001a0 ae 27 e1 3d 29 3f ce bd 87 7d 79 3b 27 da 2c be
       0.109938964 -0.100706406 0.0038069205 -0.16880094
0001b0 a5 d2 c2 be a0 9d 9b bd 4e df 5c be 6e 4e 35 be
       -0.38051334 -0.07598424 -0.21569559 -0.177057
0001c0 ba e2 03 be c5 6b 95 be ea 69 77 be 14 ff b2 be
       -0.12879458 -0.29183784 -0.24161497 -0.34960234
0001d0 f3 ed 6f be 2c 94 04 be 71 be 73 be 20 87 31 bd
       -0.23430614 -0.12947148 -0.23803116 -0.043341756
0001e0 7e b4 9e bd 0e 68 bf bd a9 de 4f be 17 6c 47 be
       -0.0774927 -0.09346019 -0.20299782 -0.19474827
0001f0 ff 13 ad bd 92 12 b7 3c 0d fb 92 ba 6b 6f 3b 3d
       -0.084510796 0.022347722 -0.0011213735 0.045760553
000200 93 06 8e bc a4 54 7c 3c 55 92 d2 3b 45 7a 7f bc
       -0.01733712 0.015401039 0.0064261355 -0.015593116
000210 e8 9e bb bc 56 22 8a 3a b8 2a 8d 3d 59 6c ba 3d
       -0.02290292 0.0010538797 0.068929136 0.09102697
000220 79 c8 a5 3d cb 71 e0 3c f9 3b 33 bb a1 18 9b bd
       0.08094878 0.02739801 -0.002734898 -0.07573057
000230 25 8c b2 3d fc 11 f1 3c a2 bc 65 bd bc eb ee bc
       0.08718137 0.02942752 -0.056088097 -0.029165141
000240 8d 01 4b 3d 2d 0a 06 bd 54 17 bc 3b 23 21 fc bb
       0.049562026 -0.032724548 0.0057400856 -0.00769438
000250 94 ee 0a 3d 55 03 4e bd 5a e5 44 be e5 c5 8a be
       0.033918932 -0.050296146 -0.19228116 -0.27104107
000260 7e 86 a2 bd d4 81 0f 3d c8 5a d8 3d 30 b9 58 3c
       -0.079358086 0.035035923 0.1056419 0.013227746
000270 23 b4 d4 3d bf 74 f4 3e 9d 40 a3 3e 7e f6 54 3d
       0.10385921 0.4774532 0.31885234 0.051992886
000280 cc af 62 be 01 2b 36 be d3 64 a4 bc d4 1e 97 3b
       -0.22137374 -0.17789842 -0.020067608 0.0046118293
000290 c8 6b e6 bd ba 39 4e be 23 ba dd be 27 7a 9a be
       -0.112510264 -0.20139208 -0.43306074 -0.3017132
0002a0 8b d2 79 be 28 e5 65 be 3e 67 a4 bd d2 22 30 be
       -0.24396722 -0.22450697 -0.080275044 -0.17200783
0002b0 07 3a 12 be a7 85 27 3d 35 e6 55 bd 8d a0 b5 bd
       -0.14279948 0.040898945 -0.052221496 -0.08868513
0002c0 7f 2f f7 bd f8 04 25 3e da a9 96 3d ec a2 d4 3d
       -0.12069606 0.16115177 0.07356615 0.103826374
0002d0 d5 ec 48 be a0 63 27 be 06 9f 76 3e bb c1 00 be
       -0.19621594 -0.16346598 0.240841 -0.12573902
0002e0 f8 a8 05 bc 5f b1 79 bd 29 23 12 3e e4 c0 a8 3e
       -0.008157961 -0.06096017 0.14271225 0.32959664
0002f0 c3 fc 37 be a6 01 b2 3c 24 93 47 3d e1 a1 ad 3d
       -0.17967515 0.021729302 0.04872431 0.084781416
000300 e0 c0 95 3d 3b 39 99 3d 0f ae 04 3e 62 23 2f 3d
       0.073121786 0.07481619 0.12957023 0.042758353
000310 72 56 0c bc 70 f9 de be 06 1e 55 bd c9 4b 2c 3d
       -0.008565532 -0.4354968 -0.052030586 0.04206446
000320 66 2e aa 3d 8b 9a 1e 3d d2 c0 a3 3d 4c 3b d7 bd
       0.08309631 0.038721602 0.07995762 -0.10509357
000330 65 36 5f bd 0c 76 fe bb 04 98 9b 3d ee dc 5d be
       -0.054495234 -0.007765537 0.07597354 -0.21666309
000340 03 36 a9 be 4f d1 0f be 33 0a 8e 3d 81 cf 1e 3b
       -0.3304902 -0.14044689 0.06935539 0.0024232569
000350 fb df f4 be 56 77 b3 be ea 79 33 be 12 24 03 3e
       -0.47827134 -0.35051984 -0.17526975 0.12806728
000360 7d ad b8 3e 60 30 d2 bc 85 39 84 bd dd fa 86 3d
       0.3606986 -0.025657833 -0.064562835 0.06590817
000370 0f ba 53 3e 98 d3 a9 3e 33 53 21 3e ec 3f 35 bc
       0.20676444 0.33169246 0.15754394 -0.011062603
000380 30 4c 07 ba db 7e cd 3d 07 a0 1a 3e f8 b3 2e bd
       -0.0005161194 0.100339614 0.15100108 -0.0426521
000390 1d 06 18 3e 90 0a f7 3d ff 4e b7 3d ac 44 3c be
       0.14846082 0.120625615 0.08950614 -0.18385571
0003a0 80 56 79 be f1 29 d2 bd 47 25 b9 bd 49 90 e9 3c
       -0.24349403 -0.10261906 -0.09040313 0.028511183
0003b0 73 2a 9b be 27 8c e0 3d 30 ff 68 bc c9 da d2 bc
       -0.30305824 0.10964232 -0.014220998 -0.02573909
0003c0 0c 04 a8 3b cf e7 13 be 00 e7 11 3e f6 58 65 3d
       0.0051274356 -0.14443897 0.14248276 0.055993043
0003d0 7c 0a 2a 3d 64 07 82 3d 9e 11 1d be 4b b1 bc 3d
       0.041513905 0.06349066 -0.15338752 0.092135035
0003e0 e7 ba 4d bc 82 a0 08 3e fa 7d 4c 3e dd 55 06 3e
       -0.012556768 0.13342479 0.19969931 0.13118692
0003f0 35 ce 0f 3e 10 68 0c 3e 7b 48 c2 3d e2 fd 03 3d
       0.14043505 0.13711572 0.09486481 0.032224543

convolutional_layer_2.0.bias f4 [32]
000000 76 4b 5f 3d 09 7d c7 bf 64 91 fb 3e b4 01 af 3f
       0.054515325 -1.5585033 0.49134362 1.3672395
000010 b0 bf ac bf 79 0c c1 3e 6a f4 9a 3e 7b 88 74 3e
       -1.3495998 0.37704828 0.30264598 0.23880188
000020 96 7a 49 3f cd ea af 3f 0b bc a8 be 15 d8 93 3f
       0.78702676 1.374353 -0.32955965 1.1550318
000030 08 d5 05 be 10 72 76 bf 6a 7d 96 3e fb 33 db 3f
       -0.13069546 -0.96267796 0.29392558 1.7125238
000040 2a a6 26 3f 46 c8 e1 3e ab 80 40 3e f9 39 ae bf
       0.65097296 0.4409811 0.18799083 -1.3611442
000050 44 be 8f 3d 1c 2b ed bf f1 dd ac be 67 dd a5 3e
       0.07018712 -1.8528781 -0.33763078 0.3239548
000060 55 ca d7 3e c1 8b a5 3f 96 94 08 3e c8 a7 4d bd
       0.42146555 1.2933275 0.13337931 -0.050208837
000070 c2 b6 76 bd 1d 68 94 3c d2 e3 8a 3f 77 c6 20 3f
       -0.060232885 0.018116051 1.0850775 0.62802833

fully_connected.weight f4 [9, 512]
000000 67 b1 b6 3e 56 26 70 3e d4 ff 68 3e ac 68 9c 3e
       0.35682222 0.23452124 0.2275384 0.30548608
000010 ae af 25 3e 5c 88 30 3e 50 f4 1d 3e 48 45 8e 3d
       0.16180298 0.17239517 0.15425229 0.06946808
000020 dd 5f 64 3e 33 ec 12 3e b2 02 54 3e 2c 65 86 3e
       0.22302194 0.14347915 0.20704153 0.26249063
000030 e3 4a 65 3e 3e 09 44 3e 78 f8 a9 3e 84 b9 b3 3e
       0.22391848 0.1914415 0.3319738 0.35102475
000040 3d 17 91 bc 90 d7 e3 3c ec 55 1e 3c b2 6f dc bd
       -0.017711276 0.02781275 0.00966404 -0.10763492
000050 ab 81 8c 3d 24 43 f1 3c 0f 9d 2c 3d 00 ce ca bd
       0.0686067 0.02945096 0.04214197 -0.09902573
000060 95 f1 0b bd 13 ff 47 3c dd 7f 82 3d 10 5d b8 bd
       -0.034165937 0.0122068105 0.06372044 -0.09002125
000070 df 4a 00 bd 6d 0a b7 bd 8c 2b fb ba 6b 30 9e bd
       -0.031321403 -0.089375354 -0.0019162758 -0.07724079
000080 e9 9b 63 bd aa 2d 1b 3d 3a 18 70 bd 1c 33 96 3d
       -0.05556861 0.037885346 -0.058616854 0.07333967
000090 ed 3a 92 3d 5f cb 9b 3d 76 d3 f9 3d 17 ea 1e 3d
       0.071401455 0.07607149 0.12198536 0.038797464
0000a0 27 96 90 bd 97 d6 7f bd 0c c6 ea 3d 68 5f 5a bc
       -0.07059889 -0.06246051 0.11463556 -0.013328411
0000b0 84 83 95 be d6 c2 39 be a2 4d 59 bd b1 05 c6 bc
       -0.292019 -0.1814073 -0.053052552 -0.024172636
0000c0 98 c9 99 3e df 59 84 3e f7 84 90 3d 30 7e 78 3e
       0.30036616 0.25849816 0.07056611 0.24266887
0000d0 99 aa 5c 3e f7 cf 08 3e b6 63 1b 3d 80 46 e4 3d
       0.21549453 0.13360582 0.03793689 0.11146259
0000e0 28 5e 25 3e a6 58 b6 3d 9f 18 a2 3c 6a 90 07 3e
       0.16149199 0.08903627 0.01978713 0.13238683
0000f0 80 cd bb 3e d5 15 82 3e c5 f8 dd 3d f2 2c 23 3e
       0.36680222 0.25407282 0.10838465 0.15935114
000100 2e 08 88 bd ce 7c fb bd b8 c0 98 bd 6f 3e ac 3d
       -0.06642185 -0.12279664 -0.07458633 0.08410346
000110 f3 7e d0 3c 19 4d e3 bb 5e 59 99 3d fb 63 a9 3d
       0.02545116 -0.006936681 0.074877486 0.08271023
000120 f4 0d 05 3d 84 9c da 3c cc b0 f5 3c 51 fa 47 3d
       0.03248401 0.02668596 0.02999153 0.048822705
000130 9b ea 32 bd 5c f7 ee 3c 38 50 0f 3e db 19 b8 3d
       -0.04368077 0.029170685 0.13995445 0.089893065
000140 a5 6a 71 be 2b 04 ac bd f2 f2 68 bd a3 34 43 be
       -0.23575838 -0.083992325 -0.056872316 -0.19063048
000150 3b 3d b9 bc cc 58 f7 bd 5c 86 b4 bd 84 21 4b be
       -0.022612205 -0.120774835 -0.088146895 -0.19837004
000160 95 05 4d be 7d 74 bf bc 9d d5 c2 bd c6 06 3d be
       -0.2002166 -0.023370976 -0.095134 -0.18459615
000170 4f 41 8a be 0b 60 01 be 77 6f e4 bd ea 51 18 be
       -0.27002952 -0.12634294 -0.11154073 -0.14874998
000180 f7 54 47 3e 2d ef ee 3d 67 ec 33 3e 95 f2 4a 3e
       0.19466005 0.11666713 0.17570649 0.198191
000190 6b 9b c5 3d 84 19 76 3e 26 dc 16 3e 68 dc 36 3e
       0.09648784 0.24033171 0.14732417 0.17857516
0001a0 18 71 2d 3e b2 f1 35 3e 50 79 a3 3d 7a b3 98 3e
       0.16937673 0.1776798 0.07982123 0.2982443
0001b0 7f 81 82 3e 86 7e 00 3e a2 a1 1b 3e ef 99 c3 3e
       0.25489423 0.12548265 0.15198377 0.3820338
0001c0 b5 15 90 bc af d6 40 bd cc ed 00 be ad 22 79 be
       -0.017588476 -0.04707974 -0.12590712 -0.24329634
0001d0 74 ee bc ba ae 07 a0 3d a1 51 be 3d f3 fa 3e be
       -0.0014414326 0.07813965 0.09292913 -0.18650417
0001e0 77 35 1a 3c 8b bb 1b bc b2 b9 c9 bd 7f 1f 1b be
       0.009412161 -0.009505163 -0.09849872 -0.15148734
0001f0 1f 01 db 3c 3a 3a b1 bd 6a 49 6d bd af 09 01 bf
       0.026733933 -0.08653684 -0.05793134 -0.504054
000200 6e 12 09 be a8 af c8 bd 54 1b 39 be b7 71 85 be
       -0.13385937 -0.09799129 -0.18076831 -0.2606332
000210 b9 b1 75 bc cf 59 99 bc 87 24 98 bd 96 73 36 be
       -0.014995986 -0.018719582 -0.07428842 -0.1781753
000220 22 1b f5 bc 7c f0 dc bd 4a c4 b0 bd 1d f4 e5 bd
       -0.029920164 -0.10788056 -0.08631189 -0.112282015
000230 eb b7 24 be 11 c9 22 be 54 eb b5 bd c6 71 1e be
       -0.16085784 -0.15897013 -0.08882776 -0.15473089
000240 60 58 cf 3e 48 b1 8d 3e a1 eb 6a 3e ef 7c d4 3e
       0.40497112 0.27674317 0.22941448 0.41501567
000250 6c 53 51 3e 49 a0 f9 bc 7d a9 04 3d 22 b3 25 3e
       0.20441979 -0.030471938 0.0323882 0.16181615
000260 09 5b 2d 3e 87 58 a6 3d 21 58 c5 3d 66 8e 46 3e
       0.16929258 0.08122354 0.0963595 0.19390258
000270 59 e8 a4 3e 41 26 75 3d ea 2e 4b 3e bb 10 c5 3e
       0.32208517 0.059850935 0.19842115 0.38489327
000280 a1 6e b3 be 82 19 78 be 44 90 41 be 7d b6 a1 be
       -0.3504534 -0.2422848 -0.18902689 -0.3158454
000290 fb c7 2d be f1 42 3c 3c a2 24 a9 3c 49 2e 16 be
       -0.16970818 0.011490569 0.02064735 -0.14666094
0002a0 6c 0f d1 bd ec 12 71 3d 52 c4 8d 3d dc 75 7d bd
       -0.102080196 0.058855936 0.06922211 -0.061879978
0002b0 16 f6 1e bf 16 36 7b be 5d f0 37 be 34 65 bc be
       -0.6209425 -0.24532351 -0.17962785 -0.36795962
0002c0 4a 58 81 be 47 93 2a bd a4 2a 99 3d 1c c2 10 be
       -0.25262672 -0.04164436 0.07478836 -0.14136547
0002d0 3c 72 22 be a7 13 8e bd 96 69 ee 3d 36 86 87 bd
       -0.1586389 -0.06937342 0.11641233 -0.066173956
0002e0 a1 f1 12 be 2a 88 2b 3e d4 57 85 3d 51 26 14 bd
       -0.14349987 0.16751161 0.065108925 -0.036169354
0002f0 58 6f 88 be ef a9 03 be a6 3d 22 be 4c 40 a6 be
       -0.2664745 -0.12857793 -0.1584383 -0.3247093
000300 82 7e 7f bc 1f ad b8 3d 02 56 82 3d cb ff 00 3e
       -0.015594127 0.09017395 0.06364061 0.12597577
000310 95 62 06 bd ac 31 94 3d 68 df 80 3e 07 c1 26 3e
       -0.03280886 0.07236037 0.25170445 0.16284572
000320 40 26 02 3d 27 99 f2 3d 14 45 38 3e 0e 3d 9e 3d
       0.03177476 0.11845618 0.17995101 0.07726489
000330 fc 6e 4f bc aa 85 f7 3d cb c4 d9 3d 25 c4 3e bd
       -0.012660738 0.12086041 0.106332384 -0.046573777
000340 4a a8 7a 3e 0a 49 cc 3d b3 f1 2b 3e d9 b9 91 3e
       0.2447826 0.099748686 0.1679142 0.28462103
000350 2a fc 36 3e ea 2c 97 3d 05 8b b7 3d fc 2c 1e 3e
       0.1786963 0.073816136 0.08962063 0.15446848
000360 db 91 25 3e 64 ef 33 3e 32 36 1c 3d 77 43 4a 3e
       0.1616892 0.17571789 0.038137622 0.19752298
000370 18 b7 29 3e 2f 94 0c 3e 9c 82 d0 3d a9 b2 88 3e
       0.16573751 0.13728403 0.10181162 0.26698807
000380 ef e4 e5 3e ec 11 8c 3d 56 57 66 3c 9c 4b 9d 3e
       0.44901225 0.06839356 0.014058908 0.30721748
000390 99 23 6c 3e 48 4a 1e 3d ce 94 9e 3c a4 41 52 3e
       0.23060454 0.03864506 0.019358065 0.20532852
0003a0 21 a4 39 3e 30 91 10 bd db 79 8c bd 69 de 89 3e
       0.18129016 -0.03529471 -0.068591796 0.26927498
0003b0 ea 17 64 3e 07 f0 19 3e 9b 90 6d 3d 1d ff 4f 3e
       0.22274747 0.1503297 0.057999235 0.20312162
0003c0 25 a1 d2 be 2a 86 cd bd 4a 80 b2 bd e1 9e 79 be
       -0.4113857 -0.100353554 -0.087158754 -0.24377014
0003d0 a9 2b 5c be 03 a1 a2 3c 71 09 56 bd 5b 19 84 be
       -0.2150103 0.019852167 -0.052255098 -0.25800595
0003e0 4e b2 4f be 08 45 1c bd ba e5 0f be 57 c6 87 be
       -0.20282862 -0.03815177 -0.14052477 -0.2651851
0003f0 a8 eb 98 be c1 ce 3f be c3 1c 6f be 16 40 a0 be
       -0.2986729 -0.18731214 -0.23350815 -0.31298894

fully_connected.bias f4 [9]
000000 b5 c8 bf 3d f7 c5 05 3f 98 20 cc 3e 8c db 11 bf
       0.09364454 0.52255195 0.39868617 -0.56975627
000010 fc f2 2c 3f bd 9f 80 bf e3 11 9c 3e 3c 05 8b 3e
       0.67558265 -1.0048748 0.30482396 0.2715243
000020 3b 3f 8d 3f
       1.1034921
