results/torch_2L_lstm_model.pt (torch, 538839 bytes, 10 tensors)

lstm.weight_ih_l0 f4 [400, 28]
000000 75 1f 17 3e 46 14 9f 3c 45 22 a2 bd 3e 8d 1a bd
       0.14758094 0.019418847 -0.07916693 -0.037732355
000010 b6 f8 40 bd ac 5b 02 be 08 fb 1c 3d 84 c9 0c 3e
       -0.04711219 -0.12730283 0.03832534 0.13748747
000020 25 5d bc 3d ee ad 18 bd e9 41 15 be c5 2f 83 be
       0.091974534 -0.037275247 -0.14575924 -0.25622383
000030 c6 d2 86 bd 83 c7 4d 3d f9 8a c9 3b 2f 39 85 bb
       -0.065831706 0.050239097 0.0061506 -0.0040656547
000040 1e ab e3 3d e2 8a bc 3d bb 26 07 3e e1 8e 7c 3c
       0.111166224 0.09206177 0.13198368 0.015414924
000050 36 60 ee 3d 9b 4b 94 bd 45 0b 42 3c ed 80 1f 3d
       0.116394445 -0.07240983 0.011843507 0.038941313
000060 09 7e ef 3c e5 71 13 3d 28 05 a3 3d d3 f8 bb 3b
       0.029234903 0.03599729 0.07959968 0.0057364493
000070 8b 3f 2b be c3 c5 7e bd b0 5e 96 bb 74 32 05 3e
       -0.16723458 -0.06220032 -0.0045889243 0.13007528
000080 9a d2 d9 bd 39 fb 53 be e9 5b 1c be ce bf 2d bd
       -0.10635872 -0.20701303 -0.15269436 -0.042419247
000090 83 9e 8a bd e3 f8 a1 bd 2e cc dd bd 06 4a 28 be
       -0.06768515 -0.079087995 -0.1082996 -0.16434488
0000a0 4a 85 2f be c5 a1 88 bd 4b 07 05 bb 9c d2 03 be
       -0.1714069 -0.0667148 -0.0020298536 -0.1287331
0000b0 3f c8 e9 bd 0e 54 38 be d2 fc 29 be 9f d0 7a be
       -0.11415147 -0.18000814 -0.1660035 -0.24493645
0000c0 42 2a 4b be 0a 97 54 be 74 2f 2f be 18 9b 64 be
       -0.19840339 -0.20760742 -0.17107946 -0.22324789
0000d0 37 5e 53 be 7e e7 6f be e4 2f f2 bd 14 8e 7f be
       -0.20641409 -0.23428151 -0.11825541 -0.24956542
0000e0 e8 80 03 be 29 2e c9 bd 02 53 bb bc 31 51 79 3d
       -0.12842143 -0.098232575 -0.02286673 0.060868446
0000f0 94 0e 97 3d 6f c0 1b bd dd c5 74 bd 64 fe 6d 3d
       0.073758274 -0.038025316 -0.05975901 0.058103934
000100 27 b6 10 be 27 6b f7 bd 74 8c 90 bd d8 e3 27 3e
       -0.14131986 -0.120809846 -0.07058039 0.16395509
000110 ef 4f 51 3d 3f a0 b0 3c 20 07 21 3d dd cd c8 3d
       0.05110162 0.021560786 0.039313436 0.0980489
000120 bc ca 1b 3e 10 11 40 3d 7f 56 f7 bd 40 52 60 bd
       0.15214056 0.046891272 -0.12077045 -0.05476594
000130 7f 83 5b 3e fd 24 08 3e 9c f1 35 3c 74 70 af 3d
       0.2143688 0.1329536 0.011104967 0.085663706
000140 f0 9a b0 3d 19 bf 4a 3e 0e 66 44 3c 30 d2 35 bd
       0.08623302 0.1979946 0.011987222 -0.044389904
000150 01 a8 29 3d ba 1c f8 bc 17 22 d2 3d f7 02 c5 bd
       0.041419987 -0.030287135 0.10260408 -0.09619706
000160 53 e0 d8 bd 33 7e 29 3e ad d7 ab bc 7a 55 2c be
       -0.105896614 0.16552047 -0.020976866 -0.16829482
000170 49 74 e7 bd 06 f6 c6 bd fa f0 c7 bb ad bd 93 bd
       -0.113014765 -0.09714894 -0.0061017247 -0.07213912
000180 57 7e 06 bd a2 b8 20 be f9 1e 0a be e1 68 4b 3c
       -0.03283533 -0.15695432 -0.13488378 0.012415142
000190 00 8b 14 3c 0d d6 f9 bb 20 8f 9d bd 14 48 75 bd
       0.009066343 -0.007624394 -0.076933146 -0.059883192
0001a0 d5 45 77 bd 09 9a c0 3d 38 ce 9d bd a0 7b 18 be
       -0.06036933 0.0940438 -0.07705349 -0.14890909
0001b0 08 d5 73 3d c0 28 82 bd d7 3e 5f be 48 31 02 3e
       0.059529334 -0.06355429 -0.21801315 0.12714112
0001c0 e0 ad bb bd 60 95 80 3d 93 98 98 bd 24 c3 51 be
       -0.091640234 0.06278491 -0.07450976 -0.20484596
0001d0 05 67 5e be 78 6f 98 bd ed ac b8 bc ef 3e 48 3d
       -0.21718986 -0.07443136 -0.022543395 0.048888143
0001e0 a0 72 6a bd d5 1f 5e bc 9f 7e c4 bd 4f 82 e8 bd
       -0.05723822 -0.013557394 -0.095944636 -0.113529794
0001f0 2c 7b c2 bc 42 9d 8d bd f3 6f 07 3c 23 60 38 3c
       -0.023740374 -0.0691476 0.008266437 0.0112533895
000200 e0 bc 37 3e b0 47 d5 3d 0c 46 a2 bc 25 d5 60 bc
       0.17943144 0.10414064 -0.019808792 -0.013722693
000210 cd a4 7b bd 12 7f fe bd 1a cf 67 3d 37 87 cc bb
       -0.061436463 -0.124265805 0.05659399 -0.006241705
000220 0c 0c 8a bd ee 71 f1 bd 6a d7 10 3c 80 09 76 3e
       -0.06740579 -0.117893085 0.008840421 0.24027061
000230 5c 4f 35 bd 73 c8 59 be de 7a ab be a7 4b 33 be
       -0.044265136 -0.21267872 -0.33492178 -0.17509328
000240 7b c0 65 3b 5b ff 20 3e 0d ec df 3d 53 7e a2 3d
       0.0035057354 0.1572241 0.10933695 0.07934251
000250 dd 25 01 3e 80 4b 06 bc a6 e6 1b 3e e7 ec 1d bd
       0.126121 -0.008196712 0.15224704 -0.038556006
000260 96 51 85 bd e3 66 02 3c 7d 2a 0b bd 18 25 27 3d
       -0.06509702 0.0079591 -0.033976067 0.04080686
000270 3c 41 fc bc 66 8e 8e bd 33 e7 13 be 60 e0 38 be
       -0.030792825 -0.06960754 -0.14443664 -0.18054342
000280 f9 05 35 bc 98 33 04 3e 7b 46 f4 3d 9e 62 fc 3d
       -0.011048787 0.12910306 0.119275056 0.12323497
000290 ff e9 c4 3d 85 2e d8 39 2b 93 5c 3e e6 fc c9 3c
       0.09614944 0.0004123339 0.21540515 0.024656724
0002a0 b3 fb bf 3e 2c 66 1a 3e 9b d1 66 3d 4b 99 03 3e
       0.3749672 0.15078038 0.05635224 0.12851445
0002b0 20 17 62 bc fb 91 86 bd 22 1c bc 3d d4 e0 6e 3d
       -0.013799459 -0.06570812 0.091850534 0.05831988
0002c0 f6 e6 bc 3d f8 62 86 3c 86 fe b0 3d ae 1c bb 3d
       0.0922374 0.016404614 0.086422965 0.091363296
0002d0 f0 13 1d 3e 6d 29 64 3d 35 4d 0f 3c 58 16 56 3e
       0.15339637 0.05570357 0.008746435 0.20906961
0002e0 07 8a 19 3d 41 91 ff 3b 65 22 37 3e f2 fe 38 be
       0.03748515 0.007799298 0.17884214 -0.18066004
0002f0 e7 1b 5b bd 8e 69 7a be 94 8b 4c be b1 a2 ee be
       -0.053493407 -0.24454328 -0.1997512 -0.466085
000300 aa b6 40 be e5 36 2c 3f 88 c0 92 3f e3 10 3e 3f
       -0.18819681 0.6727126 1.1465006 0.7424452
000310 18 a6 6c bd a2 39 6b be 5c 28 98 be d5 3f ac bd
       -0.057775587 -0.22971204 -0.29718292 -0.084106125
000320 de a2 4d be eb 36 75 be a7 bd 8f be a3 28 b1 bd
       -0.2008166 -0.23946731 -0.2807438 -0.08650329
000330 86 d3 5e bd 30 e5 c4 3d a4 40 3f 3e 9b 10 93 3d
       -0.054400943 0.096140265 0.18677002 0.071809016
000340 86 1c 0f 3d e1 fd f8 3d 68 7b 93 3e af 89 60 3e
       0.03493931 0.121577986 0.2880509 0.21927522
000350 06 0c 98 3e 9e 26 9e 3e 48 09 8e 3e d6 44 27 3c
       0.29696673 0.30888838 0.27741456 0.010209283
000360 cc 43 e1 bc d5 e4 18 be aa 42 ca bd 3b 77 23 be
       -0.027498148 -0.14931042 -0.098759964 -0.15963452
000370 94 2d b1 bd 32 c5 90 bd ec 29 e2 bc 43 4c fb bc
       -0.086512715 -0.07068862 -0.02760788 -0.030676013
000380 4a e5 2f 3c dc 7f 6e 3d c8 a7 20 bd 74 6c 10 3c
       0.010735819 0.058227405 -0.03922251 0.00881492
000390 f7 6d 2f 3e 2c 64 a0 b6 69 13 01 be 99 26 30 bd
       0.17131792 -4.780033e-06 -0.1260506 -0.04300556
0003a0 94 34 a8 bd b2 ba 19 3d 47 72 eb 3d 75 32 0f 3e
       -0.082131535 0.037531562 0.11496406 0.13984092
0003b0 26 3e 91 3d 80 d5 6d bd 3a d1 79 3d 04 bd 40 bd
       0.07091932 -0.058064938 0.06099055 -0.04705526
0003c0 6a a4 bf bd 87 be 00 be fa fc 10 3d 6f 5e a2 bd
       -0.09357531 -0.1257268 0.035397507 -0.07928168
0003d0 8b 35 27 bd d2 62 db bd 70 43 d9 bd 88 65 2a bd
       -0.040822547 -0.10712208 -0.10608566 -0.041600734
0003e0 08 45 c8 3d df 85 58 bc 7b ec 04 be c4 ba 71 3c
       0.09778792 -0.013215511 -0.12980835 0.014754001
0003f0 dc 72 10 3e 63 b9 0b bd 01 37 1a 3d ed b2 8b 3d
       0.14106315 -0.034112345 0.037650112 0.06821237

lstm.weight_hh_l0 f4 [400, 100]
000000 da 50 02 3d 7f 2a d6 3b a1 32 30 3e 2e 8f f7 3c
       0.031815387 0.0065358276 0.17206813 0.03021964
000010 c0 c8 b1 bc 01 3e 56 3d 08 77 1f 3d db 74 22 3c
       -0.02170217 0.052305225 0.038931876 0.009915556
000020 fb 27 d9 3a a5 f7 37 3d 0c 33 43 be fb aa bf bd
       0.0016567701 0.044913907 -0.19062442 -0.09358784
000030 f5 aa 2d be 66 9c 9d 3c fb 6f 25 bc 70 51 91 be
       -0.16959746 0.019239616 -0.010097499 -0.28382444
000040 61 4d ed bd df e8 b2 bd 5b 20 cd bd fc 55 1f 3e
       -0.115870245 -0.08735823 -0.10015937 0.15560144
000050 62 6b cd bd a1 e0 ee bc 5a 09 59 be 44 f2 15 bd
       -0.10030247 -0.029159846 -0.21194974 -0.036607996
000060 7a 49 43 be c9 bd de 3c c9 f2 f6 bd 13 d2 3d 3e
       -0.19070998 0.027190106 -0.12058026 0.18537168
000070 6e 5d 14 be a9 1a 52 bd ae 02 66 bd d5 e7 3b be
       -0.14488766 -0.051294956 -0.0561549 -0.18350156
000080 eb b4 a2 3d bb 4c 6c 3d 85 4a c1 bc cf 73 27 3d
       0.079446636 0.057690363 -0.023595104 0.040881928
000090 6e cf 0d 3d 64 96 ca bc ef 5b ce bd e0 84 97 3b
       0.03462165 -0.024729915 -0.10076129 0.004623994
0000a0 dd 3b 2c 3d 64 18 e8 3d 9a 1f 5a be ba 71 f8 b9
       0.042049278 0.11332777 -0.21301118 -0.0004738698
0000b0 03 0b f2 bd 41 7f 3d 3b a8 2f 41 bc 7f 03 02 3d
       -0.118185066 0.002891496 -0.011791147 0.031741615
0000c0 3b ea f3 bc 8d bf d1 3d 33 0e 05 bd ea f6 4f be
       -0.029774776 0.102416135 -0.032484245 -0.20309034
0000d0 4c 7e 98 bc ac 6f c1 bc f2 eb 9e 3c ef 44 1b 3e
       -0.01861491 -0.02361282 0.019399617 0.15163015
0000e0 a3 d6 35 be e9 04 3a bd fe 90 c1 3d 8d 8f 94 bd
       -0.17757659 -0.04541484 0.09451483 -0.07253943
0000f0 a1 b5 35 be b5 3b 9f bd a9 af 54 be 91 78 d2 bd
       -0.17745067 -0.0777506 -0.20770134 -0.102769025
000100 1c 65 71 3d 00 62 7c 3e 74 ef 91 3d 42 ab da 3d
       0.058934316 0.24646759 0.0712575 0.10677196
000110 dd e7 90 bc 03 91 b0 3d 5a 10 6c 3d 8b 3a 54 3d
       -0.017688686 0.08621409 0.05763278 0.051813643
000120 a5 1e 08 3d 81 a2 ac 3d 02 14 92 bc 40 82 52 39
       0.03323235 0.08429433 -0.017831806 0.00020075683
000130 0a 86 2d be 9e d3 bc bd f9 b7 d2 3c 4d 5b 8f bc
       -0.16945663 -0.0922005 0.02572249 -0.01749959
000140 d9 80 d8 3c 85 7e 70 bd cd 35 93 3d f4 aa a5 3d
       0.026428627 -0.05871441 0.07187996 0.08089247
000150 09 f5 90 bd 81 1c 1b be 0a 00 6e 3d aa ae 3c bc
       -0.07077987 -0.15147592 0.058105506 -0.0115162525
000160 af 4c c1 3c d7 b5 02 bd 01 46 b5 bd 90 23 57 3d
       0.023596136 -0.031911697 -0.08851243 0.05252415
000170 de 83 18 3e 2e 55 e4 bc df 07 b2 bd c4 a4 1d be
       0.14894053 -0.027872648 -0.086929075 -0.15394884
000180 d6 93 ed bc 1a a7 c2 3d 85 cf 39 be 84 dd 25 bd
       -0.029001158 0.09504528 -0.18145569 -0.040494457
000190 3f 7f ea 3d 32 95 0c bd 9e cc 02 be b4 7d 3c 3e
       0.114500515 -0.03432197 -0.12773368 0.18407327
0001a0 0f 7d 41 bd 2d c2 30 3d 5c 56 5f be e2 66 0a be
       -0.047238406 0.04315393 -0.21810287 -0.13515809
0001b0 6b bb f9 3d 12 ea 14 3d 15 81 a7 bd 8d 46 3c be
       0.1219395 0.03635604 -0.08178917 -0.18386288
0001c0 fb b3 90 3d dc 6a 56 3c df e8 1c 3e 4f fa 0b 3e
       0.070655786 0.013087001 0.15323208 0.13669704
0001d0 96 5e f0 bd 06 0a 0b 3d b2 8b 92 bd 87 44 a6 3d
       -0.11736791 0.033945106 -0.07155551 0.08118539
0001e0 10 bd aa bd 89 24 0e be 65 42 9e 3d 21 ac c7 3c
       -0.08336842 -0.13881125 0.077275075 0.02437407
0001f0 b6 b4 e3 bd 70 73 a2 3d af 31 85 be 11 6a d5 3d
       -0.11118452 0.07932174 -0.26014468 0.10420621
000200 ca 65 63 bd 56 f0 57 3e 28 61 02 bd 3e 97 50 3d
       -0.055516995 0.21087775 -0.031830937 0.050925486
000210 60 ae 24 3d 90 1f 03 3e 6e 9a 0d be ec 04 80 bd
       0.04020536 0.12805009 -0.13828442 -0.06250939
000220 ba 67 76 3e fe 70 cc 3d bf e9 ec bc c9 8e 0a 3e
       0.24063006 0.09982489 -0.028920053 0.1353103
000230 33 b9 7d be 22 78 83 be b5 16 19 3e b7 51 05 3d
       -0.24777679 -0.25677592 0.14950068 0.032548632
000240 34 b2 30 be 1a c7 23 bd d9 4e 61 3d f3 ce b6 3c
       -0.17255479 -0.0399848 0.055006836 0.022315478
000250 ee e2 ad 3d f4 e5 ef bd 12 b8 d1 3c 18 f2 c2 3d
       0.08490549 -0.11713782 0.025600467 0.09518832
000260 36 93 b2 bd 8f a8 f9 3d 93 c4 20 3c 15 a6 3e bd
       -0.087194845 0.12190353 0.009812492 -0.046545107
000270 31 72 04 be a5 f6 67 3e fb ea e0 3c ac 78 0d be
       -0.12934186 0.22652681 0.027455797 -0.13815564
000280 d1 f7 31 be 35 12 55 3d 03 41 0a 3e 1c 06 b6 bd
       -0.1737969 0.052019317 0.13501363 -0.08887884
000290 cb 8e d2 bd d5 3e 7b bd 92 02 50 b8 ea 8b 21 be
       -0.10281142 -0.06133922 -4.959346e-05 -0.15776029
0002a0 91 6f b1 3d 6d b4 f9 bd 66 ea a7 bb e1 ce 36 3e
       0.08663858 -0.121926166 -0.005124378 0.17852356
0002b0 2a 5d 79 be ba b0 ab bd 7b 1f f4 3d f4 9d 42 3e
       -0.24351946 -0.08383317 0.11920067 0.19005567
0002c0 cb 6b 99 3d bb f4 f0 3d 63 e1 d7 bd 05 e6 06 be
       0.07491263 0.11765429 -0.10541036 -0.13173683
0002d0 c2 16 58 3d c1 14 a4 3d 69 55 94 bd 0d e0 ef bd
       0.05275608 0.08011771 -0.07242853 -0.11712656
0002e0 1d a7 d9 3d d8 b5 bc 3d 87 42 b4 3d 97 5d 77 bc
       0.106275775 0.092143714 0.088017516 -0.015097997
0002f0 30 b7 fe 3d 61 cd 30 be 47 9c 9e 3d b8 1a cb 3d
       0.12437284 -0.17265846 0.07744651 0.099172056
000300 71 5e 47 3d ef 2b 40 bd 8a c4 1c be 21 1a 0f be
       0.04867405 -0.0469169 -0.15309349 -0.13974811
000310 e4 56 3f 3e 1e 7e ca 3d ce 3b 81 be 6d 76 55 bd
       0.1868549 0.09887336 -0.2524094 -0.052114893
000320 3a 3b c3 39 e9 ea 91 bd 88 fd 4e bc 58 76 47 3c
       0.00037237426 -0.07124884 -0.012633689 0.012174211
000330 22 35 77 bd 53 51 b3 3d 47 1e c6 bc e2 2f c6 3d
       -0.060353406 0.08755746 -0.02418436 0.09677102
000340 64 30 d8 bd b5 8c e2 3d 65 ff eb bd 9f 22 19 be
       -0.10556105 0.11061994 -0.11523322 -0.14954613
000350 53 91 a4 bd bd 28 27 3d 0d c1 fd bc 7e 4e 6c bc
       -0.08035531 0.040810335 -0.030975843 -0.014423011
000360 3b 5e 76 bc b7 31 62 bd 3c c2 5a ba d1 e3 b1 3d
       -0.015037115 -0.055223193 -0.0008344983 0.08686031
000370 b6 e2 32 bd 53 16 8a 3d 45 78 e9 3d a1 0f b3 3d
       -0.04367324 0.06742539 0.11399893 0.08743215
000380 58 07 e6 bc 77 01 f6 3d 1a ef 1d 3e 9f 53 0a be
       -0.028079674 0.12011998 0.15423241 -0.13508461
000390 17 6e 10 3d 3c 77 91 bc 66 51 8e 3d 44 c1 01 be
       0.03526124 -0.01775705 0.06949119 -0.12671381
0003a0 ee 20 39 3e 62 f2 c8 bd 2b 05 d4 bd 7b 3b cb bc
       0.18078968 -0.09811856 -0.10352548 -0.024808636
0003b0 7c f3 c1 3d 80 8f 5a bd 21 64 ed bc d0 55 d1 3d
       0.09470269 -0.05335951 -0.02897841 0.102214456
0003c0 0f 82 b1 3c 70 c0 8f 3d f0 c8 c8 3d 84 65 8c bc
       0.021668462 0.070191264 0.09803951 -0.01713825
0003d0 c3 90 2a 3e 37 7d a9 3c b1 7b 75 bd 8d fb 65 bc
       0.16656785 0.02068959 -0.059932414 -0.014037025
0003e0 dc 75 4d bc aa 0f 8c 3d a5 a0 c1 bd 51 9b 31 be
       -0.012540307 0.06838925 -0.09454469 -0.17344405
0003f0 b2 5c 2c 3e 5f 22 e5 bd 66 00 f7 3d b3 72 7b bc
       0.16832235 -0.111881964 0.12060623 -0.015347171

lstm.bias_ih_l0 f4 [400]
000000 5b ed e1 bd ef c2 f3 bc 35 13 75 bd 27 4f 75 3e
       -0.110316 -0.029756038 -0.05983277 0.23955975
000010 ac 85 1a 3e f9 a3 ff 3d e0 97 0a 3f ec af 5f 3e
       0.15090054 0.12482447 0.5413799 0.21844453
000020 09 eb 95 3e c5 c7 00 3f fc f5 f9 bd 40 ea 4b 3d
       0.2928088 0.50304824 -0.12205121 0.049783945
000030 bc 37 43 3d b8 0c 6e 3e 92 f0 03 be 01 07 c0 bd
       0.047660574 0.2324704 -0.12884739 -0.09376336
000040 f8 20 83 3e 30 8b 4b 3e 7f 54 1e 3f aa a2 b8 3d
       0.2561109 0.19877315 0.6184768 0.09015401
000050 2f 6b 4e be 54 52 98 3d af 75 b9 3e ed 54 ef bd
       -0.20158075 0.07437578 0.36222598 -0.1168612
000060 f4 ac e8 3d ac 1a e0 3e 7f 36 96 3e 9d 6a 2c 3e
       0.11361113 0.4377035 0.29338452 0.16837545
000070 c1 8f 5f 3e 56 cc ad 3d 33 be a6 3e 82 0b e0 3d
       0.21832182 0.084862396 0.32566985 0.10939695
000080 39 d3 92 3e 92 8b 8a 3e f1 ca 54 be a2 ce 28 3e
       0.28676775 0.2705961 -0.20780541 0.16485074
000090 ac 98 c6 3e 66 cd 05 bf 8b 3a 9b bc 8e 48 81 3e
       0.38788354 -0.5226654 -0.018948814 0.25250667
0000a0 b3 e5 b2 3d b4 f2 3e 3f 3f 51 89 3d 38 ba 8e be
       0.08735218 0.74589086 0.067049496 -0.2787645
0000b0 20 fe 63 3e 1c e9 08 3e cb 43 bb bc 85 cc 85 3e
       0.2226491 0.13370174 -0.022859475 0.261326
0000c0 25 ee 12 3b 35 17 6a 3e d0 32 e5 bc 44 8e ee 3e
       0.0022419777 0.22860415 -0.02797833 0.46592915
0000d0 a9 ed 4c 3d ef 6b 97 bd 3e c3 d8 3d 5f d3 7b 3e
       0.050031338 -0.073936336 0.105841145 0.2459235
0000e0 02 22 cb 3e fe 5b 22 bf 53 91 ac bb 2e e2 d9 3e
       0.39674383 -0.6342162 -0.0052663474 0.42555374
0000f0 45 6b 7c 3d f1 e4 41 bd d9 d9 31 be 33 ec 77 3e
       0.061625738 -0.047337476 -0.17368259 0.24211197
000100 41 e2 80 bc 27 94 7b 3e 14 27 10 3e c2 61 7a bf
       -0.015732886 0.24568234 0.14077407 -0.97805417
000110 00 fe 9b be 15 76 24 3d c4 6e 62 be 41 4f 05 3f
       -0.30467224 0.040151674 -0.22112566 0.52074057
000120 57 ad 37 3f 7c 72 af 3c fa 87 f7 bd 6c fe 71 bd
       0.7174887 0.021416895 -0.12086482 -0.059080526
000130 a3 97 20 3f 6f 4c 4f 3e e2 f6 0d 3e 1d a5 46 be
       0.6273138 0.20244001 0.1386371 -0.19398923
000140 40 be bb bb 32 51 86 be bb b1 3c be c9 ea 10 3e
       -0.0057294667 -0.26233822 -0.18427174 0.14152063
000150 7e aa a7 be 39 fb 85 3e 7f f4 1d 3e bd c2 80 3e
       -0.32747263 0.2616823 0.15425299 0.25148574
000160 be b6 5f 3e 3a b3 36 3e 30 52 09 3e 8b 80 19 3e
       0.21847054 0.17841807 0.13410258 0.14990442
000170 4d 90 f9 3d 9a e5 4f 3e cd 78 4c 3f 09 ee 23 3e
       0.12185726 0.2030243 0.7987183 0.16008772
000180 eb 1a e3 bc 4c d1 c5 3e 00 74 5f 3e a1 a2 08 3e
       -0.027722796 0.38636243 0.21821594 0.13343288
000190 f9 1b 12 3e e0 f5 82 3e 79 3f 1a 3e 05 8f 04 3d
       0.14268483 0.25578213 0.15063275 0.032362957
0001a0 45 07 9d 3e fc 4b 1f 3e 6b 3c d9 be 58 9f a3 bd
       0.3066961 0.1555633 -0.42428908 -0.07989377
0001b0 82 80 30 3e eb 7a 10 bf aa c5 03 3e 11 57 1c 3e
       0.17236522 -0.5643756 0.12868372 0.15267588
0001c0 9a 24 8d 3e 34 50 1d 3e 00 85 91 3e 47 70 00 3e
       0.27566987 0.15362626 0.28421783 0.1254283
0001d0 90 43 8c bd 6e 13 27 3e f4 cd 1e bf 98 26 81 be
       -0.06848824 0.16316006 -0.6203301 -0.25224757
0001e0 34 a6 b6 3e 1d ae a2 bd 88 1d b6 3d 7b 0f 08 3d
       0.35673678 -0.07943366 0.088923514 0.03321789
0001f0 f1 3c 71 3e c1 b9 48 bc d6 41 d6 bd e8 cb 91 3e
       0.23558404 -0.012251318 -0.10461776 0.2847588
000200 40 2f 87 bd 1c 00 d7 3d 34 8e ce bd 78 27 5b 3d
       -0.06600809 0.10498068 -0.10085717 0.053504437
000210 d5 79 d4 3d 17 f5 7a be d2 14 5c 3e db 9b 03 3e
       0.103748 -0.24507557 0.21492317 0.12852423
000220 8a 2c 8c 3e a3 75 29 3f 5f 5c 33 be c0 94 a5 bd
       0.2737773 0.66195124 -0.17515706 -0.080850124
000230 87 92 13 3e b1 d6 c2 be bc 04 7f be df 1a bf 3e
       0.14411364 -0.38054422 -0.2490415 0.3732519
000240 9f f7 01 3a fb ae b3 bd 5a 5a 0b 3e a4 46 56 3d
       0.0004957858 -0.08773609 0.13608685 0.052313462
000250 74 58 ce 3d a9 19 a8 3e 94 b0 b6 3d 67 7d ff be
       0.10075465 0.32832077 0.08920398 -0.49900362
000260 d6 e5 e0 3e 7b 82 c5 3e 2f 0c 76 be 27 f5 38 3e
       0.4392535 0.3857611 -0.24028085 0.18062268
000270 fa d3 fa be fe 73 36 3f a5 3c 9f bd 24 24 f3 be
       -0.4898985 0.7127074 -0.07775239 -0.4748851
000280 27 83 cd 3d 63 fd f7 3d 5b 2a 82 3e d3 55 36 bc
       0.10034781 0.121088766 0.2542294 -0.0111288605
000290 81 cf 56 3e 4b 95 bd be 33 c2 02 3e 8b 15 20 3f
       0.20977594 -0.37027964 0.12769394 0.6253287
0002a0 e5 dd 9a 3d 05 a6 11 3e 91 8b 37 3e 34 d0 3d be
       0.07561854 0.14223488 0.17924334 -0.18536454
0002b0 ae 2c b7 be 47 a6 b2 3d 0b 0b ba 3e b3 22 03 3d
       -0.35776275 0.08723121 0.3633655 0.032015514
0002c0 ed 5a 8c be 9a f9 28 3d c1 be a9 3d 8d cb 66 3e
       -0.2741312 0.041253664 0.082883365 0.22538586
0002d0 56 a4 0e 3e d9 79 b2 3e b7 4d 2c 3e dc 98 8f 3e
       0.13929877 0.34858587 0.16826521 0.2804631
0002e0 79 79 06 3f d2 98 1c be 1d 09 9a be 7e 2d af bd
       0.525291 -0.15292671 -0.30085078 -0.08553599
0002f0 b7 21 b4 3e 97 bd 5c 3e b8 cb 46 3e 01 1f 37 bd
       0.35181972 0.21556698 0.1941365 -0.044707302
000300 f5 a8 30 3e 19 3d a1 3d 05 1c f4 be 73 60 da 3d
       0.17251952 0.078729816 -0.47677627 0.106629275
000310 2e d4 31 3e e4 2d 18 bf ea 23 1b bf fc ac f5 bd
       0.17366096 -0.59445024 -0.60601676 -0.11995885
000320 db 73 24 3e 7b 4f 15 bd f3 77 f5 bd a7 24 29 3e
       0.1605982 -0.03645275 -0.11985769 0.16517888
000330 63 9d 86 be 39 4c d8 be 13 c4 ec be f3 a2 0f 3c
       -0.26291952 -0.42245653 -0.46243343 0.008766877
000340 58 c5 d6 be 64 80 fe 3e a5 32 c7 3c cd c6 85 bd
       -0.41947436 0.4970733 0.024316141 -0.06532059
000350 cd f3 ff 3c 43 35 9e bd bb e4 4c bd b5 d0 f1 be
       0.031244183 -0.077250026 -0.050022822 -0.47229543
000360 d1 97 69 bf 72 21 59 3e 6e 29 c5 3e d9 0e 82 3f
       -0.9124728 0.21204165 0.3850817 1.0160781
000370 54 4d e0 bd c4 e0 1c bf b2 91 98 bc 5a 15 20 bf
       -0.10952249 -0.61280465 -0.01862416 -0.6253258
000380 31 d7 4f bd 98 0b ee 3c e5 ec 5d 3e 82 82 b2 3d
       -0.050742332 0.029058263 0.216724 0.08716299
000390 8f ea 7e be b3 d6 b2 bd 3b e8 f8 3e 05 47 94 be
       -0.24894165 -0.08732357 0.48614678 -0.28960434
0003a0 7f 9c 2f 3f 3a b3 da be fe fc 18 3e b6 f6 e6 bc
       0.6859817 -0.42714864 0.14940259 -0.028193813
0003b0 21 a1 35 3e 73 ae 0e 3d 32 2e f7 3e 52 61 e1 be
       0.17737247 0.034834336 0.48277432 -0.44019562
0003c0 2c 7d d4 3c 2a 71 8e be 6c d5 46 bf 24 74 c3 be
       0.025938593 -0.27820712 -0.77669406 -0.38174546
0003d0 f7 b4 19 3d f2 8f 19 be 09 7f 15 be 6d 75 90 3e
       0.037526097 -0.14996317 -0.14599241 0.2821459
0003e0 48 69 c8 3e 15 d7 90 be 98 fe 95 be 67 f0 08 3f
       0.39142823 -0.28289095 -0.29295802 0.53491825
0003f0 d2 6a b3 3b 97 19 91 3d 47 a9 b2 3f dc c1 dd 3e
       0.0054753805 0.07084959 1.3957909 0.43311965

lstm.bias_hh_l0 f4 [400]
000000 0a 90 4d bd 1e e8 80 bc d9 ec 70 bd 94 cf 3d 3e
       -0.050186194 -0.015735682 -0.058819626 0.18536216
000010 1d e0 80 bc 73 3d c7 3c fe cd 02 3f fa e3 83 3e
       -0.015731866 0.024321293 0.5109557 0.2575987
000020 44 fa 7d 3e 15 25 28 3f bc e0 07 3b 75 a8 8d 3c
       0.248025 0.6568158 0.0020733317 0.01729224
000030 0c 5e b6 3d 56 24 72 3e ac 01 0c be 6f f1 b9 bd
       0.08904657 0.23646674 -0.13672513 -0.09079253
000040 b9 81 52 3e a0 e9 23 3e b9 ea 04 3f 5b e3 42 3e
       0.20557298 0.1600709 0.5192066 0.19032042
000050 c3 70 1c be ce fb 23 3e 97 bd 9a 3e 17 79 dd bd
       -0.1527739 0.16014025 0.3022277 -0.10814112
000060 16 df 79 3e ca e6 96 3e 59 3c aa 3e 21 90 c6 3d
       0.24401507 0.29472953 0.33249167 0.09695459
000070 18 7b 50 3d db d4 69 3d 4f 24 af 3e aa 8b ab 3d
       0.05089864 0.05708776 0.3420739 0.08376248
000080 dd ee a0 3e d2 00 b3 3e 5b 0e 10 be 24 b4 7e 3e
       0.31432238 0.34961563 -0.14067976 0.24873406
000090 c0 69 bb 3e 6c 3d 0b bf b9 9e 9f bc b8 c8 c9 3e
       0.36604118 -0.543906 -0.019484865 0.3941095
0000a0 87 77 e8 3d 28 58 5d 3f da 0b 25 3e 00 f5 8e be
       0.11350923 0.8646264 0.16117802 -0.27921295
0000b0 86 69 76 3e 8f fe 5e 3e e5 1f 73 bd 23 3c 85 3e
       0.24063691 0.21776794 -0.05935659 0.26022443
0000c0 1f fc af 3c 91 5e 04 3e 0e 5f 3f 3d 3a f6 16 3f
       0.021482525 0.12926699 0.04672151 0.5896946
0000d0 65 51 40 3c 3d ae c6 bd 7a 69 d5 3d 03 ae 43 3e
       0.011738156 -0.09701202 0.10420509 0.19109349
0000e0 ba 36 a5 3e 2c 1f 2c bf 2c ed df 3d 7f 4c 08 3f
       0.32268316 -0.67235065 0.10933909 0.53241724
0000f0 99 13 18 3e 87 58 32 be 53 51 5a be 8d f3 42 3e
       0.14851226 -0.17416583 -0.21320085 0.1903822
000100 1b e7 cd 3c 86 93 98 3e c2 ad da 3d e4 37 72 bf
       0.025134614 0.2980005 0.10677673 -0.9461653
000110 3c 4e 4b be 45 ee 6a 3d 54 19 13 be 0f a4 08 3f
       -0.19854063 0.057356138 -0.1436513 0.53375334
000120 f1 0d 30 3f 2b c1 ef bd e7 39 11 3c 56 85 05 3e
       0.6877127 -0.11706766 0.008863903 0.13039145
000130 b3 d3 23 3f 3a 42 9b 3e d1 fd 9f 3e a5 e2 28 bd
       0.639949 0.30323964 0.31248334 -0.04123177
000140 e1 40 61 bc d2 b3 83 be 55 20 e3 bd 15 c0 d7 3c
       -0.0137483785 -0.2572313 -0.11090151 0.026336709
000150 82 1d 9e be 88 af dc 3e 33 3c 1d 3e 1e be 04 3e
       -0.30881888 0.4310267 0.15354995 0.12963149
000160 ef ee 4c 3d 6d 70 7c 3e f5 81 d4 3d 87 1a 4b 3e
       0.050032552 0.24652262 0.1037635 0.19834338
000170 a8 78 32 3e 60 66 4c 3e 07 ae 55 3f cf 40 77 3e
       0.17428839 0.19960928 0.8346867 0.24145816
000180 20 00 a2 3b cc 17 e0 3e 43 a2 96 3e cb 53 59 3e
       0.0049438626 0.43768156 0.2942067 0.2122337
000190 86 02 d1 3d a6 5d 64 3e c6 2e 50 bc a4 d5 35 3e
       0.102055594 0.22301349 -0.012706464 0.17757279
0001a0 ff 62 ae 3e a3 b2 fc 3c cf 03 e9 be 89 cb 07 be
       0.34059903 0.0308469 -0.45510718 -0.13261236
0001b0 91 d7 45 3d 4d 10 15 bf c9 2f 2a 3e f3 32 e4 3d
       0.048301283 -0.58228 0.16619791 0.1114253
0001c0 d6 f1 a9 3e 91 c3 b7 3d 1d 57 77 3e 12 31 04 3e
       0.3319232 0.08972848 0.24154325 0.12909344
0001d0 12 04 ee bd 7c c9 d2 3d 8a 02 1c bf fc 97 04 be
       -0.1162187 0.10292336 -0.60941374 -0.12948602
0001e0 8c ba b1 3e 41 37 59 bc e1 8b 12 3e 75 29 44 3b
       0.34712636 -0.013257802 0.14311172 0.0029931937
0001f0 40 e4 7f 3e 94 98 9f bd 14 58 cb bc d1 60 e7 3d
       0.24989414 -0.07792774 -0.024822272 0.11297763
000200 01 89 7b bd 1e 4f 8c 3d 50 75 5e be cc 4c f9 3d
       -0.061409954 0.06851028 -0.21724439 0.12172851
000210 69 a2 8a 3b 64 ee e8 bd 3e 79 40 3e f7 70 f3 3d
       0.0042307866 -0.113735944 0.1879625 0.11886781
000220 d7 db 34 3e 1d 22 04 3f 6d d7 49 be ec 29 60 be
       0.17661987 0.5161455 -0.19711085 -0.21890992
000230 b9 11 25 3e e9 c5 de be 74 31 6b be 1f 23 d7 3e
       0.16120042 -0.43510368 -0.22968084 0.42018983
000240 d3 b2 bd 3d 9a 09 2e be 00 b1 36 3d 9c 1a 36 3d
       0.09262624 -0.1699585 0.044602394 0.04445897
000250 4b 92 16 3e 44 bd 5c 3e 4e 2b 33 3e 3a b6 e2 be
       0.14704244 0.21556574 0.17496988 -0.44279653
000260 da b2 0c 3f 0b 10 82 3e c8 10 9b be 5c 14 87 3d
       0.54960406 0.25402865 -0.3028624 0.0659568
000270 66 11 03 bf c6 8d 32 3f 02 a7 96 bb 92 f0 20 bf
       -0.5119842 0.6974758 -0.0045975456 -0.6286708
000280 7d 82 99 3d c3 41 91 3e 7d 50 34 3e 7e ad 83 bc
       0.07495592 0.28370485 0.17608829 -0.016073938
000290 26 f8 89 3e 52 29 5d be 69 2c 86 3e 8d ea 1f 3f
       0.26947135 -0.21597794 0.26205757 0.6246727
0002a0 c8 3e fb 3d 3b dc 3e 3e 55 4a 4a 3e 3e 0f 71 be
       0.12267834 0.18638699 0.19754918 -0.2354097
0002b0 20 e4 bf be af df 4a 3c 18 da 7d 3e 95 68 b2 3c
       -0.37478733 0.012382432 0.24790227 0.021778384
0002c0 8f e0 a5 be 45 a2 bc 3d a4 d8 4a bc a1 0c 30 3e
       -0.32397887 0.09210638 -0.012380753 0.17192318
0002d0 53 7d 84 3e ff 42 b4 3e 71 dd 8c 3e 35 08 52 3e
       0.25876865 0.35207364 0.27512696 0.20510943
0002e0 f3 00 13 3f 0a 42 61 be 9c 78 33 be 14 57 fd bc
       0.57423323 -0.21997848 -0.17526478 -0.030925311
0002f0 1f 8b bc 3e ec 51 54 3d 88 57 65 3e 57 12 48 bd
       0.3682489 0.05183594 0.22396672 -0.048845615
000300 1b 66 67 3e 81 6c a9 3d ca 53 27 bf 7b 04 73 bd
       0.22597544 0.082726486 -0.65362227 -0.059330445
000310 f9 22 b1 3d b2 7c 1d bf 04 3f 27 bf 47 45 38 bd
       0.08649249 -0.61518395 -0.6533053 -0.044987943
000320 da 04 d5 3d 8b 86 0f 3d a1 d2 cf bd fd 19 17 3e
       0.10401316 0.03504042 -0.10147596 0.14756007
000330 c1 e7 6a be 9d 9d cb be 97 f9 d2 be 2d 51 2c 3d
       -0.2293997 -0.39768687 -0.41206047 0.042069603
000340 0c 6f ce be 0c d5 06 3f de ab cb 3d 88 65 9c bd
       -0.40319097 0.52668834 0.099448904 -0.07636553
000350 21 f3 7f bc e8 77 a2 bd 6a b0 1e be 1d 73 11 bf
       -0.015621931 -0.079330266 -0.15496984 -0.56816274
000360 81 2e 5b bf d6 07 22 3e 16 99 c0 3e 5f bc 75 3f
       -0.85617834 0.15823302 0.37616795 0.95990556
000370 97 8f 1e be 92 f2 44 bf c7 24 30 be 98 aa 18 bf
       -0.15484463 -0.7693263 -0.1720153 -0.59635305
000380 54 07 0c 3e 35 78 94 bd 3c e6 de 3c de 3e 92 bd
       0.1367467 -0.0724949 0.027209394 -0.07140897
000390 3c 76 ac be 0b e3 e0 bb 13 21 03 3f 01 a6 2b be
       -0.33683956 -0.006863003 0.5122234 -0.16762544
0003a0 03 8d 3f 3f e1 f5 02 bf 72 c2 e6 3d 3e 58 82 bd
       0.7482454 -0.5115643 0.11267556 -0.06364487
0003b0 97 4d a8 3e 19 7d 52 3d 84 ca 10 3f fc 50 a6 be
       0.32871696 0.051388834 0.56559014 -0.3248366
0003c0 98 e2 9b 3d f9 00 57 be 30 e3 63 bf 88 84 85 be
       0.07611579 -0.20996465 -0.89018536 -0.26077676
0003d0 5f 42 16 bd ff b7 8e bc f5 3c 3d be 6c 77 6a 3e
       -0.03668439 -0.01742172 -0.18480285 0.22897118
0003e0 61 15 08 3f 93 a9 96 be 7c b6 1a be 9f 05 0f 3f
       0.5315762 -0.2942625 -0.15108675 0.5586795
0003f0 12 39 ae 3d 8e a7 58 3e db 5d a8 3f 8c b6 03 3f
       0.08506979 0.21157667 1.3153642 0.5145042

lstm.weight_ih_l1 f4 [400, 100]
000000 10 5c a2 bd 9c 9e 95 3c 40 ef 6c bd f0 48 f9 3c
       -0.07927716 0.018264107 -0.057845354 0.030430287
000010 9b 7e ba 3c 1c 8d f3 3d 00 4a 9c 3d 51 a9 4f 3e
       0.022765448 0.11892149 0.07631302 0.20279433
000020 26 0c 06 be 07 c2 8f bd 70 5e 84 3c af 2c 0f bd
       -0.13090572 -0.0701943 0.016158313 -0.034954723
000030 65 5c 40 bc 51 b2 29 3e 74 ce d2 bc f9 19 ef bd
       -0.011740779 0.16571929 -0.02573321 -0.11674876
000040 63 88 38 bd 5e 5f 9c 3d 3d ba b8 3c 71 62 1e be
       -0.045051944 0.07635377 0.022549743 -0.1546724
000050 8e d7 2d be 02 96 b9 bd 13 73 d7 bb 11 15 43 3c
       -0.16976759 -0.09061815 -0.006574997 0.011906878
000060 55 9e 0b 3e a4 e4 5c be 6f 31 3f bd f0 6b a4 bd
       0.13634618 -0.21571594 -0.046678003 -0.080284
000070 26 e9 e4 bc c3 62 cd 3d d3 41 4d be 4b 5a cb 3c
       -0.027943205 0.10028603 -0.20044641 0.024823328
000080 7b 33 5d 3c 00 64 89 bd f4 47 cf 3d 0c 84 d4 3d
       0.013501043 -0.067085266 0.10121146 0.103767484
000090 1b b3 b4 3d ef fe bc bd 61 a2 bd bc 0d 65 c6 bd
       0.08823224 -0.09228312 -0.023148717 -0.09687243
0000a0 c3 8d b3 3b 0a 76 a3 3d 74 00 01 be e1 99 44 3e
       0.005479546 0.079814985 -0.12597829 0.19199325
0000b0 5a 49 f7 3d 39 ae 89 3e 69 3d e2 bd c4 d7 c9 bd
       0.120745376 0.26890734 -0.11046869 -0.09855607
0000c0 f2 8c bd 3c 35 1a 05 bc b5 3f c2 3d 1e d0 37 bc
       0.023138497 -0.008123924 0.094848074 -0.011219053
0000d0 07 0e e3 3c c5 97 30 bb 9c 71 97 3d 6b 3c 8a bd
       0.02771665 -0.002694593 0.07394716 -0.06749805
0000e0 16 c8 a8 3d d8 4a ce bd 91 3d 39 bd f0 6d 8b bd
       0.08241288 -0.10072869 -0.04522473 -0.06808078
0000f0 b2 8e a8 3d c0 88 38 bd fc 44 3c bd 2d c6 fd 3c
       0.08230342 -0.04505229 -0.045964226 0.030978287
000100 26 bb 86 3d 4e e9 18 3e af 57 6f 3c 9b 32 cc 3d
       0.065786645 0.14932749 0.014608308 0.0997059
000110 63 27 4b bd c4 a4 ce 3d 51 aa d9 3d 49 46 01 be
       -0.04959811 0.1009002 0.106281884 -0.12624468
000120 8f c9 14 3e 09 9c 95 3d 61 af 72 3d bc f9 94 3c
       0.14530014 0.07305152 0.059249286 0.018185489
000130 55 da 69 3e d1 a8 85 3d e9 f5 1b be 4a c3 02 be
       0.22837193 0.0652634 -0.15230526 -0.1276981
000140 fa e9 88 3d f8 f7 ed bd 6f 36 ac bc d4 3c 9a 3d
       0.066852525 -0.11619562 -0.02102205 0.07531133
000150 21 bb 0e 3d 17 c1 2f 3e 24 bc f2 bd 09 5a fa 3d
       0.03484643 0.17163502 -0.11852291 0.12224204
000160 bf 3a 10 3d dc 17 b0 bd ed 07 9f bb 31 e0 1c be
       0.035212275 -0.08598301 -0.0048532397 -0.15319897
000170 bb 99 00 3d c6 43 35 bc 7c 83 96 bd 09 a7 d5 3d
       0.03139661 -0.011063522 -0.073492974 0.1043225
000180 3b cf f2 3c 73 1f 16 3e 8c 09 3d 3d a9 c5 db 3b
       0.02963983 0.14660434 0.046151683 0.0067069125
000190 f8 5b 69 be 52 cc 02 be 0b 66 b4 3c 57 2f 42 bd
       -0.2278899 -0.12773255 0.022021314 -0.047408428
0001a0 39 52 81 3d 3d 2f 21 3e 9c b8 09 bc ee 35 4e bd
       0.06314511 0.15740676 -0.008405831 -0.0503444
0001b0 d1 7a 3d bc d6 ee a6 bd 65 b5 db bd c6 2e 80 3d
       -0.011564926 -0.08151023 -0.10727958 0.06258921
0001c0 34 7b 86 bd 9e bd 20 3d c4 2e 1d 3d 0d 64 d8 3d
       -0.06566468 0.039243333 0.038374677 0.10565958
0001d0 3e 85 43 3b 61 e1 17 bc e0 88 a6 3c 30 9b 42 bd
       0.0029834057 -0.009270043 0.020328939 -0.04751128
0001e0 78 e0 76 3c ae 0c 07 3b 27 cd fa bc 4b 99 e1 bc
       0.015068166 0.0020606923 -0.030615402 -0.027538916
0001f0 41 c0 4f bd 1e 05 20 bb cd e5 6b 3d eb 7c a5 3c
       -0.050720457 -0.0024417113 0.057592202 0.020201167
000200 19 14 e2 3d eb ba d2 3d 4c e9 3e bd b6 77 d4 3c
       0.110389896 0.10289558 -0.046609208 0.025935989
000210 d6 60 ef 3b 35 2e 20 be d9 d1 48 bc ab c3 95 bd
       0.007305245 -0.15642627 -0.012257063 -0.07312711
000220 e9 ae b1 3d 00 c7 a7 3d 08 c2 a3 bd 72 f8 7a 3e
       0.086759396 0.08192253 -0.07995993 0.24508837
000230 90 0c f6 bd 67 ce ed bd 5f bd 8e bd a3 2f 2d 3e
       -0.12014115 -0.11611634 -0.069697134 0.16912703
000240 87 97 28 bd 52 b2 c0 3b c7 44 4b bd 36 e6 80 3d
       -0.041160133 0.0058806324 -0.049626138 0.06293909
000250 4c a5 33 3d b8 83 bb bd 43 bc 23 3d 7f d8 5a be
       0.04385881 -0.09155983 0.039974462 -0.21371649
000260 41 95 9d 3d 45 73 50 bd f1 fd 76 3d 2e 12 30 3e
       0.076944835 -0.05089118 0.06030077 0.17194435
000270 16 3a 00 3e dc e6 04 3e e2 0b 77 ba 99 49 92 bd
       0.12522158 0.12978691 -0.0009424073 -0.07142944
000280 2d 46 29 be f4 fd ac bd 5d 46 32 3e 35 d7 44 3c
       -0.16530676 -0.08446875 0.17409654 0.0120142
000290 1f 1e 8a bd d4 50 bb bd c1 07 14 bd f4 01 8f bd
       -0.067440264 -0.09146276 -0.036140207 -0.069827944
0002a0 b5 82 31 3b d5 57 7e 3d 88 a4 18 3d 0a 15 17 bd
       0.0027085964 0.062095482 0.037266284 -0.0368853
0002b0 92 00 ee bd 86 5b 42 bd 74 c5 32 3d bc 72 aa ba
       -0.116212025 -0.047450565 0.043645337 -0.0013004164
0002c0 26 e8 7a 3d fc 59 1a bc ff 36 3b 3c 31 c0 ce 3d
       0.06125655 -0.009420868 0.011426686 0.10095251
0002d0 3d 83 00 3e 8f 1e 17 3d 2a 40 f3 3d ae d9 1b 3e
       0.12550063 0.036894377 0.11877473 0.15219757
0002e0 ac ad 2e 3d 82 84 20 3d 8f 59 dd bd 53 18 62 3d
       0.042646095 0.03918887 -0.108080976 0.05519898
0002f0 7f a6 11 3d fc 8c 99 bc 56 66 05 3c 24 56 15 3e
       0.035559174 -0.018743984 0.008142075 0.14583641
000300 87 a6 9e bd d9 37 3d 3e b1 a8 c5 bd 8a 77 bd 3c
       -0.07746606 0.18478335 -0.09651316 0.02312829
000310 44 fd 82 3d e5 31 fc bd 8d 21 c9 bd 6a 1b ab bd
       0.06395963 -0.12314204 -0.098208524 -0.08354838
000320 11 07 8e bc c3 3e 1c be c6 57 01 3e 0d 3a 47 3e
       -0.017337354 -0.15258317 0.12631139 0.19455738
000330 46 41 85 3e f3 ad dd bd 0a 15 04 3e b4 62 9f be
       0.26026362 -0.10824194 0.12898651 -0.31129992
000340 85 93 c4 3d 2f b3 74 3e 73 60 42 3c 94 1c 22 3d
       0.095984496 0.23896478 0.011863816 0.039578035
000350 52 14 6b bd 1c a2 0e bd 84 ab 25 3e c1 4b 2b be
       -0.057392426 -0.03482257 0.1617871 -0.16728117
000360 f5 eb b3 bd d8 92 f6 3d 41 b8 a1 be 22 74 bf 3d
       -0.087852396 0.12039727 -0.31585887 0.093483225
000370 15 a3 01 bd b3 f6 5d be ec 67 23 3d f9 d6 e9 bd
       -0.031649668 -0.2167614 0.03989403 -0.11417956
000380 94 cd 89 3c 69 4b 20 3e 26 12 10 3d 25 1a ae 3d
       0.01682166 0.15653767 0.035173558 0.085010804
000390 8c af a1 3d 97 51 81 3d 78 4a 8b be 93 4a 85 bd
       0.07894811 0.0631439 -0.27205253 -0.065083645
0003a0 e1 9a c3 3d f6 e6 c5 bd 11 e5 21 3e db e5 52 be
       0.09551025 -0.09663193 0.15810038 -0.20595495
0003b0 a7 d8 a8 bb 41 94 f8 bc f5 54 ce bd f9 f8 9c 3d
       -0.00515278 -0.03034413 -0.10074798 0.07664675
0003c0 02 7f d0 bd 53 5d 25 bd 2e ed 4d bb 1f 54 c5 be
       -0.10180475 -0.040372204 -0.0031421888 -0.38540742
0003d0 0c dd 79 3e 82 d6 08 be d7 c8 74 be bc 67 a6 3d
       0.24400729 -0.13363078 -0.2390474 0.081252545
0003e0 4d 52 44 3e d5 ab 5f bc ff 1b 76 3d cc 40 95 be
       0.1917202 -0.013651808 0.060085293 -0.29151
0003f0 d6 10 5f be b5 be bf bd 3f d7 a9 be 4d f9 2b be
       -0.21783766 -0.09362546 -0.33172032 -0.1679432

lstm.weight_hh_l1 f4 [400, 100]
000000 62 8d 05 3d db a0 db 3d 69 2f 9f bd 2f b8 55 39
       0.032605536 0.1072404 -0.07772715 0.00020381877
000010 04 a6 e3 bd d6 2c 12 3d 2a 7b 68 bd e7 72 74 bc
       -0.11115649 0.03568729 -0.056758083 -0.014919973
000020 0d 05 4b bd d7 d0 69 3d 51 a3 22 be 97 76 90 bd
       -0.049565364 0.05708393 -0.15882613 -0.07053869
000030 4f fb e6 3b 43 c3 97 bd 83 bc 25 bd 1b 18 0a be
       0.0070490013 -0.0741029 -0.040462982 -0.13485758
000040 9b 16 d5 3d f2 d2 f9 3d aa fe db 3d 36 37 33 bc
       0.10404702 0.12198438 0.10741933 -0.010938456
000050 57 96 b2 bb 18 76 b1 bd d6 5d 6b 3c 3a 22 51 3e
       -0.005450051 -0.08665103 0.014365634 0.20423213
000060 4e 47 af bc 90 1d 97 bc 71 6b 90 bd 10 9e 94 3d
       -0.021396305 -0.018446714 -0.07051743 0.072567105
000070 a7 14 cf 3d 60 78 66 bc 80 aa 99 3c 26 df e9 3d
       0.10111361 -0.014066786 0.018758059 0.11419515
000080 9c b2 29 3d e3 b4 47 be da a1 0b be 8a 73 cd bd
       0.0414301 -0.19502597 -0.1363596 -0.10031803
000090 e1 56 72 bd cc 07 09 3d 5a 9e 97 3e ae 42 b9 bc
       -0.059164885 0.0334547 0.29613 -0.022614803
0000a0 93 fb 66 bb 89 79 1b 3c 16 63 22 3d 7d d6 0f 3d
       -0.0035245165 0.009489425 0.039645277 0.03511666
0000b0 57 67 46 3c fe b0 49 3d f2 2a 68 bd 79 aa 13 be
       0.012109599 0.04924106 -0.05668158 -0.14420499
0000c0 37 27 00 bb f8 92 36 3e 75 e7 cc bd 33 dd 0d 3e
       -0.0019554624 0.17829502 -0.100050844 0.13853912
0000d0 5c 14 9c 3d 48 95 00 3e 12 8c 64 bc 86 1b 0e be
       0.07621071 0.12556946 -0.013949411 -0.13877687
0000e0 d4 e3 1f 3d e7 f0 3b 3e 18 97 0e 3e 82 bb 94 3d
       0.039035633 0.18353616 0.13924825 0.07262327
0000f0 b3 5e 0e bd 60 c5 92 3c e5 87 ce 3c 81 75 6e bd
       -0.03475828 0.017916381 0.025211284 -0.05821753
000100 22 a0 ec bd fe c0 bb bd e3 f8 c5 3d 88 bc 0f 3e
       -0.115539804 -0.0916767 0.09666612 0.14036763
000110 4a 7f 04 3c ee 9d 72 3d 04 e4 d2 bb f8 4d c3 bd
       0.008086989 0.059232645 -0.006435873 -0.09536356
000120 7d cd 42 bc 11 cc 85 bd ba ad 0a 3e 9e f1 03 3d
       -0.011889813 -0.06533063 0.13542834 0.032212846
000130 f4 9d 57 3b d0 c2 4a bd a1 2d ea 3d bd e8 a5 bd
       0.0032900544 -0.049502194 0.11434484 -0.08101032
000140 6d a9 f1 bd a0 55 88 3d cb 0e 39 bc d9 46 11 be
       -0.117998935 0.06656957 -0.011295031 -0.14187182
000150 a3 36 d1 bd 4a 7a 17 3e bd 90 78 bc 38 90 9d bd
       -0.10215499 0.14792743 -0.015171227 -0.07693523
000160 47 94 1b bd 07 54 5f bd d5 12 74 3d 02 76 ca 3d
       -0.037983205 -0.054523494 0.059588272 0.098857895
000170 34 bf 42 bc 6f 61 a8 3d be a5 d0 bd 74 fd ce 3d
       -0.011886407 0.08221709 -0.10187863 0.10106936
000180 09 f9 a4 bd 2d 5a a8 3d 21 68 23 3e 55 af 6d 3c
       -0.08055312 0.08220325 0.15957691 0.014507134
000190 c9 cb fc 3c 9b c7 c2 3c a1 0e 14 3d 1b 4a a4 bd
       0.030858891 0.02377682 0.036146764 -0.08021947
0001a0 e5 30 b1 3d 34 84 a2 3d 59 f1 2d bb 5b fc b3 3d
       0.08651904 0.07935372 -0.002654156 0.08788367
0001b0 04 07 d6 3d 3f f1 7f 3d a4 e1 13 bb d6 7e b6 3d
       0.10450557 0.06248593 -0.0022564912 0.08910911
0001c0 f9 aa c1 3d 62 6b c9 3d 9d 1c 26 3e 7b 5e 9e 3d
       0.094564386 0.09834935 0.16221853 0.077328645
0001d0 e9 09 03 3d a8 9f 32 bd bd 66 b1 3c 67 3d c6 bd
       0.031991873 -0.04360929 0.021655435 -0.0967968
0001e0 d9 04 0e be f3 be 8a bd 09 0d cc 3d 5e 3f 5d bd
       -0.13869037 -0.06774702 0.09963424 -0.05401551
0001f0 bc 2f 6c bd 48 cc 95 bd 09 ef ea bc d1 38 09 3c
       -0.05766271 -0.07314354 -0.028678434 0.0083753625
000200 bc 80 09 3d f6 58 2d 3c e3 9f cc 3c f0 39 ee 3c
       0.033570036 0.010580292 0.024978584 0.029080361
000210 87 b1 a1 bd b1 52 2d 3d d8 28 ad 3d 69 0c 16 bd
       -0.07895189 0.04231519 0.08455056 -0.03663293
000220 a4 7b c4 3b 9c 5f d1 3b d4 96 6f bd 19 ae 1d 3d
       0.0059961844 0.0063895714 -0.05849345 0.03849611
000230 07 e2 9a ba d3 7f e9 bb 69 df 30 3c d2 8e 8d bc
       -0.0011816629 -0.0071258335 0.010795453 -0.017280016
000240 c1 45 8c 3d 43 a5 8d 3d 8c 0e e5 bd 5d bd 84 3d
       0.06849242 0.06916287 -0.11184415 0.06481431
000250 1b b4 bd 3d 67 8a df bc 64 14 34 bc e4 fb d9 bd
       0.09262868 -0.027287675 -0.01099119 -0.106437474
000260 cc 74 b6 3d 71 32 d5 bd 03 ce f5 3c b3 fc 12 3d
       0.08908996 -0.104100116 0.03000546 0.035885524
000270 d8 82 9a bd 62 43 c2 bd bc de a6 bd b0 b8 fa 3c
       -0.07544488 -0.094855085 -0.08147952 0.030605644
000280 1e 81 a0 3d a5 5b 85 3d 8e a3 38 be 4a 6f 8d 3d
       0.07837127 0.065116204 -0.18031141 0.06905992
000290 72 8e dd 3d fb 85 9b 3d f4 0c 0d 3e cf ed cc 3b
       0.10818185 0.07593914 0.13774472 0.006253935
0002a0 be 62 0d 3e 58 fd a5 3c ab 09 76 3d 69 d9 e7 3d
       0.13807198 0.020262405 0.060067814 0.113207646
0002b0 0c b9 9c bd 0c fe b6 bd 0d 61 3d 3d 31 c4 90 bd
       -0.076524824 -0.08935174 0.046235133 -0.070686705
0002c0 d8 2d 94 bb 08 be de 3d 55 ba b1 bc f1 37 22 bc
       -0.0045220666 0.10876089 -0.021695295 -0.009901033
0002d0 d4 d0 ff 3d 2a 7b 97 3d 6f 29 8b bd 6a 24 b6 3d
       0.12491003 0.073965386 -0.06795012 0.08893664
0002e0 0b 17 ee 3b d1 e8 8d bb 0d b3 df bd 32 5f e8 3d
       0.0072659305 -0.0043307324 -0.10922823 0.11346282
0002f0 8f b6 75 bd e5 6d 7b 3d 23 82 6c bd ef 71 56 bc
       -0.059988555 0.0613841 -0.057741296 -0.013088687
000300 5b 52 02 3e 85 de 86 bd fb d9 66 3c 80 93 69 bc
       0.12726729 -0.06585411 0.0140900565 -0.014256358
000310 cd 1c a0 3d 9c a2 9a 3d bd 15 60 bd 31 73 63 bd
       0.07817993 0.075505465 -0.05470823 -0.055529777
000320 59 61 30 3e 16 cf 11 3e 69 eb d4 be ed e7 07 3e
       0.17224635 0.14239153 -0.41585854 0.13272066
000330 a6 50 ea bd e8 3b 19 3e a7 13 99 bd 25 b4 53 bd
       -0.11441164 0.14964259 -0.074744515 -0.05168547
000340 40 4f 5b bb 24 9d 69 3e 8d 42 bd 3d 00 07 e4 bd
       -0.0033463985 0.2281385 0.09241209 -0.11134148
000350 9c 7f 43 3e 7a 9f d6 bd 28 a7 d1 3d 6e 46 cd 3e
       0.19091648 -0.104796365 0.10236961 0.40092796
000360 ba 81 cd 3e d3 f3 89 3d 2b b7 2f be 99 84 09 3e
       0.40138036 0.06735959 -0.17159717 0.13429488
000370 13 99 08 3d 80 1f da 3d 3f 18 10 3c 80 ea df 3d
       0.033349108 0.106505394 0.008794843 0.10933399
000380 f3 54 92 3d 91 85 2a 3d ba c9 3f be 69 d1 d4 bd
       0.07145109 0.041631285 -0.18729296 -0.10391504
000390 99 d9 9d 3e d6 15 99 bd 72 08 c0 3e 1c 94 2d 3e
       0.30830076 -0.07474868 0.37506443 0.1695103
0003a0 81 e2 c1 3d 90 3d a7 bd 57 a3 e1 bc 4d d4 7a be
       0.0946703 -0.08166039 -0.027543707 -0.24495049
0003b0 a6 ed 68 3e f2 6d ab be 7b a0 13 be 70 57 f8 3d
       0.22746906 -0.3348232 -0.14416687 0.121260524
0003c0 10 1d 04 3d 6a b8 7a 3e 4a 1e 9f bd a6 5d fa bd
       0.03225428 0.24484411 -0.07769449 -0.12224893
0003d0 28 9c 84 bc b9 82 83 bd 8e 32 c4 bc e6 42 c4 bd
       -0.016187742 -0.06421418 -0.023949888 -0.09583072
0003e0 e8 69 3c bc c6 58 2f be 44 38 af 3c c5 6a aa 3e
       -0.011499859 -0.17123708 0.021389134 0.33284584
0003f0 57 ca ba be 47 5b 30 3c 10 d3 30 be 79 75 9a bc
       -0.36482498 0.01076395 -0.17268014 -0.018854843

lstm.bias_ih_l1 f4 [400]
000000 e5 09 23 3d 4e a4 30 3d d7 b8 07 be 09 0a 2c be
       0.039804358 0.043125443 -0.13254105 -0.16800703
000010 5f 3c 83 bd 27 24 69 be 9b e6 91 bd f7 fa 00 bd
       -0.06407999 -0.22767697 -0.07124063 -0.03148934
000020 1b a3 42 bd 91 b9 18 be 51 ac f7 bc 10 eb 14 3d
       -0.04751883 -0.14914538 -0.030233534 0.036356986
000030 15 63 77 3d a3 10 dd bb 7d 44 65 3d fe 79 07 3e
       0.060397226 -0.006746368 0.05597352 0.1323013
000040 3e 45 cc 3c fa 74 c6 3d 7c d0 95 3c f2 d2 ba 3d
       0.024935361 0.0969028 0.01828789 0.09122266
000050 9a 37 45 bd a5 b1 20 3d 2f 2c e9 3d 82 81 67 be
       -0.04814873 0.039231915 0.113853805 -0.22607997
000060 3b c2 e5 3d c4 93 b5 bd 09 03 9f 3d 88 c0 2e 3e
       0.11218687 -0.08866075 0.07764251 0.17065632
000070 63 c2 5e 3d f0 46 0a 3d 91 92 d2 3d 0d 5e 55 be
       0.0543846 0.033759058 0.102818616 -0.20836659
000080 0a 4a 44 be 72 29 87 3e 12 f0 b3 3c bc 86 00 3e
       -0.19168869 0.26398808 0.02196506 0.12551397
000090 56 b8 d6 bb 59 8c 9f bd 21 e5 38 bc a9 bb dc 3d
       -0.0065527363 -0.07790441 -0.011285097 0.10777981
0000a0 3c d4 fd 3c 0d 63 c2 bd 38 00 80 3a 06 14 c4 ba
       0.03098499 -0.09491549 0.000976569 -0.0014959581
0000b0 6c a0 8e bd d4 51 d4 3d 9e 8a 93 bd 00 5f 5d be
       -0.06964192 0.1036717 -0.072041735 -0.21618271
0000c0 5a 3b 39 be 3d 2e 40 3c 84 be 5f 3d 53 17 a6 be
       -0.18089047 0.011729774 0.05462505 -0.3243967
0000d0 e6 88 9c be ca 12 0b 3e ba 71 96 3d d2 e9 17 be
       -0.30573195 0.13581386 0.0734591 -0.14835289
0000e0 8b 1b 9e bc da c3 1a 3e 46 85 da 3d e6 ec 04 3e
       -0.019300243 0.15113774 0.10669951 0.12980995
0000f0 19 ee 8f 3d bb 0c 2c bd de f1 42 be 9e f9 93 3c
       0.070278354 -0.04200433 -0.19037578 0.018063363
000100 db fe f6 bd cb 51 61 bc 84 11 c5 be a4 96 47 bd
       -0.120603286 -0.013752411 -0.38489926 -0.048727646
000110 93 3e 3f 3d 92 dd 6e 3d 90 21 98 3d 4a de 33 be
       0.046690535 0.058316775 0.074282765 -0.17565265
000120 af e3 7e be bb 3e 1c be 22 e7 0e 3d 85 b5 4e 3e
       -0.24891542 -0.15258305 0.034888394 0.20186432
000130 67 8d 9e bc 56 87 28 bf 7d 49 36 be 6c 7f 20 3e
       -0.019354535 -0.65831506 -0.17801471 0.15673608
000140 3f 11 ff 3d 51 80 93 bd 1d 8b 96 bd 38 23 c8 be
       0.12454461 -0.07202209 -0.073507525 -0.3908937
000150 6a 33 aa 3c 06 02 29 be bc ee bc bd b7 6d eb 3d
       0.02077647 -0.16504678 -0.092252225 0.11495536
000160 4a bd c3 bb f8 4f 40 be 6e 6d f4 be ac 21 98 bd
       -0.0059734927 -0.18780506 -0.47739738 -0.074282974
000170 b0 34 96 3d 3d 0a 52 3e 9d 70 46 be b0 bf dd bc
       0.07334268 0.20511718 -0.19378896 -0.027068943
000180 90 50 38 bd 3d a3 89 3d d1 e1 61 bd 92 91 bd be
       -0.044998705 0.06720588 -0.055146996 -0.37025124
000190 38 ee fb 3e 81 9e 9a 3e aa d9 12 3f 3e 0c fb 3e
       0.49205184 0.30199054 0.5736338 0.49032778
0001a0 05 2e a2 3d a3 d5 03 3f 83 85 3d 3e 0d a0 48 3e
       0.07918934 0.5149786 0.18507962 0.19592305
0001b0 f8 f2 c3 3d f7 55 39 3e 85 e7 61 3e db 3b f8 3c
       0.09567827 0.18099199 0.22060974 0.030301979
0001c0 8d 52 15 3e d3 fe 30 3e b2 7e c5 3e 2b 94 98 3e
       0.14582272 0.17284708 0.38573223 0.29800543
0001d0 52 27 f9 3e 1d 51 c0 3d f4 74 2b 3e 86 22 31 3e
       0.48662812 0.09390471 0.16743833 0.17298326
0001e0 5f ce c4 3e 63 62 e4 3d 12 1c 19 3e 1d 20 d3 3e
       0.384387 0.11151578 0.14952114 0.41235438
0001f0 bc fd 2a 3f b6 e6 18 3f 9e 74 7b 3e 24 8f 03 3e
       0.6679342 0.59727037 0.24556205 0.12847573
000200 50 ab 71 3e 07 95 37 3e a3 5e cb 3e fa ad 06 3f
       0.23600507 0.17927943 0.3972064 0.5260922
000210 d7 c8 e3 3e fb a7 3f 3e 6b d6 12 3e f8 50 b6 3e
       0.44489166 0.18716423 0.14339606 0.3560865
000220 1e 4f 99 3c 0b 5f 47 3f 42 8f 06 3f 28 a7 5c 3e
       0.018714484 0.778794 0.52562344 0.2154814
000230 ff 56 24 3e 32 96 d4 3e 84 d9 32 3e 62 e3 ae 3e
       0.16048811 0.4152084 0.17465788 0.34157854
000240 fc f0 1e 3e 7d 19 fd 3d 98 8a cb 3d 19 45 8c 3e
       0.15521616 0.12358377 0.09938544 0.27396467
000250 02 20 a4 3e 33 06 7b 3e 06 7c 30 3e d0 0e cf 3e
       0.3205567 0.24514084 0.17234811 0.4044099
000260 1a c6 1e 3f 21 c5 72 3e 67 99 f7 3e 48 50 5e 3e
       0.6202103 0.23708011 0.48359224 0.21710312
000270 1d bb ad 3e dd a0 09 3e b7 48 f1 3d 56 65 05 3e
       0.3393182 0.1344027 0.117814474 0.13026938
000280 86 3f 52 3d 98 87 16 3e 37 09 ba 3e f0 93 77 3e
       0.051330112 0.14700162 0.36335155 0.24177527
000290 b9 9d 42 3e af 8e 63 3e 74 9d 18 3f 67 42 81 3e
       0.19005479 0.22222398 0.59615254 0.25245973
0002a0 24 11 8d 3c b9 47 92 3c e6 b4 c8 3d c9 db 03 3f
       0.017220087 0.017856466 0.09800129 0.5150724
0002b0 0f b9 41 3f aa bc 74 3e 9b 97 10 3e 3f bd 0d 3e
       0.75673 0.23900095 0.14120333 0.13841723
0002c0 bb d0 f5 3e 63 4d 33 3f 09 68 e7 3e 12 3c 99 3e
       0.4801081 0.7003996 0.4519656 0.29928643
0002d0 83 60 75 3e 8d c2 03 3d f7 4e 91 3e 99 62 21 3f
       0.23962598 0.03216796 0.28380558 0.63041073
0002e0 03 76 7f 3e 4c 9e 07 3f 32 13 e3 3e ae cb 9f 3d
       0.24947362 0.52975917 0.44350582 0.07802521
0002f0 01 1c 46 3e 46 16 22 3d 84 d4 29 3f ab 75 ad 3e
       0.1934662 0.039572023 0.663399 0.33878836
000300 89 39 2e 3e dd 65 09 3d fa 7a 1b 3f f0 fc 44 3e
       0.17014135 0.03354441 0.6073452 0.19237113
000310 1f e9 c6 3e 5e 00 c7 3d 0b aa 3a 3e 86 2e f4 3e
       0.38849732 0.09716867 0.18228929 0.47691745
000320 8e c4 63 be a2 a1 11 3d e2 35 d9 3e e8 2e 8f 3e
       -0.22242948 0.035554536 0.42423922 0.27965474
000330 46 cf 83 3c 46 bb e7 be 29 f3 d9 bd e5 9c 12 3d
       0.016090047 -0.45260066 -0.10642082 0.035794158
000340 56 bd 98 3d 90 00 64 be df 9d 00 3d b2 0a 65 be
       0.07457988 -0.2226584 0.031400558 -0.22367361
000350 9a c6 8d 3e e2 61 20 3e a3 cd 4e bd 53 f5 91 be
       0.27690583 0.1566234 -0.05048908 -0.2850748
000360 a5 4b f3 bd 80 3b 14 3e be 4a a7 3d e4 6d e9 bd
       -0.118796624 0.14475822 0.08168553 -0.11397913
000370 7a 71 9a be e2 db 6b 3d f5 7d fc bd 7f b3 ad be
       -0.301647 0.057582743 -0.12328712 -0.33926007
000380 1a 27 0e 3f f5 c5 86 be 58 04 32 3d 9c 83 49 3e
       0.55528414 -0.26322904 0.043461174 0.19679111
000390 8c 37 8d be bc 95 85 3d 6d c3 5a be d2 4a 57 3d
       -0.2758144 0.065227 -0.21363612 0.05256159
0003a0 a4 03 bc bd b4 c1 12 be 0f a0 b3 3d 95 5c b6 3c
       -0.09180382 -0.14331704 0.08770763 0.022260943
0003b0 23 3d 3d be 21 94 71 be 95 60 43 3e 21 17 c2 3e
       -0.18480353 -0.23591663 0.19079812 0.3790827
0003c0 ca 13 88 be bf 34 d9 3e f7 45 12 3e 00 a6 ad 3c
       -0.26577598 0.42423055 0.14284502 0.021197319
0003d0 4a 20 06 3d 54 4f 64 3e ad 5f ca 3d 85 d7 56 3e
       0.032745637 0.22295886 0.0988153 0.20980652
0003e0 34 45 4a be 13 b5 98 be fa ff 20 3e 46 16 db bd
       -0.19752961 -0.2982565 0.15722647 -0.10697608
0003f0 1f 92 11 3f ce 28 29 3d 81 2c ff 3d 74 f2 0f 3e
       0.5686359 0.04129868 0.1245966 0.14057332
