results/torch_linear_model.pt (torch, 29907 bytes, 2 tensors)

linear_layer.weight f4 [9, 784]
00000000: db19 093d 3114 2e3d 7e61 ab3c 32b3 6c3c
00000010: a944 923c 2266 153d 6ffe 913c b938 223c
00000020: 782c 633c a966 703c 9f39 ae3c a25c 6e3c
00000030: fd48 3a3c 1fdc bf3c 57d7 1d3c f418 443c
00000040: 62fb bc3c f92f bc3c 96cb 1e3c 3e52 123c
00000050: 9521 1a3b ddcc da3c aa2d 863c d82e 9a3c
00000060: 9978 903c 2dd9 b03c 9b29 f63c e82f 443d
00000070: d251 1e3d b13c c23c 7e22 3e3c 310c 793c
00000080: 14a8 213c 3e67 483c 0cb0 f73b ace1 853b
00000090: b668 5d3c 2b38 033c 66af 193c f70e 003c
000000a0: 89dd 0d3c 7bc0 a73c b730 4f3c 807a 473c
000000b0: a99d 253c 67b4 4b3c cee7 44bb c6d3 023b
000000c0: e6fa 4bbb 5b8a d03b b44c 2b3c 8353 4f3c
000000d0: 36d5 133c 95e9 eb39 ec71 553c 6c7e 233d
000000e0: d026 1a3d d670 bd3c d4dd ca3c 44df e03b
000000f0: 0915 663c 4050 543c 6197 6fb9 ebe0 a1bb
00000100: 8812 2c3b 400c c03b 19b1 943b 3112 703c
00000110: bdbb 833c 792e 4f3c 6326 423c 7210 c53a
00000120: 8600 653c ccf9 7b3c 150e 553c 8daa 0b3c
00000130: fd01 f13b bf8d db3c 24c6 3e3c ecf2 583c
00000140: a7fb 3c3c a7e7 a43c e678 b73c 64c2 f93c
00000150: 33bb e33c 4bb1 6b3c 4599 6b3c 4a22 173c
00000160: 4252 643c 7b59 9e3c 1f5a 1e3c ed34 a33b
00000170: 3407 07ba 935a e6bb e363 233c 8512 983c
00000180: 62fa 9c3c 21c2 e83b a43f 143c cdb7 863c
00000190: b5f7 003c 27b8 083c 4a24 4d3b debb cd3b
000001a0: c382 583a 16d9 a73c 590d 913c 85bf c53b
000001b0: e3dc 193c 7611 813c 1295 923b 16ee 303c
000001c0: c6a8 de3c 61a9 563c 353f 9f3c d014 a339
000001d0: 4c7b 2b3c f9c0 193c 2c1c 233c 8c2c be3b
000001e0: fb69 003c 5805 5c3c d98e d53b 17a7 993c
000001f0: 0f69 ec3b 3bad b13b 060b d33b 2582 813c
00000200: 64a9 003c 52ea ee3a c67a b53b 3ddf 013c
00000210: 7a1c 833a c42e ce3b ef10 903c 83bf 343c
00000220: ea6c 363c 7e24 293c fc75 a03c a39d 6c3c
00000230: ceb9 cc3c 1dd0 f13b 6fe2 273c 8f40 a63a
00000240: c679 ecbb 2c10 2a3c 7052 383c 317f 333c
00000250: 13f7 a13c 8273 543c 88eb 633b b3a8 693c
00000260: e73f 953a 39e2 e33b 7124 823b 5f18 583b
00000270: 1117 473c 91f7 00bc 48f4 e4b9 0c5b 353c
00000280: 5531 043c 878b 0e3c 282f a63c b236 483c
00000290: c653 903c 6420 533c f20e 393c 22ab a13c
000002a0: 5cce e53b 60a9 6c3c f2a3 993c ccc4 773b
000002b0: 7f83 0b3c 18c4 2e3c bdc5 7c3c 8c25 d5bb
000002c0: 025b 623a 481e 043c 26fb af3b 3688 033c
000002d0: e96a b43b e45c 2e3b ed3b 4c3b 678a 6d3c
000002e0: d3f3 c83b cff3 d23b 6a7d d43b 80a1 063b
000002f0: 4054 3f3c c1ee 863c 6a14 3d3b cd1e c33b
00000300: 5bd6 243b f0f6 983b 8554 8d3b 309e ed3c
00000310: 5f78 423c 1d92 573c ced4 983c 9823 543c
00000320: 7055 983c fb3d 203c eff4 e23b fe4f 5abc
00000330: 8436 bebb 3308 aa3b 8bb5 4bbb 76af 063c
00000340: 3e03 5e3c 276d fa3b 206a c93b 8432 4c3c
00000350: e054 0c3b 2492 d9bb db84 b33b 70a8 f0b8
00000360: f59f fe3b acee ea3b c46b dd3a cc96 e23b
00000370: 863c a73b cba2 ff3b d17a c03c 2258 233d
00000380: 6600 5a3c 29ca 8c3c eb6d 0f3c 8943 7bbb
00000390: 737e df3b dd06 f93b 1c80 d3bb 9eba 54bc
000003a0: 7600 2abb 40e0 06ba 75ae ad3a 0fd4 f3bb
000003b0: 4be2 343c 5261 d33b 3536 3f3c e139 8eb9
000003c0: 042d efbb f72a d5bb b3f9 1239 92ad 27ba
000003d0: bdd9 b93b d604 0639 ae13 803c a32d 193c
000003e0: 0945 edb8 0c70 8dbb 9069 543c 8377 d63c
000003f0: ba15 263c ab3d 983a 0a5a 873b 39d6 13b9
0.033471923 0.042499725 0.020920511 0.01444702 0.017855005 0.036474355 0.017821519 0.009901219
0.013865583 0.014672914 0.02126771 0.014548453 0.011369941 0.023420392 0.009633861 0.01196884
0.023069087 0.022972094 0.009692093 0.008930741 0.0023518552 0.026709015 0.016379196 0.018821165
0.01763563 0.021587932 0.030049136 0.04789725 0.03865225 0.02371058 0.011604903 0.015200661
0.009866733 0.012231646 0.007558828 0.00408574 0.013513735 0.008008997 0.009380197 0.007816068
0.008658775 0.020477524 0.012645892 0.012175202 0.01010839 0.012433148 -0.0030045393 0.0019962653
-0.003112489 0.0063641495 0.010455299 0.012654188 0.009023001 0.00044996725 0.013027649 0.039915487
0.03763467 0.023125093 0.024763979 0.006862553 0.014043101 0.012958586 -0.00022849209 -0.0049401424
0.0026256163 0.0058608353 0.0045377132 0.014652775 0.016080732 0.012645357 0.011849972 0.0015034808
0.013977176 0.01537938 0.013003846 0.008524549 0.0073549733 0.026800988 0.01164392 0.013241511
0.011534608 0.020129992 0.022396516 0.0304882 0.027799224 0.014385532 0.014379804 0.009224484
0.013935627 0.019329777 0.009665041 0.0049806745 -0.00051509147 -0.0070298403 0.009972545 0.018563518
0.01916236 0.00710322 0.009048376 0.016445065 0.007871558 0.008344687 0.0031302148 0.006278499
0.0008259231 0.020489257 0.01770656 0.006034794 0.009391042 0.015755396 0.004473337 0.010798952
0.027180087 0.0131019065 0.01943932 0.0003110529 0.010466408 0.009384387 0.009955447 0.0058036502
0.007837768 0.013429008 0.006517273 0.018756432 0.0072146724 0.005422262 0.006440523 0.015809128
0.007852886 0.0018227792 0.0055383174 0.007926759 0.0010002994 0.006292196 0.0175862 0.011031988
0.011134366 0.010323642 0.01958751 0.01444188 0.024990942 0.0073795454 0.010246857 0.0012684035
-0.007216665 0.010379832 0.011250123 0.010955618 0.019771134 0.012966992 0.0034777839 0.014261412
0.0011386842 0.006954458 0.0039716293 0.003297351 0.012151496 -0.007871524 -0.00043669553 0.011069071
0.008068402 0.008700258 0.020286158 0.012220072 0.017618071 0.0128861405 0.011295067 0.019734923
0.0070131253 0.014444679 0.018754933 0.003780651 0.008515238 0.01066687 0.015428004 -0.00650472
0.0008634777 0.00806386 0.0053705154 0.008028081 0.0055059087 0.002660566 0.0031163648 0.01449833
0.0061325817 0.0064377557 0.006484677 0.002054304 0.011677802 0.016471269 0.002885128 0.0059545995
0.002515218 0.004668109 0.004313054 0.029006094 0.011869519 0.013157395 0.01865616 0.012947939
0.018595427 0.009780402 0.006926171 -0.013324736 -0.0058048386 0.0051889657 -0.003108355 0.008220544
0.013550578 0.0076424065 0.0061466843 0.012463216 0.0021412894 -0.006639736 0.005478484 -0.00011475466
0.007770533 0.007169565 0.0016893079 0.006914949 0.0051036505 0.007801389 0.023496063 0.039878972
0.013305759 0.017186241 0.008754234 -0.0038339815 0.006820494 0.007599695 -0.006454481 -0.012983946
-0.0025940216 -0.000514511 0.0013250845 -0.007441051 0.011040281 0.0064508105 0.011670639 -0.00027127474
-0.0072990675 -0.006505366 0.00014016665 -0.00063964084 0.0056717084 0.00012781037 0.015634384 0.00934926
-0.000113138994 -0.0043163355 0.012964621 0.026180035 0.010137016 0.0011615058 0.0041306065 -0.00014098817

linear_layer.bias f4 [9]
00000000: 561a 08c0 6ec7 3b3f eba5 cd3e 8c81 173f
00000010: 6e76 2bbf e8bd 483e 07f2 3a3d 234b ce3c
00000020: dcef 4d3f
-2.1266074 0.7335118 0.40165648 0.5918205 -0.66977584 0.19603693 0.04564097 0.025182312
0.8044412
