results/torch_1L_lstm_model.pt (torch, 214455 bytes, 6 tensors)

lstm.weight_ih_l0 f4 [400, 28]
0.068377614 0.014313608 0.112091996 -0.07923036 0.019247547 0.073701985 0.10341843 0.16723838
0.12624173 0.0019579125 0.15181348 0.19093443 -0.0014331104 -0.019429335 0.021116387 0.10891046
0.113739744 0.10134298 -0.032861397 0.08743846 -0.062089045 -0.0011222966 0.012601497 -0.10810014
-0.18295187 -0.05553797 -0.024305161 -0.06609807 0.20086563 -0.0037288389 -0.17437576 0.02123321
0.12988733 0.10575135 0.25849816 0.5612597 0.43695965 0.14771155 0.24150342 0.16777119
0.14095904 0.13501167 0.09897644 -0.07912634 -0.034512777 0.2106341 -0.0061501022 0.12626876
0.011539141 0.12402654 0.07667803 -0.029127082 -0.15411395 -0.076936066 0.05834972 0.06610374
-0.035733633 -0.008214574 -0.06959717 -0.027828963 -0.075788535 -0.09505237 -0.085807234 -0.03482926
-0.043934476 0.01922754 0.04446215 0.14999071 0.10581187 0.11205631 0.13364907 0.08184919
0.060591973 0.13305683 0.0036992752 -0.044059835 -0.016456638 -0.021959003 0.077763535 0.08764389
0.08789417 0.09927859 0.115962744 0.12976775 -0.04514998 0.012724993 0.11417568 0.012247899
0.101796076 -0.022292959 -0.060210478 0.0710271 0.06811296 0.19772178 0.20896117 0.28546613
0.47198105 0.5891295 0.30585757 0.082346186 0.031054735 0.09929067 0.16859291 0.1494723
0.052408885 -0.06847233 0.08089813 0.12192905 0.15942362 0.20425594 0.06766637 0.11430718
-0.02475556 0.04665377 0.0701014 -0.036330074 -0.014064434 -0.016459327 -0.00076132244 -0.00833883
-0.10963699 -0.10052371 -0.028946426 0.05369042 0.019655565 -0.08036711 -0.017743504 0.01768954
-0.017444586 0.025993586 0.009511739 -0.116138384 0.040510282 -0.021970041 -0.04758043 0.037212256
0.070882924 -0.005987838 0.005631918 0.06886776 0.062188096 0.11328955 -0.05722162 -0.100943126
0.080698 -0.061442062 0.005591422 0.052318294 -0.08951572 0.047271073 -0.09244785 0.083468914
0.06487266 0.14794609 -0.038261615 -0.008210168 -0.089814365 -0.11112274 0.013828891 -0.081079856
-0.0030706052 0.030257452 0.017521981 0.009480448 0.025566364 0.052056864 -0.05181652 0.051062103
-0.071700186 0.03760405 -0.05544258 0.020128194 -0.019784436 -0.0043475074 -0.075901836 0.028468383
-0.013356601 -0.109183386 -0.003832839 -0.0492389 -0.022961032 -0.0647502 -0.016561722 -0.11335819
-0.06288586 -0.08201796 0.073843114 0.07917797 -0.111095615 0.07603487 0.04028199 0.069234625
-0.101892635 -0.042339068 0.078353845 -0.101538256 -0.031190824 0.039470855 -0.0060737683 0.06191448
0.096465066 0.040614866 0.09342972 -0.023795415 -0.07585702 0.037153468 0.09615286 0.07029952
-0.058085036 -0.06275953 0.006060807 0.16001692 0.041659035 -0.020195752 0.012347738 -0.040624317
0.13103835 0.017597627 -0.050955486 0.0390812 0.014906358 0.0025279764 -0.018770795 0.09581062
-0.06288703 -0.06043957 0.10438678 0.10068685 -0.0597837 0.060485918 -0.03164865 0.10800402
0.019584684 -0.005881411 0.12630878 0.065474205 -0.036424074 -0.07297977 0.07583108 -0.14474961
-0.007178761 -0.054811805 -0.078028664 -0.14956562 -0.055525117 -0.040545736 -0.11114712 0.00070137094
0.07940802 0.0071171112 -0.09733994 -0.059811395 0.16609593 -0.08264959 -0.18117322 -0.058647696
00000000: 9009 8c3d a083 6a3c 7d90 e53d 8743 a2bd
00000010: 08ad 9d3c 11f1 963d 0bcd d33d 8a40 2b3e
00000020: 8345 013e 5250 003b fe74 1b3e 5184 433e
00000030: 35d7 bbba 452a 9fbc 46fc ac3c 720c df3d
00000040: 62f0 e83d e98c cf3d ac99 06bd ef12 b33d
00000050: 1551 7ebd 061a 93ba 8276 4e3c 9b63 ddbd
00000060: bc57 3bbe c87b 63bd 9e1b c7bc 6d5e 87bd
00000070: b8af 4d3e 895f 74bb 8f8f 32be 45f1 ad3c
00000080: 2f01 053e 2a94 d83d df59 843e b7ae 0f3f
00000090: 2db9 df3e b241 173e ac4c 773e 36cc 2b3e
000000a0: 9157 103e 8040 0a3e 29b4 ca3d fe0c a2bd
000000b0: 455d 0dbd 77b0 573e cc86 c9bb 994c 013e
000000c0: aa0e 3d3c a001 fe3d 5f09 9d3d eb9b eebc
000000d0: 0cd0 1dbe a890 9dbd 1e00 6f3d 6661 873d
000000e0: 6e5d 12bd 6c96 06bc f688 8ebd 91f9 e3bc
000000f0: 0537 9bbd d1aa c2bd b4bb afbd 20a9 0ebd
00000100: a3f4 33bd 1383 9d3c f21d 363d 2a97 193e
00000110: e5b3 d83d c77d e53d 4ddb 083e 8ca0 a73d
00000120: 4a2f 783d 0d40 083e 8a6f 723b 1678 34bd
00000130: 12d0 86bc 5ee3 b3bc 7d42 9f3d a47e b33d
00000140: dc01 b43d 9352 cb3d e07d ed3d d6e1 043e
00000150: 2fef 38bd 7d7c 503c f0d4 e93d 69ab 483c
00000160: 767a d03d b99f b6bc 439f 76bd a876 913d
00000170: cf7e 8b3d 9477 4a3e ebf9 553e 9e28 923e
00000180: 80a7 f13e 31d1 163f 5d99 9c3e 1ea5 a83d
00000190: 8066 fe3c e858 cb3d 9fa3 2c3e 440f 193e
000001a0: b3aa 563d 393b 8cbd ebad a53d f0b5 f93d
000001b0: f23f 233e 7828 513e aa94 8a3d e219 ea3d
000001c0: 2ccc cabc 0618 3f3d 5391 8f3d d8ce 14bd
000001d0: 836e 66bc b6d5 86bc 7c93 47ba 979f 08bc
000001e0: 5c89 e0bd 60df cdbd 0e21 edbc 7cea 5b3d
000001f0: b504 a13c 8397 a4bd d35a 91bc a7e9 903c
00000200: f3e7 8ebc 80f0 d43c 20d7 1b3c f6d9 edbd
00000210: 1cee 253d 84fa b3bc b2e3 42bd e16b 183d
00000220: 112b 913d a035 c4bb f48b b83b 8a0a 8d3d
00000230: f2b8 7e3d 5a04 e83d 3861 6abd 45bb cebd
00000240: fe44 a53d acaa 7bbd 3f38 b73b b54b 563d
00000250: 0554 b7bd 509f 413d 4c55 bdbd c0f1 aa3d
00000260: f5db 843d 2e7f 173e 36b8 1cbd f183 06bc
00000270: 98f0 b7bd 5294 e3bd 9392 623c 320d a6bd
00000280: 353c 49bb 7ade f73c 428a 8f3c e253 1b3c
00000290: 8d70 d13c 9439 553d 8f3d 54bd 7f26 513d
000002a0: 8cd7 92bd b406 1a3d c217 63bd e2e3 a43c
000002b0: f812 a2bc 8975 8ebb 6c72 9bbd 8736 e93c
000002c0: a5d5 5abc 8a9b dfbd 5e30 7bbb bbae 49bd
000002d0: c618 bcbc c19b 84bd 73ac 87bc 5728 e8bd
000002e0: 4dca 80bd 08f9 a7bd 0f3b 973d 0f28 a23d
000002f0: 1986 e3bd 2cb8 9b3d bafe 243d e2ca 8d3d
00000300: 16ad d0bd bb6b 2dbd fb77 a03d 4af3 cfbd
00000310: e683 ffbc 31ac 213d 7606 c7bb 0a9a 7d3d
00000320: 7a8f c53d c65b 263d 1558 bf3d 9aee c2bc
00000330: ed5a 9bbd 3c2e 183d caeb c43d 32f9 8f3d
00000340: 93ea 6dbd 1288 80bd bc99 c63b 7adb 233e
00000350: aaa2 2a3d 9071 a5bc 2b4e 4a3c af65 26bd
00000360: eb2e 063e e628 903c b3b6 50bd 9c13 203d
00000370: cc39 743c 68ac 253b 36c5 99bc 5c38 c43d
00000380: eaca 80bd 7c8f 77bd bcc8 d53d e834 ce3d
00000390: c1df 74bd 15c0 773d 04a2 01bd 3631 dd3d
000003a0: 0f70 a03c dab8 c0bb 1757 013e 5717 863d
000003b0: 6931 15bd 6b76 95bd 534d 9b3d 3e39 14be
000003c0: d03b ebbb 5882 60bd 7ecd 9fbd bb27 19be
000003d0: 4e6e 63bd 4913 26bd 1aa1 e3bd 35dc 373a
000003e0: aca0 a23d a836 e93b 2a5a c7bd cbfc 74bd
000003f0: 0d15 2a3e 3044 a9bd 7985 39be 9138 70bd

lstm.weight_hh_l0 f4 [400, 100]
0.19045138 -0.021936867 -0.056589898 0.15938337 -0.021770759 0.084348604 0.057002306 -0.10744475
0.040937264 -0.088717446 -0.059787907 -0.052616503 0.046258844 0.042197812 0.046624668 0.0031353813
-0.039540455 -0.11370782 -0.014812553 -0.041290935 -0.06377096 -0.023295075 -0.11353912 0.12770566
-0.14685751 0.056476932 0.0021122645 -0.1213486 0.1333249 0.019607704 0.022729395 0.0002933059
0.030087065 0.052308727 -0.057985753 0.033466816 -0.06832881 0.032252334 -0.05459058 -0.06953172
-0.0888853 0.09274013 -0.0010874482 0.075432025 0.0645535 0.07575313 -0.10641867 -0.11638672
0.116664216 0.125024 0.047024537 0.042095374 0.1161924 -0.13735092 0.11114898 -0.12673107
-0.078374095 0.07463427 0.026663909 -0.00042239678 0.12805595 -0.09405635 0.13814092 0.07130428
-0.023504652 0.068748094 -0.2697303 0.07848081 0.051599544 -0.07647795 -0.05007596 0.11088476
-0.085869476 -0.03337994 0.005956695 -0.03857877 -0.120296724 -0.11235205 -0.047596782 -0.004328458
0.07484907 0.079077736 0.0042465082 0.008502437 0.058474895 -0.0130388895 -0.033287134 0.00981379
0.036256436 -0.10770584 0.14800103 0.10338479 0.08649384 -0.05352169 -0.012519696 -0.03140807
0.05397109 -0.025551444 -0.0134102795 0.01678373 0.010080397 -0.33504578 0.015614234 0.12991518
0.08868607 0.03616548 0.008294672 -0.008764319 0.013060113 0.12929536 -0.25988433 -0.10268967
-0.04494431 -0.022744427 0.11064696 -0.018007789 -0.16023615 0.037974246 0.09588009 -0.0008372037
-0.0101252785 0.16318911 0.1429264 0.109938525 0.041639663 0.08009511 -0.09330651 0.065687455
0.076420404 0.015134188 0.03278923 -0.019827887 0.05638174 0.03237964 -0.035697795 0.033917416
-0.008630532 -0.06839904 0.0555283 -0.07177455 0.039216023 0.117624216 -0.011326222 0.30029276
0.15664905 0.082380675 0.06429534 0.1582806 0.014306683 -0.02997567 0.1173127 -0.085020415
0.12136675 -0.1012819 0.061561298 0.037069462 -0.16124396 0.049507372 -0.07595771 0.05707775
0.03529576 0.08200726 -0.06584486 0.07291899 0.092194915 -0.19934848 -0.13184649 0.03674138
0.12444475 -0.0022615003 -0.014107587 -0.054484095 0.1183409 0.07313248 0.080945805 0.05927112
-0.030549034 -0.09651457 0.048662905 -0.045669414 -0.109167546 -0.071108155 0.024736054 -0.04074447
-0.13445415 -0.01831351 0.02367563 0.035250206 0.0037497084 -0.01965352 -0.410519 -0.009389467
-0.036147986 -0.09144437 -0.09870278 0.094164126 -0.07827167 -0.07789144 0.039303336 0.054861274
-0.067582406 0.005988119 -0.0137040885 0.13034624 0.014221281 -0.016846059 0.07519711 -0.06741589
0.088852465 -0.071709864 0.010974427 -0.053644426 -0.021494344 0.099035375 0.053323604 -0.015256428
-0.004567391 -0.03531443 0.07385194 -0.044630118 -0.08205184 -0.11543672 -0.050768435 -0.0008436907
-0.042268276 -0.08330745 -0.069980145 0.032773927 0.10619012 -0.06202293 -0.04633664 -0.012786609
-0.081244506 -0.040132567 -0.05096098 0.09036489 0.055573944 -0.011276437 -0.1032642 0.05264746
-0.0780195 0.0706052 0.10555439 -0.1713934 -0.023249313 0.09202321 -0.055612475 0.00047837564
-0.066271305 -0.00011581526 -0.084000334 -0.044223 -0.012886321 0.025204968 0.009656437 -0.080803566
00000000: b005 433e f2b4 b3bc cfca 67bd 6535 233e
00000010: 9758 b2bc f6be ac3d 407b 693d fe0b dcbd
00000020: d5ad 273d 7eb1 b5bd 2ae4 74bd 6784 57bd
00000030: ea79 3d3d 9dd7 2c3d 82f9 3e3d f87a 4d3b
00000040: 2cf5 21bd a5df e8bd 5ab0 72bc af20 29bd
00000050: 599a 82bd 50d5 bebc 3387 e8bd 46c5 023e
00000060: d161 16be 5b54 673d eb6d 0a3b 9d85 f8bd
00000070: 5386 083e 56a0 a03c ff32 ba3c dac6 9939
00000080: 2679 f63c ad41 563d 7882 6dbd 8014 093d
00000090: faef 8bbd 061b 043d 5f9a 5fbd a566 8ebd
000000a0: 7f09 b6bd 8aee bd3d b588 8eba 1b7c 9a3d
000000b0: a034 843d 7524 9b3d 08f2 d9bd 295c eebd
000000c0: a6ed ee3d 4b06 003e cd9c 403d 336c 2c3d
000000d0: 48f6 ed3d b8a5 0cbe 14a2 e33d cac5 01be
000000e0: 9982 a0bd dad9 983d 456e da3c 2375 ddb9
000000f0: 1921 033e 9ea0 c0bd d074 0d3e fa07 923d
00000100: d48c c0bc cdcb 8c3d 171a 8abe 8cba a03d
00000110: 0b5a 533d 79a0 9cbd 731c 4dbd 8d17 e33d
00000120: 56dc afbd 67b9 08bd 6130 c33b c604 1ebd
00000130: 215e f6bd d518 e6bd d8f4 42bd bdd5 8dbb
00000140: 784a 993d 82f3 a13d 4b26 8b3b ce4d 0b3c
00000150: 5f83 6f3d 11a1 55bc 1758 08bd 05ca 203c
00000160: a181 143d e194 dcbd 958d 173e 68bb d33d
00000170: af23 b13d 8f39 5bbd 691f 4dbc c0a5 00bd
00000180: ca10 5d3d 4351 d1bc cab6 5bbc 087e 893c
00000190: 4028 253c 1f8b abbe d8d2 7f3c 7c08 053e
000001a0: 0ba1 b53d 4122 143d 60e6 073c 3898 0fbc
000001b0: 16fa 553c 0166 043e 8f0f 85be f64e d2bd
000001c0: 8617 38bd 8552 babc e09a e23d 1285 93bc
000001d0: f214 24be e28a 1b3d c85c c43d ca77 5bba
000001e0: 7fe4 25bc 0c1b 273e 4c5b 123e 7327 e13d
000001f0: 5a8e 2a3d e808 a43d 7c17 bfbd 2587 863d
00000200: 4d82 9c3d 63f5 773c 004e 063d 186e a2bc
00000210: 8af0 663d 83a0 043d da37 12bd fdec 0a3d
00000220: 1367 0dbc cc14 8cbd a571 633d 89fe 92bd
00000230: fba0 203d f7e4 f03d 9e91 39bc f9bf 993e
00000240: 9c68 203e 33b7 a83d 46ad 833d 4f14 223e
00000250: 9466 6a3c 898f f5bc a441 f03d 2f1f aebd
00000260: 218f f83d e36c cfbd b327 7c3d 26d6 173d
00000270: 231d 25be 3ec8 4a3d b78f 9bbd 5cca 693d
00000280: 4992 103d 6cf3 a73d acd9 86bd 8d56 953d
00000290: b0d0 bc3d 0222 4cbe c402 07be 217e 163d
000002a0: e4dc fe3d ae35 14bb 8223 67bc b72a 5fbd
000002b0: b75c f23d 7bc6 953d eac6 a53d 46c6 723d
000002c0: f841 fabc 6ea9 c5bd c152 473d da0f 3bbd
000002d0: 3c93 dfbd 27a1 91bd 44a3 ca3c ace3 26bd
000002e0: 59ae 09be 3706 96bc 65f3 c13c 8562 103d
000002f0: abbd 753b 6b00 a1bc 8c2f d2be 47d6 19bc
00000300: e90f 14bd 3047 bbbd af24 cabd 1fd9 c03d
00000310: e64c a0bd 8c85 9fbd 89fc 203d 37b6 603d
00000320: a568 8abd fc37 c43b 1d87 60bc 7c79 053e
00000330: 6000 693c bf00 8abc f100 9a3d 5811 8abd
00000340: 48f8 b53d 9fdc 92bd 15ce 333c 42ba 5bbd
00000350: e814 b0bc 0fd3 ca3d da69 5a3d 19f6 79bc
00000360: 0daa 95bb dda5 10bd b03f 973d 12ce 36bd
00000370: cc0a a8bd 166a ecbd 90f2 4fbd 202b 5dba
00000380: 8021 2dbd 199d aabd c051 8fbd f43d 063d
00000390: 357a d93d c10b 7ebd 7dcb 3dbd ed7e 51bc
000003a0: 8563 a6bd 0c62 24bd 76bc 50bd 3a11 b93d
000003b0: 81a1 633d cec0 38bc 2e7c d3bd dda4 573d
000003c0: b0c8 9fbd 7699 903d e62c d83d c081 2fbe
000003d0: 5875 bebc aa76 bc3d e8c9 63bd 7ece fa39
000003e0: 40b9 87bd d8e1 f2b8 5e08 acbd 2d23 35bd
000003f0: 2621 53bc a67a ce3c 0836 1e3c 577c a5bd

lstm.bias_ih_l0 f4 [400]
0.07149067 -0.15897463 0.05609233 0.4106843 -0.029810423 -0.0007309853 0.017123131 0.006301027
0.14671688 0.17955467 0.44157654 0.16436188 -0.06813359 -0.18569143 -0.10295664 0.055415057
0.036433354 0.025162939 0.006539659 -0.19549103 -0.05026854 0.15574999 0.25948265 -0.018580953
-0.048038404 0.043849666 -0.10153321 -0.048415344 0.0827391 0.12010097 0.07878613 0.06026365
0.1699 0.0561006 0.09247721 0.16499725 -0.028805168 0.079949304 -0.015372011 -0.013852445
0.010098554 0.116993144 0.002983543 0.4626159 0.082560554 0.14106634 -0.06097828 0.041667923
0.096628 0.07258612 0.08163404 -0.0051199496 -0.15245138 -0.6581465 -0.09291426 -0.089052886
0.008257992 -0.04842505 -0.031999905 0.36897972 -0.16665177 0.23586266 -0.044003922 -0.09348687
0.01772436 -0.23241375 0.3759846 0.16927406 -0.013607667 -0.006470175 0.0011826461 -0.021490136
0.31819147 0.10103893 0.053494185 0.3383487 0.043246668 0.0030151312 0.05172795 -0.13689142
-0.05364842 -0.14733559 0.11191623 -0.035856407 -0.072133824 0.09865252 -0.15279189 0.12285841
0.11261386 -0.020702105 0.56631184 0.08850599 0.085380234 0.033103395 0.37333754 0.023914782
-0.04652221 0.19131951 -0.082010366 -0.36244887 -0.06041144 0.10814405 0.23019944 -0.26024595
0.22841664 0.24954788 0.015006698 0.07387922 0.12335929 0.026115015 -0.3208979 0.14359117
0.37201488 0.087242626 0.12742804 0.0031462368 0.2707159 0.21072213 0.16019419 -0.13638139
0.13509804 0.18182074 -0.081472315 0.21246062 0.25729808 0.27537668 0.4133209 0.22110945
0.050674308 0.020318136 0.25114337 0.23339608 0.057611465 0.17261931 0.12127574 0.021529937
0.19007145 0.24310261 0.09967377 0.13318424 0.30507696 0.30883318 0.08160607 -0.2052649
0.23280713 0.15899348 0.17300206 0.10025786 0.17482683 0.20761748 0.22573891 0.29455343
0.04283942 0.55050963 0.28600934 0.22443669 0.08531696 0.3411026 -0.037196897 -0.19929244
0.29954308 0.016793353 0.14070264 0.2392841 0.08529333 0.58365405 -0.21062313 0.17929779
0.14357434 0.21832256 0.26276147 0.21949321 0.08827787 0.32958883 0.055767976 -0.17346771
0.14772066 0.20493826 0.09223027 0.54104584 0.2938921 0.45546523 0.12760857 0.23900515
0.2994528 0.14234415 0.41086763 -0.0251455 0.24840058 0.15748556 -0.11833884 0.13569553
-0.034772884 0.21466574 -0.03361901 0.18088385 0.2986074 0.1299145 0.27503958 0.6149526
-0.056614786 -0.5660986 0.12544747 0.6648355 0.028808273 -0.2510636 -0.030189956 -0.08946495
-0.19766848 0.6646507 0.0025895233 -0.20340443 0.17052735 -0.215076 -0.004559281 0.20234637
0.13972813 -0.4226533 0.041941117 1.1663496 0.11104545 0.22743359 -0.15505305 0.22552966
-0.09488003 0.15311994 -0.21335584 -0.2683639 0.017520554 0.06745434 -0.171993 -0.05986815
0.19660822 -0.08317998 0.21751146 0.03300486 -0.310911 -0.03734415 0.03216718 0.029726557
-0.2536548 0.15909162 0.08018044 -0.58647615 -0.06485627 -0.015825883 -0.05567028 -0.031055368
-0.06954337 -0.004496609 -0.04548208 -0.31913632 0.5721495 0.36601654 -0.007968731 -0.28151652
00000000: b369 923d 3fca 22be 12c1 653d 3645 d23e
00000010: fd34 f4bc 989f 3fba cf45 8c3c d878 ce3b
00000020: f33c 163e 2edd 373e 5216 e23e 7b4e 283e
00000030: a089 8bbd e525 3ebe eeda d2bd e6fa 623d
00000040: 243b 153d 8222 ce3c a34a d63b cd2e 48be
00000050: 62e6 4dbd ed7c 1f3e e9da 843e 1537 98bc
00000060: ebc3 44bd b59b 333d a5f0 cfbd 2b4f 46bd
00000070: 1e73 a93d 7ff7 f53d 9f5a a13d 04d7 763d
00000080: 44fa 2d3e bec9 653d b164 bd3d 0af5 283e
00000090: d1f8 ebbc 76bc a33d e3da 7bbc 5ef5 62bc
000000a0: 6874 253c 1a9a ef3d 8c87 433b fedb ec3e
000000b0: 8215 a93d b273 103e 5cc4 79bd fcab 2a3d
000000c0: e7e4 c53d 08a8 943d bf2f a73d 40c5 a7bb
000000d0: 371c 1cbe 4a7c 28bf d549 bebd 5c61 b6bd
000000e0: 874c 073c 5859 46bd 5512 03bd e9ea bc3e
000000f0: c3a6 2abe fb85 713e 753d 34bd 0b76 bfbd
00000100: ad32 913c dffd 6dbe 0e81 c03e 2e56 2d3e
00000110: b1f2 5ebc c303 d4bb 0503 9b3a 150c b0bc
00000120: fee9 a23e 80ed ce3d b81c 5b3d 0a3c ad3e
00000130: 6b23 313d 8299 453b b0e0 533d 442d 0cbe
00000140: 72be 5bbd 24df 16be 5634 e53d 2bde 12bd
00000150: e6ba 93bd 550a ca3d 7a75 1cbe 319d fb3d
00000160: 18a2 e63d 7697 a9bc d0f9 103f a142 b53d
00000170: d5db ae3d 6d97 073d 1926 bf3e efe8 c33c
00000180: 138e 3ebd 43e9 433e 0df5 a7bd e692 b9be
00000190: fc71 77bd a17a dd3d 67b9 6b3e f53e 85be
000001a0: 0de6 693e 7b89 7f3e a7de 753c fd4d 973d
000001b0: cca3 fc3d 28ef d53c bb4c a4be 9009 133e
000001c0: bc78 be3e 43ac b23d 7f7c 023e 1831 4e3b
000001d0: 469b 8a3e 8bc7 573e f209 243e 90a7 0bbe
000001e0: 2457 0a3e 372f 3a3e f5da a6bd 478f 593e
000001f0: 93bc 833e 2cfe 8c3e cc9e d33e 846a 623e
00000200: dd8f 4f3d 3872 a63c dd95 803e 62ff 6e3e
00000210: 00fa 6b3d 1ec3 303e 6a5f f83d 8d5f b03c
00000220: 17a2 423e e4ef 783e c321 cc3d 7361 083e
00000230: 0c33 9c3e 621f 9e3e 1521 a73d f630 52be
00000240: fe64 6e3e 30cf 223e 7427 313e fe53 cd3d
00000250: ce05 333e ad99 543e 1a28 673e b5cf 963e
00000260: 6378 2f3d 33ee 0c3f d16f 923e bbd2 653e
00000270: a9ba ae3d 00a5 ae3e c65b 18bd 5113 4cbe
00000280: b65d 993e 3792 893c 5a14 103e e406 753e
00000290: 45ae ae3d 5a6a 153f 97ad 57be d799 373e
000002a0: 2705 133e f38f 5f3e ac88 863e d4c2 603e
000002b0: 07cb b43d debf a83e f66c 643d 85a1 31be
000002c0: 1644 173e 56db 513e 39e3 bc3d fb81 0a3f
000002d0: 0679 963e bd32 e93e d2ab 023e c4bd 743e
000002e0: e151 993e aac2 113e 3e5d d23e f0fd cdbc
000002f0: b95c 7e3e e543 213e a25b f2bd c5f3 0a3e
00000300: 036e 0ebd 56d1 5b3e 16b4 09bd 9e39 393e
00000310: 12e3 983e 4f08 053e fdd1 8c3e 896d 1d3f
00000320: e8e4 67bd d6eb 10bf 4d75 003e a932 2a3f
00000330: 54ff eb3c 688b 80be ed50 f7bc 6639 b7bd
00000340: 9b69 4abe 8c26 2a3f feb4 293b 4049 50be
00000350: b99e 2e3e e23c 5cbe 0566 95bb e333 4f3e
00000360: e414 0f3e 0366 d8be 73ca 2b3d f24a 953f
00000370: cc6b e33d 5ae4 683e 3ac6 1ebe 3ff1 663e
00000380: 7650 c2bd 79cb 1c3e f479 5abe fe66 89be
00000390: 4487 8f3c 8025 8a3d ef1e 30be 4e38 75bd
000003a0: aa53 493e 445a aabd 53bb 5e3e 1b30 073d
000003b0: ba2f 9fbe 2ef6 18bd bcc1 033d 1c85 f33c
000003c0: 0bdf 81be eae8 223e a435 a43d 4d23 16bf
000003d0: 5dd3 84bd 48a5 81bc 8506 64bd d467 febc
000003e0: c16c 8ebd 4a58 93bb 6b4b 3abd d665 a3be
000003f0: 6478 123f 8566 bb3e 488f 02bc ef22 90be

lstm.bias_hh_l0 f4 [400]
0.08606028 -0.23112066 0.18439852 0.37351495 0.06558756 -0.06781671 0.14890663 0.06736966
0.053122684 0.23997024 0.49984092 0.052379414 -0.19221391 -0.14319123 -0.05793002 0.21065654
-0.028322745 -0.05893353 0.041791514 -0.19750138 0.13125291 0.13057008 0.1492335 -0.07780049
-0.1049823 0.019392552 -0.10882565 -0.039411705 0.009165598 -0.004240288 0.011225262 0.10775529
0.09801923 -0.0011730577 0.03315466 0.12435476 -0.0026506186 0.14708713 0.09481986 0.004145827
-0.045880307 0.15154116 0.008291021 0.42697132 0.09350878 0.048778806 -0.066337 0.1437597
-0.015765185 0.013929643 -0.10659794 -0.04775686 -0.05391517 -0.65915775 -0.030787801 -0.17055435
0.1659819 -0.10754105 0.08389441 0.5017603 -0.07714863 0.102517866 -0.023437116 -0.09483793
0.0019972306 -0.11693299 0.37513405 -0.008771651 0.085411236 0.055455834 0.039557744 -0.0018974832
0.26844764 0.089373484 0.04303796 0.32000273 0.025804756 0.100028396 0.14693563 -0.18822353
0.020489743 -0.15842018 0.052677758 0.08262383 -0.15583386 0.14030918 -0.20981082 0.14202298
0.021854032 0.078764915 0.62067115 -0.022577988 0.0015175042 0.04909345 0.37744394 0.023059396
-0.08134339 0.10291565 -0.0038310387 -0.318362 0.023224873 0.16572402 0.1847456 -0.33403674
0.20568423 0.12983602 0.12820186 0.120518245 0.041699387 -0.1104856 -0.29717383 0.016666317
0.24142396 -0.0042682122 0.27031147 0.10821235 0.19203137 0.1577786 0.0021552097 -0.0038501266
0.11249196 0.038590007 -0.063315034 0.309051 0.2956933 0.15533283 0.37131965 0.29270527
-0.028915394 0.13227686 0.176885 0.17430115 0.027232401 0.10237576 0.14234713 0.106791556
0.06067843 0.24033159 -0.008978057 0.00853094 0.18923198 0.22728348 0.17258748 -0.3163506
0.25549257 0.11534506 -0.008412002 0.13711539 0.17642048 0.0647008 0.08102052 0.36157587
0.034372214 0.58206886 0.24649774 0.18935318 0.07241093 0.2562834 -0.05422187 -0.032393698
0.45269132 0.07638158 0.10562122 0.25145212 0.18705475 0.48950532 -0.22868665 0.2210534
0.028885154 0.21711905 0.33622098 0.09160108 0.0433071 0.3234319 0.035648353 -0.05504577
0.1809695 0.071488194 0.22431092 0.48797137 0.19796658 0.43525246 0.21342015 0.24258167
0.18741101 0.14812773 0.34565127 0.08017841 0.2171759 0.06747808 -0.17675258 0.07691013
0.08688309 0.25928855 -0.0096559245 0.123774864 0.3158552 0.1300649 0.22272676 0.6170772
-0.014369133 -0.60130405 0.03753445 0.5821263 0.12051794 -0.17977785 -0.013364175 -0.110946625
-0.3146911 0.65494394 -0.036208667 -0.21475485 0.1062031 -0.14307064 0.043456625 0.13804708
0.18380758 -0.4469435 -0.03446835 1.1474864 0.13337207 0.1172019 -0.14431381 0.23151655
-0.16145808 0.23337947 -0.112681806 -0.21168008 0.07725243 0.007641442 -0.15266074 0.039304066
0.06645181 -0.07623747 0.12431924 -0.038035337 -0.4614132 -0.050007366 -0.035330463 -0.12520017
-0.28207365 -0.027689092 0.025882317 -0.6271054 -0.0720924 -0.10932775 -0.080412254 -0.09333797
0.0044608302 0.065589696 -0.082823895 -0.2790841 0.52629304 0.4311159 -0.066800155 -0.2594659
00000000: 5f40 b03d e5aa 6cbe f7d2 3c3e 5a3d bf3e
00000010: c552 863d 7de3 8abd fb7a 183e 1bf9 893d
00000020: 2c97 593d c2ba 753e 26eb ff3e cc8b 563d
00000030: b9d3 44be b9a0 12be 0748 6dbd 59b6 573e
00000040: 1a05 e8bc 4964 71bd 942d 2b3d cd3d 4abe
00000050: 2a67 063e 2ab4 053e abd0 183e dd55 9fbd
00000060: f600 d7bd 21dd 9e3c fbdf debd 2b6e 21bd
00000070: 4e2b 163c 1df2 8abb 29ea 373c ceae dc3d
00000080: 4ebe c83d 49c1 99ba 2ecd 073d b5ad fe3d
00000090: 00b6 2dbb 029e 163e ea30 c23d b8d9 873b
000000a0: fdec 3bbd 9b2d 1b3e 10d7 073c fc9b da3e
000000b0: 8881 bf3d 49cc 473d b1db 87bd be35 133e
000000c0: fd25 81bc 2839 643c 0550 dabd b29c 43bd
000000d0: 27d6 5cbd 90be 28bf b336 fcbc cda5 2ebe
000000e0: 29f7 293e 7b3e dcbd d5d0 ab3d 5d73 003f
000000f0: 1a00 9ebd e3f4 d13d 32ff bfbc 633a c2bd
00000100: f8e3 023b 907a efbd 9211 c03e f9b6 0fbc
00000110: 16ec ae3d a825 633d 4d07 223d f9b4 f8ba
00000120: f871 893e 7209 b73d 9248 303d 66d7 a33e
00000130: 7f64 d33c b0db cc3d 4b76 163e abbd 40be
00000140: 1bda a73c e638 22be a2c4 573d af36 a93d
00000150: e992 1fbe 36ad 0f3e a6d8 56be 796e 113e
00000160: 3a07 b33c 804f a13d 4ee4 1e3f 79f5 b8bc
00000170: fee6 c63a 3716 493d 5540 c13e 0fe7 bc3c
00000180: 5d97 a6bd 71c5 d23d 2a12 7bbb 5800 a3be
00000190: 1742 be3c 8fb3 293e f32d 3d3e dd06 abbe
000001a0: e39e 523e bcf3 043e 5947 033e 45d2 f63d
000001b0: facc 2a3d 4646 e2bd 2b27 98be cd87 883c
000001c0: d837 773e 5cdc 8bbb 4466 8a3e 709e dd3d
000001d0: dfa3 443e b790 213e 6b3e 0d3b 6852 7cbb
000001e0: 2f62 e63d 8e10 1e3d 50ab 81bd ef3b 9e3e
000001f0: 1d65 973e 920f 1f3e 9c1d be3e 77dd 953e
00000200: fadf ecbc 9673 073e 5721 353e 007c 323e
00000210: 7c16 df3c 62aa d13d 72c3 113e 88b5 da3d
00000220: f289 783d 7c19 763e b318 13bc 5bc5 0b3c
00000230: 07c6 413e 00bd 683e c6ba 303e b5f8 a1be
00000240: eccf 823e 083a ec3d 7ed2 09bc fa67 0c3e
00000250: 92a7 343e da81 843d 16ee a53d 7920 b93e
00000260: e1c9 0c3d 7702 153f e769 7c3e cde5 413e
00000270: 2f4c 943d 9437 833e c017 5ebd 41af 04bd
00000280: 28c7 e73e f26d 9c3d f04f d83d 55be 803e
00000290: 488b 3f3e 71a0 fa3e d52c 6abe d35b 623e
000002a0: 8fa0 ec3c 7554 5e3e 2825 ac3e 5999 bb3d
000002b0: c962 313d de98 a53e 0204 123d ac77 61bd
000002c0: 1250 393e 6768 923d c3b1 653e 62d7 f93e
000002d0: c0b7 4a3e 69d9 de3e d08a 5a3e 5467 783e
000002e0: ace8 3f3e ccae 173e 34f9 b03e 9434 a43d
000002f0: 5c63 5e3e f331 8a3d a1fe 34be 0f83 9d3d
00000300: c3ef b13d 78c1 843e e233 1ebc ad7d fd3d
00000310: c6b7 a13e bc2f 053e 7c12 643e c5f8 1d3f
00000320: 836c 6bbc 10ef 19bf b9bd 193d 3b06 153f
00000330: 1cd2 f63d af17 38be 6af5 5abc fc37 e3bd
00000340: 311f a1be 68aa 273f 8a4f 14bd b2e8 5bbe
00000350: 0381 d93d 1c81 12be 93ff 313d 375c 0d3e
00000360: 0e38 3c3e c7d5 e4be af2e 0dbd d6e0 923f
00000370: b092 083e 8d07 f03d 00c7 13be ad12 6d3e
00000380: 4455 25be 07fb 6e3e b8c5 e6bd aac2 58be
00000390: 8636 9e3d 1065 fa3b 1953 1cbe 4dfd 203d
000003a0: e317 883d 6422 9cbd 169b fe3d f1ca 1bbd
000003b0: 5a3e ecbe 86d4 4cbd adb6 10bd 7934 00be
000003c0: f56b 90be 3cd4 e2bc 2707 d43c fb89 20bf
000003d0: 2ea5 93bd 3ae7 dfbd 2eaf a4bd fa27 bfbd
000003e0: 282c 923b e453 863d 939f a9bd 1ce4 8ebe
000003f0: 24bb 063f 39bb dc3e 85ce 88bd b7d8 84be

fully_connected.weight f4 [9, 100]
-0.045725513 0.15220837 0.16567998 -0.20626603 -0.0404386 0.048222933 0.009458048 0.24907233
0.004144114 -0.124262154 0.026269468 0.048164573 -0.12098144 -0.040580936 -0.08859378 -0.112866335
-0.36895698 -0.20948213 -0.17516916 1.0236903 -0.07762875 -0.05874605 0.042166565 -0.19970548
0.40011233 0.0810092 -0.14760979 0.6234169 0.037144497 0.11039173 0.021123094 -0.11802834
-0.06130563 0.18399872 0.03896243 0.16903506 0.013356362 0.1485689 0.08145344 -0.02292948
-0.16358437 -0.17710409 -0.033836223 -0.24548383 -0.20018181 0.20926267 0.08879848 0.5618371
0.052348975 -0.082318746 0.33410066 -0.07023318 -0.66414046 -0.07137268 0.271064 0.46192703
0.15943529 -0.10254108 -0.039113455 0.09834419 -0.29594493 0.104721904 -0.033827342 0.26646596
0.25248644 -0.12222691 -0.08059214 0.24670418 -0.15672815 -0.5132939 -0.00068898837 -0.18046278
-0.33426633 -0.23517622 0.6079961 0.29431608 0.026312495 -0.20356122 0.062057864 -0.016353749
0.1420264 -0.06740623 -0.00927522 0.23358434 -0.34344524 -0.08984163 0.8645543 0.1776239
-0.010826648 -0.18072131 -0.22758785 -0.10556019 0.7308133 0.03644107 -0.090107016 0.29936498
-0.41066062 -0.35323328 0.15765777 0.19883578 0.39267498 -0.066249356 -0.37465233 0.18112819
-0.2540317 -0.24483551 0.2065997 -0.34090376 -0.3668635 0.35297263 -0.4862468 -0.292155
0.47493538 0.2829633 0.2995681 0.30167574 -0.5681518 -0.7209036 -0.23570865 0.50964975
0.07451534 0.52920294 0.2942547 0.56649137 -0.4591704 -0.120650396 -0.0050277524 0.11072203
0.0006439966 -0.13797407 0.702435 0.15630297 0.091831945 0.82361317 0.34781024 -0.19260985
-0.26655596 -0.6319087 0.52135855 -0.13641995 0.34279144 -0.4566934 0.2239242 -0.5061863
-0.1227747 -0.38967967 0.345244 0.046114404 0.093463376 0.15703909 0.36464635 -0.43899694
0.1515942 -0.8311961 0.021313265 -0.19673225 0.21488939 -0.16190267 -0.0058393297 -0.015629748
0.032481756 0.13861658 -0.079527415 -0.11804811 0.294015 0.067032665 -0.056841083 0.047098428
0.14264452 -0.64245844 -0.41764247 -0.019299319 0.3483024 -0.52136993 0.65502405 0.38259244
-0.4942052 0.14427195 0.25424498 -0.41169244 0.24755114 -0.6473744 -0.020073356 0.57690436
-0.14007327 -0.1499623 -0.12833714 0.21366698 -0.07169449 0.35299674 0.515348 0.2974642
-0.09258334 0.16817918 -0.32080215 0.14872085 0.23220241 0.11129271 0.26496354 0.4049021
-0.112652786 -0.17816658 0.12407766 0.488645 -0.30286026 0.03288 -0.037368994 -0.35128093
-0.20782965 0.63655514 -0.3281618 -0.47271323 -0.034881983 -0.37503663 -0.085933425 -0.0067913705
0.7037348 -0.45899624 -0.018243965 -0.25261757 0.1559177 0.085026026 -0.17986645 0.6187736
0.24379514 0.59834206 -0.117914855 -0.37025473 0.14771633 -0.023541335 -0.17255019 0.31326896
-0.09025143 -0.1149313 0.5233119 0.051442694 -0.37221047 0.35866213 -0.39057356 0.032770626
-0.2805178 -0.06899804 -0.29673848 -0.22594462 0.1776193 -0.21901354 -0.3214699 -0.10934822
0.099498875 0.25204578 -0.44887948 0.1410388 0.58915263 -0.24790318 -0.21588346 -0.5450163
00000000: ad4a 3bbd 83dc 1b3e 03a8 293e 6737 53be
00000010: f2a2 25bd 6985 453d eef5 1a3c d10c 7f3e
00000020: 59cb 873b 287d febd 1133 d73c 3748 453d
00000030: 1ec5 f7bd 3238 26bd a870 b5bd 7726 e7bd
00000040: eee7 bcbe 7c82 56be 8b5f 33be 4908 833f
00000050: d2fb 9ebd b39f 70bd d9b6 2c3d 987f 4cbe
00000060: 86db cc3e 27e8 a53d 0527 17be 4098 1f3f
00000070: d424 183d 0f15 e23d 570a ad3c d8b8 f1bd
00000080: 9d1b 7bbd 296a 3c3e 1297 1f3d 8717 2d3e
00000090: a4d4 5a3c 7222 183e 10d1 a63d 9bd6 bbbc
000000a0: a982 27be c65a 35be da97 0abd 1d60 7bbe
000000b0: 76fc 4cbe f448 563e fadb b53d 8ed4 0f3f
000000c0: e16b 563d bb96 a8bd 3e0f ab3e 6ad6 8fbd
000000d0: 1c05 2abf d72b 92bd e7c8 8a3e b381 ec3e
000000e0: 0143 233e 0f01 d2bd 6e35 20bd ae68 c93d
000000f0: 1886 97be 7078 d63d 8a8e 0abd 3a6e 883e
00000100: e745 813e 1a52 fabd 7e0d a5bd 05a0 7c3e
00000110: 587d 20be 3b67 03bf 3a9d 34ba 3ccb 38be
00000120: f524 abbe 09d2 70be a2a5 1b3f 99b0 963e
00000130: 4d8d d73c 5a72 50be 6330 7e3d 4cf8 85bc
00000140: 5e6f 113e 470c 8abd 18f7 17bc bc30 6f3e
00000150: 0ed8 afbe e3fe b7bd 6e53 5d3f 0ae3 353e
00000160: 4162 31bc 020f 39be ca0c 69be f12f d8bd
00000170: 9516 3b3f 3b43 153d 078a b8bd 5e46 993e
00000180: 1c42 d2be feda b4be 0a71 213e 9b9b 4b3e
00000190: b20c c93e bead 87bd 6ed2 bfbe ab79 393e
000001a0: 7110 82be 29b6 7abe df8e 533e f08a aebe
000001b0: 88d5 bbbe d4b8 b43e 57f5 f8be 5795 95be
000001c0: bb2a f33e 91e0 903e fd60 993e 3e75 9a3e
000001d0: 6572 11bf 238d 38bf 9c5d 71be 6878 023f
000001e0: 809b 983d d879 073f 8da8 963e 9405 113f
000001f0: 6218 ebbe 8e17 f7bd d8bf a4bb 3bc2 e23d
00000200: e1d1 283a 1349 0dbe c8d2 333f e30d 203e
00000210: 6312 bc3d 50d8 523f 2f14 b23e 843b 45be
00000220: 067a 88be c5c4 21bf c177 053f acb1 0bbe
00000230: 5c82 af3e b8d3 e9be 634c 653e 6d95 01bf
00000240: 4d71 fbbd 1884 c7be d2c3 b03e 75e2 3c3d
00000250: ba69 bf3d dbce 203e edb2 ba3e 35c4 e0be
00000260: 833b 1b3e 45c9 54bf 2899 ae3c 2e74 49be
00000270: f70b 5c3e d0c9 25be d957 bfbb f509 80bc
00000280: 970b 053d 81f1 0d3e 45df a2bd 35c3 f1bd
00000290: 2289 963e 6c48 893d 32d2 68bd 48ea 403d
000002a0: 6811 123e 2878 24bf 3cd5 d5be 9b19 9ebc
000002b0: b154 b23e 8078 05bf a8af 273f 28e3 c33e
000002c0: 7708 fdbe 07bc 133e 662c 823e 5ac9 d2be
000002d0: 0c7e 7d3e 54ba 25bf e170 a4bc 01b0 133f
000002e0: 5e6f 0fbe b88f 19be d06a 03be 84cb 5a3e
000002f0: 90d4 92bd fdbb b43e d9ed 033f 3a4d 983e
00000300: 569c bdbd 2a37 2c3e 2e40 a4be 474a 183e
00000310: 78c6 6d3e 6fed e33d 4da9 873e 544f cf3e
00000320: 81b6 e6bd 4d71 36be 6e1c fe3d ad2f fa3e
00000330: 8010 9bbe 2ead 063d 3b10 19bd 18db b3be
00000340: 4cd1 54be 47f5 223f d304 a8be 7807 f2be
00000350: 69e0 0ebd cd04 c0be ddfd afbd 258a debb
00000360: f727 343f 8e01 ebbe 5e74 95bc 1757 81be
00000370: e4a8 1f3e 2022 ae3d e92e 38be f267 1e3f
00000380: 6fa5 793e f22c 193f 587d f1bd 0792 bdbe
00000390: f342 173e c2d9 c0bc ffb0 30be ca64 a03e
000003a0: bed5 b8bd 1a61 ebbd c5f7 053f 93b5 523d
000003b0: 5f92 bebe 90a2 b73e 42f9 c7be 7e3a 063d
000003c0: 07a0 8fbe d84e 8dbd 1bee 97be 075e 67be
000003d0: d5e1 353e 1645 60be b497 a4be f6f1 dfbd
000003e0: 11c6 cb3d 250c 813e 88d3 e5be 7a6c 103e
000003f0: b5d2 163f 55da 7dbe 8e10 5dbe 3086 0bbf

fully_connected.bias f4 [9]
-0.10714704 0.9826927 2.0201833 0.40607172 0.9745124 1.1677417 0.45651382 0.67644846
1.1363021
00000000: e86f dbbd c091 7b3f af4a 0140 a2e8 cf3e
00000010: a579 793f 8f78 953f 2ebc e93e ba2b 2d3f
00000020: 5972 913f
