results/torch_mlp_model_final.pt (torch, 29791 bytes, 2 tensors)

output_layer.weight f4 [9, 784]
0.04273377 0.038744826 0.022789638 0.017345723 0.020942364 0.031671196 0.014364975 0.013208452
0.015379683 0.011749486 0.026498094 0.017106676 0.015055536 0.02181995 0.014157488 0.012351047
0.02911866 0.028606836 0.012933808 0.0046078134 0.011257314 0.02685946 0.022378445 0.02431237
0.017318748 0.019006452 0.032839593 0.04901504 0.037375323 0.027302902 0.01436427 0.012014793
0.009246607 0.015618848 0.0014581771 0.005073591 0.011157148 0.0058933483 0.011070346 0.0039447523
0.008452163 0.017289167 0.017475348 0.011458863 0.013090677 0.01249305 -0.00069307163 -0.0006298104
-0.0010213504 0.010939162 0.008633095 0.014426501 0.009374111 0.0061507667 0.017617974 0.042963997
0.035099763 0.024299767 0.020251738 0.008742445 0.012373047 0.008397642 0.00081446965 -0.0026370485
0.0065720533 0.0062315543 0.009356776 0.012076024 0.015986552 0.01471745 0.014317395 0.006461084
0.015186832 0.019598583 0.012215565 0.01103635 0.012879174 0.025654942 0.015315447 0.008617218
0.010833769 0.021348827 0.019211702 0.034257066 0.035770196 0.020559842 0.011397498 0.009033919
0.014922402 0.017597428 0.008149869 0.001533859 0.00013899952 -0.005821068 0.013511113 0.016699396
0.016751552 0.0027191415 0.009077443 0.020861693 0.009504218 0.011843441 0.008889697 0.010599176
0.008874915 0.024622673 0.01899832 0.0071616904 0.012323168 0.018165713 0.010242483 0.014370953
0.023258822 0.009992425 0.017138103 0.001356724 0.0068165315 0.013252978 0.0050971424 0.0065224194
0.012772126 0.012498386 0.009312339 0.013989167 0.011752154 0.009541594 0.008936738 0.0138972765
0.008350644 -0.00071921095 0.007223402 0.016400298 0.0067848857 0.009527914 0.019564584 0.011115083
0.011475041 0.009641124 0.017834008 0.020784678 0.0263575 0.008520747 0.0118621625 0.0011598589
-0.0037317586 0.0125150755 0.010424446 0.0075721606 0.017039495 0.011486348 0.008062492 0.013387094
0.0027981303 0.0067093447 0.0031237323 0.0061722947 0.010557618 -0.00054180867 0.0014135287 0.014982688
0.009472237 0.007017924 0.018895747 0.019381206 0.016542695 0.009508418 0.013554115 0.019454012
0.012352232 0.015561037 0.01620757 0.009179955 0.010221093 0.009736385 0.011288481 -0.0031454382
0.00073166355 0.0029477188 0.009180367 0.0047053644 0.0061965515 0.0073963488 0.0083401315 0.017070683
0.005899999 0.013872837 0.011696142 0.008491008 0.019650273 0.020445438 0.008295928 0.008521447
0.008331095 0.007659191 0.009453082 0.02967812 0.009289818 0.018272564 0.015977096 0.007044087
0.014806708 0.012486213 0.006007223 -0.008726996 -0.0066913012 0.0036756054 0.0024635342 0.005947218
0.018290877 0.009876544 0.008898227 0.011464864 0.0075961184 -0.0001752678 0.0051301713 0.009001984
0.012374885 0.0073786206 0.0076806755 0.008782312 0.00542439 0.011806163 0.020921648 0.044853758
0.016467256 0.023292296 0.010295227 0.0008670273 0.007211516 0.0015519415 -0.0037213247 -0.012304395
-0.005658631 0.0010821498 -0.0054314476 -0.004003687 0.008414458 0.012379835 0.01462889 -0.0013161945
-0.0007385855 -0.0048635686 0.0016984185 0.0089255255 0.011298839 0.0049253623 0.017922685 0.013599729
0.006479174 0.0042582387 0.012538798 0.03197671 0.013039663 -0.00094664365 0.0027328292 -0.00023039908
00000000: 9b09 2f3d e5b2 1e3d 56b1 ba3c 9e18 8e3c
00000010: 528f ab3c a8b9 013d 125b 6b3c 4368 583c
00000020: 11fb 7b3c eb80 403c 8812 d93c 4d23 8c3c
00000030: 7fab 763c c0bf b23c cff4 673c 0c5c 4a3c
00000040: 428a ee3c e258 ea3c 53e8 533c 24fd 963b
00000050: 9970 383c 5f08 dc3c 0053 b73c bc2a c73c
00000060: 0ce0 8d3c 6bb3 9b3c cf82 063d ffc3 483d
00000070: de16 193d 56aa df3c 1d58 6b3c b2d9 443c
00000080: 157f 173c 32e6 7f3c 4e20 bf3a 5e40 a63b
00000090: 78cc 363c fd1c c13b 6660 353c fb42 813b
000000a0: f17a 0a3c 03a2 8d3c 7628 8f3c f4bd 3b3c
000000b0: 477a 563c a6af 4c3c 40af 35ba dc19 25ba
000000c0: d5de 85ba 2c3a 333c d371 0d3c 215d 6c3c
000000d0: df95 193c 5f8c c93b 9253 903c 04fb 2f3d
000000e0: c5c4 0f3d 4e10 c73c f9e6 a53c 793c 0f3c
000000f0: 52b8 4a3c 4396 093c 2282 553a 55d2 2cbb
00000100: 615a d73b 1132 cc3b 2a4d 193c 84da 453c
00000110: 3bf6 823c 7621 713c 8293 6a3c 80b7 d33b
00000120: 31d2 783c 358d a03c cb23 483c cfd1 343c
00000130: 2c03 533c 502a d23c a4ed 7a3c 3b2f 0d3c
00000140: 1f80 313c bce3 ae3c dc61 9d3c 2351 0c3d
00000150: c583 123d 1d6d a83c 92bc 3a3c 0103 143c
00000160: 177d 743c 7b28 903c 0787 053c c40b c93a
00000170: 66c0 1139 a8be bebb b75d 5d3c 2ccd 883c
00000180: 8d3a 893c a033 323b 8eb9 143c 24e6 aa3c
00000190: 94b7 1b3c fe0a 423c 17a6 113c 2ba8 2d3c
000001a0: 1768 113c 7db5 c93c 5da2 9b3c 9dac ea3b
000001b0: 1de7 493c 43d0 943c 16d0 273c 2574 6b3c
000001c0: 4989 be3c 45b7 233c 3565 8c3c 1ad4 b13a
000001d0: 365d df3b 0523 593c ee05 a73b 05ba d53b
000001e0: 2e42 513c 08c6 4c3c c892 183c d232 653c
000001f0: 1b8c 403c 5954 1c3c 656b 123c 67b1 633c
00000200: 24d1 083c 6e89 3cba 4ab2 ec3b eb59 863c
00000210: bf53 de3b f81a 1c3c e845 a03c 091c 363c
00000220: cf01 3c3c cef5 1d3c a018 923c a144 aa3c
00000230: afeb d73c 9a9a 0b3c 8459 423c 6806 983a
00000240: 8590 74bb 080c 4d3c 4ccb 2a3c e31f f83b
00000250: 6996 8b3c 3c31 3c3c 8b18 043c 8b55 5b3c
00000260: d660 373b 10da db3b 88b7 4c3b f640 ca3b
00000270: dcf9 2c3c 2a08 0eba 2746 b93a f379 753c
00000280: 7131 1b3c 9df6 e53b 41cb 9a3c 56c5 9e3c
00000290: 8c84 873c 32c9 1b3c 1412 5e3c 055e 9f3c
000002a0: 0461 4a3c b8f3 7e3c bdc5 843c 8667 163c
000002b0: 5f76 273c 5c85 1f3c 52f3 383c b223 4ebb
000002c0: 1ccd 3f3a 842e 413b 4069 163c 752f 9a3b
000002d0: 710c cb3b 125d f23b 0ca5 083c d1d7 8b3c
000002e0: c754 c13b e54a 633c 2da1 3f3c de1d 0b3c
000002f0: 9cf9 a03c 317d a73c a5eb 073c 8a9d 0b3c
00000300: 257f 083c f3f9 fa3b 1ae1 1a3c 871f f33c
00000310: 5234 183c 58b0 953c 66e2 823c 16d2 e63b
00000320: d697 723c f992 4c3c 3dd8 c43b adfb 0ebc
00000330: b442 dbbb 6de2 703b 3f73 213b e1e0 c23b
00000340: c0d6 953c 3ad1 213c dec9 113c 20d7 3b3c
00000350: dce8 f83b 18c8 37b9 ff1a a83b 0f7d 133c
00000360: 08c0 4a3c 5bc8 f13b 2dae fb3b b0e3 0f3c
00000370: 15bf b13b a36e 413c e063 ab3c 93b8 373d
00000380: 57e6 863c 7ccf be3c 50ad 283c 3849 633a
00000390: 954e ec3b 846a cb3a 78e1 73bb 6098 49bc
000003a0: 0a6c b9bb ecd6 8d3a 49fa b1bb 5c31 83bb
000003b0: cbdc 093c cbd4 4a3c 03ae 6f3c 2984 acba
000003c0: a29d 41ba 925e 9fbb 789d de3a 5e3c 123c
000003d0: c41e 393c ef64 a13b 98d2 923c 66d1 5e3c
000003e0: 404f d43b b288 8b3b 886f 4d3c 03fa 023d
000003f0: 50a4 553c 2e28 78ba 4419 333b 4897 71b9

output_layer.bias f4 [9]
-1.4625374 -0.13044605 1.03531 1.3311399 -0.18246858 0.6994352 0.26405394 0.522299
1.612101
00000000: 6d34 bbbf a693 05be 0a85 843f cb62 aa3f
00000010: 0bd9 3abe 2f0e 333f 1432 873e 63b5 053f
00000020: 5359 ce3f
