results/torch_linear_model.pt (torch, 29907 bytes, 2 tensors)

linear_layer.weight f4 [9, 784]
000000 70 5b 94 3c 70 c3 c3 3c 77 d6 1a 3c 73 c0 54 3c
       0.018110007 0.023896903 0.0094505465 0.012985337
000010 27 65 18 3c 6e aa ef 3c 1f 37 59 3c 33 50 b4 3c
       0.00930146 0.029256072 0.013257771 0.022010898
000020 f9 b0 b4 3b 5c 32 60 3b 17 cd b9 3c ec db d9 3c
       0.005514261 0.0034209704 0.022680802 0.026594125
000030 42 2c 9e 3c 2c 52 b2 3c 29 c2 d6 bb 25 ba b5 3c
       0.019308213 0.021767698 -0.0065539074 0.022183487
000040 a6 45 94 3c 0b 27 7b 3b 80 64 85 3c 19 6b 85 bb
       0.018099617 0.0038322832 0.016283274 -0.004071605
000050 22 80 38 3b b4 11 b8 3c 29 f7 54 3c 31 4c d1 3c
       0.0028152545 0.022469379 0.012998381 0.025549026
000060 b7 03 bf 3c 9d 67 b3 3c cb f3 aa 3c ac 2c e4 3c
       0.023317201 0.021899993 0.020868203 0.027853332
000070 0c f3 1e 3d 3d a1 8e 3c 26 bd df 3c c9 11 ce 3c
       0.038806006 0.017410869 0.027311873 0.025154965
000080 2e f1 73 bb 4d 29 d0 3c d7 89 e8 bb 42 3b b1 3a
       -0.0037222612 0.025410319 -0.00709651 0.0013521689
000090 62 7c d2 3c 3b 5c c3 ba 39 16 f3 ba aa e3 44 3c
       0.025694076 -0.0014904806 -0.0018546052 0.01201717
0000a0 5f 53 c3 3c 53 69 8d 3c 58 1b 8b 3c 2c ea 9b 3c
       0.023843465 0.017262137 0.016980812 0.01903256
0000b0 3c e5 16 b9 37 bf a1 3c 86 0c 0d bc 99 cb 62 3c
       -0.00014390511 0.019744499 -0.008608943 0.013842487
0000c0 7f 96 e7 3b 0f 04 bf 3c 0c f2 81 3c 06 fe 41 3b
       0.007067501 0.023317365 0.015862487 0.0029600873
0000d0 c0 49 a6 ba 1b 15 7b bb 6e 7c b4 3c e7 01 91 3c
       -0.0012686774 -0.003831214 0.022031989 0.017701102
0000e0 94 27 ee 3c 38 68 ad 3c 3e fe cc 3c 59 5c bc 3a
       0.029071607 0.02116786 0.025023576 0.0014370783
0000f0 5e 53 4e 3c aa 50 78 3c 06 ff 47 3a 0f e0 fe 3b
       0.0125931185 0.015155951 0.0007629249 0.0077781747
000100 f9 01 00 bc 03 14 18 3c cb 5f 17 3b 79 06 f1 3b
       -0.00781297 0.009282115 0.0023097869 0.007355508
000110 a3 13 70 3c 18 b7 d7 3c c9 df 49 bb 0d b0 86 3c
       0.014653119 0.026332423 -0.0030803552 0.01644137
000120 0c 88 c7 3b f3 ce 43 3c 4c 47 9e 3c ef df 28 bb
       0.006089216 0.011951196 0.019321106 -0.002576824
000130 b7 1d 92 bb 75 6d 26 3c 57 6a fc 3a 39 d7 bf 3c
       -0.0044591087 0.0101579325 0.0019257766 0.023418056
000140 37 d9 07 bb df d9 9f 3c 89 29 0b 3c b3 fe 13 3d
       -0.0020728835 0.019513069 0.0084937895 0.036131572
000150 f8 be 8f 3c b4 0c c3 3c 75 f9 a8 3c d9 32 0f bb
       0.017547116 0.023809768 0.020626763 -0.0021850376
000160 1a 26 21 3c 52 8d 15 3c 5f 28 90 3c 61 b7 9d 3b
       0.009835744 0.009127932 0.017597375 0.0048131202
000170 d7 6b 98 3b f2 5e d8 ba 47 d1 e2 3c c4 b3 28 3c
       0.0046515274 -0.0016507788 0.027687682 0.010296766
000180 7e 25 df 3c 82 62 85 3b 21 6c c8 bb 69 fd 47 3a
       0.027239557 0.004070581 -0.0061164056 0.00076290086
000190 19 0c 28 bb f0 a0 51 3c 12 3b 87 3c ab f1 96 bb
       -0.0025641976 0.012794718 0.01650766 -0.004606446
0001a0 1c fb e8 ba 08 a6 ac 3b 15 bf be 3c bd bb bf 3c
       -0.0017775032 0.005268816 0.023284474 0.02340495
0001b0 bc 7a 0d 3b af 38 eb 3c 30 68 97 3c 37 b8 d5 3b
       0.0021588048 0.028713552 0.018482298 0.0065222043
0001c0 5e 6a e4 3c 66 2d 70 3c 88 5e 7b 3c 04 f0 ee bb
       0.027882751 0.014659261 0.015342362 -0.0072917957
0001d0 f2 d8 65 3c a6 39 24 3c e0 1e 09 3c 19 a1 81 3b
       0.014028775 0.01002351 0.008369178 0.003955972
0001e0 0c 33 2f 3c 63 df 20 3b 1a 84 41 3c 7e 36 30 3c
       0.010693323 0.0024547211 0.011811281 0.010755179
0001f0 94 59 b1 bb e1 d0 69 3c 5a ab 78 3c f2 48 65 3c
       -0.00541229 0.014270992 0.015177572 0.013994442
000200 2f be a0 3c 18 c6 f2 3b 46 8b 76 3c b7 0a e3 3b
       0.019621937 0.0074088685 0.015047854 0.0069287675
000210 13 41 95 3c 84 52 00 3b 28 6b b9 3c 2d b5 88 3a
       0.018219506 0.0019580433 0.022634104 0.0010429971
000220 c9 9c 17 3c 7f b3 24 bb 06 da 36 3b db 6e ed 3c
       0.009253689 -0.0025131402 0.0027900948 0.028983524
000230 64 84 cf 3b 7d 34 92 3b 7a 07 a2 3c 3f 10 b8 3b
       0.006332921 0.0044618235 0.019778956 0.005617171
000240 0f 98 de 3a dd e3 14 3b 71 65 93 3b ee 25 cf 3c
       0.0016982573 0.0022718825 0.0044981767 0.025286641
000250 ef d8 2f 3b b1 5b d7 3c 61 27 04 3b ad d4 ad 3c
       0.0026832183 0.026288839 0.0020165073 0.021219576
000260 72 07 6a 3c d5 3e 4f bb 39 f9 95 3b dc 53 1f 3c
       0.014284002 -0.0031623144 0.004576829 0.0097245835
000270 21 94 c7 bb 46 b4 2e bb 0e 04 0a bc 3b 90 95 3a
       -0.0060906564 -0.0026657744 -0.008423818 0.0011410782
000280 d7 8f 29 bb b4 3a 97 3c 16 a3 b5 3c 4c ee 1d 3c
       -0.0025873089 0.018460609 0.022172492 0.009639334
000290 1f 4a 25 3c 50 34 85 ba 44 d9 c0 3c 33 06 c6 3c
       0.010088473 -0.0010162685 0.0235411 0.024172878
0002a0 01 e5 7b 3c 45 dd 16 3c 8c 9c 81 3c 9d 5e 77 3b
       0.015374423 0.009208028 0.015821718 0.0037745603
0002b0 63 0c 04 bb 90 fe b3 3c 5c 22 8a 3c df f5 c8 bb
       -0.0020148985 0.02197197 0.016862087 -0.0061328257
0002c0 d3 fc 74 bb 01 ae d4 bb c4 ff 70 3b 1e a0 29 3c
       -0.003738214 -0.0064904694 0.0036773542 0.010353116
0002d0 af 6a 78 bb 12 cf 74 3c 24 9f 25 3c 8f f6 b4 3c
       -0.0037905385 0.014941948 0.010108743 0.022090225
0002e0 64 74 8f b9 e1 d7 16 3b 0d d6 41 3c 92 8a 4c 3c
       -0.00027361803 0.0023016857 0.011830819 0.01248421
0002f0 00 71 b3 3c 97 a7 95 3b 84 2b 3e 3c 6a 42 ee 3b
       0.021904469 0.0045670974 0.011607055 0.0072711008
000300 28 b8 89 3c 2c 1e e5 3b 1d a4 af 3c 56 6b 57 3b
       0.016811445 0.006992122 0.02144056 0.0032870374
000310 b9 56 c3 3b 35 86 9c 3c 06 38 e6 3b a3 7b 63 3c
       0.005961266 0.019106964 0.0070257215 0.013884458
000320 26 97 d5 3c 04 2d 64 bb cc 81 23 3c 23 b9 e0 bb
       0.02607305 -0.003481687 0.009979676 -0.0068580075
000330 02 75 76 bc e7 83 d9 3b aa 5d 11 3c 41 05 1a 3c
       -0.015042545 0.0066380384 0.008872429 0.009400667
000340 77 44 1b 3c f5 a9 b4 bb 65 e3 45 3b 28 91 96 3c
       0.0094767725 -0.0055134245 0.0030195352 0.018379763
000350 85 88 33 bc 24 f0 99 3b c4 f1 30 3c 8e b8 75 3c
       -0.010957842 0.0046978164 0.010799829 0.014997615
000360 91 2e 2f bc 5d 82 d0 ba cc 88 b6 bb 5e 69 fb 38
       -0.010692255 -0.0015907992 -0.0055705067 0.00011988239
000370 14 ca c5 3b c4 9a b4 3c 5f 30 40 3c 5b 77 16 3d
       0.0060360525 0.022046454 0.011730283 0.03673492
000380 e4 86 74 3a b7 67 e0 3c 1d 50 b1 3b 39 1f 80 3b
       0.00093279616 0.027393205 0.0054111616 0.003909972
000390 10 00 f9 ba 98 7e 72 3b 17 b8 3e bc 92 d0 95 3b
       -0.0018997211 0.0037001725 -0.01164057 0.0045719827
0003a0 7c 8b 7c bc e3 e9 3d 3c 8f ad 2e bc 62 6b 38 3c
       -0.015414115 0.0115914075 -0.010661497 0.011256071
0003b0 0e 8a 74 3c ce cd a9 3b eb be a2 3c 2c 0f 81 bc
       0.014925493 0.0051820045 0.019866427 -0.015754305
0003c0 62 da bc 3b c8 32 e2 ba 10 bb 23 bb 5a b2 ea bb
       0.005763338 -0.0017257566 -0.0024983324 -0.0071623744
0003d0 06 28 90 3c 21 43 28 bc 8b 9e 1a bb 69 ec b5 3c
       0.01759721 -0.010269911 -0.0023593034 0.022207456
0003e0 41 18 16 3b fb e8 0c 3a 15 ce fa ba cf f0 d2 3c
       0.002290264 0.0005375293 -0.0019134904 0.025749592
0003f0 8a 8f 8d 3a 4c d5 dd 3b d2 66 0f 3c b7 01 fe 3b
       0.0010800224 0.0067698117 0.008752542 0.0077516693

linear_layer.bias f4 [9]
000000 f9 2c f2 bf 60 c1 2f 3f 2a 74 b7 3e 4b f1 0b 3f
       -1.8919975 0.6865444 0.35830814 0.5466506
000010 09 30 23 bf 80 45 2b 3e 0f eb ca 3b e5 f4 b1 bb
       -0.6374517 0.16725731 0.006192572 -0.005430805
000020 05 58 43 3f
       0.7630618
