results/torch_cnn_model.pt (torch, 74647 bytes, 6 tensors)

convolutional_layer_1.0.weight f4 [16, 1, 5, 5]
00000000: 3d58 593e ab70 c63e a5ca e53e 38d5 873e
00000010: 6897 893d ec43 583e 0d07 043f 4c7c 093f
00000020: 19f9 c23e 4b42 e43d 68d3 963e 2b8b 103f
00000030: 59e2 163f 7d62 ba3e 50e0 aa3d d881 223c
00000040: c153 7f3e 8c9c 433e 4cac 79bd 5c03 7ebe
00000050: 1006 33be 2e1b 4f3c c7c7 833d 2676 dcbd
00000060: 2215 3abe 0464 8f3e 9a43 1bbf 15d0 983f
00000070: f3f0 b3be 6182 ca3e a39c 78be 58e2 98bf
00000080: 1e0d 883f 3975 7dbf 06d2 70be d546 27bf
00000090: 1ba0 713f d4dc c23f 37d8 b3bf 8fc0 703f
000000a0: 7bf9 2abf d764 7f3f 05e6 43bf 0ffd 51bf
000000b0: 1442 303e a1db 8f3d e34e f23e dc21 4ebf
000000c0: 5f5f 023e 68b8 a73e af8e f6bd 69ff 16be
000000d0: e2b3 d3bb 3d33 04be 0d4a 85be 2256 aebd
000000e0: f570 1bbe 09e8 6ebe 8788 993e 857c f03d
000000f0: 0333 c43d 9b46 f0bc 96b3 c8be 1071 31bf
00000100: 722d 1dbc fa56 1a3d fd42 8e3e 0d09 c23e
00000110: b810 4ebd 9160 a8be 07d8 43bd a5ad f7bd
00000120: f47c f43b f351 953e 9885 093c c2b1 6fbe
00000130: 742a ab3f c0b4 5f3f 26a7 d8bd 2839 32be
00000140: 02c1 af3e 3763 20c0 bc39 28c0 2315 15be
00000150: ed53 733e 3f81 97be f867 c03f bac9 1a40
00000160: 9e1c c93e eb44 acbe d06a 6ebd 74b1 1a3d
00000170: 5d80 8abf bb5a a83d 094d a13e 75ee 2a3e
00000180: b9b7 77be 062b 7f3e 1837 2abe 8f6f 59be
00000190: dd96 143f a4b5 443e 2924 b4bf c7ea 35bf
000001a0: d7d1 b03e c154 fb3e 1def 8cbf e991 f83f
000001b0: de60 473f 91d3 80be ccf8 07bf e7be 8cbf
000001c0: be8c 653f 02c8 07bf 7373 02be ca95 fe3e
000001d0: 55f8 c73e 968b 23bf a40e de3e e563 9f3e
000001e0: a85a 643c 2ba7 95be 5bb1 883e 388d 16be
000001f0: b6de 51be 2bc2 373d a7a0 02bf 2cce ec3e
00000200: 81c9 5abe a5ad 713d 9df6 f93e 26de 45bf
00000210: 90a7 c23e 5535 09be 513a 413e 8229 5bbf
00000220: 9574 df3f ef54 25c0 3252 0840 e823 7fbf
00000230: 1b0a 86bd e943 623f b0fc 0ac0 9858 dc3f
00000240: c63f 2abf a86a c7be 401e 5c3f 4ec9 61bf
00000250: 91e6 2d3f 1e00 2bbe 6856 6d3a 69d8 c2bd
00000260: 2bfb 813f 6bba f4be de87 97be 60cb 1dbe
00000270: 1296 e8bd 5660 0c40 bc74 bdbf be9c adbe
00000280: f447 03be ef21 143f 8282 753f 109a bdbe
00000290: 0842 51bf 5041 ee3d 888b f13e a501 ecbe
000002a0: 9212 173f d43f 48bf 67bb 6f3e a2c9 4fbe
000002b0: fc68 66be 7595 043f 5dff ffbe 791c e7be
000002c0: 0d1a ac3e 779e 343e fcfc 843f edbc b13c
000002d0: c14f a43e 2cb9 ed3d 7664 ccbe 133f ddbf
000002e0: cc34 003f 0a5c 133d 6fd6 08bf d2fa 4ebf
000002f0: 76e3 05c0 d8f2 923d 12c7 09bf f6e1 2a3f
00000300: e4dd 8d3f 7e55 a73f d1d4 6d3e 241e 84be
00000310: 3b2b a13e 20a8 30bf 7488 12bf 98d2 993d
00000320: 5e80 01bf 18f5 b9be 0f2d 803e f869 43bf
00000330: 79fe b3be 6c0e 823f 9aa4 62bf 66fd 263e
00000340: b5cb 97bd f339 943f 8f18 853f 0cc0 11be
00000350: 6678 66bf e38d 81bf 445c e33e 6913 80bf
00000360: bd7d ac3e a32f 20bc 79ab 613e ab04 313e
00000370: 20c4 1d3f 318d 73be 6e12 13bf ed89 1ebf
00000380: f2c0 183f b151 4c3e 84bd cdbe 5169 9abe
00000390: dd40 babe 17eb 0cbf 9bee 4e3e 8100 0ebf
000003a0: 07a7 edbe 86d1 3e3e afaa 32bf 1530 573f
000003b0: e9bf e83e b560 103e cf24 b4be 1685 0a3e
000003c0: c0d9 c1be 2ba1 0cbf 1c6c b03e 1c62 55bf
000003d0: 5b7e a2be 9a5a 8a3f e469 f93e e999 f53e
000003e0: 2366 5f3f c09d 383e bb87 dc3d 5b3d 863e
000003f0: c756 4c3e 6c8c b23d 2d7c fc3c d4fe 633e
0.21225066 0.38757834 0.44881168 0.2652986 0.067183316 0.2111966 0.5157326 0.53705287
0.3808067 0.11145457 0.29458165 0.56462353 0.5893913 0.36403266 0.083435655 0.0099186525
0.24934293 0.19102687 -0.06095533 -0.24805969 -0.17482781 0.0126407575 0.06434589 -0.107647225
-0.18172124 0.28005993 -0.60650027 1.1938502 -0.35144767 0.39552596 -0.24278502 -1.1944075
1.0629003 -0.9900699 -0.23517618 -0.65342456 0.94384927 1.5223641 -1.4050359 0.9404382
-0.66786927 0.99763244 -0.76522857 -0.8202676 0.17212707 0.07024313 0.4732581 -0.80520415
0.12731694 0.32757878 -0.120389335 -0.14745869 -0.0064606527 -0.12910171 -0.2603306 -0.08512522
-0.15179808 -0.23330702 0.29986975 0.117425 0.09580042 -0.029330542 -0.39199513 -0.69313145
-0.009593355 0.037680604 0.27785483 0.3789753 -0.050308913 -0.32886174 -0.04781344 -0.12093667
0.0074611846 0.29164085 0.008393668 -0.23407653 1.3372331 0.8738518 -0.10578756 -0.17404616
0.3432694 -2.5060556 -2.6285238 -0.14558844 0.23762484 -0.29590794 1.5031729 2.4185624
0.39279646 -0.3364633 -0.058207333 0.03776689 -1.0820423 0.082204305 0.31504086 0.16692527
-0.24191178 0.24918756 -0.16622579 -0.21233962 0.580427 0.19209915 -1.4073535 -0.71061367
0.34535095 0.490881 -1.1010472 1.9419528 0.7788218 -0.25161412 -0.5311401 -1.0995759
0.8966788 -0.5303956 -0.12739353 0.49723655 0.3905665 -0.63884866 0.43370545 0.311309
0.01393763 -0.29229102 0.2669781 -0.14702308 -0.20495114 0.044862907 -0.51026386 0.46251047
-0.2136593 0.05900349 0.48820964 -0.77292097 0.38018465 -0.13399251 0.18869902 -0.8561021
1.7457453 -2.583309 2.1300168 -0.99664164 -0.06544896 0.8838487 -2.1716728 1.7214537
-0.6650356 -0.3894856 0.8598366 -0.8819779 0.6792994 -0.16699263 0.0009053708 -0.09513933
1.0154775 -0.47798476 -0.29595846 -0.15409613 -0.11356749 2.1933799 -1.480125 -0.33908647
-0.12820417 0.5786428 0.95902264 -0.37031603 -0.8174138 0.11633551 0.47176766 -0.46095005
0.5901271 -0.78222394 0.23411332 -0.2029176 -0.22500986 0.51790553 -0.49999514 -0.4513891
0.33613625 0.17638575 1.0389705 0.021696532 0.32092097 0.11607584 -0.39920396 -1.7284874
0.5008056 0.035976447 -0.534522 -0.8085147 -2.092008 0.07175225 -0.5381938 0.6675104
1.1083341 1.3072965 0.23225714 -0.25804245 0.31478295 -0.6900654 -0.5723946 0.07510871
-0.505865 -0.36319804 0.25034377 -0.7633357 -0.35155085 1.0160651 -0.8853241 0.16307601
-0.07411901 1.1580185 1.039812 -0.14233416 -0.90027463 -1.0121425 0.4440633 -1.0005924
0.3368968 -0.0097769825 0.22038068 0.17286937 0.6162739 -0.23784329 -0.57449996 -0.6192921
0.5966941 0.19953038 -0.4018365 -0.30158475 -0.36377612 -0.5504622 0.20208208 -0.5546952
-0.46416494 0.18634614 -0.6979169 0.8405774 0.45458916 0.14099391 -0.35184333 0.13527331
-0.37861443 -0.5493342 0.3445748 -0.8335283 -0.31737027 1.0808899 0.487136 0.47968987
0.87265223 0.18028927 0.10768076 0.26218686 0.19954978 0.087181896 0.03082093 0.22265178

convolutional_layer_1.0.bias f4 [16]
00000000: 5889 1ac0 8603 85be 7ff7 cd3e ed4a 3bbe
00000010: 8029 43be fe13 21bd 6119 5ebe 7314 b9bd
00000020: eab0 8abe bc3f b0be 28ef dd3e d6e3 a2bd
00000030: da21 afbe 4f53 a1be b9be 05be 45a6 393d
-2.4146328 -0.2597925 0.40227887 -0.182903 -0.190588 -0.039325707 -0.21689369 -0.090371035
-0.270881 -0.34423625 0.43346524 -0.079536125 -0.34205514 -0.31508872 -0.13061036 0.045324583

convolutional_layer_2.0.weight f4 [32, 16, 5, 5]
00000000: 5f9b 48bd fdf3 58bd 870c a2bc bcb3 b73d
00000010: 1ef6 813d 7b16 c4bd ed42 bbbc 6df1 3a3d
00000020: 9a67 783c 3da6 b53c ab8c 97bc b202 bf3c
00000030: ff54 79bc cfe1 023d b1ee 4d3c c3a8 29bd
00000040: b0f0 08bd 6fe6 953c 16bd 8f3c 0887 84bb
00000050: 392f 80bc f6a2 acbc 9212 07ba 3389 d23b
00000060: abf8 68bd 68dd 9a3d 1e6b 233d 968e 31bb
00000070: 1425 a63d c2e6 573d e7ff 123c e9a4 acbc
00000080: 63f8 ff3c 7227 8a3d c87b 133e 5972 0b3d
00000090: 4352 bb3d ac0a 793d 8c6b e63c 45e0 083d
000000a0: 0105 153d 0fa7 823c 7ce3 b0bb 222e 04bd
000000b0: 763e 3d3c 7ee7 573c ea0c 8b3d f3a4 1d3d
000000c0: fda6 8b3d 1784 fb3c dfa2 c0bc 0e83 9bbd
000000d0: ab71 9dbd 75ab 41bd aee3 893c a1a3 0d3b
000000e0: e6ad 45bd 9a1b 0dbd de29 07bd 7cc1 5abd
000000f0: 817a 57bc de2d 49bc a090 a2bd a1d5 63bc
00000100: 5d68 1b3d 28d4 b4bd 092f 00bd 7a6c 963b
00000110: 46dd 233b 07ab 94bd 4a77 97bd 1328 e1bc
00000120: bd8a 9ebd f471 52bd ff41 b0bd 838a 31bd
00000130: 4d7a bdbc d2dc 85bb ba83 f5bd 8856 cdbd
00000140: 7cd6 733d 410a 883c b537 2fbe 3983 05be
00000150: 4e91 20bc f8fe 84bc debf 92bd 2947 f8bd
00000160: 2165 a8bd e057 75bd a319 d4bd 2167 79bc
00000170: 0247 39be 15c9 e4bd 99c3 21bd 44a2 45bd
00000180: e2a3 b2bd ef10 dbbd 7950 83bd 8f1b 98bd
00000190: a9f2 f5bd 24c7 903c 21e5 fe3c e505 08be
000001a0: 91ec 0dbe ca90 2cbd e97e 8d3c ac48 89bd
000001b0: a363 46be aead c8bd b9be 85bd c57d b3bd
000001c0: 75bd f039 fceb ccbd 9c7b c4bd f466 9cbd
000001d0: 39d6 bdbd 00c1 aabd b778 06be 9c78 debd
000001e0: bf3a 90bd 3f47 90bc a067 21bd 1bb6 92bd
000001f0: ce2e 93bc 4c50 7e3b 7686 61bc 6688 34be
00000200: ec94 f1bc a327 8fbc 40e8 80bd d294 1abd
00000210: 5a98 35bd 6ec5 2fbd f1e8 813b 528f a7bd
00000220: a78b 80bc 129c e3bd c7bd 7abd dba2 6ebd
00000230: 330c 98bc b705 04bc a9af 8cbd 8bab 80bd
00000240: 6839 9ebd b838 113d e1cd 71bc 4873 09be
00000250: 090d bdbd c784 bdbd 7f2f 483d 866e b5bd
00000260: 79a0 f9bd 604b 59bc 447b e9bc f1b5 30bd
00000270: e112 dfbd c472 07be 87ae c73b ba07 f33c
00000280: cf17 fabd c292 9cbd 9a1f 7dbd ae66 823d
00000290: 84e1 30b9 7871 bdbd c705 c8bc 7eae 7cbd
000002a0: b99c 033d 73f2 343d 6124 e5bd a0b8 78bd
000002b0: 0390 91bd 6e97 d0bb 7af0 d23c be3a 343c
000002c0: cf1a 3e3d cc00 5abd 3f90 31bd 0672 2c3e
000002d0: 663d 303d 7057 133c 119a c2bd b83e 653d
000002e0: 8c28 2b3d af85 f63c ab14 e93d daf2 a7bc
000002f0: 1a51 243d da79 40bc 249e 283d 2703 e1ba
00000300: 04ca 3abd 200c 463c ced3 1b3a 6dd3 fb3b
00000310: 8fe3 663d 1f45 883d 80f9 223d feb5 873d
00000320: b3a3 9cbd ac1c 35bc 6bca 0ebd 038b 9bbd
00000330: a2be 983c 1c88 72bd 5b7b 06bd 034d 843c
00000340: 7790 b3bc c2a9 9a3c 8f0d 32bd e2ad 76bc
00000350: bb02 d43c d234 87bc f430 b7bd ed41 0ebc
00000360: 38b7 213d 7077 88bd d206 1fbd e88a 97bd
00000370: 6a94 c2bc 9dfc 20bc dc2c d4bd 1921 48bd
00000380: ce4b 67bc d369 44bd 3bf7 dbbd bc74 f9bd
00000390: 7609 08be dd3f a5bd 8524 1fbe 152f 60bd
000003a0: 480a a5bd 57ee 81bd 02ad b9bd a9ea b9bd
000003b0: 2912 96bd 8295 82bd e92a 56bd c4b9 01be
000003c0: 27ff f63c 6d21 1dbd 123e aabd 7037 a5bd
000003d0: 61c6 eebc 022d 2b3b 18d9 17bb e869 9fbd
000003e0: c485 58bd cfda 2abd f315 403e a4fb a03e
000003f0: 5c38 bf3d 4648 a13d 3a62 813e 1a8c 9c3d
-0.0489763 -0.05296706 -0.019781364 0.089698285 0.06345771 -0.095746 -0.022859061 0.045640398
0.015161419 0.022173995 -0.018499693 0.023316715 -0.015218019 0.03195363 0.0125691155 -0.04142071
-0.033432662 0.018298356 0.017546218 -0.0040444173 -0.015647518 -0.0210738 -0.00051526085 0.006425047
-0.056877773 0.07561761 0.039897077 -0.0027093044 0.08112541 0.052710302 0.008972145 -0.021074729
0.03124637 0.06745805 0.14402688 0.034044597 0.091465496 0.060801193 0.028127454 0.033417005
0.036381725 0.0159488 -0.005398212 -0.03227056 0.011550536 0.013177751 0.067895725 0.038487386
0.0681896 0.030702634 -0.023515163 -0.07593356 -0.07687696 -0.047282655 0.016832199 0.0021612423
-0.048261546 -0.03445015 -0.032998912 -0.053407177 -0.013151766 -0.012279002 -0.07937741 -0.013905914
0.037941325 -0.08829528 -0.031294856 0.004590568 0.0025003715 -0.072591834 -0.073957995 -0.02748493
-0.07741306 -0.051378205 -0.08606338 -0.043344986 -0.023129607 -0.0040851617 -0.119880155 -0.1002627
0.05953072 0.016606452 -0.17111094 -0.13038339 -0.009800268 -0.01623486 -0.07165502 -0.12122948
-0.08222414 -0.059898257 -0.10356452 -0.015222342 -0.18093494 -0.11171166 -0.039493177 -0.04825045
-0.087226644 -0.10696589 -0.06411833 -0.074271314 -0.120091744 0.017673083 0.031115117 -0.13283499
-0.13859774 -0.04213027 0.01727243 -0.06703314 -0.19373946 -0.09798752 -0.06530518 -0.08764223
0.00045917524 -0.10005948 -0.09593889 -0.07636824 -0.09269375 -0.08337593 -0.13131987 -0.10862848
-0.07042455 -0.017612098 -0.039405465 -0.0716364 -0.017966654 0.0038805185 -0.013764968 -0.17630157
-0.029489957 -0.017474955 -0.06294298 -0.037739582 -0.044334747 -0.042912893 0.0039645364 -0.08181633
-0.015691591 -0.111137524 -0.061216142 -0.05826078 -0.018560505 -0.008058003 -0.06869442 -0.06282719
-0.07725793 0.03545448 -0.014758558 -0.13422883 -0.09231002 -0.09253841 0.04887342 -0.08858971
-0.12188811 -0.0132626 -0.02850116 -0.043142263 -0.10892273 -0.13227373 0.0060938033 0.02966677
-0.122115724 -0.07645179 -0.061797716 0.06367241 -0.00016868679 -0.09250158 -0.024416817 -0.061689846
0.032131884 0.04417653 -0.11188579 -0.060722947 -0.07107546 -0.006365708 0.025749434 0.011000333
0.046412285 -0.053223416 -0.043350454 0.16840371 0.043027304 0.008993015 -0.09502042 0.055968016
0.041786715 0.030093042 0.11380895 -0.020501543 0.040116407 -0.011747802 0.04116644 -0.0017167077
-0.045602813 0.012087852 0.0005944342 0.007685116 0.05636936 0.06653809 0.039788723 0.06626509
-0.07648411 -0.011054199 -0.03486101 -0.07594874 0.018645588 -0.059211835 -0.032832485 0.016150003
-0.021919472 0.018879775 -0.04346996 -0.015056105 0.025880208 -0.016504679 -0.08944884 -0.00868271
0.03948137 -0.06663406 -0.038824864 -0.07399541 -0.02375241 -0.009825853 -0.10360119 -0.04885969
-0.014117194 -0.047952484 -0.10740515 -0.121804684 -0.13284859 -0.080688216 -0.15541275 -0.0547324
-0.080586016 -0.06344288 -0.09066202 -0.09077961 -0.073276825 -0.063761726 -0.052287016 -0.1266852
0.030150963 -0.038361955 -0.0831262 -0.080672145 -0.029147329 0.0026119356 -0.002317017 -0.07783872
-0.052861944 -0.04171258 0.18758373 0.31441987 0.093369216 0.07875113 0.25270253 0.0764391

convolutional_layer_2.0.bias f4 [32]
00000000: 7063 dcbd 3be4 c93f ac6d 573f f6b1 17bd
00000010: 4702 083d 7858 a93e 5163 463c fbf6 d23e
00000020: 3b5d d03f 29fc e23e a125 503d 75bb 7fbd
00000030: 4ba5 0a3e d3d3 d83d fd38 e4bf 4728 5b3e
00000040: 53c3 f83e 2c2c e53e 9777 c23e 5069 01be
00000050: f66d 363c eba1 923f 1509 d0bf d8de af3e
00000060: bbfc 91be 6aa0 253e d9ea 253f d97b 05bb
00000070: 1dab 173f 480c 5f3f deeb 343f b389 0dbe
-0.10761154 1.5772775 0.8415172 -0.03703495 0.033205297 0.3307531 0.01210864 0.41204056
1.6278452 0.44333008 0.050817136 -0.062434632 0.13539617 0.10587277 -1.7829891 0.21402083
0.4858652 0.44760263 0.37981865 -0.1263783 0.011134615 1.1455663 -1.6252772 0.34349704
-0.2851313 0.16174474 0.64811474 -0.0020368008 0.59245473 0.87128115 0.70672405 -0.1382206

fully_connected.weight f4 [9, 512]
00000000: 527d 5bbd 2089 83bc 5d5f 293b d047 333d
00000010: 2a68 ad39 06b2 abbd 2e76 dc3c be96 50bc
00000020: 2094 33bd 1021 4fbd 2194 c33c 1713 3fbc
00000030: 70ae de3b 4427 46bd 21b8 3bbd 70e7 cdbc
00000040: e042 ecbe a6a3 36be 1abf 80be a7a4 95be
00000050: 9875 b9be 56bb 07be c09c 2abe 0332 7ebe
00000060: 4500 9ebe 0d9a 29be d38c 31be c752 9ebe
00000070: 16d6 cdbe eb87 81be cc9b 65be 78fb 9bbe
00000080: 858e 853e 3846 a43d 7969 d13d cfb8 9d3e
00000090: e01c f73d 34e8 153e 3aed c23d a257 233e
000000a0: b2e5 56bc 8259 8dbc f392 95bc 71ab 2f3c
000000b0: 68e5 173e 249f d9bc b434 f23d 5454 123e
000000c0: a385 0dbe da05 74bc 5bb6 6f3b e5d9 9f3c
000000d0: d16c 0abd 4819 a53d 5898 193e 6775 b5bb
000000e0: fc3f 7c3d 01d8 b23d a1e0 b33d fd0b 40bd
000000f0: eaec e63b a791 ad3d 0f75 9f3d 62f9 d13d
00000100: 960f 67be bee8 a2bd 7ae8 46bd 642d c83c
00000110: 7123 95bc 2069 1e3d 9ea8 ab3d 3037 093c
00000120: 0689 c83d abbc 1d3e add6 643e 1a38 7c3d
00000130: a97a ffbd e486 a6bc 3a71 9a3d 536a fabc
00000140: eb16 473e 96d0 7d3e 6044 4a3e e9d7 6a3e
00000150: 3bf7 753e b28e f03d 7aed 7a3e b432 003e
00000160: ed0c 2c3e 68c4 dc3d 43b5 db3d 6ca6 d73d
00000170: e98b 213e 730f 983e 211d 693e c182 723e
00000180: 3ba5 003e ca6a e63c 6bb2 9e3d ed1a 1e3e
00000190: 5fd9 583d 31a4 743d 361c 3c3d a9e2 063d
000001a0: b3cc 123d adae 263d 1496 d2bd d0a9 8a3d
000001b0: e154 893e f002 e73d 7a59 e73c 115b f33d
000001c0: acc4 aa3e bfbf 733e 9a52 1e3e b47f 9f3e
000001d0: 9536 5c3e 6acc 8d3d 3fe7 96bc e77f 973e
000001e0: 8592 523e ab26 b93d 3122 363c b575 a13e
000001f0: ec83 b53e 6912 9f3e d23f 863e 5cc6 733e
00000200: 72ac 8ebd 4f1b 88bb 3216 4cbd d7af 99bd
00000210: a6a0 bebd d6f4 99bd 60f4 b7bd cfdb 96bd
00000220: a57f febd ddea debd 8dd5 c1bd 1f6b cfbd
00000230: a544 6abe cb5a 42be ef61 f9bd 99c2 4fbe
00000240: b6ab 8dbd d117 47bb 5e63 04bd 3ce0 9dbc
00000250: 226c b7bc e06d 323d c368 bf3c e424 9abc
00000260: 6b61 43bc 07f5 46bc fcc6 c93c 0bfb 3dbd
00000270: 9352 d9bc 6821 0e3d cce3 3a3c 70fe b93c
00000280: 19aa 80bd a8f7 72bd 1a72 1cbd 8869 9dbd
00000290: 8695 dfbd a25f e1bd c735 21be 0148 1bbe
000002a0: d601 a5bc 869d d5bc 4f27 36bd ce44 1cbe
000002b0: d0ba 81be 0df0 2cbd 1a28 1cbe 32dd 44bd
000002c0: e1dd 0dbd 533e 83bd 25dc 703b a564 9e3b
000002d0: 91f9 d33c 0adc 11bd c1d7 a2bb 0a97 48bd
000002e0: a00f 75bd a2a9 89bd 566b 21bb 8b47 13bd
000002f0: c34b 3cbd a653 57bc 6d53 09bc 7cfb 0cbd
00000300: 4665 693d 1458 b3bb 0a54 a3bd 6471 59be
00000310: 6a5d 843d 175a 37bc 2f34 ff3c 7c62 d1bc
00000320: 6359 903d a0a6 02bd b6d3 6f3d dceb e73d
00000330: c136 d03d f03c 023e 9bab c6bc 5c43 53bd
00000340: 3a99 cabe d8fb 84be 6ce4 90be cb60 68be
00000350: 8a9d 18be 7ecb 5fbd 0cdc ecbd 8e5b 5ebe
00000360: 862b 6abe 92ea 24be 048e 28be 706f 47be
00000370: ea34 c5be 1bab 3fbe 6f7c 34be c622 76be
00000380: e636 96be df34 56be 2893 fcbd 64f9 90be
00000390: 0179 c6bd 11ab 7ebd 6d5f cebd 1791 4bbe
000003a0: d80d 52be 7e7f 2bbe 9947 96be a9d4 19be
000003b0: 2f63 7dbe fef9 3fbe 0502 d7bd 0646 4fbe
000003c0: a9eb 8f3e c1d5 833d ca00 fd3d 6ebf 8d3e
000003d0: eab4 433e 4bb1 863c 4c87 bbbd b731 0cbd
000003e0: 63f2 af3b 0ec2 d5bc c8a7 08bd b033 e33d
000003f0: bdc7 8f3c 7799 8bbc b699 d3bd a236 b8bc
-0.05358631 -0.016056597 0.0025844194 0.043769658 0.0003307474 -0.08383565 0.026911821 -0.012731252
-0.043842435 -0.05056864 0.023874344 -0.011662266 0.006795697 -0.04837729 -0.045829896 -0.025134772
-0.46144772 -0.17835864 -0.251458 -0.29227182 -0.3622253 -0.13255057 -0.16661358 -0.24823765
-0.3085958 -0.16562672 -0.17338876 -0.3092253 -0.40202397 -0.2529901 -0.22422713 -0.30465293
0.26085296 0.08021206 0.102251954 0.3080506 0.12066054 0.1463936 0.095179036 0.15951398
-0.013116287 -0.017254595 -0.018258547 0.010722027 0.14833605 -0.026565142 0.118264586 0.14289981
-0.1382051 -0.014893973 0.0036577198 0.01951308 -0.03379518 0.08061463 0.14999521 -0.005537677
0.061584458 0.08732606 0.08783079 -0.046886433 0.0070472853 0.084750466 0.07785999 0.10252644
-0.2256454 -0.07954548 -0.04856155 0.024435706 -0.018205376 0.038674474 0.083817706 0.008374974
0.0979176 0.15404002 0.22347517 0.06157694 -0.124745674 -0.020327993 0.075411275 -0.030568277
0.19442336 0.247866 0.19752645 0.22933926 0.24020092 0.11745967 0.24504653 0.12519342
0.16801806 0.10779649 0.10727932 0.10529789 0.15776028 0.29699287 0.22765018 0.23682691
0.1256303 0.028127093 0.07748874 0.15439959 0.052941676 0.059726898 0.04592534 0.032931004
0.035839748 0.040693928 -0.102825314 0.067706704 0.2682257 0.11279857 0.028240908 0.11882604
0.33353174 0.23803614 0.15461197 0.31152117 0.21505196 0.069237545 -0.018420814 0.2958977
0.20563705 0.090405785 0.01111655 0.31535116 0.3545221 0.31068733 0.26220566 0.23806137
-0.06966485 -0.004153646 -0.049825855 -0.07504242 -0.09307985 -0.07517402 -0.08982158 -0.07366144
-0.1242669 -0.1088464 -0.0946456 -0.101278536 -0.22877748 -0.18979947 -0.121768825 -0.20289077
-0.06917517 -0.0030379186 -0.032321326 -0.019271962 -0.022390429 0.043561816 0.023365384 -0.018816419
-0.011925082 -0.01214338 0.024631016 -0.04638199 -0.026528632 0.034699827 0.01140685 0.022704333
-0.062824436 -0.059318215 -0.038194753 -0.07686144 -0.10917191 -0.11004569 -0.1574317 -0.15164186
-0.020142477 -0.02607609 -0.04447108 -0.15260622 -0.2533784 -0.042221118 -0.15249673 -0.04806251
-0.03463543 -0.06408372 0.003675231 0.004833775 0.025875838 -0.035610236 -0.0049695675 -0.048972167
-0.059829354 -0.06721808 -0.0024630628 -0.0359569 -0.04597069 -0.013142502 -0.008381707 -0.03441952
0.056981348 -0.005473146 -0.079750136 -0.21234661 0.0646313 -0.011190913 0.031152813 -0.025559656
0.07048299 -0.031897187 0.058551513 0.113242835 0.101666935 0.12718558 -0.02425175 -0.05157791
-0.39570028 -0.25973392 -0.28299272 -0.22693174 -0.14903846 -0.054637425 -0.11565408 -0.21714613
-0.22868165 -0.16105106 -0.16460425 -0.19476104 -0.38516933 -0.18717615 -0.17625593 -0.24036703
-0.2933876 -0.20918606 -0.12332755 -0.2831527 -0.096910484 -0.06217486 -0.10076795 -0.19879566
-0.20513093 -0.16747853 -0.293515 -0.1502253 -0.24744867 -0.18747708 -0.10498432 -0.20241556
0.28109482 0.06437255 0.12353666 0.27685112 0.19111982 0.016441962 -0.09156665 -0.0342271
0.005369471 -0.026093509 -0.033363134 0.11093843 0.017551297 -0.017040951 -0.103320524 -0.022486988

fully_connected.bias f4 [9]
00000000: ab9c 59be cfa2 4c3e 38db 933d 99b7 0f3d
00000010: 516d 78be d8f0 fcbe 400c 733f 4a09 473e
00000020: f949 363f
-0.2125117 0.19983982 0.07219547 0.0350872 -0.24260451 -0.494025 0.94940567 0.19437137
0.71206623
