results/torch_1L_lstm_model.pt (torch, 214455 bytes, 6 tensors)

lstm.weight_ih_l0 f4 [400, 28]
000000 12 88 ae 3d f4 4e aa bd a3 a1 8f bd 40 3e 88 3d
       0.08522047 -0.0831584 -0.07013252 0.06652498
000010 67 16 8c 3c f2 cb d8 bd 5d 25 8a bd b7 a0 1e bd
       0.017100526 -0.105857745 -0.06745408 -0.03872749
000020 0d 22 08 be cd e4 d8 bc 3d ab 6d 3a 58 c8 34 3d
       -0.1329424 -0.026476288 0.0009066349 0.044136375
000030 83 4b be 3d ee de 11 3d 36 e0 21 3d 73 2a ce bb
       0.092917465 0.035612993 0.039520465 -0.0062916814
000040 05 10 e2 ba 0c ca dd bd ea b0 5e 3c 89 ce 16 bb
       -0.0017247206 -0.10829553 0.013591984 -0.0023011288
000050 a8 9a 06 be b2 5b 3c 3d ff 89 08 be 86 d8 fb bd
       -0.13144934 0.045985885 -0.13333891 -0.12297158
000060 37 6c 5c bd 7d 91 ac 3d 3c fc df 3b 16 cd 46 3d
       -0.05381414 0.08426187 0.0068354886 0.04853543
000070 f8 9e 0b 3e dd 2a 30 3e 81 02 5b 3e 53 38 27 3d
       0.1363486 0.17203851 0.21387674 0.0408252
000080 c3 c7 6f 3c 69 fe f3 3c 6a bb b4 bd 62 57 50 3d
       0.014635029 0.029784398 -0.08824809 0.050864585
000090 f4 ce 1f 3d a3 33 0b bd db 09 2c bd 4b 43 49 bd
       0.039015725 -0.03398479 -0.042001586 -0.04913644
0000a0 c9 f1 12 3e 45 da d0 3d 13 aa 09 3e ae 12 a0 3c
       0.14350046 0.101978816 0.13443784 0.019540157
0000b0 e8 66 bb 3d 31 7c a3 bd 73 e6 bd bd 94 af 0b be
       0.09150487 -0.07982672 -0.0927247 -0.13641196
0000c0 77 fd 37 be fb f0 e7 bd bb 12 95 bd d9 f4 14 3d
       -0.17967783 -0.1132526 -0.07278963 0.036366317
0000d0 a2 f9 35 3d d1 62 34 3c 7a ea 39 3c b4 c3 0b 3e
       0.04442752 0.011009888 0.0113474075 0.13648874
0000e0 1d f0 8f bd 0a 16 30 be 47 c4 75 bd 59 f6 85 bd
       -0.0702822 -0.17195907 -0.060001638 -0.06541128
0000f0 a6 93 4c ba 84 5a 99 3d c8 96 40 3d ed d2 37 bd
       -0.0007803984 0.074879676 0.047018796 -0.04487889
000100 3a 36 ae bd 3d 7c ff 3c a1 34 8a 3d 73 db 05 3e
       -0.08506437 0.031187171 0.067483194 0.13071994
000110 b0 8d ac 3d b9 66 8d 3d 6d df 9a bd 31 85 c9 bd
       0.08425462 0.069043584 -0.07562146 -0.09839857
000120 70 c3 bc bd eb 76 bc 3a 7d 52 7b 3d 87 18 88 3d
       -0.09216964 0.0014378702 0.061357964 0.06645303
000130 d5 13 91 3d c6 9d fe 3b c9 82 eb 3d d8 c8 26 3c
       0.07083861 0.007770273 0.11499555 0.010179721
000140 19 ea 83 3d 93 48 b6 3d 04 f5 16 3e 4a 9b cf bb
       0.06441135 0.08900561 0.14741904 -0.0063356506
000150 d4 0d 95 bc bf 66 cb be e2 aa 1c bc 23 90 ed 3d
       -0.01819507 -0.39726827 -0.009562226 0.115997575
000160 42 c9 ac 3d 41 e8 4c 3c 85 a4 b1 3d 9c 09 26 bf
       0.084368244 0.0125065455 0.08673958 -0.6485841
000170 5d cb b5 be 5b 90 99 3e 19 bd ff 3c 62 94 d2 3d
       -0.35506716 0.29992947 0.031218098 0.10282208
000180 e6 6d 65 bf b2 bd a0 be 3d 07 fb 3e 81 47 c3 be
       -0.89620817 -0.31394726 0.4902896 -0.3814049
000190 73 ca 9c be 3c 69 29 3f 30 30 31 3f 69 4e 1a bf
       -0.30623206 0.661762 0.69214153 -0.60275894
0001a0 fb 41 6b bf 12 52 6a 3e 81 90 ba 3e 5d f8 d8 be
       -0.91897553 0.2288287 0.36438373 -0.42376986
0001b0 7c 33 98 3e b9 68 93 be f3 f8 0a bf c8 e6 8a bd
       0.2972678 -0.28790835 -0.54286116 -0.06782299
0001c0 be 56 e8 3c ec 09 e0 3b f4 37 0e bd 96 7b 11 3d
       0.028361674 0.0068371203 -0.03472133 0.03551825
0001d0 43 9a de 3d b2 a7 86 bd 29 86 e0 bd 44 d7 6d bd
       0.10869267 -0.06574954 -0.10963089 -0.05806662
0001e0 af 26 11 bd f2 ff 05 3d 2d a8 ce bc a1 4a 68 bd
       -0.035437282 0.03271479 -0.025226677 -0.056711797
0001f0 d3 1c 87 bd 42 32 21 3e ee 30 46 3c 41 83 1d 3d
       -0.06597295 0.15741828 0.012096627 0.03845525
000200 9a b9 2d 3e ff f5 a5 3d 71 fc db 3c d4 b3 a2 bd
       0.16965333 0.08103561 0.026853772 -0.07944456
000210 07 31 3a 3d b6 4b 46 3e 07 3f 2f bd 37 f7 02 3d
       0.045456912 0.19364819 -0.042784717 0.031974044
000220 32 7e 80 bb ba 16 f9 3d 81 ea a5 3d ff 22 2f 3d
       -0.0039212937 0.12162538 0.08101369 0.042757984
000230 dd 23 af bc 81 e6 29 be e8 5a ba bc 0d a2 17 3e
       -0.021379406 -0.16591837 -0.022748426 0.14807911
000240 3d 90 c0 3d 75 64 0e 3d b2 6e 02 3e 69 10 09 3e
       0.09402511 0.034763772 0.1273754 0.13385166
000250 97 78 55 bd d0 e9 9a be f4 8a 99 bd 56 ef ae be
       -0.052116957 -0.3025651 -0.07497206 -0.34166974
000260 c8 49 6a be 14 25 99 be 4b 18 17 3c 16 b2 2c 3e
       -0.22879708 -0.299111 0.0092221005 0.1686481
000270 81 d4 34 3e a0 7b 9e be fb db 16 be 24 39 0d 3e
       0.17659189 -0.30953693 -0.14732353 0.13791329
000280 8a 23 1f bc 3d 33 25 3d 95 06 ac bd bc 10 8c be
       -0.009713063 0.040332068 -0.08399693 -0.27356517
000290 ab 2d 44 be d1 e5 69 3e 1c 0d 0e be 53 8e de be
       -0.19158046 0.22841574 -0.13872188 -0.4346796
0002a0 23 22 2f be de ce ca bc c8 67 24 3d 4b 31 d7 3d
       -0.17102866 -0.024756845 0.040138036 0.10507449
0002b0 0c 06 ab bc a0 26 c3 37 81 18 c2 3c a9 cb f3 bd
       -0.020876907 2.3263798e-05 0.023693325 -0.119040795
0002c0 12 92 b6 3b 05 1a 3e bd 7f a0 91 bd d6 42 9d 3b
       0.005571612 -0.046411533 -0.0711069 0.004799227
0002d0 f5 1a b7 3d 1f 61 c8 bd c8 44 c4 bc b5 63 1b 3e
       0.089406885 -0.097841494 -0.023958579 0.15174754
0002e0 b3 4b bb bd e2 54 bb bd 78 7a 60 3e db 2a 78 3e
       -0.09145298 -0.091470495 0.21921718 0.24235098
0002f0 2c 52 81 3e c4 76 81 3d 1a 5c 31 3c 77 70 90 3c
       0.25258005 0.06321481 0.010825181 0.017631752
000300 0c f1 c7 bd 1a 5e 4c 3c 65 49 84 bc ab 57 bb bd
       -0.09762773 0.012473607 -0.016148278 -0.09147581
000310 3b 90 f9 3c d8 5e 86 bc 85 6c bd bd 43 4b 3a be
       0.030464282 -0.016402647 -0.09249214 -0.18192773
000320 ab f5 17 3c fa 21 38 bd 3d 89 35 3e 73 55 28 3e
       0.00927488 -0.044954278 0.17728133 0.16438846
000330 c3 b1 37 3e 58 0a d9 be 0b f6 c4 be d0 7b 63 3e
       0.17938904 -0.42390704 -0.38468966 0.222152
000340 c5 d6 85 3e 6f f3 da 3d bc 46 c0 3d 97 3e a2 3e
       0.2614042 0.106909625 0.093884915 0.31688377
000350 38 09 ba 3e 36 53 e8 3e 3e 19 82 3d 3e ce 3f be
       0.36335158 0.45375985 0.06352471 -0.18731019
000360 8f ab 27 3e e2 d6 2c 3f c1 1e b0 3e ef 25 4d 3e
       0.16374038 0.67515385 0.34398463 0.20034002
000370 a1 ec 9d 3e 0a 5d 9e 3e 42 d7 09 3e 5d 43 5b 3e
       0.30844596 0.30930358 0.1346102 0.21412416
000380 b5 a5 48 3e 07 ba 4b be e2 d1 5d be c5 26 97 3d
       0.19594462 -0.19895183 -0.21662095 0.073804416
000390 cd ba d1 3c 23 67 9b 3d de a1 1e bc cc 27 6e bd
       0.025601769 0.07588031 -0.009682147 -0.058143422
0003a0 36 c1 0e 3d 24 0d 89 bd 6a 6b 94 be b2 e3 19 3e
       0.03485223 -0.066919595 -0.289882 0.15028265
0003b0 2b 8b 92 3e b6 69 16 3e c5 7e 98 be 1f 21 c9 bd
       0.28621802 0.14688763 -0.29784217 -0.098207705
0003c0 51 38 02 bd 3e 7b 29 bd f3 9f 67 3e 96 4b 10 3e
       -0.03179199 -0.0413773 0.2261961 0.14091334
0003d0 f0 b9 37 3e 98 06 53 3c 24 7f 4c bd 8d 53 f9 3d
       0.17942023 0.01287999 -0.04992594 0.12174139
0003e0 0d 03 d3 3b e6 b5 89 be eb 1f 8d be 38 80 7b bd
       0.0064395727 -0.2689659 -0.27563414 -0.061401576
0003f0 9c ea be bd df 88 38 bd 6a 55 8b 3d d4 f9 d5 bc
       -0.09322092 -0.045052405 0.06803401 -0.026120104

lstm.weight_hh_l0 f4 [400, 100]
000000 e3 a6 4a bd b7 f8 e4 3d 8e f0 e2 bc b3 e0 95 bd
       -0.04947556 0.11180251 -0.027702596 -0.073182486
000010 30 a0 04 3e b7 83 57 3d 80 1b 99 bc 33 32 2c 3d
       0.12951732 0.052615847 -0.01868987 0.04204006
000020 7b 61 8b bd f3 29 ef 3b f2 70 8d 3d 99 4f 6d 3d
       -0.06805702 0.007298702 0.06906308 0.05793724
000030 45 7c 11 bd 0f d0 0b 3e da 42 4f be 21 6f 72 bc
       -0.035518903 0.13653587 -0.20240346 -0.014797003
000040 a0 d5 bf 3d af 54 4a 3e fe eb ba bb ff d1 90 3b
       0.093669176 0.19758867 -0.005704402 0.0044195647
000050 97 f3 84 bd 76 01 00 3d 02 7b ce bc 84 14 7b 3d
       -0.064917736 0.031251393 -0.02520514 0.061298862
000060 6c e7 de bd 63 6e 54 be 13 40 04 3d a0 2e 5b bd
       -0.10883984 -0.20745234 0.03228767 -0.053511262
000070 84 91 79 bd 65 aa bf b9 d4 b8 47 bd f5 cf 03 3e
       -0.06092979 -0.00036557313 -0.04876025 0.12872298
000080 41 a9 df 3c eb ca 1b bd 27 6e 20 bc ee 4d 42 3d
       0.027302386 -0.038035315 -0.009791887 0.0474376
000090 09 c2 0d 3d 68 db 8f bd 12 19 69 bc b7 d8 d4 bc
       0.034608874 -0.0702427 -0.014227169 -0.025982244
0000a0 40 d9 17 3c 79 39 1b be 49 53 98 bd ca 69 8d 39
       0.009268105 -0.15158643 -0.074377604 0.00026972435
0000b0 51 71 9c 3d a8 c4 57 bd 1e ab b2 b9 36 49 1a 3d
       0.07638801 -0.05267778 -0.00034078298 0.037667476
0000c0 c4 27 13 3c e1 17 3f 3d 6e c0 ff 3d 1b ab 57 bc
       0.008981649 0.046653632 0.12487875 -0.013163353
0000d0 21 5e 44 3d 6a 07 0c 3b 27 04 30 3c 58 b1 8d 3d
       0.04794133 0.0021366724 0.0107431775 0.06918591
0000e0 7b e7 7c 3d 2d 87 ba bd 05 9c d8 3d 5d 6c 05 be
       0.061744194 -0.09107814 0.10576633 -0.13029619
0000f0 5e 22 e8 bd 84 35 d9 3c 19 9e cd 3d 9e 6a a6 3b
       -0.1133468 0.026514776 0.1003992 0.0050786277
000100 f1 a0 a6 bd 40 91 ed 3d ff ab ea 3c 61 de ce bd
       -0.08136166 0.1159997 0.028646467 -0.10101009
000110 d3 b0 bf bb 7e b9 a7 3d 90 28 24 bb fc 8c 1c bc
       -0.0058499365 0.08189677 -0.0025048591 -0.009555098
000120 3d 0a 69 bd ff b4 b4 bd 75 a6 b7 3d 12 c5 9b 3d
       -0.05689453 -0.08823585 0.08967296 0.076059476
000130 c5 58 6c bd 28 b2 ab 3d 49 1d 7c bd e1 04 5e 3d
       -0.057701845 0.0838359 -0.061551366 0.05420387
000140 c3 3a 02 3e 02 bc 31 be 7f 1b d0 bd 63 78 95 3d
       0.12717728 -0.17356876 -0.101614945 0.072983526
000150 53 85 b2 bc a2 c2 7a 3d ec ba 3d bd 2b 5e 16 3d
       -0.02179209 0.061220773 -0.04632084 0.0367109
000160 7e 84 1e bc 4a db f8 3b 0e 49 a9 3d 5b fb 42 3d
       -0.009675143 0.0075945007 0.08265887 0.047602993
000170 40 e5 e0 3d 71 0d ca 3d 47 31 27 be 65 39 a2 3d
       0.10981226 0.09865845 -0.16327392 0.079211034
000180 03 bc a9 3d 3a d4 b2 bc ff dd ac 3d 54 2e 33 be
       0.082878135 -0.021829713 0.0844078 -0.17498142
000190 b0 59 b8 bd a9 75 b5 3c 25 bb ad bc 0d 58 e8 bc
       -0.090014815 0.022150831 -0.021207402 -0.028362298
0001a0 12 9c 52 bb 32 d1 2c bd 6c d2 d5 bd a3 7d f5 bd
       -0.0032136482 -0.04219169 -0.104405254 -0.11986854
0001b0 9c d2 83 3d 4e e9 53 be 7a a6 94 bc 72 8c cb bd
       0.06436655 -0.20694467 -0.018145788 -0.09938897
0001c0 f7 f9 b5 3d a4 f2 b8 3d ea a5 4c bd e0 1d 84 bd
       0.08885568 0.09030655 -0.049962915 -0.06451011
0001d0 ef 66 73 bd 47 6b 4b be 26 9f 10 3e 66 92 2d 3d
       -0.059424337 -0.19865142 0.1412321 0.042375945
0001e0 e9 57 8a 3d 16 ac 96 bd 7b 2d 39 bd 70 71 a4 bd
       0.06755049 -0.073570415 -0.04520939 -0.08029449
0001f0 81 f1 c8 3d a6 d6 ba bd ae bd e6 bd 9f 92 16 bd
       0.09811688 -0.09122972 -0.11266647 -0.036760923
000200 55 b0 6a 3d 74 b2 04 bd 23 97 d0 bd b8 81 27 3d
       0.05729707 -0.03239675 -0.10185077 0.040895194
000210 2d 94 3f 3c a1 01 20 3c aa 8f 78 3d 39 ce e8 3c
       0.011693043 0.009766013 0.060683884 0.028418647
000220 30 41 56 3d 85 cc 8e bd 4f aa ce bd fa dd cc 3d
       0.05230826 -0.06972603 -0.100910775 0.10003276
000230 8a 64 e3 3d 9b c6 ce 3d fa ed d4 3c 69 b2 61 3d
       0.11103161 0.10096475 0.025992382 0.055101786
000240 d2 8a 62 3e d3 8c 7b 3c 3a c6 e6 ba 01 6e 88 bd
       0.22123268 0.015353399 -0.0017606684 -0.066616066
000250 e6 7a 0b 3e 3c 0e da 3c 1f 99 b8 bc 2a 41 04 be
       0.13621101 0.026618116 -0.022533951 -0.12915483
000260 ac 6b d4 3d 99 1c b1 3d be bb 8d bd e1 87 3d 3c
       0.10372099 0.08648033 -0.069205746 0.011568041
000270 ac a4 86 bc 74 f6 55 bd ea f9 58 3c e6 36 e0 bd
       -0.016435944 -0.05223699 0.013243178 -0.10947971
000280 03 b4 cc bd f3 1a 9d 3e 2e f6 fe bd c2 3a a7 3d
       -0.09995272 0.30684623 -0.12449299 0.08165504
000290 f7 f6 8d 3c b0 bd 73 be d9 f1 77 3d b2 e2 52 bc
       0.017329676 -0.23802829 0.06053338 -0.012871431
0002a0 3e 00 39 bd 22 f4 92 bd 7f 6a 87 3d 9a c1 31 3e
       -0.045166247 -0.07175471 0.066121094 0.1735901
0002b0 52 7c 66 bb 56 4e b7 bc 81 15 e6 bc 05 81 c6 bd
       -0.0035169316 -0.02237622 -0.028086426 -0.09692577
0002c0 eb be a8 bc 6b 41 f6 3d 1e 65 08 bc 4a 61 76 bd
       -0.02059885 0.12024196 -0.0083248895 -0.060151376
0002d0 fd 7e cf 3c f0 a7 83 bd 68 63 20 be 5e 00 63 3d
       0.025329107 -0.06428516 -0.1566292 0.055420272
0002e0 35 4b d2 bd 29 85 16 3d 57 39 1b bb 8c 3d 54 bd
       -0.10268251 0.036748085 -0.00236853 -0.05181651
0002f0 c7 f8 2d 3e f4 42 80 bd 90 a0 51 3e 98 a7 eb bd
       0.16989432 -0.0626277 0.20471406 -0.11506575
000300 c3 fe b1 3d 61 56 c8 bd 21 6f 9b bd ad cd 95 bd
       0.0869117 -0.097821005 -0.075895555 -0.0731462
000310 44 59 67 bd 53 fa 9a bd 8a 8a a9 3d 9f e7 1b 3e
       -0.056481615 -0.07567277 0.08278377 0.15225075
000320 a7 05 95 3c d3 1e 82 bd a7 fe 22 bd 6f 6d 71 bd
       0.018191172 -0.063535355 -0.039793637 -0.058942255
000330 d4 3c c1 bc 36 61 8e bd 9f 71 e4 bd 09 cd 73 3c
       -0.023588575 -0.06952135 -0.11154484 0.014880427
000340 e9 73 dc 3d 8f 1d d8 bd 1f 88 08 3e 3a ee ca 3d
       0.107642956 -0.10552513 0.13333176 0.09908719
000350 84 65 00 3e 32 2e 01 3e b5 50 2e be e9 0c d7 3c
       0.12538725 0.12615278 -0.17022975 0.026251273
000360 27 da 8f 3d 69 1e 13 3c 13 f6 9c 3d fa fb 44 3d
       0.07024031 0.008979418 0.076641224 0.048091866
000370 a4 5e 93 3c c8 f9 d3 3d 8a e1 bb 3d c2 3d 19 be
       0.017989464 0.10350376 0.091738775 -0.14964965
000380 80 76 d7 3d 36 37 37 bb da 49 b2 bd 41 f7 d9 bd
       0.10520649 -0.0027956492 -0.08705492 -0.10642863
000390 3d 7d b0 3b d2 f9 f8 3d 0e 45 4c 3c 40 c2 0c be
       0.0053860233 0.121570244 0.012467636 -0.13745975
0003a0 9d 2e 2b 3d 21 87 25 3d 1d 8e 60 3b 44 b5 8f bd
       0.0417925 0.040412072 0.0034264394 -0.070169955
0003b0 26 82 44 bd f1 b1 61 bc 8b e3 7e 3d 1e 80 be bd
       -0.04797568 -0.013775335 0.06222872 -0.0930178
0003c0 94 cb d3 3c 0a 79 00 bc 9f 94 14 3c 53 28 ed bd
       0.02585391 -0.007841358 0.009068637 -0.11579957
0003d0 2f 24 8a bd 60 a9 11 3d 02 fd d4 3a 4d c8 0e 3e
       -0.06745183 0.03556192 0.0016249719 0.13943596
0003e0 ce ae b3 bd 5a 31 48 bc 49 fb 90 bd 34 f5 5d 3d
       -0.08773576 -0.012218798 -0.07079179 0.054188922
0003f0 79 eb 63 bb 77 e5 da 3c 7f 6f 6d bd c5 60 c7 3d
       -0.0034777804 0.026720745 -0.05796766 0.09735254

lstm.bias_ih_l0 f4 [400]
000000 81 11 44 bd 47 6d cb bd 31 2e 82 3e e3 ad 56 be
       -0.047868256 -0.099329524 0.25425866 -0.2096477
000010 93 c7 48 be aa db 9e be 9b 81 e9 3c 5f b6 98 3e
       -0.19607382 -0.31026965 0.028504184 0.29826638
000020 b2 e8 c2 bd 04 c3 f0 3d 80 c4 07 bd 4f cc 4f 3e
       -0.09517039 0.11755946 -0.03314638 0.20292781
000030 35 d5 09 3f 22 80 f3 3d 11 be c5 3d 94 d9 76 3e
       0.53840953 0.11889674 0.09655393 0.24106437
000040 5b 34 76 be 23 57 aa 3e 45 24 0a 3e a9 74 6b be
       -0.2404341 0.33269605 0.13490398 -0.22993721
000050 16 16 5d 3e b4 ff b3 bc 99 c7 57 bd 72 52 2e 3e
       0.21590456 -0.021972515 -0.052680586 0.17023638
000060 85 53 33 3d 75 e2 d3 3a 6c 6b 33 3e a6 ee 20 3e
       0.043780822 0.0016165512 0.17521447 0.15716037
000070 57 6c e8 3c 82 da 94 bc fd db e1 3c 43 7f b9 3e
       0.028371973 -0.018170599 0.027570719 0.36229905
000080 2a c7 26 3e ba 20 b6 3d d1 28 e3 3e cf 69 0e 3d
       0.16286913 0.08892961 0.44367078 0.034768876
000090 c5 45 8a bb c1 42 c6 be a6 0d cb bc 1a 60 fd bc
       -0.004219743 -0.38722804 -0.024786782 -0.030929614
0000a0 73 91 ee 3d 12 15 43 bc e7 8c 35 be 6d 59 83 bd
       0.11648836 -0.011906879 -0.17729531 -0.06413541
0000b0 e7 ef aa 3d 13 e5 b6 3a de ce 4b bd 5f 0c 6d 3e
       0.08346539 0.0013953767 -0.04975783 0.2314925
0000c0 05 1e 36 bd 74 60 4a be 24 60 4c 3c 8c 23 86 bc
       -0.044462223 -0.19763356 0.012474094 -0.016374372
0000d0 2a f9 ed 3c 82 ad 5c 3e 93 f2 28 be 56 51 50 3e
       0.029049475 0.21550563 -0.16498785 0.20343527
0000e0 73 34 60 3e d0 22 83 be cc d1 f8 3e 20 b6 a3 3e
       0.21895008 -0.25612497 0.48597562 0.31974888
0000f0 ba 42 4e bc 6e 3b d5 bd 13 ef 92 3e 39 1d ca 3d
       -0.012589151 -0.10411726 0.28698024 0.09868855
000100 da a9 3a 3c 95 99 26 bf 2f 72 57 3d e5 64 93 be
       0.011393035 -0.650781 0.05259913 -0.28787914
000110 fd 6c 70 3c 8d 7a bc 3d 6c d5 ff bc 93 be 6d bd
       0.014674422 0.09203062 -0.031229697 -0.058043074
000120 bd ad 19 bc 63 19 a3 bd 9c 87 ca 3b 2d f0 60 3c
       -0.009379801 -0.079638265 0.0061807167 0.013729137
000130 8a 02 16 3e 60 39 80 3d 70 19 75 bd 1a 14 48 3a
       0.14649406 0.062609434 -0.059838712 0.000763239
000140 74 28 19 3e 1c 7e 1a bd 22 47 44 be 7b 63 7f 3d
       0.14956838 -0.037717924 -0.1916776 0.06235073
000150 36 82 b1 3c 6a 72 04 3e a8 39 92 3e ea 15 1f 3e
       0.021668535 0.1293427 0.28559613 0.15535703
000160 ff 84 0e 3c a8 a8 a9 3c 90 d6 08 3d ef db f0 bb
       0.008698701 0.020710304 0.033407748 -0.007350437
000170 d9 29 86 3e e1 db 1c 3c fb be 98 bc e8 67 08 bc
       0.26203802 0.009573908 -0.018645754 -0.008325554
000180 41 b5 9c bd 2d 01 87 3d 3f 9a 3c 3d ec 9e 05 3f
       -0.07651759 0.06592021 0.046045538 0.5219562
000190 83 e1 88 3e 29 2f d0 3c 6f ee 03 3e 0a cc c9 3e
       0.26734552 0.025413113 0.12883924 0.39413482
0001a0 fc ba d6 3e 7c 3a 03 3f e4 45 95 3c 49 34 32 bf
       0.41939533 0.51261115 0.018221803 -0.6961103
0001b0 b8 c4 7f 3d 43 be ac 3e 96 d3 f0 3d 9f f4 97 3d
       0.062443465 0.33738908 0.11759107 0.07419705
0001c0 35 31 4b bf 87 8f 96 3d 5f ea cc 3d 42 98 38 3e
       -0.7937196 0.073515944 0.1000564 0.18026832
0001d0 db cf ca 3e 1a 65 23 3d 05 07 8c 3d a4 3d cf 3e
       0.39611706 0.03989134 0.06837276 0.40476716
0001e0 41 46 62 3e 18 33 04 3e 3c 36 79 3e d7 49 4b 3e
       0.22097112 0.12910116 0.24337095 0.19852386
0001f0 53 ba 36 3d 42 2f aa 3e 60 38 53 bd 9d 3f 20 3e
       0.044611286 0.3323918 -0.051567435 0.15649267
000200 42 a6 ad 3e 19 31 6c 3e 18 d2 c6 3d e6 1c 8c bb
       0.33915907 0.23065604 0.09708041 -0.004275906
000210 93 f8 a1 be e7 3d 72 3e 3d 66 c9 be 85 68 6c 3e
       -0.3163496 0.23656426 -0.39335814 0.23086746
000220 46 77 12 3f a9 a2 21 3f be c8 0d 3f 50 00 3d 3e
       0.57213247 0.63138825 0.55384433 0.1845715
000230 f1 00 cc 3d ef 5f 27 3e a9 06 c8 3e a4 7e a6 3e
       0.09961117 0.1634519 0.3906758 0.32518494
000240 65 be 8a 3e 98 6b e2 bc 58 2e 1e 3e 4a 26 4c 3e
       0.27098384 -0.027639195 0.15447366 0.19936481
000250 87 94 03 3e 43 55 8c 3e 7e c8 5f 3e 9e 47 93 3e
       0.12849627 0.274088 0.21853825 0.28765577
000260 fb b9 87 3e 7b 75 54 3d a0 16 02 3f 5b 99 5c 3e
       0.2650908 0.05186985 0.50815773 0.21542875
000270 6f 7c 92 3c 5a 62 d7 3e 83 89 b3 be b8 b0 d6 3d
       0.0178816 0.42067224 -0.3506585 0.10482925
000280 91 7e 82 be 9f 3a 9e 3e ff 4b fe bd 68 12 45 bd
       -0.25487188 0.309041 -0.12416839 -0.048113257
000290 60 1a fe 3d dc 16 0e 3f 35 59 fa 3c 46 1d 8b 3e
       0.124073744 0.5550363 0.030560115 0.2717077
0002a0 71 6f a8 3d 81 f2 0e 3e 8c c0 3c 3e 2e 33 03 3e
       0.08224381 0.13959695 0.18432826 0.12812492
0002b0 b4 b4 89 3e d2 7e 0c 3e 8d a5 8b 3e c6 2b ef 3d
       0.26895678 0.13720253 0.27274743 0.11678271
0002c0 78 41 32 3e e8 4b 27 3e d1 e0 01 3e b6 0e 4a 3e
       0.17407787 0.1633755 0.12683417 0.19732174
0002d0 5e d0 26 3c 59 75 ef 3e e9 93 d8 3e 04 a6 42 3e
       0.010181515 0.46769217 0.42300346 0.19008642
0002e0 08 79 4f 3d 6d db a9 3e c5 53 12 be 97 56 57 3e
       0.050652534 0.3317522 -0.14289768 0.21029125
0002f0 63 e5 f3 3d e7 44 65 3e 75 98 9b 3e 4a e0 d3 3e
       0.119089864 0.22389565 0.30389753 0.41382056
000300 2f 1a 91 3d 87 cc 87 3d 5c dc 85 3e c4 29 ab 3e
       0.07085072 0.06630807 0.26144683 0.33430302
000310 5a 94 3c 3e 59 8d 14 3e 9c 3f 31 3e dd 52 58 be
       0.18415967 0.14507045 0.17309421 -0.2112536
000320 cf 77 2d bd 4a 46 79 bc 70 59 89 3e ba 26 28 bd
       -0.042350587 -0.015214512 0.26826048 -0.041052558
000330 9e 6c b5 be e0 dd 6a 3e 93 2f 32 bc 30 d6 21 bf
       -0.3543443 0.22936201 -0.0108756 -0.6321745
000340 96 f6 0b 3d e5 19 0c be 46 29 20 3e 96 b8 ed 3d
       0.03417071 -0.13681753 0.15640745 0.116074726
000350 34 0a 28 3f 9b c6 29 3f 46 de 6c be e2 6f 3b 3e
       0.6564057 0.6631867 -0.23131666 0.18304399
000360 10 cb 03 3f bb e4 17 3e 84 82 44 3c c1 65 15 be
       0.51481724 0.14833347 0.011994008 -0.14589597
000370 14 24 04 bd 44 a3 2c 3f db 90 28 3d df bb a2 be
       -0.03226097 0.67436624 0.04115377 -0.3178396
000380 7a f5 4e 3e 59 8d aa be 4c 91 99 3c 26 ec c0 bd
       0.2021083 -0.33310965 0.01874604 -0.09420042
000390 29 32 cd 3e 34 f5 03 3d 6e 3f 7e bc b8 75 a1 be
       0.40077332 0.032216266 -0.0155180525 -0.31535125
0003a0 5f 74 6d 3e 03 14 3c bc 88 88 ae be 0e 94 fc 3d
       0.23188923 -0.011479381 -0.3408854 0.12332927
0003b0 22 55 65 3c f0 e5 94 be 04 e7 eb 3d ba 32 84 bb
       0.013997348 -0.29081678 0.11518672 -0.0040343674
0003c0 b0 c3 ed bb fa 6f 66 be f5 3d 09 3e 61 24 5c 3e
       -0.007255994 -0.22503653 0.13402541 0.21498252
0003d0 b2 eb c7 bd 56 08 00 3f 92 74 ba 3e dd 4f 9c 3e
       -0.09761752 0.5001272 0.3641706 0.3052968
0003e0 78 91 5d bc 5b e3 ed bd d3 fb 6b bc b7 21 b0 ba
       -0.013523452 -0.1161563 -0.014403301 -0.0013437782
0003f0 4a 60 92 3d 2a 17 11 3c f6 92 5e be cf e5 1c be
       0.07147272 0.00885562 -0.21735749 -0.1532204

lstm.bias_hh_l0 f4 [400]
000000 91 37 58 3b f4 b4 bb 3c 81 91 d3 3d 77 05 82 be
       0.0032992105 0.022913434 0.10330487 -0.25394794
000010 43 c4 28 be ec 4b 75 be 4d 30 84 3d d7 8f e8 3e
       -0.16481118 -0.23954743 0.06454525 0.4542224
000020 52 5c b3 bc 41 c1 73 3c 22 31 d8 3d 0b 95 9c 3d
       -0.021894608 0.014877618 0.10556246 0.07645615
000030 96 eb d9 3e 99 d9 57 3e cb 60 47 3c 6e ab 89 3e
       0.4256255 0.210791 0.012169073 0.26888603
000040 9b 13 6a be 7f e2 e9 3e a2 11 d0 3d b4 4f 9c be
       -0.22859041 0.45680615 0.10159613 -0.3052956
000050 01 c9 92 3e 5a e1 48 bd 8b 5d ae 3d b4 ea 2c 3e
       0.2866898 -0.049043037 0.08513936 0.16886407
000060 88 c9 93 bb 14 64 05 bc 4c 5f 62 3e 58 73 80 3e
       -0.0045101084 -0.008141536 0.22106665 0.25088
000070 3e 2f 2d bd d2 e6 ba 3d 37 41 ed 3d b3 bc a7 3e
       -0.04228138 0.09126057 0.11584704 0.32761154
000080 e1 33 85 3e c0 b4 a1 bc ff 0e d3 3e 7d 5a 87 bd
       0.26016143 -0.019739509 0.4122238 -0.06609056
000090 44 ca 51 bd 5b e4 a0 be d6 b3 23 be 84 7a 0d bd
       -0.051218286 -0.3142422 -0.1598657 -0.034540668
0000a0 f9 45 1a 3e 1d 0a d8 3d 83 96 31 be 38 03 fe 3b
       0.15065755 0.10548804 -0.17342572 0.0077518485
0000b0 27 c1 a2 3d d6 6f 03 bc 63 3f 8e bd ff 0a ca 3d
       0.07946997 -0.008022269 -0.06945684 0.098653786
0000c0 39 d5 a3 3d 44 1c 41 be 11 9a 99 bd 17 fb c3 bd
       0.07999653 -0.18858439 -0.07500089 -0.09569376
0000d0 16 bc 4b 3d f0 70 91 3e f3 47 2a be e0 f8 a3 3d
       0.04973992 0.28406477 -0.16629009 0.080064535
0000e0 f3 77 29 3e cd 3e 7c be a1 bf ff 3e 68 c0 8e 3e
       0.16549663 -0.24633332 0.4995089 0.2788117
0000f0 9b de 18 bd 93 67 34 be 75 08 e5 3d f4 51 0c 3e
       -0.037321668 -0.17617635 0.11183254 0.13703138
000100 22 59 32 3e 51 93 35 bf 4a 9a 98 bb e3 c3 93 be
       0.17416814 -0.7092791 -0.0046570646 -0.28860387
000110 85 a7 0b 3e cf b6 10 3e 17 07 37 3d ba 01 74 bc
       0.13638122 0.14132236 0.044684496 -0.01489299
000120 34 48 83 3c 10 3c 6a 3d 7f a4 d9 3c e3 4f 11 3c
       0.01602564 0.057186186 0.026567696 0.008869144
000130 20 da 4f 3e 2b 24 f7 3d fa 08 c1 3b a5 d9 1f 3d
       0.20298052 0.12067445 0.0058909627 0.03902592
000140 54 94 3d 3e 05 c3 d2 bd f4 4d 8c be 84 e5 e8 3d
       0.18513614 -0.10291103 -0.27403224 0.11371902
000150 b2 98 c4 bc 69 ad 8b 3e 28 8f 8b 3e a8 ac 3f 3e
       -0.023998592 0.2728074 0.27257657 0.18718207
000160 c3 b9 ae 3d 00 cd f6 3b f1 29 dc 3d 91 9b af bc
       0.08531525 0.007531762 0.10750187 -0.021436485
000170 68 af 64 3e 4a 6c 12 3e 20 f3 cc bd 5a 77 6a 3d
       0.22332537 0.14299121 -0.1000731 0.05724273
000180 93 3b ed bd 1b fc 93 3d b5 f9 51 bd ca 5f 1c 3f
       -0.115836285 0.0722582 -0.05126353 0.6108366
000190 37 5c a4 3e 00 6a 34 3e 97 5d 60 3e f0 b1 87 3e
       0.32101604 0.17618561 0.21910702 0.26502943
0001a0 be 70 f9 3e b4 e8 e2 3e 75 3d a3 3d 1b 00 1d bf
       0.48718828 0.44318163 0.079707064 -0.61328286
0001b0 0e 08 3c 3e c5 77 a8 3e be 9a 3b 3e 91 92 18 3e
       0.18362448 0.32903877 0.18320748 0.1489966
0001c0 81 3b 1d bf 09 06 ee bc dd 46 76 3e c0 dc a7 3e
       -0.6141892 -0.029055612 0.2405047 0.32785606
0001d0 63 56 b8 3e 1d e8 22 3e af 1e 46 3e 5e a0 a6 3e
       0.36003408 0.15908857 0.19347642 0.32544225
0001e0 d5 d2 85 3e f5 4c a7 3d bb 1e b4 3e 7d a8 25 3e
       0.26137415 0.08168975 0.35179695 0.16177554
0001f0 ec 25 54 3e cc 9c bb 3e a4 29 d4 3b ec 55 82 3e
       0.20717591 0.36643064 0.0064746905 0.25456178
000200 72 ae c2 3e 43 b4 54 3e 97 59 2f 3e da 88 cb 3c
       0.38023716 0.2077189 0.1712402 0.02484553
000210 e9 4a f2 be 9e 76 bf 3e 0c 80 0a bf eb 56 95 3e
       -0.47322777 0.37395185 -0.54101634 0.29167876
000220 98 71 02 3f e2 90 ec 3e d6 82 ee 3e 48 b9 4a 3e
       0.5095458 0.46204287 0.46584195 0.19797242
000230 ff 24 24 3e 9f f0 33 3e c2 c6 02 3f 28 9f a6 3e
       0.16029738 0.17572258 0.5108453 0.32543302
000240 09 a0 ea 3d 13 9b 22 bd 46 21 05 3d 72 b0 e4 3d
       0.114563055 -0.03969867 0.032502435 0.11166467
000250 67 ac 82 3e a6 b9 7f 3e 3e 85 98 3e 42 88 1a 3e
       0.25522158 0.24973163 0.29789156 0.1509104
000260 77 64 a3 3e 18 d7 ca 3d ce 01 1e 3f 25 92 89 3e
       0.31912586 0.09904307 0.61721504 0.26869312
000270 62 88 0c bd ec 7b eb 3e 0f fe a7 be ac 63 94 3d
       -0.034309752 0.45992982 -0.3281102 0.072455734
000280 cb dc 96 be 6f 17 77 3e 44 45 ae bd 36 a7 53 3d
       -0.29465327 0.24130033 -0.08509305 0.051673137
000290 62 72 bb 3d 72 8c dc 3e ec 03 ed 3d 52 19 ea 3d
       0.09152676 0.430759 0.11573014 0.11430611
0002a0 0d 5e 9b 3d d5 24 0e 3e a2 c5 7a 3e 85 db fa 3d
       0.07586298 0.13881238 0.24489453 0.12248901
0002b0 f4 62 a6 3e 19 2a 34 3d 05 e6 a8 3e 3f 88 86 3e
       0.3249737 0.04398546 0.3298799 0.26275823
0002c0 2e fb 1e 3e 3e 51 27 3e 17 ba 25 bc 9c e8 0d 3e
       0.15525505 0.16339585 -0.010115168 0.13858265
0002d0 d1 e2 8f bc d5 89 e8 3e c3 28 e2 3e ab a6 b2 3d
       -0.01756421 0.45417657 0.44171724 0.08723196
0002e0 0a 1e 74 3d cd 6d a4 3e 23 58 71 be ed fe 1b 3e
       0.05959896 0.3211502 -0.23568778 0.15233965
0002f0 10 30 4f 3e 6b ca 7a 3e 1b 34 74 3e c8 d2 10 3f
       0.20233178 0.24491279 0.23848002 0.56571627
000300 2b b1 99 3d cb 10 92 3d 80 3b 9f 3e a0 e2 b9 3e
       0.07504495 0.07132109 0.31100082 0.36305714
000310 02 1e 42 3d 81 d5 d3 3d c2 99 5f 3e e7 ab b5 be
       0.0473919 0.10343457 0.21835998 -0.35482714
000320 f6 41 cb bc ba ee fc bd 79 16 10 3e 01 ec e9 3d
       -0.024811726 -0.12350221 0.14071073 0.11421967
000330 26 7f c3 be b0 ee 75 3e e3 77 ec 3d 52 e5 18 bf
       -0.38182944 0.24016833 0.11546304 -0.59724915
000340 36 cc 3a 3e a9 f7 8a be a9 e9 7f 3e ac ca 62 3d
       0.18241963 -0.27142075 0.24991478 0.055369064
000350 0c 5e 0e 3f c5 2a 34 3f a2 53 00 be 3a 48 5f 3e
       0.55612254 0.7037776 -0.12531903 0.21804896
000360 96 cb 02 3f ad 29 40 3e a6 bd 52 3d 37 04 21 be
       0.510919 0.18765898 0.051450394 -0.15724264
000370 47 02 15 bd ac 0a 2d 3f 0a a9 d9 3d 7d b9 9e be
       -0.036379125 0.6759441 0.10627945 -0.3100089
000380 62 dd 0d 3e b3 12 81 be c3 8a 01 be 03 95 82 3c
       0.13853982 -0.2520958 -0.1265059 0.015940195
000390 49 e9 cc 3e ce e9 d6 bc ba 1d 99 bd e5 2e 79 be
       0.40021732 -0.026234534 -0.07476373 -0.24334295
0003a0 69 b0 af 3e b7 4a bb 3d fc ab 22 be 05 4e 1b bd
       0.34314278 0.0914511 -0.1588592 -0.037916202
0003b0 8e 0c 9f bd 62 41 c7 be 1a ce 9a 3d 39 2c 2a 3d
       -0.077660665 -0.3891707 0.07558842 0.04154608
0003c0 9c b4 db 3d 5f 34 8d be 60 ad bb 3b 79 e3 43 3e
       0.10727808 -0.27579018 0.005727455 0.19129743
0003d0 d0 40 8f 3d 53 a5 e5 3e 9e b8 b7 3e 2e 3d 54 3e
       0.06994784 0.44852695 0.3588304 0.20726463
0003e0 e6 9e 8b bc e7 ab 0b be 9a 55 3c be 83 97 98 3c
       -0.017043542 -0.13639794 -0.1839203 0.018626934
0003f0 cc 97 0e bd c9 de d3 bd 44 45 4a be 49 d8 34 be
       -0.034812734 -0.10345227 -0.19752985 -0.17660631

fully_connected.weight f4 [9, 100]
000000 0c ec 6a be f6 b2 0a bf 45 74 55 bd ef fd b3 be
       -0.22941607 -0.5417932 -0.052112836 -0.35154673
000010 e0 cc e9 bc 29 0e e1 bd 87 13 cc bd fc 95 c5 3e
       -0.028540075 -0.10989029 -0.09964662 0.38590991
000020 2b 01 1a be c4 0d cf 3d 6e 53 5c be 5e b4 d2 bd
       -0.15039508 0.101100475 -0.21516201 -0.102883086
000030 5f a9 c2 be ac 07 8f bd 3d b4 dc 3d 48 61 1e 3d
       -0.38019845 -0.06983885 0.10776565 0.038666993
000040 1e b3 31 bf a8 09 71 be 30 ff 90 3e 1c a4 7a 3e
       -0.69413936 -0.2353884 0.28319693 0.24476665
000050 2b 05 39 3e dd 37 11 3f ca b7 9e 3d 55 01 0e 3f
       0.18068378 0.56725866 0.07749899 0.5547078
000060 36 3c 07 3e 3a 66 06 3e 8d d4 19 be e5 40 a3 bd
       0.13206562 0.13124934 -0.15022488 -0.07971362
000070 ed ba a7 be 46 d5 a9 bc 44 ce 2c bd 8a 4b 0a 3f
       -0.327598 -0.02073158 -0.042188898 0.54021513
000080 69 5f a2 be c6 40 c4 bd 37 6d 3d 3d f5 8c 67 be
       -0.31713417 -0.09582667 0.046246734 -0.22612365
000090 f4 d4 66 3d db 14 18 bf 2f db c3 be d5 5a cc 3d
       0.05635543 -0.5940682 -0.3825316 0.09978262
0000a0 24 32 a1 3d 79 96 30 3e 04 06 9a 3d 1d 71 88 bd
       0.07870892 0.17244901 0.07520679 -0.066622
0000b0 e6 cd b6 bd 70 04 19 3f b8 28 6a 3d 1a 11 07 bc
       -0.08925991 0.59772396 0.05716774 -0.008243823
0000c0 0e 7b 32 3e 11 cf 5c bf ff 47 a4 3e 71 8e 76 be
       0.17429754 -0.8625346 0.3208618 -0.24077775
0000d0 72 a4 3c be 6e 5c 15 3d 84 08 10 3f 53 b5 12 3f
       -0.18422106 0.0364651 0.56262994 0.5730793
0000e0 34 e7 0f 3d 9d da 4a bc 0b cd fb be 70 27 be bb
       0.0351326 -0.012381223 -0.49179873 -0.005803041
0000f0 87 43 1c bf 68 9c ae be 81 f7 66 be 36 12 79 3e
       -0.6104054 -0.34103703 -0.22555353 0.24323353
000100 96 ab 44 be 34 a4 6d 3e fa 80 4f 3e 2a de 88 be
       -0.1920608 0.2320717 0.20264044 -0.26731998
000110 61 7a 0c be f8 88 23 bd cd 74 42 3d d0 82 23 3e
       -0.13718559 -0.039925545 0.04747467 0.1596787
000120 e6 4a 49 3b 69 c0 1f be 94 97 0a bf ab ad 2e bf
       0.003071481 -0.15600742 -0.5413754 -0.68233746
000130 ea 02 ea 3e 0b 60 c3 3d 9d 31 64 3b c0 f7 5d be
       0.45705348 0.09539803 0.003481961 -0.2167654
000140 6b b5 ee bd b6 29 2e 3e 73 37 cb be d8 08 ce bd
       -0.116556965 0.17008099 -0.39690742 -0.100602806
000150 c0 8e 8f 3c 6e 34 22 bd f5 98 5e be db 11 68 be
       0.017524123 -0.039600782 -0.21738036 -0.22663061
000160 51 c3 45 3f fd d8 0e ba 4f 5c f6 3e 21 e7 32 bf
       0.77251154 -0.0005449204 0.481173 -0.69883925
000170 d1 0e 92 be 17 43 31 3e df c0 9b 3d 0f 2c 1b bf
       -0.2852693 0.17310749 0.076051466 -0.60614103
000180 87 1b 2a 3e a5 cb 48 be 1e 78 26 be 4a 86 22 bf
       0.16612063 -0.19608934 -0.16256759 -0.6348616
000190 60 53 e8 be 75 a7 26 be 82 1e 97 3e 52 c6 4c be
       -0.4537611 -0.16274817 0.29515463 -0.19997528
0001a0 44 7b ff 3e 29 65 b4 be 79 78 46 3e 05 0b df 3d
       0.49898732 -0.3523343 0.19381894 0.10890774
0001b0 d7 fe 1f 3e e6 8c a7 3e 62 40 8a 3e 5d 20 f2 3e
       0.15624557 0.32724684 0.27002245 0.47290316
0001c0 28 26 94 bd eb eb 66 bb e4 c5 25 bd 10 af de 3e
       -0.0723384 -0.0035235833 -0.040471926 0.43492937
0001d0 f2 40 01 bf 99 c9 0d 3f 0f 23 81 3c 9a f0 08 3f
       -0.50489724 0.5538574 0.015763788 0.5349213
0001e0 67 84 97 3d 68 1e 14 bf cd 59 0e be 3c 52 78 3f
       0.073983006 -0.57858896 -0.13901444 0.9700048
0001f0 5e ed 84 3d 0f a1 8b be c8 ac 0e 3f f8 02 8d be
       0.06490587 -0.27271315 0.55732393 -0.27541327
000200 1b 8a 50 bc 34 b4 c7 be 08 6a ad 3d c0 35 3a 3d
       -0.012728239 -0.39004672 0.084674895 0.045461416
000210 4e c1 34 3e e7 b5 1c 3e f3 13 2a bf df 0c c6 3e
       0.17651865 0.15303765 -0.6643669 0.38681695
000220 8b c6 86 3e df dc f8 3d 49 de 9c 3e 2a 33 f8 3e
       0.2632335 0.12151503 0.3063834 0.48476535
000230 22 cf a6 3e 08 67 5c 3f 68 66 cc 3e cd e7 4c 3e
       0.32579905 0.86094713 0.3992188 0.200103
000240 c6 eb c2 3e 22 e6 f0 be 01 02 10 be 3e b7 21 bb
       0.38070506 -0.47050577 -0.14063264 -0.0024675871
000250 e7 01 8d 3e 04 8f 47 bf 86 54 46 bd bc 03 0b be
       0.27540514 -0.779526 -0.04842045 -0.13575643
000260 4f 91 4a 3c 73 4c c6 3e e6 d9 25 3e e1 9b 15 bf
       0.012363746 0.387302 0.16196403 -0.5844098
000270 87 e6 d6 3e 89 3e 55 bf 4a cb 3f be 8f ad 74 be
       0.41972753 -0.83298546 -0.18729892 -0.23894332
000280 09 92 85 3f c3 e8 aa be 8a dc 39 bf 2b 33 48 3e
       1.0435191 -0.33380708 -0.7260214 0.19550769
000290 8b 15 b6 bd 2d e3 56 3f 83 75 3a 3f b7 df 18 be
       -0.08890828 0.8394039 0.7283556 -0.1492909
0002a0 c2 9b 90 be 03 39 57 3e be 31 ad be ca cd 10 3f
       -0.28243834 0.21017842 -0.33827013 0.5656401
0002b0 04 52 d1 3e 05 c6 aa be 42 30 9a be af 9b 5b 3e
       0.40882885 -0.33354202 -0.30114943 0.21446107
0002c0 6f 7f fe be 7f b3 fb 3e 86 cd a1 bd 43 2e 93 3e
       -0.497066 0.49160382 -0.079005286 0.28746232
0002d0 ac 4c 6c bd b1 a3 c1 be d7 39 f3 be ec bf 01 3f
       -0.057690307 -0.378202 -0.47505066 0.50683475
0002e0 5a 4e 86 3e 31 f8 29 3c f8 74 24 be e3 1a 7e 3e
       0.26231652 0.010374115 -0.16060245 0.24814944
0002f0 92 ec aa be ad db 3a be 84 c3 02 bf 61 d7 31 be
       -0.33383614 -0.18247862 -0.51079583 -0.17367317
000300 4c 26 36 be f3 b5 9e be 2b 1b 19 be c3 86 8d be
       -0.17788047 -0.3099819 -0.1495177 -0.27641878
000310 63 22 cf 3e 32 bb f0 3e f8 3c c3 be 2f ca 30 bf
       0.40455922 0.4701782 -0.38132453 -0.6905851
000320 19 c8 39 3f a8 2d ac 3e d3 e7 8d 3e 74 21 23 3f
       0.7257095 0.33628583 0.2771593 0.6372292
000330 ce 94 49 3f 88 71 2f bf da 82 93 3c 13 54 f1 be
       0.7874268 -0.6853261 0.01800673 -0.47134456
000340 a6 c0 16 be 5d 3e 5c be 92 0d 31 3f fe 75 3c 3f
       -0.14721927 -0.21508165 0.6916133 0.7361754
000350 ad 40 fe 3e b3 8e 16 be 64 8d 2c be cc 91 8c bd
       0.4965872 -0.14702873 -0.16850811 -0.06863746
000360 cc ff 2a 3f 55 e4 dd 3d fd 3b 82 be 1f 29 37 bf
       0.66796565 0.108345665 -0.25436392 -0.7154712
000370 97 cd 02 bf b8 0c 27 3f 99 12 47 bf dc f7 24 bf
       -0.51094955 0.6525378 -0.7776275 -0.64440703
000380 8f 05 16 3f de 24 ec bd b9 8c 05 3e ce cf 27 3e
       0.5860223 -0.11530469 0.13041963 0.16387865
000390 e0 99 fa 3e d1 13 06 3f 5e 9b 35 3f f0 00 02 bd
       0.48945522 0.5237399 0.70940197 -0.031739175
0003a0 32 2c 55 3f ea e4 37 be 34 af 67 be 27 f1 0d 3e
       0.8327056 -0.17958418 -0.22625428 0.13861524
0003b0 f2 a1 10 be e3 b0 b3 3e e2 5f 1d be 30 28 3a be
       -0.14124277 0.3509589 -0.15368608 -0.18179393
0003c0 7a af 4d be e8 21 6c be cc b6 0f 3f 02 be 41 3e
       -0.2008647 -0.23059809 0.561383 0.18920138
0003d0 bd 1f 36 3e 8f 26 83 3e f9 ff 05 3e b1 7c d1 3e
       0.17785545 0.25615355 0.13085927 0.40915444
0003e0 c4 ca 17 bf 64 f8 70 3f 01 b5 2d be ce 37 a0 3e
       -0.5929377 0.94129014 -0.16963579 0.31292576
0003f0 8b cc 92 be a4 ce 08 3d 38 12 0d 3e 3c 78 9f 3e
       -0.2867168 0.033400193 0.13776481 0.3114642

fully_connected.bias f4 [9]
000000 63 0a 01 bf 2c 15 85 3f 50 9b 2a 40 ca e8 15 3f
       -0.50406474 1.0397086 2.6657295 0.5855833
000010 9d e7 95 3f fc 23 a5 3f 50 77 06 3f 50 22 b9 3f
       1.1711308 1.2901607 0.52525806 1.4463596
000020 98 f5 6d 3f
       0.9295287
