results/torch_linear_model.pt (torch, 29907 bytes, 2 tensors)

linear_layer.weight f4 [9, 784]
00000000: b33a 1a3d a2a7 fb3c 4371 843c 6455 0c3c
00000010: 5ef3 953c c8ca ac3c 55c1 043c a6ee 943c
00000020: 5cc5 153c 5572 0b3a d7ea ef3c 6fd4 583c
00000030: 20fa a63c 1edd 643c d32f 423a 2a4b 7b3c
00000040: 7848 fc3c 3a10 863c 871f 433c 8d2f 233c
00000050: dd43 97bb f158 043d 96e9 863c 4c0d b23c
00000060: ddc8 493b 57db c33b 388d 903c dd0e 453d
00000070: c742 f83c e012 d43c 13d0 b03c fba8 8f3c
00000080: 3dd7 143c b803 b23c 887e e23b f23b 39bb
00000090: 352d 8f3c 765b 383c be86 1b3c ff71 7d3c
000000a0: 12ec 043c 7823 d43c a7a4 ad3c 5ed7 d33b
000000b0: ea6e 093c 13ff c43b 429a 733b 58ac 35bc
000000c0: 5965 953b 2387 923c a018 b2ba 19b2 7a3c
000000d0: 7c40 863c ac63 a03c 4ac0 603c ab25 273d
000000e0: 5866 b53c 9d2c a13c a704 ec3c f73e 333c
000000f0: 0e5a 523c 7b8b 103c 6ab9 f63b 4d92 53bb
00000100: 195d 8f3a f269 75bb 2b50 7b3c 8204 f5ba
00000110: 707f 6f3c 6912 223c 6fc9 ae3c 993e 0b3c
00000120: a624 843c 9e43 b73c 1f87 7c3c 5c25 193c
00000130: 92bd 0c3c f67e 493c 7bfb bf3b 038b a63c
00000140: 2cf2 ac3b 1c37 a23b 498d 1e3c f88f 023d
00000150: a969 243d e7b3 1f3c 5a19 fd3a ce48 043c
00000160: e676 42ba e6c5 843c 1374 1b3c c6b9 0dbb
00000170: d1f8 54ba 84eb b83b 86a2 973b bbb2 b43c
00000180: e299 e53c 7786 d53b 45b0 013c e447 893c
00000190: ea93 c038 b5ef 1c3a 8a3b b7bb 1b09 793c
000001a0: dfd3 933a 9d55 523c b609 3c3c 462f d23b
000001b0: 3e59 a83c 0a21 af3c e366 613b 02ef 4e3c
000001c0: 4c90 bc3c 8527 bf3b 316f 0f3c 0997 8b3c
000001d0: 8238 dcba 9abd 093c 597a 023c b209 dc3b
000001e0: dd4e 8f3c b063 db3b 3699 723b 665a c43c
000001f0: 26c8 f0ba 03ab 753b 7381 073c 36e6 0a3c
00000200: 5020 c8b8 4a0c 3cba 5a27 263b 6850 e93b
00000210: 6dc7 acbb ac3e a63a f2a5 e63c d365 833c
00000220: 59ba 473c 1ed5 433c 4762 893c f9c6 d93c
00000230: 6a97 633c 1764 773b 362e 1f3c b10c 633c
00000240: 8164 8abb 1ae9 76ba b9ef 793c 68f0 933c
00000250: 0091 833c f8f9 0f3c 63d7 043c c78e 823c
00000260: cb66 883a e80c f53b bf04 133c 8b79 483c
00000270: 8020 623b ea78 6fbb e425 143c c863 de3b
00000280: eb33 2b3c 81d8 a3bb c7a3 aa3c 217a 9f3c
00000290: 42ad a53c 6dac 473c 6482 233c 9c4b 8e3c
000002a0: 45ef 0a3c d584 a03c 0e5d b83c 5da3 87bb
000002b0: 414c bd3b 3287 4c3b c468 8f3c 4d77 24bc
000002c0: 83e2 17bb 1348 743b e5e9 58bb 6dcc 6b3c
000002d0: 49bb b0bb 621b ab3a 0617 cd3b 575e 6738
000002e0: 5d13 213c 12f9 903c 6805 683b e707 373c
000002f0: 25a4 8f3c c4f5 da3c ecf1 083c 1525 063b
00000300: d72e 0039 ca88 0ebc 9f60 843c 2cac d13c
00000310: 32d7 9e3c f9d1 003c d93c cc3b 6b6c 6d3c
00000320: 1f68 943c 0d02 d23c 5066 b7bb 2677 8cbb
00000330: 79fe 54bc 74cd aa3b 3ad7 2639 47a9 c0bb
00000340: bbca b43c b606 833b 60c0 973c 0791 303c
00000350: eac9 d13b 2d69 13bc daed 05bb 15ba 10bc
00000360: 640e d4bb ead8 323c 9512 23bb 7c52 133b
00000370: e41c 203a 2073 9f3c c9c8 e83c 0185 183d
00000380: 66c7 373c af51 ee3c bfe8 3ab9 7377 e939
00000390: bc7c c73b 217b 35bb 459c f53a bd33 c5bb
000003a0: 7eae dc3a a9eb 073c a664 19bc bc4b 41bc
000003b0: 5168 803c 78e0 d7ba f60a ae3c d666 95bb
000003c0: 035e dcbb 1b2c 24bc b4c9 baba 46a8 883a
000003d0: ae1f f03b 8a7a 8dbb c2b6 043c 3d24 413c
000003e0: 18b5 44bc 05cf 893b df5a 9c3b 8283 fa3c
000003f0: 93d0 a33c 7337 c8ba 4cc7 193c 43a0 b93b
0.037653636 0.030719582 0.016167289 0.008565281 0.018304523 0.021092787 0.008102735 0.018180203
0.009141292 0.0005319466 0.029286785 0.013234242 0.02038294 0.013968734 0.0007407639 0.015337745
0.030796275 0.01636516 0.011909372 0.009960067 -0.004616244 0.032311384 0.016468804 0.021734856
0.003078989 0.005977075 0.017645463 0.048109878 0.03030528 0.025887907 0.021583593 0.01753663
0.00908452 0.021730289 0.0069120564 -0.002826449 0.017477611 0.011252275 0.009492574 0.015469073
0.008112924 0.025895819 0.021196676 0.0064648828 0.00838826 0.0060118525 0.0037170802 -0.011088453
0.0045592007 0.017886704 -0.0013587661 0.015301251 0.01638817 0.019578777 0.01371772 0.040807407
0.022143528 0.019674594 0.028810812 0.010940305 0.0128388535 0.008822317 0.0075294273 -0.0032283247
0.001093778 -0.0037447182 0.015338938 -0.001869336 0.014617786 0.009892085 0.021336285 0.008498811
0.016130757 0.02237111 0.015413075 0.009347286 0.008590119 0.012298336 0.005858836 0.020329958
0.0052778926 0.004950417 0.00967724 0.03187558 0.040139828 0.009747482 0.0019309924 0.008073999
-0.000741823 0.016207647 0.0094881235 -0.0021625622 -0.0008124235 0.00564331 0.0046275286 0.022057882
0.028027479 0.0065162736 0.007915561 0.016757913 9.1828246e-05 0.0005986647 -0.0055918144 0.015199925
0.0011278352 0.012837795 0.011476925 0.006414327 0.020550366 0.021378059 0.00343936 0.012630226
0.023018025 0.0058335685 0.008754537 0.017039793 -0.0016801509 0.008407021 0.00796374 0.006715023
0.01749366 0.0066952333 0.003701759 0.023968887 -0.0018370196 0.0037485964 0.008270609 0.008477738
-9.542762e-05 -0.0007173462 0.0025353045 0.007120181 -0.005272797 0.0012683473 0.0281553 0.016039765
0.012190425 0.011952667 0.016770495 0.026584135 0.01389108 0.0037748867 0.009715607 0.013858006
-0.004223407 -0.000941889 0.015254908 0.01805897 0.016060352 0.008787625 0.008107993 0.015937222
0.0010406611 0.007478345 0.0089732995 0.012236009 0.0034504235 -0.0036540576 0.009042237 0.006786797
0.01044939 -0.0050001745 0.020830048 0.019467415 0.020224217 0.012187106 0.009979818 0.017370038
0.008479898 0.01959459 0.02250531 -0.0041393475 0.0057769124 0.0031208512 0.01750601 -0.010038209
-0.0023175783 0.0037274405 -0.0033098396 0.014392001 -0.00539342 0.0013054425 0.006258848 5.5162553e-05
0.009831277 0.017696891 0.0035403613 0.011171318 0.017534325 0.026728518 0.00835846 0.002046888
0.0001222448 -0.008699605 0.016159354 0.025594793 0.019389722 0.007862561 0.0062328395 0.014491181
0.018116055 0.025635744 -0.0055969134 -0.0042866645 -0.013000124 0.00521248 0.00015911172 -0.0058795544
0.022069326 0.0039986027 0.018524349 0.010776765 0.006402244 -0.008997244 -0.002043596 -0.008833428
-0.006471442 0.010915974 -0.0024882902 0.0022479584 0.00061078207 0.019464076 0.028416054 0.037236217
0.011216974 0.029091684 -0.00017825047 0.0004453022 0.0060878675 -0.0027691799 0.0018738589 -0.0060181306
0.0016836671 0.008295932 -0.009362375 -0.011797842 0.015674742 -0.0016470095 0.021245461 -0.004559378
-0.0067250743 -0.010020281 -0.0014250786 0.0010426126 0.0073279953 -0.0043175863 0.0081002135 0.011788425
-0.012006067 0.004205587 0.004771575 0.030580286 0.019996917 -0.0015275314 0.009385895 0.0056648566

linear_layer.bias f4 [9]
00000000: 257d fbbf 003e 343f a47c bf3e 4639 103f
00000010: 4e79 26bf 465a 353e 0104 9a3c 47d4 8a3b
00000020: 100a 473f
-1.9647566 0.70407104 0.3739978 0.5633739 -0.65028846 0.17710218 0.018800737 0.004236731
0.7774973
