results/torch_deep_mlp_model.pt (torch, 440191 bytes, 6 tensors)

hidden_layers.0.weight f4 [128, 784]
00000000: b75c 82bd f594 993c beeb 0ebc 5b44 d53c
00000010: 220a 7a3d fc4d f1bd 4cc4 673c ed5d b83b
00000020: 74b4 57bd 7827 12bd 844e 6c3d 074e 6ebc
00000030: 9c84 783c a648 573c 5881 8cbd 42cb 4ebd
00000040: 53ab 48bc 0be7 e73b fe3a a93c 831f b93c
00000050: efb0 16be 2c6d 053d cfa3 a43b 69d9 d8bc
00000060: abee bdbd 121e 3a3d 8e13 113c 0ab9 10be
00000070: 0cb5 143d b933 4c3d 408b 3b3d f4ab 0ebd
00000080: 1078 bd39 95d6 2fbd d9bd 27bd 33af 3c3d
00000090: 6834 60bd 097d d23c 94c1 44bd e126 efbd
000000a0: 5b5a c73c 234c 71bd 3566 26bd 4da7 463d
000000b0: c8b5 b2bd 74cd bebb 728c 61bc 7af7 e33d
000000c0: 1338 8dbc b9f5 303d a48e e1bc 25d1 17bc
000000d0: 5fa7 4d3d 28d6 173d e3c7 ad3d 9f0b 94bd
000000e0: 2f43 09bb 5668 18bd 4198 0c3b 074c 87bd
000000f0: ac89 5e3c 9c85 91bd 379a 15bd e0cb db3c
00000100: 956c 88bc d806 bcbc b844 f7ba e6b6 eabd
00000110: 4b8a 90bc dc85 7a3d cc95 a5bd 1987 e03b
00000120: e6be bbbc c357 e8bc e726 16bd 3a29 11bc
00000130: fb08 0dbd 3c4a da3b 3a65 52bd 8755 093d
00000140: 7649 1cbd 0ee9 17bd 049b f2bc 8c7a c8bd
00000150: 8cdf 42bd 2696 56bd 11a5 2c3d 1dad a93d
00000160: 01d7 903d f444 1cbe 025b a13b c7ef 2f3c
00000170: cad2 64bd d193 fbbc 8c51 e53c e958 0e3c
00000180: 1a3b 58bd 80c6 143d 48ab f5bd 118e 59bd
00000190: d038 6d3d 12ff 423d ccee 2b3c b3e5 78bd
000001a0: 8223 f03c 49bc a1bc 88a9 eabd 312e 833b
000001b0: e280 8dbc 50ea b2bc 836a 0abb d6ff 13bd
000001c0: e1a6 bdbd bf64 003d 8387 a8bd c049 31ba
000001d0: 14d0 273d 4cce 5cbd f5fd b03d 1a95 a4bd
000001e0: e80e 84bd 27a8 aebd 4fd3 29bd 8ecf 98bd
000001f0: e5c6 c3bd 7c1d 10bd 026c 8abd c5b8 1dbd
00000200: b5da a73d 732c d03d 72ef 073d dc0a acbd
00000210: 1499 97bc 1842 ddbd 4889 cabd 0882 3f3c
00000220: 649c 273d 870c 68bd 451e 5dbd 9436 5039
00000230: d0b7 3abd b5db dc3c e450 9bbc 33a6 83bd
00000240: 105e 01be 334c 22bd 9f26 123c c000 183c
00000250: bb85 24bc 9173 093c 23d1 0c3c e1c1 933c
00000260: e709 25bd fdb8 a93b f908 08bd 49a1 673d
00000270: 9ea2 043d e9c9 a5bd 218e 17be 90d6 b5bd
00000280: 0cf8 c23b 6fce 12bd 2a34 66bd a92c 7a3d
00000290: 7ac2 333c 76ea 803d 9213 d9bc c45d 553c
000002a0: 6c9c 2ebc 3dbb 30bd 8db3 713c e5d4 dbbb
000002b0: a806 9dbd 473d 14bd 761d 9fba e436 28bd
000002c0: 38ee f2bd c1f0 05bd bde9 b5bb 4722 283d
000002d0: 6841 b9bd 44b8 a6bc 166e 683d fbb3 1fbd
000002e0: 7f89 be3c fd99 abbd 605f 19be bd41 543d
000002f0: 2cd3 8a3c b483 453d dead d8bd a4b4 3f3d
00000300: 8cb7 6ebd a2d0 6b3a 68c3 fcbc 7bc3 74bc
00000310: e7ea d03d c858 bcbc 9162 28bd 631e 453b
00000320: 9996 49bd 424c 9c3a 63df c43d 6b3e 92bd
00000330: 3202 31bb c65a cf3d 3b94 02be 5422 18bc
00000340: 8284 82bd 13bf 88bc 2a7b bfbd 4e66 e5bd
00000350: af0c 503d de7d 75bd 8f4d babd 6dc8 143d
00000360: c0e3 383b 5aec a9bd 2759 95bc c47c 633d
00000370: 8ab0 203b da17 59bd 7801 973d 12c8 8a3c
00000380: cc96 83bb 2de7 73bd 99ac 59bc 9f53 ab3c
00000390: 70c9 89bc a052 e13d 5462 af3d 4f03 2a3b
000003a0: 3ee6 7dbd 3cd3 653d 45e4 99bd 753d 6bbd
000003b0: 4471 14bd f7b9 59bd 8f92 05bd fc6e b3bd
000003c0: e93a b6bb 2ee1 083d d9b8 b73c 4882 c63c
000003d0: 2636 a03d bc64 c6bd 6866 28bd b5c8 aebc
000003e0: 4840 7fbd a8db 173c 8109 053c b4f1 c43c
000003f0: db0a 29be 5aa8 c7bd 36c0 263d 3414 01be
-0.0636534 0.018747786 -0.0087231975 0.026033571 0.06104482 -0.117824525 0.014145922 0.005626431
-0.052662328 -0.03568217 0.057692066 -0.01454497 0.015168335 0.013139879 -0.06860608 -0.05048681
-0.012247878 0.007077103 0.020658012 0.022598034 -0.14715932 0.032574818 0.0050244103 -0.026470857
-0.09274038 0.045438834 0.00885476 -0.14133087 0.036305472 0.049854014 0.045787096 -0.034831956
0.00036138343 -0.04292925 -0.040952537 0.04606552 -0.05473748 0.025694387 -0.048036173 -0.116773374
0.024335077 -0.0589105 -0.040624816 0.048499394 -0.08726078 -0.0058228318 -0.013766395 0.11131187
-0.017238652 0.04320309 -0.027533837 -0.009266173 0.050208446 0.03706947 0.08485391 -0.07228779
-0.0020944586 -0.037208878 0.0021453055 -0.06606298 0.013582628 -0.07105562 -0.036524024 0.026830614
-0.016653338 -0.022952482 -0.0018865084 -0.11460666 -0.017644068 0.061162814 -0.08085212 0.0068520424
-0.022918176 -0.02836216 -0.036658194 -0.008859927 -0.034432393 0.0066616815 -0.05136607 0.03352883
-0.038155995 -0.037087493 -0.029614933 -0.09788999 -0.047576472 -0.052389286 0.042149607 0.08284972
0.07072259 -0.15260679 0.004924179 0.01073832 -0.055865087 -0.030710133 0.027992986 0.00868819
-0.05279074 0.036322117 -0.1199556 -0.053114 0.05791551 0.047606535 0.010493945 -0.060765933
0.029313806 -0.019743102 -0.11458117 0.004003309 -0.01727337 -0.021840245 -0.0021120615 -0.036132656
-0.09260345 0.03134608 -0.08228972 -0.0006763004 0.040969923 -0.053907678 0.086421885 -0.08036251
-0.06448156 -0.08528166 -0.041461285 -0.07461463 -0.095594205 -0.03518437 -0.06758882 -0.038506288
0.08196012 0.10164728 0.033187337 -0.08400509 -0.01850561 -0.10803622 -0.098894656 0.011688717
0.04092063 -0.056652572 -0.053983945 0.00019856758 -0.045585454 0.026960233 -0.01895947 -0.06428184
-0.12633538 -0.03962345 0.008920341 0.009277523 -0.010041649 0.00838937 0.008594784 0.018036785
-0.040292647 0.005179523 -0.033211682 0.056550298 0.032381646 -0.08095152 -0.14800312 -0.08878815
0.0059499796 -0.0358414 -0.05620209 0.061077747 0.01097166 0.0629472 -0.02649859 0.013022844
-0.010657411 -0.043147314 0.014752281 -0.0067087286 -0.07667285 -0.03619125 -0.0012139517 -0.041067973
-0.11861843 -0.032700304 -0.0055515454 0.041048314 -0.090456784 -0.020351537 0.05674561 -0.038990002
0.023258923 -0.0837898 -0.14977789 0.051820505 0.016946398 0.048221305 -0.105800375 0.04680313
-0.058280513 0.0008995627 -0.030854896 -0.014939184 0.10201054 -0.022991553 -0.041109625 0.0030077926
-0.049215887 0.0011924582 0.0961292 -0.071408115 -0.0027009365 0.101247355 -0.12751858 -0.009285528
-0.0637293 -0.016692674 -0.093496636 -0.11201154 0.050793346 -0.05993449 -0.090968244 0.036323953
0.0028211921 -0.082970336 -0.018230988 0.055538908 0.0024519288 -0.053001262 0.07373327 0.016941104
-0.004015779 -0.05954664 -0.013285779 0.020913897 -0.016819686 0.110020876 0.085636765 0.0025941913
-0.061987154 0.056109652 -0.07514242 -0.057431657 -0.03624083 -0.053155866 -0.032610472 -0.08761403
-0.005561222 0.033417873 0.02242701 0.024232045 0.07822828 -0.09687182 -0.041113287 -0.021335939
-0.062317163 0.009268679 0.008119942 0.024041034 -0.16508047 -0.097489074 0.04071065 -0.12605363

hidden_layers.0.bias f4 [128]
00000000: 5de5 87be 36dc 37be eda3 23be 1dda 06be
00000010: 22bb cbbd d66e 85be ab3d c1bc d98d 66be
00000020: 6345 c7bc 20c2 34be fb24 b2bd 066f dabd
00000030: 45eb 47bc bb27 39bf 84ba 94bc 4ea8 84be
00000040: c27f d63d 906a 993d b425 c9be a61f 4c3e
00000050: b98b 70be b75f 973d aac9 98bd 9472 91bd
00000060: dac2 12be d3a0 babd 3889 8dbe ecc8 1dbc
00000070: e51c e9be 8bb6 2d3e eba6 8a3c fe9b 29bd
00000080: 323f 14bd 8575 8ebc 9250 94bd af08 27bd
00000090: 47fd 41be 0934 99bf 4532 a2bd 4a46 8abe
000000a0: 7472 213e 5e7a abbd d051 aabf 6c64 b0be
000000b0: 585d 71be 7472 e6bd 0edd bc3c 102a 31be
000000c0: fcb6 82bf fbd1 34bd 0bc5 0abe 142c c63e
000000d0: 122d 94be 74a7 723f cb8b 81bf 420b 0dbe
000000e0: 3806 06be c4b6 98bd 91bf 75be 4271 bebc
000000f0: e46b 95be 1dbe 413d 5884 fa3d 11c3 16be
00000100: 0c2c 41be 4c21 aebd 9f9b 38bd dd1e 5e3c
00000110: 4027 763a 607e 5c3e 3c88 2dbf cac1 bb3d
00000120: ca66 4fbf c104 07be b72d 873e c970 853f
00000130: 24d7 653e 1b27 90bf 3e24 983d dcc6 83bd
00000140: 0018 393c 4796 d2bd 5414 04be 446a ccbd
00000150: 56a4 a33b 4e62 09be 2df2 8cbd 98f4 b0be
00000160: ba6d 4bbe 55ad fc3c 5489 f7bd 1ccb 8dbd
00000170: c6a4 85be d8d8 31be 0514 3dbe 268c 893c
00000180: 220c 16bf fc03 21be 1e78 1ebe 713a 7fbe
00000190: c6c9 b2bd 264f bfbd 0c13 a6bd 499c 45bd
000001a0: 1f4b 41be f2ba 30be 31f4 08be 291b 1bbe
000001b0: 34fe 9dbe fa72 20bf c362 063e 5fc5 2abe
000001c0: 4f3c 403d 5c4c 2dbe 3de1 b2bd 2ce4 a5be
000001d0: a1a0 d4be c139 32be cda6 c8bd d42c 6ebf
000001e0: c1a1 45be a8ce 4fbe 58c7 39bf 0f59 19be
000001f0: ccef 2abe 892a 08bd a86f 6dbd b1aa 5abd
-0.26542178 -0.17955098 -0.15980501 -0.13169141 -0.09947802 -0.26061124 -0.023588976 -0.22515048
-0.024325078 -0.17652178 -0.0869846 -0.10665707 -0.012202089 -0.7232625 -0.018155344 -0.25909656
0.104735866 0.07491028 -0.39286578 0.19933948 -0.234908 0.07391303 -0.07460339 -0.07101932
-0.14332142 -0.09112706 -0.27643752 -0.009630423 -0.45529857 0.16964166 0.016925296 -0.04140853
-0.03619308 -0.017390022 -0.0724193 -0.040779766 -0.18944274 -1.1969005 -0.079197444 -0.2700675
0.15766317 -0.08372949 -1.3306217 -0.34451616 -0.23570764 -0.11252299 0.023054626 -0.17301202
-1.0212092 -0.044145565 -0.13551728 0.38705504 -0.28940636 0.94786763 -1.0120786 -0.13773826
-0.1308831 -0.07456735 -0.23998858 -0.023247365 -0.29183877 0.047300447 0.12232274 -0.1472285
-0.18864459 -0.085024446 -0.045070287 0.013557163 0.0009390004 0.21532583 -0.67786 0.09167822
-0.8101622 -0.13185407 0.26402065 1.0425044 0.22445351 -1.1261934 0.07428788 -0.06434414
0.011297226 -0.102825694 -0.1289838 -0.09981206 0.0049939556 -0.13416407 -0.06882129 -0.3456161
-0.19866076 0.03084437 -0.1208674 -0.06923506 -0.26102275 -0.17367876 -0.18464668 0.01679046
-0.58612263 -0.15724176 -0.15475509 -0.24924637 -0.087298915 -0.09341268 -0.08109102 -0.04824475
-0.18876313 -0.17258814 -0.13374402 -0.1514708 -0.30858004 -0.6267544 0.13123612 -0.16676854
0.046932515 -0.1692366 -0.08734367 -0.32400644 -0.415288 -0.17404844 -0.0979744 -0.9303715
-0.19299985 -0.20293677 -0.725698 -0.1497538 -0.16693038 -0.03324369 -0.05796781 -0.05338544

hidden_layers.1.weight f4 [64, 128]
00000000: c01c fb3d c837 50bd cc83 20bd 4161 b8bb
00000010: 7acc 263e 8f26 283d e4d8 bbbc cb06 30be
00000020: 5e42 c4bd e7e6 bc3d a7ed 583e 8142 6f3e
00000030: 7128 033e 4077 a53e ebcf a6bd 4b17 5fbd
00000040: 5255 863c 1a86 cbbd afd8 463e 5790 59bd
00000050: 61f4 abbc ea88 64bc 7839 003d fef5 de3d
00000060: 4acf df3d 96be 653e c4b0 a4bc f1e9 f23d
00000070: 1c8b a93c 59c5 4b3d 6072 c93d 429b 6f3d
00000080: 7155 e6bd 38d6 0d3d 3bbb 613d 5152 923d
00000090: 48e6 163e 3a8c 993d fb5f 073e bd98 da3d
000000a0: a522 91bc 461e 493e 3d12 9d3e 3f70 243d
000000b0: 407d aa3d 921e b33c 5286 153c 0c04 70bd
000000c0: ef6f 783e a83b f6bc 8df7 82bd 7432 b2bd
000000d0: b842 303c d8eb 9ebe cf65 463e eecc 803c
000000e0: 1652 c93d 9f3b 23be 034c 873d ab88 8a3d
000000f0: 81fc aabd f290 213d ffef 1bbe 19ef 563e
00000100: e6b5 be3b b9ef 5e3e c402 143e d2f1 4cbb
00000110: a6bd 8dbd a9aa 8bbe f7d6 d3bd 2848 d7bd
00000120: a9a1 85bc d409 0f3e b0dc d4bd 9c80 c8be
00000130: ce7a 7abd c615 b8bd e237 27bd f741 2abe
00000140: 5a92 983d a3f2 f73d 1e33 d1bd b9c0 c3bd
00000150: 15bf bb3d 9fae 873a f08e 563d e5d9 153d
00000160: b1fb 0b3d 8a2b ddba 6eb8 f73d 7d12 033e
00000170: 4e22 c9bd 64af 703d 1004 89bd d3c8 9a3d
00000180: 5860 503e 1497 cfbc 7e3d 3b3e 618c 613c
00000190: 164a 85bc 55b2 613d 0d41 3e3d abf3 42bc
000001a0: a2fc 643d 613b 363e 1b70 9f3d ead3 3dbd
000001b0: 99ab b3bd 1cd8 833c b7b6 db3b 36db 443d
000001c0: b82d c03d 78f9 9a3d 0306 bb3d 4bee 1d3e
000001d0: 1cda 323e 1e97 133e 2e30 6e3e 51f6 213e
000001e0: 9f58 163e 28d4 d03d 49f1 6ebd e59f 8f3e
000001f0: a465 323d f0db a03d ccc6 70bd bb5c 393e
00000200: 0aee e93c 3ed5 8e3c 1fd8 e23e b777 92bd
00000210: fa2e 8d3d 1590 c0bc 901d be3d 7bee 833e
00000220: 7c97 8f3d 586a eebd f827 a43d 37b9 873e
00000230: 0141 0f3d 880a 31bd 8980 a13e 35c6 893d
00000240: 12ab 6abe 7db4 d5bd d133 5dbc f720 cbbd
00000250: f13e f53c f1f3 dfbd 99e4 0e3d a616 393c
00000260: 3610 453e fb3e 1b3e f1d1 063e 7e34 603d
00000270: 60fa 253d b5e7 cc3d bef4 a53c ddab e23c
00000280: bcd1 e5bd 41c3 743e 078c 683e d371 393e
00000290: e98a e13c b643 a4bd b770 95bd c127 353e
000002a0: 6517 79be 9479 9f3d 5e5b 23bc 2abd 733e
000002b0: 0f3f 703e e674 183e 98ce 633c bb54 843e
000002c0: 13a1 8ebe 01fe 7f3c eda5 183e 2966 2fbe
000002d0: 027e 973e e64b f93b ffa8 0bbe 45d2 993e
000002e0: eb40 b53d 57be 8dbd bb97 2d3e 791c d7bd
000002f0: afbc 933e 8a69 16bd 0243 8bbe 895b edbd
00000300: ebae 2a3e d414 993b 46fe 9cb9 dd65 3e3d
00000310: d63a 46be abf3 e23d 58a9 433e e055 b43c
00000320: 99a3 113c 849a 573e 0bb8 9abe 3427 af3e
00000330: 58e9 a7be 1420 74be a317 9cbe 2cb3 79bb
00000340: 7bf5 90bd 224a 4fbe 40ce 283e de2e 7a3e
00000350: 7c23 59be 1275 193e 5eb6 b83d 417c 97bd
00000360: 4964 b23d 8e63 09bd bbe7 c5bc d64f 873e
00000370: b4cf c23e 6285 433e d079 b63e 0059 d93e
00000380: b494 683d 8961 df3d 8bef e43d 5701 dc3c
00000390: 7592 91bd 3a7c 7f3e f859 28be 6695 843d
000003a0: bd29 8b3d 89f5 fe3d 677d cebc ef06 243e
000003b0: 6ebc 293d d5bc 59be 9979 e73c 8b61 ff3d
000003c0: 4ba9 21bb 9cce 823d a567 0abe f436 7a3c
000003d0: 79d0 bb3d 09d7 98bd 5a9b 133e fe69 55bc
000003e0: f3f4 753e 01bc 70bc 6616 dd3d b5f0 433e
000003f0: 8342 6f3e 9ab0 a3bd a5c8 913d b6cc 403e
0.12261343 -0.050834447 -0.03918819 -0.005626828 0.16288939 0.041052397 -0.02293057 -0.17190091
-0.09582971 0.092237286 0.21184407 0.23365213 0.12808396 0.32317543 -0.08145126 -0.054465573
0.016398106 -0.09937687 0.19418596 -0.05311617 -0.020990552 -0.0139486585 0.031304806 0.10886763
0.10928209 0.22435984 -0.02010382 0.11861027 0.020696215 0.049748752 0.098362684 0.058497675
-0.112467654 0.034628123 0.055110198 0.07144607 0.14736283 0.07497449 0.13220207 0.10673664
-0.017716715 0.19640455 0.30677977 0.04014611 0.08324671 0.021865163 0.009126263 -0.05859761
0.2426145 -0.030057743 -0.06394873 -0.087010294 0.0107580945 -0.3103931 0.19374774 0.015722718
0.0983011 -0.15940712 0.06606295 0.067643486 -0.083489425 0.03944487 -0.1522827 0.20989646
0.005820024 0.21771134 0.1445418 -0.0031272066 -0.06920938 -0.2727864 -0.10343736 -0.105118096
-0.016312437 0.13968593 -0.10393655 -0.3916062 -0.061152272 -0.08988528 -0.04082478 -0.16626726
0.07449789 0.12106826 -0.10214828 -0.09558243 0.091673054 0.0010351724 0.05238241 0.036584754
0.03417558 -0.0016873938 0.12095724 0.12800021 -0.09820996 0.058761016 -0.06690228 0.075578354
0.20349252 -0.025340594 0.18285176 0.013766379 -0.016270678 0.05510171 0.046448756 -0.011898915
0.055904992 0.17796089 0.07785054 -0.046344675 -0.08772964 0.01609426 0.006705131 0.04806062
0.0938372 0.07567114 0.09132006 0.15422933 0.17466015 0.14413115 0.23260567 0.15816619
0.14682244 0.101967156 -0.058335576 0.28051677 0.043553963 0.0785445 -0.058783337 0.1810178
0.028555889 0.017435666 0.44305512 -0.0715174 0.06893726 -0.023506204 0.09282982 0.25767884
0.07011315 -0.11641377 0.08015436 0.26508495 0.034974102 -0.043222934 0.31543377 0.06727258
-0.2291682 -0.10434816 -0.0135011235 -0.09918397 0.02993724 -0.109352 0.034885976 0.011296904
0.19244465 0.15160744 0.13166024 0.05473756 0.04052198 0.10005132 0.020258304 0.027669841
-0.11221644 0.23902608 0.22709666 0.18109827 0.027532058 -0.08020727 -0.07296889 0.17690946
-0.2432533 0.07786861 -0.009970514 0.23802629 0.23461555 0.14888343 0.013904236 0.25845894
-0.27857265 0.015624524 0.14907046 -0.17128815 0.29588324 0.0076079248 -0.13638686 0.30043235
0.08850273 -0.0692107 0.16952412 -0.105034776 0.28854892 -0.036721744 -0.2719956 -0.115897246
0.16668288 0.0046716724 -0.00029944087 0.046483863 -0.19358382 0.11081632 0.19107568 0.022013605
0.008889102 0.21055037 -0.3021854 0.34209597 -0.32795215 -0.23840362 -0.30486783 -0.003810118
-0.07078072 -0.20243123 0.16484928 0.24431941 -0.21204942 0.14986065 0.09019159 -0.073967464
0.08710534 -0.03354221 -0.02415835 0.26428097 0.3804909 0.1909385 0.3563981 0.42450714
0.05678244 0.10907275 0.11178502 0.026856108 -0.071080126 0.24949732 -0.1644057 0.06473808
0.0679507 0.12449176 -0.02520628 0.1601827 0.041439466 -0.2126344 0.028256224 0.12469777
-0.0024667557 0.06387064 -0.135161 0.015271891 0.091706224 -0.0746289 0.1441473 -0.013025759
0.24019222 -0.014693261 0.10795288 0.19134791 0.23365216 -0.079926684 0.07118348 0.18828091

hidden_layers.1.bias f4 [64]
00000000: d4d6 84bf 0a7c 0b3f cae5 b83e 1d3b be3e
00000010: 5745 f0bf d4f9 4e3d b831 8a3e 74e8 96be
00000020: 60e6 c23d 4313 ad3f 59cc 58bd d2e2 0c3f
00000030: aa64 0c3e db2a da3e 72cf 503e 9248 84be
00000040: 45b1 863f 1841 2c3f fce9 253e 0eb9 803e
00000050: 9729 c63e ba1f a73e 6dd2 23bd 468c bc3e
00000060: 53a8 2a3e 08a6 b33d 510b 9a3e 820b e2be
00000070: 5c49 6ebe 774c c83d b416 fb3e 7521 4c3e
00000080: 1da0 06bf d2d3 593f 18ad 1340 4bca aebf
00000090: d903 643f d35d 423f d8c1 7bbf cb0e 933e
000000a0: 0893 0b3e 8fc5 0b3e 1c24 e63e 3f01 ea3e
000000b0: 3be3 b03f 993c 763e 0038 013f 1c7c 093e
000000c0: 1eca 98bd d8e2 8b3f 9e28 55be 790d 26be
000000d0: 75d5 b83e 407b f8be 240c e03e a2ad 7e3e
000000e0: 4f3e 253c 8f8e 143f 2dcc 9c3e 4b62 ac3d
000000f0: f213 a4be 5e41 6f3d a011 e43e fad8 353e
-1.037806 0.54486144 0.36112815 0.37154475 -1.8771161 0.050531223 0.26991057 -0.29474223
0.09516597 1.3521503 -0.052929256 0.550336 0.13710275 0.4261082 0.20391634 -0.25836617
1.0522848 0.67286825 0.16202539 0.25141186 0.38703606 0.32641393 -0.0399956 0.3682577
0.16665773 0.08771902 0.3008676 -0.44149405 -0.23270172 0.097802095 0.4904076 0.19934638
-0.52588063 0.8508884 2.3074398 -1.3655485 0.8906837 0.75924414 -0.9834266 0.28722224
0.13630307 0.13649581 0.44949424 0.45704076 1.3819345 0.24046554 0.50476074 0.1342625
-0.07460426 1.0928602 -0.20816275 -0.16216077 0.36100355 -0.48531532 0.43759263 0.24870923
0.010085656 0.5803003 0.30624524 0.084171854 -0.32046467 0.05841195 0.44544697 0.17758551

output_layer.weight f4 [9, 64]
00000000: 206d eb3b de60 a73c 823e a63d 683c 80bd
00000010: ea54 f1bd e0f1 78bd 68d3 763c 4ae6 0cbd
00000020: 4a90 ea3d fda5 c83c 8e32 eebd d5b0 ebbd
00000030: 5aae 673b 3c69 acbc 9232 f7bd 6ec6 8fbd
00000040: 98e0 613d 703b baba a1b7 3a3d da4f f93d
00000050: 96bb eabd f6ba 05bb cfa4 b5bd 82e0 9cbb
00000060: d1a1 e9bd 1428 f0bd f452 333c 026a 063d
00000070: f19f 0d3d eb0f 073c 681a 9fbc 9859 6d3d
00000080: 273b c7bd f2c2 14bc 8358 7dbd 4fb6 52bd
00000090: 1776 c93a de1d 8c3d be1e 743c 7142 84bd
000000a0: f61b a2bd a58c 063c 39f7 423d e8ad 8abd
000000b0: d94b b93d fff6 e23c a184 e13b 82b9 89bd
000000c0: db00 6cbc 3b0b 15bd 309b f33d 47cc 83bb
000000d0: 1bfd 953d 5d30 493d 8716 d53d 2dd3 2cbd
000000e0: 66e4 523d b988 a7bd a459 e2bd 4c32 80bd
000000f0: e9b5 37bd c6fa 6f3c 3108 7a3d d459 a63d
00000100: 6e45 90be ec90 94be 25c3 533f c096 edbe
00000110: b021 903e 6b05 6b3e d658 3b3f 253c b0be
00000120: 722c 67be 66b3 ca3d 5bf4 133f fdca 213d
00000130: b1e5 89bd 3603 d3bd 5ef8 44bd 8d79 ce3c
00000140: b48a e83e edb1 1c3e 93a7 2cbe aee7 b63e
00000150: 094e c7be 6ce2 eabd 11df 4bbd 6df7 b6be
00000160: d4ec 03be 066c 77be 3743 eb3e 7f44 e8bd
00000170: a027 5fbe 1be5 b93e b833 6abf 91ec cc3e
00000180: 43c3 97bd 2f85 60bf a6a3 e9bd 7392 bfbe
00000190: b3a3 cf3d 482d 41bf 1711 cbbd 88dc 143e
000001a0: cd57 f63e 396d ef3c 6e7e 1bbd 824d ccbe
000001b0: b80f 06be 01af f4be b04a c8be b7fc e9be
000001c0: 4cea e13e b729 0d3f ff79 89bd 4bee 313e
000001d0: 0bba d03e b248 8b3d c4fb 4abe c7d1 6b3e
000001e0: 4bac aabd d4dc 06bf aeb8 743e 6dbf 283d
000001f0: 0e75 a83e ea88 e13e d501 f4be ad57 c13e
00000200: d81a 343e 95ae debe 2a57 d43e c172 4f3d
00000210: ad4d 8abf c7f1 ec3d 26a1 ed3e 07d4 1b3f
00000220: d4d4 88be 3327 033f 4c8d a13d 49e9 f83e
00000230: 6bd1 883e 35a1 53bf cf6f fe3d 6974 6a3e
00000240: 2e3c 42be 2599 723f 78fa 843d 05f3 6cbe
00000250: 4689 e9be 4dd3 8bbd 7257 debc cf19 22bc
00000260: 4c3a afbe 0a8a ee3e dc38 8fbe 9a86 58be
00000270: 868a 25bf 2a27 fa3d 6023 ddbe cc3a cbbe
00000280: bf42 3ebf eb73 843f eab0 223c 4ac5 a7bd
00000290: 4594 8dbe 6d1d 053f 648e 2c3d 33ce 2d3f
000002a0: eb0b 203f 352f 56bd 6b1b dbbd 4a8b c03d
000002b0: 01b2 063f 4471 99be 4717 b8be 7137 54bf
000002c0: 78d9 a9bd 5419 713f 8860 be3c 2964 133e
000002d0: 567d 16bf 0ef2 203e 4a71 163f 9397 02be
000002e0: 713b c93d c208 263f e6a9 82bd ea88 c73e
000002f0: 3d69 32bf b12c 853e b50d cfbf 841f 013f
00000300: 1de4 90be ba10 503f d74b 34bf 55df 923e
00000310: 38fe b7bc 45a0 8e3e 957f 1dbf fdbc 7cbf
00000320: d1f8 153e 50d9 3c3f c33c 0abf 6d2b 91be
00000330: d393 303f 0d11 56be b605 8dbf fcba 603e
00000340: 2702 423f ab65 823e e074 b03e 6684 bd3e
00000350: 7c0b 213f 2b71 8abe f4fe 113e 3747 abbc
00000360: 1749 4d3e 81e6 81be 2e77 e2bf 7c4b 17bb
00000370: 87d2 993c 102f 253d b7d9 e4bf 0bcc 9ebd
00000380: f74d 9d3d 426c 993f 9bf1 0e3f 0e61 10bf
00000390: f48d 453f ee22 233e 8249 b5be 5e4f 8e3f
000003a0: 7e67 5e3e 06b3 8c3e 61b9 6d3e 1a35 f3be
000003b0: 0bbb 80bf bd9a 3fbf 56dd 933f c140 203d
000003c0: a0b5 0abf 9e3c 19c0 a08c 3cbd ca04 633e
000003d0: b102 1e3e 6c0b 94be 9a01 f4be d834 453e
000003e0: 8de1 04be e7b1 f5bf a1e8 5a3f 9a0c 16bf
000003f0: b78a 77be 96f1 e2be a911 6b3f f0c9 7c3d
0.0071846396 0.020431932 0.08117391 -0.062615216 -0.11783774 -0.060777545 0.015065052 -0.03439931
0.11453302 0.024493212 -0.11630736 -0.115083374 0.0035351724 -0.021046273 -0.120701924 -0.07020269
0.05514583 -0.0014208388 0.04558528 0.121734336 -0.114615604 -0.0020405627 -0.08869325 -0.0047875056
-0.11407817 -0.11726394 0.010945071 0.03281594 0.03457636 0.008243541 -0.019421771 0.05794677
-0.09728079 -0.009079682 -0.06185199 -0.051443394 0.0015370277 0.06841634 0.014899908 -0.06457985
-0.079154894 0.008212243 0.04759905 -0.06771451 0.0904767 0.027705668 0.0068822657 -0.06724836
-0.014404501 -0.036387663 0.11894834 -0.0040221545 0.07323667 0.04911839 0.104046874 -0.04219358
0.05148735 -0.08180375 -0.11052254 -0.06259593 -0.044851217 0.014647191 0.06104297 0.08122602
-0.2817797 -0.29016817 0.8271964 -0.46404076 0.28150702 0.22951286 0.7318243 -0.34420887
-0.22575548 0.09897499 0.5779473 0.039500225 -0.06733263 -0.10303347 -0.048088424 0.025204444
0.45418322 0.15302248 -0.168608 0.35723633 -0.38926724 -0.11468968 -0.04977328 -0.35735646
-0.12883312 -0.24162301 0.45949718 -0.113411896 -0.2179246 0.36307606 -0.91485167 0.40024236
-0.0741029 -0.8770322 -0.114081666 -0.3741642 0.10138645 -0.7545972 -0.09915369 0.14537251
0.48113862 0.029226886 -0.03796237 -0.39902884 -0.13091934 -0.47789767 -0.39119482 -0.4570062
0.44124067 0.55141777 -0.06712722 0.17376058 0.4076694 0.06800975 -0.19822603 0.23029242
-0.083336435 -0.52680707 0.23898575 0.041198183 0.32901806 0.4404977 -0.47657648 0.37762204
0.17588365 -0.4349257 0.4147275 0.050646547 -1.0804955 0.11569553 0.4641201 0.60870403
-0.26724875 0.5123169 0.07888278 0.48615482 0.26722273 -0.8266786 0.124236695 0.2289597
-0.18968269 0.9476493 0.064930856 -0.2313958 -0.45612544 -0.06827412 -0.027141307 -0.009893849
-0.34224164 0.4658969 -0.27973068 -0.21145096 -0.64664495 0.12214501 -0.4319105 -0.39693296
-0.74320596 1.0347875 0.009929875 -0.08191927 -0.27652183 0.51998025 0.04212798 0.6789276
0.62518185 -0.052291114 -0.10698589 0.09401567 0.5261536 -0.29969227 -0.3595526 -0.82897097
-0.08293432 0.9417927 0.023239389 0.14393677 -0.58785 0.15717337 0.58766615 -0.12753133
0.09825791 0.64857113 -0.06380062 0.38971645 -0.6969183 0.2601066 -1.6176058 0.50438714
-0.28299037 0.8127552 -0.7042822 0.28686014 -0.022460088 0.2785665 -0.615228 -0.98725873
0.14645697 0.7376909 -0.53998965 -0.28353444 0.6897556 -0.20904942 -1.1017368 0.21946329
0.75784534 0.25468192 0.3446417 0.37015074 0.6290815 -0.27039465 0.14257413 -0.020907981
0.20047413 -0.25371173 -1.7692621 -0.0023085764 0.018777145 0.040328085 -1.7878941 -0.07753762
0.07680886 1.1986163 0.5583741 -0.56398094 0.7716973 0.15931293 -0.35407645 1.1117971
0.21719167 0.27480334 0.23215248 -0.4750145 -1.0057081 -0.74845487 1.1551921 0.039124254
-0.5418339 -2.3943248 -0.046032548 0.22169796 0.15430714 -0.28914964 -0.47657472 0.1925844
-0.12976666 -1.9194916 0.85511214 -0.5861298 -0.2417401 -0.4432494 0.9182382 0.06171602

output_layer.bias f4 [9]
00000000: 06ba dcbd 96a1 5dbf 014a c83e fbd0 de3e
00000010: df64 ea3e cbcc d63e b822 693f e16e 003f
00000020: be16 c93e
-0.10777669 -0.86574686 0.3911896 0.43518814 0.45780084 0.4195312 0.910686 0.5016919
0.39275163
