results/torch_deep_mlp_model.pt (torch, 440191 bytes, 6 tensors)

hidden_layers.0.weight f4 [128, 784]
0	0x3d3f7d15	0.046750147
1	0x3bc3482c	0.0059595313
2	0x3c2f5376	0.010701051
3	0x3d068471	0.03284115
4	0x3d5360a0	0.05160582
5	0x3d1da2fa	0.038485505
6	0x3cf292a9	0.029610949
7	0xbb0a196a	-0.0021072277
8	0x3d03eb64	0.032206908
9	0x39316468	0.0001691744
10	0x3c8220b8	0.015884742
11	0xbcc02ddd	-0.02345937
12	0xba44c22c	-0.00075057405
13	0x3c91a2d2	0.017777834
14	0x3c5819a7	0.01318971
15	0xbcc38cf8	-0.02387093
16	0x3cd51177	0.026009304
17	0xbc2803c8	-0.010254808
18	0x3b048d0c	0.0020225672
19	0xbd1024f8	-0.035191506
20	0x3c5303d7	0.012879333
21	0x3b4ca909	0.0031228682
22	0x3d0ec7a7	0.034858372
23	0x3d274a3c	0.04084228
24	0xba85917b	-0.0010190451
25	0x3c00d55b	0.007863368
26	0xbadf6904	-0.0017044847
27	0x3c1466d8	0.009057723
28	0x3d1dd119	0.03852949
29	0xbc964a3a	-0.01834594
30	0x3bf0f46c	0.007353356
31	0xbcecc634	-0.028903104
32	0xbcfcf807	-0.030879987
33	0xbc7b3bb8	-0.015334062
34	0x3b8d6b11	0.004315742
35	0xbce823b0	-0.02833733
36	0xbd0e9c7f	-0.034817215
37	0xbcb95c7c	-0.022627108
38	0xbc5dca0a	-0.013536939
39	0xbd3a6568	-0.045506865
40	0xbd367701	-0.044547085
41	0xbca737d9	-0.020412372
42	0xbd203ed0	-0.039122403
43	0xbd0070e3	-0.031357657
44	0xbc37dd7d	-0.0112222405
45	0xbd1ef0c2	-0.038803823
46	0xbd403554	-0.046925858
47	0xbc0d0a65	-0.008608435
48	0x3beaafd5	0.007162074
49	0x3c9dc4e3	0.019258922
50	0x3c92a9b2	0.017903183
51	0xbd15ac1d	-0.036541093
52	0xbd03e0c7	-0.032196786
53	0xbca11f2b	-0.019668182
54	0xbb65bdf6	-0.0035055852
55	0x3cffc22d	0.03122052
56	0x3c22e8a3	0.00994316
57	0xbb9dad2a	-0.0048119025
58	0x3cb583fc	0.022157662
59	0x3c7073e8	0.014676072
60	0x3c94b28e	0.018151548
61	0xbbf6cdea	-0.007531871
62	0xbbc0a102	-0.0058785686
63	0xbcf6a3fb	-0.030107489
64	0xbca04776	-0.019565325
65	0xbcd839ba	-0.026394714
66	0xbcb8c883	-0.022556549
67	0xbcbfa60b	-0.023394605
68	0xbc75f2c0	-0.015011489
69	0xbc61379a	-0.013746167
70	0xbc5b125a	-0.013371075
71	0x3c89942e	0.01679429
72	0x3c37f20b	0.011227141
73	0x3cbe2ec8	0.023215666
74	0xbd07033f	-0.03296208
75	0xbd1ac22c	-0.037782833
76	0xbbdfd174	-0.0068303887
77	0xbb2eae0a	-0.0026654028
78	0x3c1408de	0.009035317
79	0x3c838b57	0.016057653
80	0x3c71e0e2	0.014763089
81	0x3b249a8d	0.0025116534
82	0xbc9cbadf	-0.019132076
83	0xbc0ca630	-0.008584544
84	0x3cc4546b	0.023966035
85	0x3b0ce1b5	0.0021496837
86	0xbbe74426	-0.0070576845
87	0xbc3e1f2a	-0.01160411
88	0xbb20c800	-0.0024533272
89	0xbc5e718d	-0.013576877
90	0xbcdeff40	-0.027221322
91	0xba23f230	-0.00062540453
92	0xbcca355d	-0.024683649
93	0xbce6580c	-0.028118156
94	0x3c889b49	0.016675608
95	0xbd1e7214	-0.038683012
96	0x3c11182d	0.008855862
97	0xbb955a70	-0.0045579
98	0xbc51b732	-0.012800025
99	0x3c320869	0.010866263
100	0x3c736921	0.014856608
101	0x3c20ca5a	0.009813869
102	0xbd09ab4e	-0.033610635
103	0x3cb3891d	0.021915967
104	0x3cce6afb	0.025197497
105	0xbce1b031	-0.027549835
106	0x3cd25f1a	0.025680114
107	0x3c3c471e	0.011491565
108	0x3cd7fff7	0.02636717
109	0x3bdaecb8	0.006681051
110	0xbb4e6a9e	-0.0031496654
111	0x3cecd51b	0.02891021
112	0x3c4de714	0.0125673
113	0x3c32bff5	0.010910024
114	0x3d1f3944	0.038872972
115	0x3cba6fa8	0.02275832
116	0x3bffcc25	0.0078063183
117	0xbc861ef6	-0.016372185
118	0xbd1d2e59	-0.03837428
119	0x3ce6b3fa	0.028161991
120	0xbcb1b014	-0.021690406
121	0xbc735e42	-0.014854016
122	0xbced85d9	-0.028994488
123	0xbc9a462c	-0.018832289
124	0xbb852333	-0.004063034
125	0xbc567bcd	-0.01309104
126	0x3bf89251	0.0075858016
127	0xbd217430	-0.039417446
128	0xbce1ff0f	-0.027587442
129	0x3c19b24b	0.009380887
130	0xbccbf906	-0.024899017
131	0xbc9701d5	-0.01843349
132	0xbce56497	-0.028002067
133	0x3ae4fe40	0.0017470792
134	0xbc8fa76a	-0.017535884
135	0xbcb9d374	-0.022683837
136	0xbbd1702b	-0.0063915453
137	0xbd2bfe2d	-0.041990448
138	0xbc90f53f	-0.017695067
139	0x3bee8e36	0.0072801365
140	0x3d3cad18	0.046063513
141	0xbc4e3abf	-0.012587248
142	0xbbe06a79	-0.00684863
143	0x3b1f771d	0.0024332472
144	0xbc6aea3c	-0.014338072
145	0x3d104149	0.03521851
146	0x3c971060	0.018440425
147	0xbc3ae49a	-0.011407042
148	0xbc3d834f	-0.011566951
149	0xbce0eae3	-0.027455753
150	0xbba5b955	-0.0050574937
151	0x3b127753	0.0022348955
152	0xbd084f35	-0.033278663
153	0xbced5508	-0.02897121
154	0xbd22f00b	-0.039779704
155	0xbcd2ec0b	-0.02574732
156	0xbc3844a8	-0.011246838
157	0xbd3052c2	-0.043047674
158	0xbd309e34	-0.043119624
159	0xbd154f16	-0.036452375
160	0xbce5acc9	-0.028036492
161	0xbb0c17a4	-0.0021376396
162	0x3ab416de	0.0013739725
163	0xbcd9133b	-0.026498428
164	0x3bf55a52	0.0074875737
165	0xbcfeb222	-0.0310908
166	0x3ba5be16	0.0050580604
167	0xba7cafc3	-0.00096392276
168	0xbcb17063	-0.021660035
169	0xbce36859	-0.027759718
170	0xbbfa76d7	-0.0076435613
171	0xbcecbecd	-0.028899575
172	0x3cd386f9	0.025821196
173	0xbc4a73ba	-0.012356693
174	0xbb3c5db2	-0.002874237
175	0xbccd7ca1	-0.025083842
176	0xbccd937b	-0.025094738
177	0x3c769f90	0.015052691
178	0xbce93a8f	-0.028470306
179	0x3c662bbd	0.014048514
180	0xbd076fa8	-0.033065468
181	0xbc09d335	-0.008412172
182	0xbc30a11f	-0.010780602
183	0xbd278785	-0.040900726
184	0xbd3dfaf3	-0.046381902
185	0x3ca2f879	0.019893872
186	0x3cbda570	0.023150176
187	0xbc6a15ab	-0.014287393
188	0xbc0c1e02	-0.008552076
189	0x3c1d7697	0.009610794
190	0x3c950b4f	0.018193869
191	0xbcabcf2e	-0.020972814
192	0xbb5835e8	-0.0032991115
193	0x3cf5502b	0.029945454
194	0x3cb6b1ea	0.022301633
195	0xbb90236d	-0.0043987543
196	0x3c76b752	0.015058355
197	0xbb8a4760	-0.0042199343
198	0xbcaa807e	-0.020813223
199	0x3bcad078	0.006189402
200	0x3d12aefb	0.035811406
201	0x3d4316ca	0.047629155
202	0xbc89f2cf	-0.016839413
203	0xbcf37481	-0.02971864
204	0xbd01461e	-0.03156101
205	0xbcc0ff74	-0.02355931
206	0x3ca93d4f	0.020659117
207	0xbc4d12ef	-0.012516721
208	0x3b043e2f	0.0020178666
209	0xbc577ee5	-0.013152813
210	0xbcf94865	-0.030430028
211	0x3a822439	0.0009929008
212	0x3c3f1be3	0.011664364
213	0x3b6fbe7a	0.0036582039
214	0xbc9ec751	-0.01938215
215	0xbaf48237	-0.001865453
216	0x3c14de18	0.009086154
217	0x3c971cb4	0.018446304
218	0x3b57defb	0.0032939303
219	0xbcbed7bb	-0.023296228
220	0xbc8111ac	-0.015755497
221	0x3b6ef01e	0.003645904
222	0xbc589e3e	-0.013221322
223	0x3c7ebc49	0.01554782
224	0xbcb99a18	-0.022656485
225	0x3cf2c0d6	0.029632967
226	0xbcfd470e	-0.03091767
227	0x3c5dedb5	0.013545443
228	0x3b4f2af8	0.0031611305
229	0x3cb3575d	0.021892244
230	0x3d205f2f	0.039153274
231	0xbd0df821	-0.034660462
232	0xbb8539d4	-0.0040657315
233	0x3bf187a0	0.007370904
234	0xbce1ec2a	-0.027578432
235	0xbbe5fefe	-0.007018923
236	0xbd269640	-0.040670633
237	0xbd1e4e77	-0.03864905
238	0x3ca97726	0.020686697
239	0xbd2d687b	-0.04233597
240	0xbd80a9f8	-0.06282419
241	0x3adb7867	0.0016744257
242	0x3bc4269d	0.0059860484
243	0x3bd9beb9	0.0066450504
244	0xbc5982dd	-0.013275829
245	0x3c8bd3f3	0.017068839
246	0xbc9f05e6	-0.019411992
247	0xbca3a869	-0.019977765
248	0xbbc849d2	-0.0061123157
249	0x3b8b099d	0.0042430894
250	0xbceec0b6	-0.029144626
251	0x3cd77304	0.02629996
252	0x3d37e79c	0.044898614
253	0x3ccdc170	0.025116652
254	0x3bad8942	0.0052959034
255	0xbb351004	-0.0027627954

hidden_layers.0.bias f4 [128]
0	0xbf35c992	-0.71010697
1	0xbda3e443	-0.08002522
2	0x3d7b2f3f	0.061324354
3	0xbcec71b4	-0.028862812
4	0x3a000883	0.0004884081
5	0x3c7effe7	0.015563942
6	0x3e9bbee5	0.30419078
7	0xbc2d0735	-0.0105608
8	0xbad51215	-0.0016255999
9	0x39949b7c	0.00028344605
10	0xbba5fb4c	-0.0050653573
11	0xbc217f85	-0.009857063
12	0x3dc4d878	0.09611601
13	0xbc519e01	-0.012794019
14	0xba09ebb4	-0.0005261258
15	0xbd0955d5	-0.03352912
16	0xbd3346cd	-0.043768693
17	0xbf18f21b	-0.59744424
18	0xbe011170	-0.12604308
19	0xb952841f	-0.0002007638
20	0xbd1a533a	-0.037677027
21	0xbcf79a53	-0.030224955
22	0xbc82fa3d	-0.015988464
23	0xbdb46667	-0.08808594
24	0xbece6236	-0.40309304
25	0xbd70c3f2	-0.058780618
26	0x3d3daf1f	0.046309587
27	0xbcd6a2c0	-0.026200652
28	0xbed1a954	-0.409495
29	0xbd972a70	-0.07381141
30	0xbef1c744	-0.4722234
31	0x3e02c85c	0.12771744
32	0xbdc452b2	-0.095860854
33	0xbd7f6d64	-0.062360182
34	0xbd1ec6fe	-0.038763992
35	0xba29478b	-0.0006457499
36	0xbdb42fa0	-0.08798146
37	0xbd11bbfe	-0.035579674
38	0xbdcc693c	-0.09981009
39	0x3d0b13cd	0.03395443
40	0xbe0d2f44	-0.13787562
41	0xbd1e76d9	-0.03868756
42	0xbd41845f	-0.04724538
43	0xbd9d9c5c	-0.07695839
44	0x3c0b1ab5	0.008490254
45	0xbd77640e	-0.060398154
46	0xbe73f3c8	-0.23823464
47	0xbf11abe2	-0.569029
48	0xbd2c6723	-0.042090546
49	0xbcfec248	-0.0310985
50	0x3d05fd38	0.03271219
51	0xbd05e15a	-0.032685615
52	0xbd1ef427	-0.03880706
53	0x3d0deefa	0.034651734
54	0xbcf10bd5	-0.029424587
55	0xbe512ca3	-0.20427184
56	0x3cc426a3	0.023944205
57	0x3f052fa1	0.520258
58	0xbd157c59	-0.03649554
59	0x3ab7be44	0.0014018496
60	0x3d444c37	0.047924247
61	0xbcff4e3e	-0.031165238
62	0x3ba235e1	0.0049502705
63	0xbc6548db	-0.013994421
64	0xbd15af9d	-0.03654443
65	0xbea43918	-0.3207481
66	0x3d181f64	0.03713931
67	0xbceb745c	-0.028742008
68	0xbc808de2	-0.015692655
69	0xbceb3ec9	-0.028716462
70	0xbf15c3ff	-0.5850219
71	0xbe0a97c0	-0.1353445
72	0xbd15c3a5	-0.036563534
73	0xbd51602f	-0.05111712
74	0xbc890be9	-0.016729312
75	0xbd0e4fd3	-0.034744095
76	0x3c3abfde	0.011398284
77	0xbcd3d215	-0.02585701
78	0x3cf46a4e	0.029835846
79	0xbd74475f	-0.059638377
80	0xbddd491f	-0.10804962
81	0xbe62b278	-0.22138393
82	0x3f5c4cba	0.86054575
83	0xbd6b576c	-0.05745642
84	0xbe4f3375	-0.20234473
85	0xbbf7837f	-0.0075535174
86	0x3c87bc95	0.016569415
87	0xbce0cb30	-0.027440637
88	0xbcea32a8	-0.028588608
89	0xbd462d64	-0.04838313
90	0xbbc01219	-0.0058615324
91	0xbe817f87	-0.25292608
92	0xbd2f1138	-0.04274103
93	0xbd5ea48c	-0.054356143
94	0x3ed4a223	0.4152995
95	0xbdc5c954	-0.09657541
96	0xbbfdf888	-0.0077505745
97	0xbd7e03c2	-0.062015302
98	0x3cdfe360	0.0273301
99	0xbdcffc42	-0.10155536
100	0x3de8b6be	0.1136298
101	0xbe675d4c	-0.22594184
102	0xbc9af89a	-0.01891737
103	0xbd064f2b	-0.032790344
104	0xbce2efd6	-0.027702253
105	0xbd6f4636	-0.058416568
106	0xbd14b50e	-0.03630548
107	0xbab22b28	-0.0013593184
108	0xbed6327b	-0.4183539
109	0xbdaf4212	-0.08557524
110	0xbd895e02	-0.06707384
111	0xbce2c68e	-0.027682569
112	0x3d401ca1	0.046902303
113	0xbcc9911e	-0.02460533
114	0xbca53680	-0.02016759
115	0xba868410	-0.0010262746
116	0xbd4ac2df	-0.04950225
117	0xbd6c0562	-0.05762232
118	0xbdd4e408	-0.10395056
119	0xbe0f39de	-0.13986918
120	0x3d20c004	0.03924562
121	0xbe66e5ad	-0.22548552
122	0xbd421684	-0.047384754
123	0x3de1a9e3	0.110187314
124	0xbdec504a	-0.115387514
125	0xbe0fb7c8	-0.1403495
126	0xbddb72b5	-0.10715238
127	0xbd13fc73	-0.036129426

hidden_layers.1.weight f4 [64, 128]
0	0xbd6ee379	-0.058322404
1	0xbc51fae9	-0.012816169
2	0xbdf6d6d6	-0.120526955
3	0xbdbbed7b	-0.09176155
4	0xbcbe7bd6	-0.023252409
5	0x3d8aab28	0.06770927
6	0x3d32f15a	0.043687202
7	0x3e1d2669	0.15346684
8	0xbc3b1661	-0.01141891
9	0x3de874ae	0.1135038
10	0xbdce0005	-0.100585975
11	0x3d555fec	0.05209343
12	0xbd2e9781	-0.042624954
13	0xbd0bca63	-0.034128558
14	0xbd709ed5	-0.058745224
15	0xbd88fbc3	-0.06688645
16	0x3d80afaa	0.06283505
17	0x3dbc546a	0.09195788
18	0x3dc62c1b	0.09676381
19	0xbd85f919	-0.06541652
20	0x3d133dda	0.035947658
21	0xbd94938e	-0.07254706
22	0x3dcff01a	0.101532176
23	0xbdfb881d	-0.12281821
24	0x3d590a3c	0.052988276
25	0x3e10add8	0.14128816
26	0x3de35fb6	0.1110224
27	0x3db2e7e3	0.08735635
28	0xbdcf7b7d	-0.101309754
29	0xbd77609e	-0.060394876
30	0xbd9a7fda	-0.07543917
31	0x3c65cdb4	0.014026094
32	0x3e1c5de5	0.15270193
33	0x3d1787ef	0.03699487
34	0x3c2a2cd6	0.010386666
35	0xbd4216f7	-0.047385182
36	0xbdcff52b	-0.10154184
37	0x3df39eed	0.11895547
38	0xbd227991	-0.039666716
39	0x3ddfd83e	0.10929917
40	0xbc76b9e6	-0.01505897
41	0x3de0a22b	0.10968431
42	0xbde50f49	-0.11184556
43	0x3de77359	0.11301298
44	0x3c74e852	0.014947968
45	0x3ddec620	0.10877633
46	0xbda012cc	-0.07816085
47	0xbdabc21a	-0.08386631
48	0x3da15163	0.078768514
49	0xbd4616b1	-0.048361484
50	0xb90c9deb	-0.0001341027
51	0x3df8ec93	0.12154498
52	0x3de75dac	0.11297163
53	0xbcf5d6e6	-0.030009698
54	0x3d82f29b	0.063939296
55	0x3a9624a4	0.0011455012
56	0xbd8a58bf	-0.06755208
57	0x3cb0608f	0.021530418
58	0x3cedfbe6	0.029050779
59	0xbc81850b	-0.01581051
60	0x3dc1c2f2	0.09461011
61	0x3db6dab6	0.089284346
62	0xbd67bd3c	-0.056576952
63	0x3df09e1b	0.11748906
64	0x3d9d44c7	0.07679134
65	0xbde2cfac	-0.110747665
66	0xbbd5b4e5	-0.0065218084
67	0xbc8a176b	-0.01685687
68	0x3d5a3b10	0.053278983
69	0xbd81f05c	-0.06344673
70	0xbe19985b	-0.14999525
71	0xbbe90c08	-0.00711203
72	0xbdc0b62d	-0.09409747
73	0x3e07dd07	0.13267909
74	0xbd47896a	-0.048715033
75	0xbbd29511	-0.0064264615
76	0xbc3d80c3	-0.011566344
77	0xbdc65548	-0.09684235
78	0xbd865f83	-0.06561186
79	0xbd326115	-0.043549616
80	0x3c9cd8cc	0.019146346
81	0xbd06bbed	-0.032894064
82	0x3d37798c	0.04479365
83	0x3e03a032	0.12854078
84	0x3c08294f	0.00831063
85	0xbd86fb7b	-0.06590935
86	0x3d6d0448	0.05786541
87	0x3d93c057	0.0721442
88	0xbd73f11d	-0.059556115
89	0x3d3b85f6	0.045782052
90	0xbd72423e	-0.059145205
91	0xbddb5a8f	-0.10710632
92	0xbd9633ae	-0.07334076
93	0x3dc30fc1	0.09524489
94	0xbd70c966	-0.05878582
95	0x3d9bef49	0.076139994
96	0x3c5096f3	0.012731302
97	0xbd2ca056	-0.042145096
98	0x3d158e83	0.036512863
99	0xbdab4ef6	-0.0836467
100	0x3dccf0ca	0.10006864
101	0xbdd64fa9	-0.10464413
102	0x3e0604cf	0.13087772
103	0x3d150e11	0.036390368
104	0x3dbeba00	0.093128204
105	0xbd1eca55	-0.038767178
106	0x3d1c7248	0.038194925
107	0x3e3c03e0	0.18360853
108	0xbcbf588e	-0.023357656
109	0x3dc2ad26	0.09505682
110	0x3c083da5	0.008315478
111	0xbbeb5c1c	-0.007182611
112	0x3da1b203	0.07895281
113	0x3d29a623	0.041418206
114	0x3e32084f	0.17385982
115	0xbda78ec6	-0.08181529
116	0x3d4c4616	0.049871527
117	0x3dd45688	0.10368067
118	0x3d437394	0.047717646
119	0xbca127b3	-0.01967225
120	0x3b443a0e	0.002994183
121	0x3d1d19bb	0.038354617
122	0xbd83cc54	-0.06435457
123	0x3c6ab380	0.014325023
124	0x3c6f6631	0.014611767
125	0xbc315dc4	-0.010825578
126	0xbd89b39b	-0.0672371
127	0x3cba7e6b	0.022765359
128	0xbd4b943f	-0.049701925
129	0x3e1e514b	0.15460698
130	0xbc754fee	-0.01497267
131	0xbd8e8642	-0.069592014
132	0xbd8c300f	-0.06845104
133	0x3c5bb8a3	0.01341072
134	0x3d299709	0.041403804
135	0xbe69e402	-0.22840884
136	0xbd96b589	-0.07358844
137	0xbe7c9407	-0.24665843
138	0xbdae6e80	-0.0851717
139	0xbd0b2552	-0.03397114
140	0xbc5b70e1	-0.013393612
141	0xbe3c205b	-0.18371718
142	0xbd8a1314	-0.0674192
143	0xbd86434d	-0.06555805
144	0xbcf27683	-0.029597526
145	0x3e200e65	0.15630491
146	0xbe591774	-0.21200353
147	0x3ad5db77	0.0016316016
148	0xbdc0dddd	-0.09417317
149	0xbe0c04e0	-0.13673735
150	0xbc8bdc32	-0.01707277
151	0xbd202f34	-0.039107516
152	0x3d17b021	0.037033204
153	0xbe5898b8	-0.21152008
154	0xbe40661e	-0.18788955
155	0xbe1f75ef	-0.15572332
156	0xbc394cc7	-0.011309809
157	0xbc6ff2df	-0.014645307
158	0xbc824521	-0.015902104
159	0xbd4bb604	-0.04973413
160	0xbded3e84	-0.115841895
161	0xbdfaed5c	-0.12252304
162	0xbe482eed	-0.19549151
163	0xbc9c3a2b	-0.019070705
164	0xbd396156	-0.045258842
165	0xbd8d2c7e	-0.06893252
166	0xbe10c91d	-0.14139219
167	0xbdd30282	-0.10303213
168	0x3dc716a0	0.09721112
169	0xbd8966f8	-0.06709093
170	0xbdb8a8af	-0.09016549
171	0xbe36da65	-0.17856748
172	0x3d88e3cd	0.066840746
173	0xbe53cf42	-0.20684531
174	0xbd90f796	-0.07078473
175	0x3dfdf2cb	0.12399825
176	0xbd0d8b6f	-0.034556802
177	0x3ccc473f	0.024936317
178	0xbd4f5ce5	-0.0506257
179	0xbe801058	-0.2501247
180	0xbe1ef66c	-0.1552369
181	0x3dd90dc6	0.1059833
182	0xbe2291fc	-0.15876001
183	0x3df0f908	0.11766249
184	0x3d66a1cd	0.05630665
185	0x3e2719cc	0.16318434
186	0xbe57ddc3	-0.21080689
187	0x3c3d772d	0.011564058
188	0x3d9b2522	0.07575442
189	0x3d9991e2	0.07498528
190	0x3d94359d	0.072367884
191	0xbded4852	-0.1158606
192	0xbe1cbf92	-0.15307453
193	0x3da99914	0.082811505
194	0x3e2050a7	0.15655766
195	0xbdfd2ebe	-0.12362431
196	0xbcd895ff	-0.026438711
197	0xbd5ff935	-0.05468102
198	0x3bf0b791	0.0073461016
199	0xbd69b65b	-0.057058673
200	0xbd73881b	-0.059455972
201	0xbe260a35	-0.16214831
202	0xbcb7abc1	-0.022420766
203	0xbd33cce5	-0.043896575
204	0xbdc585d7	-0.096446685
205	0x3cc82a50	0.024434239
206	0xbcd4ba5b	-0.025967767
207	0x3d8d4193	0.06897273
208	0xbc053a20	-0.008131534
209	0x3d276c9f	0.040875074
210	0x3e5664d6	0.20936903
211	0xbe5d0199	-0.2158264
212	0x3d5c2a3e	0.053751223
213	0xbd68cd5d	-0.056836475
214	0xbaa78924	-0.001278196
215	0xbe5b548b	-0.2141897
216	0xbe2bf809	-0.16793837
217	0x3dcc7ee6	0.099851415
218	0x3d41405b	0.047180515
219	0xbd8c8fd8	-0.068633735
220	0x3da55b30	0.08074033
221	0xbe351839	-0.17685021
222	0x3d6bf977	0.057610955
223	0xbd87059b	-0.06592866
224	0xbd55e6c1	-0.052222017
225	0xbccf686e	-0.02531835
226	0x3dfce34f	0.12348043
227	0xbc1a1b73	-0.0094059585
228	0x3da6754e	0.08127843
229	0x3dc324ca	0.09528501
230	0xbe0c4328	-0.13697493
231	0xbe5b97f3	-0.21444683
232	0xbd84de68	-0.06487733
233	0x3d3ed187	0.04658654
234	0xbe602345	-0.21888454
235	0xbdec4658	-0.115368545
236	0xbd03e361	-0.032199267
237	0xbe0b9a63	-0.13633113
238	0xbddbcf59	-0.10732908
239	0xbd805c48	-0.06267601
240	0xbdee3542	-0.11631252
241	0x3c60d787	0.013723261
242	0xbe4adfc3	-0.19811921
243	0xbdbda496	-0.09259908
244	0xbe1a660e	-0.15077993
245	0xbdc182c3	-0.09448769
246	0xbe7766ab	-0.24160258
247	0x3cb9988e	0.022655752
248	0xbd5d0b81	-0.05396605
249	0x3e0e9b4b	0.13926427
250	0xbbd24097	-0.006416391
251	0xbd186421	-0.037204865
252	0x3b872f97	0.004125546
253	0x3e2e2a23	0.17008261
254	0x3da8b566	0.08237724
255	0xbdebb997	-0.11510008

hidden_layers.1.bias f4 [64]
0	0x3f2b78e3	0.66981333
1	0x3be88f50	0.0070971623
2	0x3f952505	1.1651922
3	0x3c24c491	0.010056631
4	0x3e512d4e	0.20427439
5	0x3f432759	0.76231915
6	0x3eee984d	0.4660057
7	0xbd635331	-0.05549926
8	0x3f8d5ece	1.1044557
9	0x3df56962	0.11982991
10	0xbd9357b2	-0.07194461
11	0xbccd1135	-0.025032619
12	0x3d8049ea	0.06264098
13	0x3f85d054	1.0454202
14	0xbda61b22	-0.08110644
15	0x3f9b0679	1.211135
16	0x3d27c0e9	0.040955458
17	0xbd70ef95	-0.058822233
18	0xbda80e0c	-0.08205804
19	0x3e4f0207	0.20215617
20	0x3ea8416b	0.3286241
21	0x3cc8adac	0.024496876
22	0xbd9a74c3	-0.07541802
23	0x3e367f3a	0.1782197
24	0xbe30b4e8	-0.1725651
25	0x3dd121b0	0.102115035
26	0xbd33b7db	-0.04387651
27	0x3e7f40d3	0.24927072
28	0x3f463e86	0.77439153
29	0x3e058abf	0.13041209
30	0xbd5909d5	-0.052987892
31	0xbc31c599	-0.010850334
32	0x3d42e515	0.04758175
33	0x3bf324aa	0.007420142
34	0xbeac1eaa	-0.33617145
35	0x3dc4636c	0.09589276
36	0x3d765f07	0.06014922
37	0xbd12a6a4	-0.035803452
38	0x3ec60f7d	0.38683692
39	0xbdd7dde4	-0.10540369
40	0xbe8f1973	-0.27949104
41	0x3c8d052e	0.017214384
42	0x3cb31b44	0.021863587
43	0xbe9497c5	-0.2902204
44	0x3f114f0e	0.5676125
45	0x3d6c5ebf	0.057707544
46	0xbe06bbfd	-0.1315765
47	0x3ddbf8e9	0.10740835
48	0x3f3a5fbd	0.72802335
49	0x3e32ce42	0.17461494
50	0x3e71ef4f	0.23626445
51	0x3d820524	0.06348637
52	0x3f5b31c3	0.85622805
53	0x3c8d9990	0.017285138
54	0x3e215b4e	0.15757486
55	0x3e878b4c	0.26473463
56	0x3dc54c92	0.09633745
57	0x3eb36980	0.35041428
58	0xbe62639f	-0.22108315
59	0xbe939a71	-0.28828767
60	0x3e877ef5	0.26464048
61	0x3da48c23	0.080345415
62	0x3e950443	0.29104814
63	0x3e8154f2	0.2526012

output_layer.weight f4 [9, 64]
0	0xbf141cbf	-0.57856363
1	0xbe8aac52	-0.27084595
2	0xbe70806b	-0.23486488
3	0xbdff305d	-0.124603964
4	0xbe10b210	-0.14130425
5	0xbe255670	-0.16146255
6	0xbeb32a36	-0.34993142
7	0xbd44dc22	-0.048061498
8	0xbf8875cc	-1.0660949
9	0xbc103ab6	-0.00880306
10	0xbda52bf5	-0.08065025
11	0x3dd780f6	0.10522644
12	0xbdf25475	-0.11832515
13	0xbf86a4e0	-1.0519066
14	0xbd97140a	-0.07376869
15	0xbf0b0583	-0.54305285
16	0xbca7e639	-0.02049552
17	0xbdf0c70a	-0.11756714
18	0x3e2a7c93	0.16649084
19	0xbe3971b1	-0.18109776
20	0xbf2d2877	-0.6763987
21	0xbc13f705	-0.009031062
22	0x3cedbade	0.02901977
23	0x3d1e4ed4	0.038649395
24	0xbe37e6f8	-0.17959201
25	0x3eda7cba	0.42673284
26	0x3dbea2fc	0.093084306
27	0xbe3caa1b	-0.18424265
28	0xbec54610	-0.38530016
29	0xbdaa1447	-0.08304649
30	0xbd48a5fe	-0.048986427
31	0xbd0982ed	-0.033572126
32	0x3ef45cf1	0.4772716
33	0x3dbe836b	0.0930241
34	0xbd153b20	-0.03643334
35	0x3cb622d1	0.022233399
36	0x3c80b041	0.015709044
37	0xbd3471be	-0.044053786
38	0xbf002c46	-0.50067556
39	0x3de9f02e	0.11422764
40	0x3ce4a92c	0.027912699
41	0xbca12279	-0.019669758
42	0x3d73d0e1	0.059525374
43	0x3ecdf8fc	0.40229023
44	0xbf13c63e	-0.5772437
45	0x3df8c44e	0.12146817
46	0x3a883d33	0.0010394215
47	0x3e2920bb	0.16516392
48	0xbf2cb233	-0.6745941
49	0x3e7ec1ca	0.24878612
50	0x3f0631ee	0.52419937
51	0xbc6bf2b3	-0.014401126
52	0xbf513502	-0.8172151
53	0xbd2e8360	-0.042605758
54	0x3e198f88	0.14996159
55	0xbd607f2c	-0.05480878
56	0xbd94fbb0	-0.07274568
57	0x3ec39f36	0.38207406
58	0xbd17b6d7	-0.037039604
59	0x3d561786	0.052268527
60	0x3f2076ad	0.62681085
61	0x3f2f8f56	0.6857809
62	0xbd89872f	-0.06715237
63	0x3ecefb47	0.40426084
64	0xbe93dd3c	-0.28879726
65	0xbe0e6065	-0.13903959
66	0x3eca592d	0.3952116
67	0x3c02e8ae	0.0079900455
68	0x3d581bdb	0.05276094
69	0x3bcb36bc	0.006201593
70	0xbe851a68	-0.2599671
71	0x3ee12d9b	0.43980107
72	0x3e244b46	0.1604434
73	0xbde9b82e	-0.114120826
74	0x3c9094af	0.017649023
75	0x3db9c740	0.09071207
76	0x3c26063e	0.010133324
77	0x3d5a5b84	0.053309932
78	0x3d2348e1	0.039864425
79	0xbbe331c8	-0.0069334246
80	0x3e1f7995	0.15573724
81	0x3ca1ce3d	0.019751662
82	0xbbb7fb7f	-0.0056146975
83	0xbe62fc4e	-0.22166559
84	0xbe62a5be	-0.22133538
85	0x3dbdb48b	0.092629515
86	0x3e4c5810	0.19955468
87	0x3e31c2f1	0.1735952
88	0x3f13d9c6	0.5775417
89	0x3c39f4b0	0.011349842
90	0x3e506952	0.20352677
91	0x3d79e9bd	0.061013926
92	0xbdbcfec0	-0.09228277
93	0x3ac292a0	0.0014844723
94	0xbd8f2e92	-0.069913045
95	0xbd9cc117	-0.076540165
96	0x3e075153	0.13214616
97	0x3e736b50	0.23771405
98	0xbe086c84	-0.13322645
99	0xbe0d53d7	-0.13801514
100	0xbded6c12	-0.115928784
101	0x3eb6e20d	0.35719338
102	0xbe94f219	-0.29090956
103	0xbe050262	-0.1298919
104	0x3dab1f10	0.08355534
105	0x3ec5826f	0.38576075
106	0x3e38c237	0.18042837
107	0xbbcff445	-0.006346258
108	0xbd914ee0	-0.07095122
109	0xbe0ac45c	-0.13551468
110	0x3c89e94c	0.016834877
111	0x3d8be940	0.06831598
112	0xbec9814e	-0.39356464
113	0xbde2bde6	-0.110713765
114	0x3e0f8f81	0.14019586
115	0x3d51ff9f	0.05126917
116	0x3e39cb4e	0.18143961
117	0x3df46c27	0.11934691
118	0xbe0a4280	-0.1350193
119	0x3e0933c0	0.13398647
120	0xbcdcaa5a	-0.026936699
121	0x3d2fdb29	0.042933617
122	0xbdf0da2b	-0.11760362
123	0x3dcd1c5e	0.10015176
124	0xbe3ba663	-0.1832519
125	0xbda60170	-0.08105743
126	0xbcf33937	-0.029690368
127	0x3df6171b	0.12016126
128	0x3e27021e	0.16309401
129	0xbc95ed43	-0.018301612
130	0x3ecc2bf0	0.39877272
131	0x3e524fb6	0.2053822
132	0xbd90ab16	-0.07063882
133	0x3e9baafd	0.3040389
134	0x3e1a2833	0.15054397
135	0x3dfffe60	0.1249969
136	0xbd4ee95f	-0.05051553
137	0x3c6a51ea	0.014301756
138	0x3eb30441	0.34964183
139	0x3bbe291a	0.0058032395
140	0x3ed30e98	0.41222072
141	0xbe1b7958	-0.15183008
142	0x3e2c9c2e	0.16856453
143	0x3ea22aaa	0.31673175
144	0xbd08c230	-0.033388317
145	0x3dc448f1	0.09584225
146	0xbe1beed1	-0.1522782
147	0x3eb46fed	0.35241643
148	0x3ed3bbb5	0.41354147
149	0xbce4b626	-0.027918886
150	0x3e6c32e1	0.23066284
151	0xbdd9e2f6	-0.106389925
152	0x3ea39726	0.31951255
153	0x3e0adde9	0.13561215
154	0x3d10e520	0.03537476
155	0x3d05c749	0.032660756
156	0x3f26c0e0	0.65138054
157	0x3e8181bf	0.252943
158	0xbdef60a0	-0.11688352
159	0x3dc9d939	0.09855885
160	0xbdb344cc	-0.08753356
161	0x3ea05809	0.31317165
162	0xbd82a725	-0.063795365
163	0xbd786b42	-0.060649164
164	0xbd2a0af4	-0.041514352
165	0xbc350678	-0.011048906
166	0xbd4836ac	-0.048880264
167	0xbc398336	-0.011322787
168	0x3dffc326	0.124883935
169	0x3df06bc1	0.117393024
170	0x3eb5d9dc	0.35517776
171	0xbd1771ee	-0.036973886
172	0x3e798834	0.24368364
173	0x3e962899	0.2932785
174	0x3e3c24f7	0.18373476
175	0x3dbf60db	0.093446456
176	0xbd6fdf5e	-0.05856263
177	0xbdb30f06	-0.087431
178	0x3e5e50e2	0.21710542
179	0x3caca8cd	0.021076584
180	0xbd9e1861	-0.07719494
181	0xbe057254	-0.13031894
182	0xbd336283	-0.04379512
183	0xbe8f1f63	-0.27953634
184	0xbcafe0b5	-0.021469453
185	0xbe19ce46	-0.15020093
186	0x3d467602	0.048452385
187	0x3e2fc103	0.17163472
188	0x3e4c5e40	0.19957829
189	0xbe1b738f	-0.15180801
190	0x3e68f232	0.2274864
191	0x3e18c4af	0.14918779
192	0x3db810bc	0.08987567
193	0xbf784a20	-0.96988106
194	0xbefb6f62	-0.49108416
195	0x3e43f240	0.1913538
196	0x3f6d1ded	0.9262379
197	0x3e36e9ba	0.17862597
198	0x3a3935f2	0.00070652284
199	0xbd06c329	-0.032900963
200	0x3e9c5f77	0.30541584
201	0xbda50a69	-0.08058626
202	0xbe429f75	-0.1900614
203	0xbd720e4d	-0.05909567
204	0xbf10f2d8	-0.5662055
205	0x3cfcb8cf	0.030849842
206	0x3be1c5a9	0.006890018
207	0xbe46a070	-0.1939714
208	0x3c2d0bfa	0.0105619375
209	0xbcf38a34	-0.029728986
210	0x3f0723a2	0.52788746
211	0xbef0d309	-0.47036007
212	0xbe39702c	-0.18109196
213	0xbdca2011	-0.098693974
214	0xbc6bdf89	-0.014396557
215	0xbe805903	-0.2506791
216	0xbe004c28	-0.12529051
217	0xbf4db22e	-0.80350006
218	0xbce077ef	-0.027400939
219	0xbec042af	-0.37550876
220	0xbe94a890	-0.29034853
221	0xbebed926	-0.37275046
222	0x3c1489e5	0.00906608
223	0x3ca11dcd	0.01966753
224	0xbf0d57f4	-0.5521233
225	0xbe457216	-0.19281802
226	0xbf8c2056	-1.0947368
227	0x3d8c70fd	0.06857488
228	0x3f0c227b	0.54740113
229	0xbbedadce	-0.007253385
230	0x3f8060a0	1.0029488
231	0xbc24988d	-0.010046137
232	0xbf6b502b	-0.919192
233	0xbcac5ad4	-0.021039404
234	0xbe6dbe18	-0.23217046
235	0xbe89d659	-0.26921347
236	0x3d676da6	0.056501053
237	0xbeb2467c	-0.348194
238	0xbda5c602	-0.080944076
239	0xbe979fb6	-0.29614037
240	0x3f4a0a41	0.78921896
241	0x3e1ce447	0.15321456
242	0xbf384775	-0.71984035
243	0xbd1716d4	-0.036887005
244	0xbb6f731b	-0.0036537114
245	0xbc57b890	-0.013166562
246	0x3e04c6bd	0.12966438
247	0x3f568f90	0.8381281
248	0xbe0cd819	-0.1375431
249	0xbe0afff4	-0.13574201
250	0xbe5f0b14	-0.2178157
251	0x3e06cc65	0.13163908
252	0xbd2b2324	-0.04178156
253	0x3f97e9d8	1.1868238
254	0xbe808af4	-0.25106013
255	0xbf12d5cb	-0.5735747

output_layer.bias f4 [9]
0	0xbea6f184	-0.32606137
1	0xbe28a9d3	-0.16471033
2	0x3e87059c	0.26371467
3	0x3eefccd5	0.46835962
4	0x3eae7ebd	0.3408107
5	0x3e375d9d	0.17906804
6	0x3cff9905	0.031200895
7	0xbd3909f8	-0.045175523
8	0xbd1feadc	-0.03904234
