results/torch_linear_model_final.pt (torch, 29803 bytes, 2 tensors)

linear_layer.weight f4 [9, 784]
0	0x3d1e9583	0.038716804
1	0x3d158f7e	0.036513798
2	0x3cb2c0e8	0.0218205
3	0x3c8090df	0.01569408
4	0x3cb0a290	0.02156189
5	0x3d094231	0.03351039
6	0x3c892ead	0.01674589
7	0x3c57efe0	0.013179749
8	0x3c834f37	0.016028984
9	0x3c21ebff	0.009882926
10	0x3cd5a8db	0.026081493
11	0x3c87ec8c	0.016592287
12	0x3c795120	0.015217096
13	0x3ca67eeb	0.020324191
14	0x3c47d17a	0.012195939
15	0x3c2c84f6	0.010529747
16	0x3cdc061d	0.026858384
17	0x3cd33c2f	0.025785534
18	0x3c1c0a2a	0.009523908
19	0x3b92435a	0.0044635953
20	0x3bf31d06	0.0074192313
21	0x3cc6fad6	0.02428953
22	0x3cade672	0.021228049
23	0x3cb7a206	0.022416126
24	0x3c86d220	0.016457617
25	0x3c8ee0eb	0.017441234
26	0x3d022888	0.031776935
27	0x3d44150e	0.04787164
28	0x3d14a2ce	0.036288075
29	0x3cda5505	0.026651869
30	0x3c5da2be	0.01352757
31	0x3c37f2be	0.011227308
32	0x3c29f614	0.010373611
33	0x3c8b61eb	0.017014464
34	0x3ab3fd73	0.001373215
35	0x3b924d24	0.0044647623
36	0x3c37b5bd	0.011212763
37	0x3bbdee1f	0.0057962085
38	0x3c234ae6	0.009966588
39	0x3abf4f86	0.0014595843
40	0x3c1576df	0.009122579
41	0x3c9091b0	0.017647594
42	0x3c83d94d	0.016094828
43	0x3c16e0a2	0.00920883
44	0x3c3480cd	0.011017037
45	0x3c245c5b	0.010031785
46	0xbb2de5cb	-0.0026534672
47	0xbaa92596	-0.0012904878
48	0xbb41ddc6	-0.002958165
49	0x3c1fef96	0.009761712
50	0x3bffb620	0.0078036934
51	0x3c5ae2bc	0.013359722
52	0x3c0c482f	0.008562132
53	0x3b440def	0.0029915532
54	0x3c7cf565	0.015439366
55	0x3d240b41	0.040049795
56	0x3d0e1e8e	0.034697108
57	0x3cc603b6	0.024171691
58	0x3ca12f45	0.01967586
59	0x3c279ab5	0.010229756
60	0x3c4e08ee	0.012575371
61	0x3bdd9272	0.0067618424
62	0xba7ccd4a	-0.00096436276
63	0xbb949def	-0.0045354287
64	0x3b9d7d67	0.004806209
65	0x3b92b6d5	0.0044773617
66	0x3be8722a	0.0070936875
67	0x3c38fc54	0.011290628
68	0x3c8efdf2	0.017455075
69	0x3c585e3d	0.013206062
70	0x3c3855c7	0.01125092
71	0x3b99837a	0.0046848627
72	0x3c6f323a	0.014599377
73	0x3c98cab6	0.018651348
74	0x3c1e3451	0.009656028
75	0x3bcb015e	0.0061952313
76	0x3c1882d6	0.0093085375
77	0x3cb94ae7	0.022618724
78	0x3c636ec5	0.01388139
79	0x3c028d80	0.007968307
80	0x3c142c4e	0.009043766
81	0x3c96b671	0.018397542
82	0x3c894edb	0.016761234
83	0x3d01ad22	0.031659253
84	0x3d0ac8c3	0.033882868
85	0x3c95c2d1	0.018281372
86	0x3c1f5d4c	0.009726834
87	0x3c149d65	0.009070729
88	0x3c720bd2	0.014773326
89	0x3c8d42b5	0.017243722
90	0x3bed58a0	0.007243231
91	0x3ad4e0be	0.0016241295
92	0xbaa37636	-0.0012471143
93	0xbbdefc8f	-0.0068050097
94	0x3c496ef3	0.012294519
95	0x3c8fbc58	0.017545864
96	0x3c8b5d09	0.017012136
97	0x3b3c6a22	0.0028749784
98	0x3c004634	0.007829238
99	0x3c918840	0.017765164
100	0x3c02486c	0.007951837
101	0x3c1fc45d	0.0097514065
102	0x3bbd7b7f	0.005782544
103	0x3b988457	0.004654448
104	0x3b7bdc38	0.003843082
105	0x3caa1a40	0.02076447
106	0x3c8bac85	0.017050037
107	0x3bba69d7	0.0056888866
108	0x3c3b60ea	0.01143668
109	0x3c73b4f1	0.014874683
110	0x3bd4164f	0.006472386
111	0x3c3e37c2	0.011609973
112	0x3cc24c51	0.023718031
113	0x3c18a430	0.009316489
114	0x3c80b31a	0.015710402
115	0x3a943cb8	0.00113096
116	0x3bc1aa74	0.005910212
117	0x3c59afc5	0.013286536
118	0x3bb3461d	0.0054710046
119	0x3bb2eaf3	0.005460137
120	0x3c2e4c24	0.0106382705
121	0x3c41b9b2	0.011824058
122	0x3c196604	0.009362701
123	0x3c78cfa9	0.015186229
124	0x3c1f4911	0.00972201
125	0x3bf06a92	0.007336923
126	0x3bff513b	0.007791666
127	0x3c5eaeac	0.01359145
128	0x3bf35433	0.007425809
129	0xbb77cd18	-0.0037811454
130	0x3b640340	0.0034791976
131	0x3c3a3c26	0.01136688
132	0x3b26835c	0.0025407886
133	0x3bbe7f15	0.005813489
134	0x3c8ba98e	0.017048623
135	0x3c1659bb	0.009176667
136	0x3c1b8393	0.009491819
137	0x3c02b5c8	0.00797791
138	0x3c88705f	0.016655145
139	0x3c95b1b9	0.018273221
140	0x3cc954f9	0.024576651
141	0x3be7c360	0.007072851
142	0x3c43e249	0.011955806
143	0x39eb8272	0.00044919882
144	0xbba902f7	-0.005157824
145	0x3c3750d1	0.011188702
146	0x3c331049	0.010929176
147	0x3c05d8bc	0.008169349
148	0x3c8e384a	0.017360825
149	0x3c43f189	0.011959442
150	0x3bcfec06	0.006345275
151	0x3c30968c	0.010778081
152	0xba2748b9	-0.0006381381
153	0x3b76ad23	0.0037639819
154	0x39fabf93	0.0004782645
155	0x3bc172cc	0.0059035774
156	0x3c08d187	0.008350736
157	0xbb80cdb5	-0.003930772
158	0xbb861a3a	-0.004092482
159	0x3c2201be	0.009888111
160	0x3bafc799	0.00536437
161	0x3b58d89e	0.0033088098
162	0x3c8fae82	0.017539266
163	0x3c8d8c16	0.017278712
164	0x3c5f424e	0.013626648
165	0x3c10f6b5	0.008847882
166	0x3c3ddd30	0.01158838
167	0x3c885d02	0.016645912
168	0x3c110682	0.008851649
169	0x3c5e6fb7	0.01357644
170	0x3c7f3244	0.015575949
171	0x3bf265d4	0.0073973928
172	0x3c2ebc1d	0.010664967
173	0x3c11fdd0	0.008910611
174	0x3c3ae049	0.011406013
175	0xbb8b9dfb	-0.004260776
176	0x3b050225	0.0020295468
177	0x3b56061c	0.003265745
178	0x3c0ec0ec	0.008712988
179	0x3b290c30	0.0025794618
180	0x3b40fa75	0.002944616
181	0x3bb414e5	0.005495655
182	0x3bccfd05	0.006255748
183	0x3c6bd731	0.014394567
184	0x3a89c096	0.0010509666
185	0x3c0ee218	0.008720897
186	0x3b9f1c83	0.004855694
187	0x3b2347ab	0.0024914544
188	0x3c71bf8f	0.014755144
189	0x3c8a235e	0.016862568
190	0x3baa41e3	0.0051958426
191	0x3b8f2d3b	0.0043694056
192	0x3b8e6676	0.0043457104
193	0x3b9b7c0a	0.004745011
194	0x3bbc2996	0.005742262
195	0x3cdb2c56	0.02675454
196	0x3bf757a8	0.0075482912
197	0x3c8a4f28	0.016883448
198	0x3c6e7889	0.014555105
199	0x3bc63eb6	0.006049956
200	0x3c880d55	0.01660792
201	0x3c5a9b3c	0.013342675
202	0x3bc15723	0.00590028
203	0xbc340103	-0.010986569
204	0xbbd26fdf	-0.0064220275
205	0x3b263066	0.0025358438
206	0x3b1ea6ab	0.0024208229
207	0x3ba20b3d	0.0049451874
208	0x3c8226fe	0.015887734
209	0x3bfbedd0	0.0076882616
210	0x3be87694	0.0070942137
211	0x3c028d4c	0.007968258
212	0x3b405874	0.0029349597
213	0xbb707e2d	-0.00366963
214	0x3a55412c	0.00081350165
215	0x3b442285	0.0029927802
216	0x3ba906fb	0.005158303
217	0x3b4c9a93	0.0031220063
218	0x3b857c1d	0.0040736333
219	0x3baec204	0.005333187
220	0x3aefa832	0.0018284379
221	0x3c018aa7	0.007906592
222	0x3c9e1b21	0.019300045
223	0x3d3382c1	0.04382587
224	0x3c659dc3	0.014014664
225	0x3cb6ed7f	0.022330044
226	0x3c14626d	0.00905667
227	0x3846a4f4	4.7360503e-05
228	0x3bfd7d06	0.007735851
229	0x3b173a42	0.0023075496
230	0xbb8f9a3b	-0.0043823994
231	0xbc6a70be	-0.014309106
232	0xbbd9cdb4	-0.006646836
233	0xb96bbfb2	-0.00022482759
234	0xbbb5d81c	-0.005549444
235	0xbb975681	-0.0046184664
236	0x3b92742c	0.004469415
237	0x3c19303d	0.00934988
238	0x3c3da98b	0.011576067
239	0xbb8af3aa	-0.004240473
240	0xbbc32e63	-0.0059564575
241	0xbc2d6b04	-0.010584597
242	0xbb2d04d0	-0.0026400574
243	0x3b23ec50	0.002501268
244	0x3bc3bb75	0.0059732744
245	0xba915965	-0.0011089264
246	0x3c5856c2	0.013204278
247	0x3c1dd18d	0.00963248
248	0x3abf227b	0.001458242
249	0x39b23353	0.00033989045
250	0x3c1f9e78	0.009742372
251	0x3ced9241	0.029000403
252	0x3c2bbef9	0.010482543
253	0xbb2e36f5	-0.002658305
254	0xb9c24ed7	-0.00037061304
255	0xbac216a0	-0.0014807768

linear_layer.bias f4 [9]
0	0xc009a79c	-2.150855
1	0x3f3c0b38	0.7345462
2	0x3ed0096e	0.40632194
3	0x3f18ec31	0.597354
4	0xbf2bec88	-0.67157793
5	0x3e49de8d	0.19713803
6	0x3d454ee9	0.048170958
7	0x3cf1429e	0.02945071
8	0x3f4f3814	0.80944943
