results/torch_cnn_padded_model.pt (torch, 112783 bytes, 6 tensors)

convolutional_layer_1.0.weight f4 [16, 1, 5, 5]
00000000: 1c3f 57bf 4d14 e7be ab49 09bf 4f03 c8be
00000010: 3602 4cbf f12e ccbe 3815 e5be 5f3b adbf
00000020: 00e3 0cbc 3508 c2be 3cbc 313f 411d ae3f
00000030: 5d7c d2be 4f75 26bf 4eb0 21bf 64bc dcbe
00000040: 69c9 8c3f 4b74 943f 91e3 843e 81d7 6bbf
00000050: c94f 26bf b104 06bf b1fb fb3e df18 483f
00000060: 7091 1abf 775d cb3d 88aa 30be a2cc 253f
00000070: 964a cd3d 79a5 d3be fe55 a7be d6c7 cb3d
00000080: 75f4 243e 9875 75bf 37e1 083e bfee b0be
00000090: 5e26 463e 3836 6bc0 d5f4 48bf 7942 b13e
000000a0: 2e47 0fbc 761c 3cbf 233a 0dbf 0c26 493f
000000b0: 938c 5bbe 34f9 503e c04d 313d fc2b 0a3f
000000c0: 8d0e c53d b12a 58be ad50 58bf 4359 0a3e
000000d0: f684 843f 1583 5cbe dec0 1e3e 14f5 5040
000000e0: 4fe3 ac3f 6ef5 05c0 3cd0 f23e f224 d1be
000000f0: 8082 9cc0 9496 80c0 1029 0c40 42d9 99be
00000100: 45d6 ef3d 3261 2e40 2938 4240 9de8 d5bf
00000110: f6d9 8cbe 83d2 cabd 6ac0 d9be b7de 7dbf
00000120: 87f7 473f 1a96 e53e 7c2d d6be a114 b6bf
00000130: b652 b7bf c5f7 e3bf cacb cfbf 4caf 6bbf
00000140: 1468 a1bf 31a2 9bbf 0ee7 f4bf f1d1 39c0
00000150: d38d a7bf 54c2 cfbf 26cc a2bf a43f 90bf
00000160: fad7 bbbf 4513 d8bf 21be abbf 6cb7 a0bf
00000170: a9d4 94bf 9ebe 9cbf c64e d1bf 6784 8dbf
00000180: f104 a7bf b553 95bf 369d a9bf 6e74 b7bf
00000190: 3fac d7bf f50b 2dc0 6893 48c0 a962 11c0
000001a0: c981 1ac0 4ca3 03c0 dcbd 9cc0 4239 9ebf
000001b0: 08a5 f8bf f6c0 08c0 7ec7 4dc0 a38e 36c0
000001c0: d9e9 ba3e 34a9 34c0 985c 22c0 9e94 4cc0
000001d0: fe31 1abf 3ccc 14c0 0ee6 63c0 7596 24c0
000001e0: 81c4 15c0 20c4 d6bf a4e0 72c0 f80e debf
000001f0: 1d0b 27c0 0da3 a1be 2ed8 15bf 7b44 59bf
00000200: 6614 11bf 409b cebe 8257 123f 4a9f dfbe
00000210: bdf1 ae3e 3189 aebe 973b 01bf c538 16c0
00000220: 4398 123f adfe f5bf 1416 a0be 3224 81bf
00000230: 7b9a 9f3e c666 1f40 9fa0 e3bf 6748 e1bd
00000240: 7dd0 3cbe ba5d dbbf da1a 9f3e 5f1d babe
00000250: d1f3 28bf 935e 19bf b75f 643e 6b09 153f
00000260: 444e 5b3f 29cc fc3e 1cc6 bc3c fb6d f23e
00000270: d6fc 3b3f aa64 593f 7126 1c3d 0a50 41bd
00000280: fbb5 e93e 102a 223f 7fff 9e3e 1828 b2be
00000290: 52b5 dabe fd8a ec3d 8b53 393e 8882 1bbd
000002a0: e3cf 19bf eb45 07bf 438e b9be 23b8 4dbe
000002b0: e97b d7be 6b52 1ebf 409c 57be e739 76be
000002c0: 02a4 6d3e 93b3 86be bad8 7dbd ae14 8c3e
000002d0: 8b6d 803f ab2e cabf 6ac3 ea3f 43ab 41bf
000002e0: 9382 283f 116e 8f3e 83b7 2540 9d49 dbc0
000002f0: fddd 8740 9f68 93bf 36e2 18bf a2dc 3040
00000300: 4338 6ac0 2158 813f 7e03 183f 4691 363f
00000310: 716a 6bbf 8bb1 2a3f 8107 51bf a975 f3bd
00000320: 3755 06be 57f6 97be 33b5 78be 9b96 3cbe
00000330: 0476 90be a365 99be b1e9 3fbc 5903 bf3e
00000340: d100 3bbe 0713 63be 88e7 abbe c8e6 0bbe
00000350: f56a 6dbe 6eaf c2bd b764 5abe dd79 053e
00000360: 4e70 e6be a11d 8ec0 87df 93be 6774 ef3d
00000370: 122d 11bd 2f2a 013e 8c2b 813f 174e 543e
00000380: 90c7 8ebd 193f a5bf 5826 9dbf 4b15 9cbf
00000390: f5c5 5dbf abff 13bf 5177 1cc0 45a3 97bf
000003a0: d395 32bf 7541 1abf d5d1 14bf 7aa2 18c0
000003b0: fe7b 79bf ce6f 11bf deae 3abf 5ec9 20bf
000003c0: d41d c7bf 6d8d b6bf 8143 86bf 2806 5bbf
000003d0: 3b63 2fbf 7aaf 91bf 888c b1bf 6bcf a8bf
000003e0: 1d8f 76bf 9a70 41bf 1a02 28be 335f a0bf
000003f0: 5723 093d 7105 833f aa50 61bf 4a22 7ebe
-0.8408067 -0.45132676 -0.53628033 -0.39065024 -0.79690874 -0.39879563 -0.4474275 -1.3533744
-0.008599043 -0.37896886 0.6942785 1.3602678 -0.41110507 -0.6502275 -0.63159645 -0.4311248
1.0998966 1.159799 0.2595487 -0.9212571 -0.6496549 -0.5235091 0.49215463 0.7816295
-0.6037817 0.099299364 -0.17252553 0.6476537 0.10023992 -0.41337183 -0.32682794 0.09950225
0.16108878 -0.9588256 0.13367163 -0.3455715 0.19350573 -3.6751842 -0.78498584 0.34621027
-0.008744998 -0.7348093 -0.55166835 0.7857368 -0.21440344 0.20407563 0.04328704 0.53973365
0.09621916 -0.21110035 -0.844981 0.13510613 1.0353076 -0.21534379 0.1550326 3.2649584
1.3506869 -2.0931048 0.47424495 -0.408485 -4.89093 -4.018381 2.1900063 -0.30048567
0.117107905 2.7246823 3.0346777 -1.6711613 -0.2751004 -0.09903433 -0.42529613 -0.9916796
0.7811207 0.4484108 -0.41831577 -1.4225045 -1.4322116 -1.7809988 -1.6234066 -0.92064357
-1.2609887 -1.2158872 -1.9133012 -2.9034388 -1.3090156 -1.6231179 -1.2718551 -1.1269422
-1.4675286 -1.688088 -1.3417398 -1.2555976 -1.1627399 -1.2245672 -1.6352165 -1.1056031
-1.3048383 -1.166617 -1.3251102 -1.4332407 -1.684944 -2.7038548 -3.133997 -2.2716467
-2.4141715 -2.0568419 -4.898176 -1.2361224 -1.9425364 -2.1367774 -3.215301 -2.8524559
0.36506537 -2.8228273 -2.5369015 -3.1965709 -0.6023253 -2.3249655 -3.5609164 -2.5716832
-2.3401186 -1.6778603 -3.794961 -1.7348318 -2.6100533 -0.3156971 -0.5853299 -0.8487012
-0.5667175 -0.4035282 0.57164776 -0.43676215 0.34168807 -0.34089044 -0.5048155 -2.347215
0.5726358 -1.9218346 -0.31266844 -1.0089171 0.31172547 2.4906478 -1.7783393 -0.11000138
-0.18438907 -1.7137978 0.31075174 -0.36350533 -0.65997034 -0.59909934 0.22302137 0.58217496
0.856663 0.49374512 0.023043685 0.47349533 0.7343267 0.84919226 0.038122598 -0.04719547
0.45646653 0.6334543 0.31054303 -0.34796214 -0.4271646 0.115499474 0.18098275 -0.03796628
-0.60082835 -0.5284106 -0.3624135 -0.20089774 -0.42086723 -0.6184451 -0.21055698 -0.24045525
0.23207095 -0.2630888 -0.061974265 0.27359527 1.003343 -1.5795492 1.8340886 -0.7565195
0.6582424 0.28013662 2.5893257 -6.852736 4.245848 -1.1516303 -0.5972017 2.7634664
-3.659684 1.010502 0.5938033 0.7131542 -0.9195929 0.6667716 -0.81652075 -0.11887676
-0.13118444 -0.2968013 -0.24287872 -0.18416826 -0.2821504 -0.29960355 -0.011713431 0.37307242
-0.1826203 -0.22175227 -0.33575082 -0.13662255 -0.23185332 -0.09506117 -0.21327482 0.13034768
-0.45007557 -4.441117 -0.28881475 0.11692124 -0.035443373 0.12613748 1.0091414 0.20732914
-0.06971657 -1.2909881 -1.2277327 -1.2193998 -0.86630183 -0.57811993 -2.4447825 -1.1846701
-0.69759864 -0.6025613 -0.5813268 -2.3849168 -0.9745482 -0.56811225 -0.72923076 -0.6280726
-1.5555978 -1.426191 -1.048935 -0.8555627 -0.6851079 -1.1381676 -1.3871012 -1.3188299
-0.96312124 -0.7556244 -0.16407052 -1.2529052 0.03348097 1.0236036 -0.8801371 -0.24817768

convolutional_layer_1.0.bias f4 [16]
00000000: b170 45c0 5778 473e 5349 94be de4b f2c0
00000010: 19e8 38c1 fd2a 30c0 e839 8fc0 33cc aebe
00000020: cf98 83c0 553f c1c0 fb40 e9c0 0654 963f
00000030: 9d11 29c0 2acc eabf aaa6 1cc0 2ec8 d5bf
-3.0850031 0.194795 -0.28962192 -7.571761 -11.556664 -2.7526238 -4.4758186 -0.34140167
-4.1124034 -6.038981 -7.289182 1.1744392 -2.6417 -1.8343556 -2.4476724 -1.6701715

convolutional_layer_2.0.weight f4 [32, 16, 5, 5]
00000000: 1109 06be 9403 04bd 2d77 5fbe 6063 8fbd
00000010: 62c8 85bd 6f7c 83be 945b 60be 177e 17be
00000020: f206 1dbe 844c d0bb 4c9d eebe e07b a1be
00000030: 503b 61be 98ca ac3d 1c8d a33d 39d0 89be
00000040: 012c 7abe 97bc 27be ada5 313c dc5d c1bc
00000050: 48b5 fabd 2e6b 4abe 2231 3bbe 6bbd c43c
00000060: 2f86 75bd d8d9 d23e 2fef 553d ea52 a83e
00000070: b763 423e cc13 4e3e 10a2 563e 7d2f 8ebe
00000080: 1277 ebbd 6956 5bbc 5dd1 3b3d 60c7 103e
00000090: 9a02 8dbe 8cc6 adbe 678d a3be d447 dd3c
000000a0: 2267 b73d cc60 abbe 87ce cebd 6362 d3bd
000000b0: 5fd8 bcbd a484 483d c412 84be 4ebb 97bd
000000c0: 50a5 bebd fe04 adbd 0d2f 02be ed42 40be
000000d0: 320e 61be 9acf 6ebe 788d f4bd 4e30 9abe
000000e0: 43d0 c2be 8660 84be 1a66 28be 7d1f 85bd
000000f0: 97cc 94be 3ed4 1ebe 6317 a03d d5df a5bc
00000100: 9264 a13d 34e6 08be 6d41 ea3d 646f c73d
00000110: 5abd 463e 20b3 dd3e e723 ba3c 3ce7 e13d
00000120: 84b2 533e 30f3 723e 384c 323e 7415 7e3e
00000130: f801 353a 2d14 b3bd 7826 453c 8603 38be
00000140: dedf 693e 2b01 c23d 2c57 20be 5058 1bbe
00000150: 0e47 08be f4f2 e3bd b0ce 163e 7e47 0abe
00000160: 4f7c a53c a3be f6bc 5e63 4f3c 5d5a cc3e
00000170: 74e6 453e b092 ba3c 683e 7dbe 3223 74bd
00000180: bf0e 53bd db38 23be 7ed2 6a3d 72f1 2bbe
00000190: 5b34 02be 11d2 72be 6356 f1bc b738 853e
000001a0: 0a54 eebd 5542 fabd 14b5 a5be d11b d5be
000001b0: 003f b03d dad7 753e fa49 0cbe c363 ffbd
000001c0: 522c 5ebe 66b9 ee3d 76d9 6bbc 2db4 35be
000001d0: 2427 a8bd 7bb0 0cbe 4346 26be 7607 3ebe
000001e0: 3183 98bc 8925 3b3d de63 92bd 59d8 333c
000001f0: f77c 573e 9f2b 55be f842 66be b874 01be
00000200: 7c3a b3bd 408e e2bd fd0c 75be 3f24 80be
00000210: 7217 f8bd 6e2f 873d 43c9 8fbd 3fe3 6fbe
00000220: 1407 7dbe ad6f 04be 3f83 13be 50bc f0bc
00000230: 3559 a1be 94e0 b5be 3522 8ebe c46e 323e
00000240: 7493 d6bd 7caa 6fbe 8f33 37be 16c9 23be
00000250: 047f eabd f7cd 82be bbbe d8bd 9a3a f8bd
00000260: 12e9 edbd ec37 aebd e60b eebd da6e 18bd
00000270: b4e4 353d 4490 b7bc 0b6f 06be 42d4 a5bd
00000280: 4a4a 39be 7f3d 85bd 7157 d2bc 2412 64bd
00000290: 38de 48be 543a 81be bc2c 0bbe 43b5 4cbe
000002a0: 8cc3 733c b3b2 053e 4ae3 e5bd c53f 79bd
000002b0: 526d 0abb b647 593d 4b0a b8bd 04e7 21be
000002c0: 903f 4fbd 671c 5ebe 8bd7 aebd 9511 d7bb
000002d0: 1c5e dabd 0afe 5e3d 936a 66be 58e2 38be
000002e0: ff75 403d 74c5 aebd 4021 c63d 19da c8bd
000002f0: 51d9 67be 97f7 983d c0f6 e6bd 73b7 39be
00000300: 4acf 8c3c b4b0 d73d 5732 e1bd 5e6f dabd
00000310: b16d 773d e56e 1c3e e046 7fbd 874b 983d
00000320: 014b 083e a466 5bbd cdb3 57be 6621 98bb
00000330: d430 2bbe afa8 1f3e 28ee 893c f596 57be
00000340: 9153 64be b235 3ebe ec95 0c3e 9734 0c3d
00000350: f024 4bbe c3c5 64be 2490 05be 88b7 dfbd
00000360: 5890 9dbd 4754 1ebe f60c 11bd 8ada 8cbc
00000370: 6b52 acbd 3363 0fbe 3cd7 86bd dda8 60bd
00000380: 2699 3dbe ca30 433d 9436 153e c5a5 c5bd
00000390: 0fe7 473c 455c a7be 3167 de3d 0481 8d3e
000003a0: 69c6 83be 2c12 49be ccdd d9bd ab2a ae3d
000003b0: 1a59 b13e 9371 d5bd c122 9e3c 5d96 eb3d
000003c0: 3e00 443d 02c9 8d3e 54ca d9be 4bae 373e
000003d0: 80fb 1f3d 6bec 053e e1b3 ca3d 810f 8fbe
000003e0: 39d1 5fbd cafe 2dbd dfd8 923c 7627 4a3e
000003f0: 6513 d13d 2d33 17be 94d1 48be 8529 b0bd
-0.13089396 -0.032229975 -0.21822806 -0.07001376 -0.065323606 -0.25680873 -0.21909934 -0.14794193
-0.1533468 -0.0063567776 -0.46604383 -0.31539822 -0.21995282 0.08437079 0.07985899 -0.26916674
-0.24430849 -0.16380535 0.010842723 -0.023604326 -0.12241608 -0.19767448 -0.18280461 0.024016103
-0.05994242 0.41181827 0.052230056 0.32875758 0.1898335 0.2012474 0.2096026 -0.27770606
-0.1149732 -0.013387301 0.04585396 0.14138556 -0.27541047 -0.33940542 -0.3194382 0.02701179
0.08955218 -0.33472288 -0.10097986 -0.103215 -0.09220957 0.04895462 -0.25795567 -0.074087724
-0.093088746 -0.08448218 -0.12713261 -0.1877553 -0.21978071 -0.23321381 -0.119410455 -0.3011498
-0.38049516 -0.25854892 -0.16445199 -0.065001465 -0.2906234 -0.15510651 0.07816961 -0.020248333
0.078805104 -0.13369066 0.1143826 0.09738043 0.1940817 0.43300724 0.022722198 0.110304326
0.20673567 0.23725581 0.17411888 0.24812871 0.00069048954 -0.087440826 0.012033097 -0.17970094
0.22839305 0.09472879 -0.15658253 -0.15170407 -0.13308355 -0.11130324 0.14727283 -0.13503835
0.020200877 -0.0301202 0.012657968 0.39912692 0.19326192 0.022775024 -0.24730837 -0.059603877
-0.051527735 -0.15939657 0.057329647 -0.16791323 -0.12715285 -0.23712946 -0.029460138 0.26019832
-0.11637123 -0.12219683 -0.32364714 -0.41622785 0.08605766 0.24008122 -0.13700095 -0.124702
-0.21696594 0.11656456 -0.014395108 -0.17744513 -0.082105905 -0.13739197 -0.1623774 -0.18557534
-0.018617244 0.045690093 -0.071479544 0.010976874 0.21043764 -0.20817421 -0.22486484 -0.12642181
-0.087513894 -0.11062288 -0.23930736 -0.25027654 -0.12113847 0.06600843 -0.070208095 -0.23426531
-0.24709731 -0.12933226 -0.14405535 -0.02938667 -0.31513372 -0.35522902 -0.27760473 0.17425066
-0.10477343 -0.23404878 -0.17890762 -0.15994677 -0.114500076 -0.25547764 -0.10583254 -0.12120552
-0.1161672 -0.0850676 -0.11623363 -0.03721509 0.04440756 -0.022407658 -0.13128297 -0.080971256
-0.18094745 -0.0650587 -0.025676461 -0.055681363 -0.1961602 -0.25239813 -0.13591284 -0.19991021
0.014878165 0.1305645 -0.112249926 -0.06085183 -0.002112229 0.053046905 -0.08986338 -0.15810782
-0.050597727 -0.21690522 -0.08537205 -0.0065633752 -0.10662481 0.05444149 -0.22501592 -0.18055093
0.04698753 -0.08533755 0.09674311 -0.09807224 -0.22641493 0.07469099 -0.112775326 -0.18136387
0.017188687 0.1053175 -0.1099593 -0.10665773 0.060407344 0.15276678 -0.06232345 0.07436281
0.13309862 -0.053564683 -0.21064682 -0.0046426533 -0.16717845 0.15591691 0.016837195 -0.2105368
-0.22297503 -0.1857517 0.13729066 0.03422984 -0.1983831 -0.22341065 -0.13043267 -0.10923678
-0.07693547 -0.15461837 -0.03541275 -0.017194051 -0.084141575 -0.14002685 -0.065840214 -0.05484854
-0.18515453 0.04765395 0.14571601 -0.09650759 0.012201085 -0.32687584 0.10859526 0.27637494
-0.25737312 -0.19635838 -0.106380075 0.08504232 0.34638292 -0.10422053 0.019303681 0.11503289
0.047851793 0.2769242 -0.42537177 0.17937581 0.03905821 0.13078468 0.098975904 -0.27941516
-0.05464289 -0.042479314 0.017925678 0.19741616 0.10208777 -0.14765616 -0.19611198 -0.08601669

convolutional_layer_2.0.bias f4 [32]
00000000: 6678 7bbf d2a3 3dbf 3808 abbf 6995 25bf
00000010: 55de 84bf bf0f 1abf 9c10 09bf b8e5 f7bf
00000020: b100 283f 3908 9b3f bf1b 74be 59f9 febf
00000030: 71e8 a53e 62f0 2abf ab7a 6a3e eb26 c7be
00000040: c8bf 323f f2c5 1ac0 1ea4 4fbf e128 07c0
00000050: bc95 aabf 96e6 31bf 3f3e 6fbe 5e92 5dbe
00000060: 2c84 88bf 5574 013f b038 373e a032 26bf
00000070: 3e6e 91bf 303e 3abe 0d34 89c0 5484 d7be
-0.9823059 -0.74078095 -1.3361883 -0.64681107 -1.038035 -0.60180277 -0.5354097 -1.936698
0.65626055 1.2111884 -0.2383871 -1.9919845 0.324039 -0.66773045 0.22898357 -0.3889688
0.69823885 -2.4183316 -0.811098 -2.11187 -1.3326945 -0.6949247 -0.23363589 -0.21637866
-1.0665336 0.50568134 0.17892718 -0.64921 -1.1361768 -0.18187785 -4.287604 -0.42093146

fully_connected.weight f4 [9, 1568]
00000000: e11e 383e ebd8 6dbe 1e89 45be 3a00 eabd
00000010: 8452 c83c a4b3 9fbb 7a72 b2bc 455f c6bc
00000020: 47f4 aabd 06b3 83bd 1eb5 0fbe 02d3 46be
00000030: f0fd a6bd 4f69 a6bd a1c5 0d3e c572 7abd
00000040: 4b29 63bd 21a8 c63d a32a 1fbc 8ecf eebd
00000050: 672c 43bd c1ea 993c 1074 d3bd 6c14 02be
00000060: a3b5 60bd b819 b3ba db23 fdbd 3acf 98bb
00000070: 00c5 dd3d 86ad 46be e93d af3c 16c4 96bd
00000080: 9a5c 2abd 9e9d 2ebd 3381 0c3d fd50 623d
00000090: b735 80be 6c5f b6bd e213 eabd c253 8fbd
000000a0: 701d bbbc a3a6 dcbb 6dfe fe3d 14c3 52be
000000b0: 1d95 15be e69b b7bd 87a1 2ebe 9aec 943d
000000c0: 51d3 86be 2fdf 17be 15a6 b3bd 91b1 6cbd
000000d0: 34a9 2abd fa24 efbd abb7 19be 76cc 28be
000000e0: bece 8b3d 3de5 8c3d e48e a83d aa03 91bd
000000f0: eeef d83a 3628 2d3d 06c1 2cbc 7ace 463d
00000100: f877 cb3c 7d1e 073c 86c4 1dbe 5519 c7bd
00000110: be56 5bbd 8edf ec3d abe1 6ebd a336 503d
00000120: 3e67 073e e443 a73c 14ec fbbd 9afe dabc
00000130: 5d47 cd3d e094 5fbc 2c30 89bc 4c75 2d3e
00000140: 0c4e ebbd 76ed 813c 0e49 163a 5b07 ae3c
00000150: 7c35 3cbe 8d51 ac3d 38f0 123c a787 8cbd
00000160: 7bc9 76bd 8c6c 4ebe a3c6 8ebc 01f6 28be
00000170: 72b0 cdbd dc22 cdbd d44a 86be 842b 98be
00000180: 839f acbe 3c4b 33be 593d 5fbf 1212 aebf
00000190: c543 b9bf 910a aabf fa19 a1bf 8a70 a9bf
000001a0: c089 51bf 4a02 64bf 685b e1bf 771d d1bf
000001b0: 018e d7bf 2b15 dfbf 49d2 e2bf cca5 7bbf
000001c0: 9e0f 6dbf 685d dbbf 03c7 d9bf 1d6a ccbf
000001d0: 636c cdbf 6788 dfbf afe0 7dbf 2105 69bf
000001e0: 40ea d8bf 522c d0bf 1529 d8bf 51ee d8bf
000001f0: 158b dabf af55 76bf 7297 73bf 1713 cebf
00000200: d0fd d8bf b5f9 c7bf d16e cabf fc84 d2bf
00000210: 7e17 82bf a86a 52bf 2181 cabf 8df4 debf
00000220: 0181 dfbf 1cc0 dabf 6f54 cabf f936 83bf
00000230: 1b3a 61be e712 2cbf ec38 32bf cf61 49bf
00000240: 9e08 47bf 84e7 35bf fdee 85be 6df0 6cbb
00000250: 11c0 17be 8945 fabd 7b1d fcbd 53af 12be
00000260: 90a6 43be e6fe 4fbe bb9f a33d d3f9 153e
00000270: fa9d 0bbd 4d23 5fbd b8a1 383d df82 9dbd
00000280: 0e82 0bbd e3a7 573d e69d d03d 19af 96bd
00000290: 3eee 28be e45b bdbd 0c68 03bd 2343 e3bd
000002a0: 5f92 133d ca06 d2bd d03d 97bd b359 ebbd
000002b0: 3ca4 bfbd 3bea 29be e96b 453d fc86 93bc
000002c0: 9b07 48bd 722e 02bd 4a2a c9bc dc6e 48be
000002d0: 128e a7bd acd1 64bb 0b60 6c3d 0449 a13d
000002e0: 2bf9 df3c 23ab 673c ca44 6fbd af9b aabd
000002f0: f789 5a3d a513 8abc 976d 573d dd7b 12bd
00000300: cefe 0c3d 7457 b7bc ba3b 4dbd 8346 643d
00000310: f57b f2be d432 e1be 7e05 cebe 50a9 06bf
00000320: 0719 e3be 986d 03bf 478c e8be 60d9 02bf
00000330: 9130 39be a997 9fbe 6684 31be 565e 87be
00000340: 493b 47be bdb4 8ebe d942 cdbe 105c 58be
00000350: 6b40 6dbe 0897 e1be 8f73 8abe f970 bdbe
00000360: 6b9e 9cbe 23fd d0be 0ba7 59be 611d aabe
00000370: 4b58 9bbe 4fdf 95be 6fb7 b9be 78fa a3be
00000380: 589d c9be 7034 b4be 9fbe 9ebe 91dc d7be
00000390: 77a3 93be cb02 b2be c6d5 87be 0c93 ccbe
000003a0: 60c5 94be 485b d1be f1ef 94be 62ba c1be
000003b0: b1b9 fcbe fe21 e7be e587 d5bd 809f 473c
000003c0: adb5 e0bd b9a0 13bd 5ba7 dbbd 74a0 b9bd
000003d0: 7c3f 81be eb48 8cbd 26e4 b8bd 5433 c6bd
000003e0: 2522 373c 7fc9 cebd 348c 94bd fa3f 94bd
000003f0: 1fd0 c5be 48ba 20be c942 bbbd 5470 96bd
0.1798053 -0.23227279 -0.19290587 -0.114258245 0.024453409 -0.0048737098 -0.021783102 -0.02421535
-0.083473735 -0.064306304 -0.14033934 -0.1941643 -0.081539035 -0.08125555 0.1384492 -0.06114461
-0.055459302 0.09700037 -0.009714755 -0.11660682 -0.047649767 0.018788697 -0.103248715 -0.12703103
-0.054860722 -0.0013664281 -0.123603545 -0.004663375 0.108285904 -0.19402131 0.021391826 -0.07361619
-0.041592218 -0.042630784 0.0343029 0.055253018 -0.2504098 -0.08904919 -0.114295736 -0.069983974
-0.022841185 -0.006733732 0.124508716 -0.20582229 -0.14607663 -0.08965282 -0.17053805 0.07271691
-0.26333097 -0.14831232 -0.08771912 -0.057786528 -0.04166527 -0.116769746 -0.1501147 -0.16484246
0.06826542 0.06879661 0.08230379 -0.07080777 0.0016550997 0.042274676 -0.010544067 0.048536755
0.024837479 0.008247015 -0.15406999 -0.097216286 -0.05354952 0.11566077 -0.058320682 0.050833356
0.13222978 0.020418115 -0.12300888 -0.026732732 0.10023377 -0.013646334 -0.016746603 0.16939276
-0.11489496 0.0158603 0.0005732932 0.021243742 -0.18379778 0.08413992 0.008968405 -0.06861811
-0.06025074 -0.20158595 -0.017428702 -0.16500093 -0.1004342 -0.100164145 -0.26228964 -0.297207
-0.33715448 -0.17509168 -0.87202984 -1.3599265 -1.4473807 -1.3284475 -1.2586052 -1.3237469
-0.81850815 -0.8906599 -1.760602 -1.6337117 -1.6840211 -1.7428335 -1.7720424 -0.9829986
-0.92601955 -1.713788 -1.7013859 -1.5969883 -1.6048702 -1.7463502 -0.99170965 -0.9102345
-1.6946487 -1.6263525 -1.6887537 -1.6947728 -1.7073694 -0.9622449 -0.9515296 -1.6099576
-1.6952457 -1.562308 -1.5815068 -1.6446834 -1.0163419 -0.82193995 -1.5820657 -1.7418381
-1.7461244 -1.7089877 -1.5807017 -1.0251151 -0.21994822 -0.6721634 -0.69618106 -0.7866487
-0.77747524 -0.7105639 -0.26158896 -0.0036154047 -0.14819361 -0.12220294 -0.123103105 -0.14324693
-0.19106507 -0.2031208 0.079894505 0.14646082 -0.034086205 -0.054477025 0.045076102 -0.07690977
-0.034059577 0.052650344 0.10186367 -0.07357616 -0.16497132 -0.09246042 -0.03208165 -0.1109679
0.036028262 -0.10255201 -0.07384837 -0.11491718 -0.09357497 -0.16593258 0.048198614 -0.018008702
-0.04883538 -0.031782575 -0.024556298 -0.1957354 -0.08181395 -0.0034915013 0.05770878 0.07875255
0.027340492 0.014139923 -0.05841521 -0.083304755 0.05335423 -0.01685507 0.052594747 -0.035762656
0.03442269 -0.022380568 -0.050105788 0.055731308 -0.47360197 -0.4398409 -0.40238565 -0.526021
-0.44355032 -0.513391 -0.45419523 -0.5111294 -0.18084933 -0.31170395 -0.17335662 -0.2643916
-0.19456209 -0.27872267 -0.40090063 -0.21128869 -0.23169105 -0.4406054 -0.2704129 -0.37000254
-0.30589613 -0.40818128 -0.21255128 -0.3322554 -0.303408 -0.29271933 -0.3627276 -0.3202703
-0.39377856 -0.35196257 -0.31004807 -0.42160466 -0.2883565 -0.34767756 -0.26530284 -0.39955938
-0.29056835 -0.40889955 -0.2908931 -0.3783751 -0.4936042 -0.4514312 -0.104263104 0.012184024
-0.10972152 -0.03604195 -0.1072528 -0.09063807 -0.25243747 -0.068498455 -0.09027891 -0.09677759
0.011177574 -0.10097026 -0.07253304 -0.07238765 -0.38635346 -0.1569606 -0.09143598 -0.07345644

fully_connected.bias f4 [9]
00000000: e58d 11bf 0504 dd3f 92dd 803f 7e7d 0e3f
00000010: f5ad 27bb 85f6 83bf daa6 d53d 0eb3 dabd
00000020: 414d 753f
-0.5685714 1.7266852 1.0067618 0.55660236 -0.0025585864 -1.0309607 0.10432215 -0.10678683
0.95821005
