results/torch_linear_model.pt (torch, 29907 bytes, 2 tensors)

linear_layer.weight f4 [9, 784]
0	0x3d25c634	0.040472224
1	0x3d263a27	0.040582802
2	0x3ce738fa	0.02822541
3	0x3cc6755c	0.024225883
4	0x3cdfa371	0.027299615
5	0x3cf711e2	0.030159894
6	0x3c8ce8fa	0.017200936
7	0x3c53c410	0.012925163
8	0x3c8d2b88	0.017232671
9	0x3c4d65ff	0.012536525
10	0x3d00d53c	0.031453356
11	0x3cc3d898	0.02390699
12	0x3cae0971	0.021244736
13	0x3cac5e9e	0.02104121
14	0x3c875c59	0.016523527
15	0x3c840380	0.01611495
16	0x3cf7e94b	0.03026261
17	0x3cc025e0	0.02345556
18	0x3b98ef82	0.0046672234
19	0x3ab4b125	0.0013785703
20	0x3c3e6c38	0.011622481
21	0x3ce16515	0.02751402
22	0x3cb719bc	0.022351138
23	0x3cd47f49	0.0259396
24	0x3c8e4938	0.017368898
25	0x3be7f637	0.0070789116
26	0x3cd7382c	0.026271902
27	0x3d32281b	0.04349528
28	0x3d219943	0.039452802
29	0x3cff861c	0.031191878
30	0x3c83c7eb	0.01608654
31	0x3c354279	0.011063212
32	0x3c52e516	0.012872001
33	0x3c2cd34c	0.010548424
34	0xba08f0dd	-0.00052238797
35	0x3a359c0b	0.0006927854
36	0x3c059b0b	0.008154641
37	0x3c14ed45	0.009089773
38	0x3c693fe5	0.014236425
39	0xb7c1fe20	-2.3125729e-05
40	0x3c00c197	0.007858655
41	0x3c9872d9	0.018609451
42	0x3c9ddd4b	0.01927056
43	0x3c3cd712	0.011525886
44	0x3c1e2f56	0.00965484
45	0x3c216bd6	0.00985237
46	0xbbb4196d	-0.005496195
47	0x3998e768	0.0002916411
48	0x3bb8adf2	0.0056359703
49	0x3c96fe96	0.018431943
50	0x3c805216	0.015664142
51	0x3c90ddf1	0.017683955
52	0x3bf324d9	0.007420164
53	0xbba1e670	-0.0049408004
54	0x3c2d3239	0.010571056
55	0x3d1e47d2	0.038642712
56	0x3d293ebc	0.041319594
57	0x3ccf2eaa	0.025290806
58	0x3ca492ba	0.020089496
59	0x3bc17e00	0.005904913
60	0x3c729a9b	0.014807369
61	0x3b1e1129	0.0024119115
62	0xbb1a1ef1	-0.0023516978
63	0xbbe0f350	-0.0068649426
64	0x3b8f646e	0.004375986
65	0x3bdc9068	0.0067310818
66	0x3c424428	0.01185707
67	0x3c2cdb25	0.010550295
68	0x3c958c0d	0.018255258
69	0x3c7a6b03	0.015284303
70	0x3c391883	0.011297348
71	0x3b79e03e	0.0038128044
72	0x3beddc83	0.007258953
73	0x3c9065a0	0.017626584
74	0x3bd16844	0.0063906033
75	0x3bcc8cd6	0.006242375
76	0x3c86d949	0.016461032
77	0x3ce4638e	0.027879503
78	0x3ca5c688	0.020236269
79	0x3bd2545c	0.006418748
80	0x3c1dc7f0	0.009630188
81	0x3c7ebc53	0.01554783
82	0x3c8aebc1	0.01695812
83	0x3d1dbd3a	0.03851054
84	0x3cf6d5f9	0.030131327
85	0x3c9cf395	0.019159118
86	0x3c37e39f	0.011223703
87	0x3c1033e8	0.008801438
88	0x3cb2db69	0.021833139
89	0x3c975695	0.018473903
90	0x3bc66d36	0.0060554994
91	0x3ad3161c	0.0016104612
92	0x3a067e8e	0.00051305525
93	0x3aebbd11	0.0017985423
94	0x3ca8b188	0.020592466
95	0x3cc05639	0.023478614
96	0x3cb0c0c9	0.021576302
97	0x3b9b3287	0.004736248
98	0x3c19d531	0.009389208
99	0x3caa1a63	0.020764535
100	0x3c114e8c	0.008868825
101	0x3c0e7656	0.008695206
102	0x3a6d21b6	0.0009045856
103	0x3ade8c60	0.0016979091
104	0x3c11ea9b	0.008906032
105	0x3cacefcf	0.021110443
106	0x3c5794b3	0.013158011
107	0xba0d4747	-0.00053893443
108	0x3c40ee1f	0.0117755225
109	0x3c8ec74b	0.017429015
110	0x3c6317e3	0.0138606755
111	0x3c5c536e	0.013447626
112	0x3c9bc3f4	0.019014336
113	0x3b7ae6be	0.0038284506
114	0x3c00a460	0.00785169
115	0x3b16fd58	0.0023039188
116	0x3c26a940	0.010172188
117	0x3c7b47d1	0.015336947
118	0x3b7c6de9	0.003851766
119	0x3b962a7d	0.0045827017
120	0x3c52b122	0.012859615
121	0x3c6940a0	0.014236599
122	0x3c36b326	0.011151111
123	0x3c790d8e	0.015200986
124	0x3c0871be	0.0083278995
125	0x3bce87fc	0.0063028317
126	0x3c40751e	0.011746673
127	0x3c729ad2	0.01480742
128	0x3c086069	0.008323767
129	0xbbe0c86a	-0.0068598287
130	0x3b485810	0.0030570067
131	0x3bf5c1b2	0.007499897
132	0x3abfb4c5	0.0014626017
133	0x3bdbb546	0.006704959
134	0x3c65e101	0.014030696
135	0x3bee2c58	0.00726847
136	0x3c128a8f	0.008944168
137	0x3c272d13	0.010203618
138	0x3c9359d7	0.017987175
139	0x3c651621	0.013982327
140	0x3caad287	0.02085234
141	0x3b71c173	0.0036888986
142	0x3c2a1b00	0.010382414
143	0x3b9a922a	0.004717131
144	0xbba2acaa	-0.004964431
145	0x3bfc790a	0.0077048587
146	0x3c329d64	0.010901783
147	0xb9bd19a4	-0.00036067993
148	0x3c83a024	0.016067572
149	0x3c4a9763	0.012365195
150	0x3b50a02c	0.003183375
151	0x3c597fcc	0.013275098
152	0x3b05c068	0.0020408873
153	0xba256648	-0.00063094916
154	0x3a03e4ce	0.0005031348
155	0x3be05fc7	0.006847355
156	0x3c156c86	0.009120112
157	0xbc240dff	-0.010013103
158	0xbb2237ff	-0.0024752615
159	0x3c7c51b8	0.015400343
160	0x3b76499f	0.0037580503
161	0x3bcdab55	0.006276528
162	0x3cac199c	0.021008305
163	0x3c69a059	0.014259421
164	0x3c45271c	0.01203325
165	0x3bed9fed	0.0072517307
166	0x3c4a70ca	0.012355993
167	0x3c3a136f	0.011357172
168	0x3c203bfa	0.0097799245
169	0x3c4e9c7a	0.012610549
170	0x3cadd0a1	0.021217646
171	0x3c833262	0.016015235
172	0x3c42444f	0.011857106
173	0x3bb68ffb	0.005571363
174	0x3c38a92c	0.0112708025
175	0xbbe7d7a2	-0.007075266
176	0xbbaa9b00	-0.0052064657
177	0xb98a992e	-0.0002643554
178	0x3bba67d1	0.0056886454
179	0x3badc5c9	0.005303119
180	0x3be3d5c7	0.0069529745
181	0x3bad268f	0.0052841376
182	0x3c0e1413	0.008671778
183	0x3cbee143	0.023300773
184	0x3ba17ce0	0.0049282163
185	0x3c450870	0.012025937
186	0x3c2b358e	0.01044978
187	0x3b887320	0.0041641146
188	0x3c57649f	0.0131465485
189	0x3ca55051	0.0201799
190	0x3c0f9118	0.00876262
191	0x3b501e02	0.0031756167
192	0x3c1100b9	0.00885027
193	0x3b0ccbf0	0.002148386
194	0x3ba57d05	0.005050304
195	0x3cefe925	0.029285977
196	0x3b9ebb6a	0.004844119
197	0x3c70098f	0.014650716
198	0x3ca0c4c9	0.019625084
199	0x3c3837c4	0.011243764
200	0x3c94c61f	0.018160878
201	0x3c2b693e	0.010462103
202	0x3b839d10	0.004016526
203	0xbc43861a	-0.011933828
204	0xbc0f475e	-0.008745043
205	0xbb5dc0d2	-0.0033836854
206	0x3a0cc9b4	0.0005370632
207	0x3b23e036	0.0025005466
208	0x3ca86af5	0.020558814
209	0x3c3494f6	0.011021843
210	0x3bc86359	0.006115359
211	0x3c3a029b	0.01135316
212	0x3acdb100	0.0015693009
213	0xbbb6c8d3	-0.0055781393
214	0x3b3c9327	0.0028774233
215	0x3be084ad	0.0068517537
216	0x3c069814	0.008214969
217	0x3bd3e1e7	0.0064661386
218	0x3a9cdf4a	0.0011968401
219	0x3be80622	0.007080809
220	0x3bbe73dc	0.0058121514
221	0x3bbcd292	0.0057624066
222	0x3c87a5a2	0.016558472
223	0x3d480072	0.04882855
224	0x3c19fd1a	0.009398723
225	0x3cab9212	0.020943675
226	0x3c345133	0.0110056875
227	0xba4d1bc6	-0.0007824268
228	0x3bafebc2	0.0053686807
229	0xbafe3431	-0.0019394216
230	0xbbb50e28	-0.005525369
231	0xbc7b90bd	-0.0153543325
232	0xbab77b13	-0.0013998471
233	0x3bdfdeae	0.0068319654
234	0xbb2528d9	-0.002520135
235	0xbb8e070f	-0.0043343375
236	0x3be96895	0.007123063
237	0x3c1b588f	0.009481563
238	0x3bfe0de4	0.0077531207
239	0xbaebd75b	-0.0017993258
240	0xbbc8d7a2	-0.006129221
241	0xbc60a4c7	-0.013711161
242	0xba682de7	-0.00088569376
243	0x3bca9a31	0.006182932
244	0x3c37c7ba	0.011217052
245	0x3a78a2a5	0.0009484685
246	0x3c70e448	0.014702864
247	0x3c41dd7e	0.011832593
248	0x3aa275e2	0.0012394751
249	0x39b5a88e	0.00034648593
250	0x3c0adae4	0.008475039
251	0x3d04e48a	0.032444514
252	0x3c7659be	0.015036045
253	0xbad3f64b	-0.0016171423
254	0xbb789db9	-0.0037935807
255	0xbbb70619	-0.0055854437

linear_layer.bias f4 [9]
0	0xc0097e8a	-2.1483483
1	0x3f3e31c6	0.742947
2	0x3ecdf75e	0.4022779
3	0x3f1744e6	0.59089506
4	0xbf2c238b	-0.67241734
5	0x3e4b1107	0.19830714
6	0x3d3793b4	0.044818595
7	0x3d11cf7b	0.03559826
8	0x3f4e5148	0.80592775
