results/torch_mlp_model.pt (torch, 29959 bytes, 2 tensors)

output_layer.weight f4 [9, 784]
000000 d1 16 b7 bc fb 66 04 3d 0d d4 17 3d a2 f7 c2 bc
       -0.022349747 0.032324772 0.03706746 -0.023799721
000010 7e df e8 bc c4 e6 8f 3c cb b4 bd 3a 86 49 cc bc
       -0.028426882 0.017566092 0.0014473436 -0.024937402
000020 be 7b 8d ba 95 fb 4d 3c 24 1f d3 3c 99 c0 dd 3c
       -0.0010794324 0.012572189 0.025771685 0.027069377
000030 3f ea 68 3b 4e da e9 3c f5 f3 49 3c 83 5e 0b bd
       0.0035540012 0.028546479 0.01232623 -0.03402568
000040 d0 c5 5d bc 9e 17 a5 3c 34 bb be bb d1 51 63 3c
       -0.013535932 0.020152863 -0.005820656 0.013874487
000050 ef 01 cd bc cb 7e 92 ba a1 f1 82 3b f4 c6 84 3c
       -0.025025336 -0.0011176703 0.0039960896 0.01620815
000060 7b e1 a2 3c db d1 f1 3c eb 35 4b 3b dc 61 94 bc
       0.019882908 0.029519012 0.003100748 -0.01811307
000070 a0 a9 35 bc c9 1a 0e bd cc 10 bf 3b 79 8d 96 3b
       -0.011087805 -0.034693513 0.0058308598 0.0045945016
000080 4c d8 9c 3c 7d 7a 01 3d 32 df ad bb 34 a6 2d bc
       0.019146107 0.031610955 -0.005306148 -0.010598708
000090 0a 90 f7 3c 03 87 35 bc 9c b2 d4 bc d5 02 8d 3b
       0.03022005 -0.011079553 -0.025964074 0.004303316
0000a0 02 46 28 bd ab 89 da ba 3e 8d 3d 3c dd 7f 3a 3b
       -0.04108239 -0.0016673108 0.011569319 0.002845756
0000b0 38 a6 92 bc f7 d3 f9 3c 94 8b 69 3c 82 52 a6 bc
       -0.017901525 0.03049658 0.014254469 -0.020303015
0000c0 f9 ca c8 3c 7a ae 8c bc 43 3b 0f 3c 6d 20 8c 3c
       0.024510847 -0.01717304 0.008742156 0.017105306
0000d0 ec f3 05 bd 64 63 4f 3c 08 31 4a bc fc 52 f8 3c
       -0.032703325 0.012657974 -0.0123407915 0.030313008
0000e0 a2 e1 a4 3c 18 10 a5 bc 43 56 34 ba 9c 1a d5 ba
       0.020127121 -0.020149276 -0.0006879309 -0.001625854
0000f0 de b5 22 3c 7c ca eb bc 73 00 52 3c 48 6d 48 3c
       0.009931056 -0.028783076 0.01281749 0.012233086
000100 d2 17 87 3b 56 56 0b bc 0f bd 88 bb 60 f4 d6 3c
       0.0041227126 -0.008504471 -0.004172928 0.026239574
000110 2a 61 83 3a 3e 8a 05 3c 72 ba c0 bc 04 2a e3 3c
       0.0010023464 0.008150635 -0.023526404 0.027729996
000120 e4 e2 b0 3c 0e 03 f0 3c 03 fc 6c 3a bd 01 85 3b
       0.021592565 0.029298332 0.0009040238 0.004059045
000130 fd ad 09 3d a8 ef 87 bc 0e 0a 62 3c 37 57 c2 3c
       0.033613194 -0.01659377 0.013796343 0.023723228
000140 c5 a2 20 3b e9 03 b6 3c c5 19 d1 bc 98 e0 6e bb
       0.002451108 0.022218661 -0.025524983 -0.0036449786
000150 cb 90 6a 3c 26 41 ad bc 1a 10 cf 3c 85 5b 5c bc
       0.014316748 -0.02114923 0.025276233 -0.013449554
000160 d7 10 4f 3c 0d 31 85 3c 2c 90 60 3c fb eb 92 bb
       0.012638292 0.01625874 0.013706248 -0.0044836975
000170 ab 19 c5 bc cc 0e 1f 3c 8b 21 c1 bc d9 90 e3 3c
       -0.024060091 0.009708118 -0.023575565 0.02777903
000180 57 ff cf bc 66 aa db bc c0 ba cf 3c 4e d0 c2 bc
       -0.02539031 -0.02681465 0.025357604 -0.023780968
000190 7d ed cc 3b ab 10 ba 3c b8 4b 86 bc 2a 70 c4 bc
       0.0062538967 0.022713026 -0.016393527 -0.023979265
0001a0 8d 3b 23 bc 25 9a de bc 7e 27 75 3a 2b 4b 22 bc
       -0.0099629285 -0.027173111 0.0009351893 -0.009905617
0001b0 3a 29 89 3b 2d 84 7d bc 51 fd a7 3c 10 f0 0e bd
       0.004185823 -0.015473408 0.020506533 -0.03489691
0001c0 a2 9c 97 3c 54 f2 ca bc 11 a0 bc 3c bc ab b9 bc
       0.018507306 -0.024773754 0.023025544 -0.022664897
0001d0 a0 15 1d 3b 22 8f d0 bc 14 a8 38 bb 96 82 08 bd
       0.0023969188 -0.025458876 -0.0028176354 -0.03332766
0001e0 6f f6 54 3c 1f f2 ff 3c 01 f3 98 bb ce 43 6f bc
       0.0129982075 0.031243382 -0.00466764 -0.014603568
0001f0 be 39 7f 3c 50 2b 33 3a 9a e7 9c 3a 4e eb 2f 3c
       0.015577732 0.0006834762 0.0011970878 0.010737253
000200 63 d5 cd b6 55 41 70 bc 85 b5 de 3b 54 9c 5b bb
       -6.1343176e-06 -0.014664014 0.006796541 -0.0033509927
000210 42 48 a7 39 4c e3 ac bc 37 f0 e1 bc 12 6b 0a bd
       0.00031906558 -0.021104477 -0.027580364 -0.033793516
000220 71 a3 f9 3c 3f bd 50 3c f0 be 33 bc c4 2c ae 3a
       0.030473443 0.012740432 -0.010970816 0.0013288488
000230 3b f2 a9 bc 1a d4 4d bb 72 84 02 3d e1 26 c4 bc
       -0.020745387 -0.003140694 0.03186459 -0.02394432
000240 5c 8c ae 3b 36 60 61 3c 4c d5 2a 3c 6f b7 0a bd
       0.0053267907 0.013755849 0.0104268305 -0.033866342
000250 03 d0 5e bc 8c 99 9e bc ff 62 d1 38 0a 60 51 3a
       -0.013599399 -0.019360326 9.984336e-05 0.0007987028
000260 72 87 42 bc 06 dd a8 3c ec 39 f1 3a 3e 08 41 3b
       -0.011873113 0.020613205 0.0018404103 0.0029454376
000270 6b dc 0c bd af 22 e8 3c 77 1b 04 bd de d8 dd bc
       -0.034389894 0.02833685 -0.032252755 -0.02708095
000280 58 20 95 3c 76 06 76 3a c9 ac 0d 3d ca 7a 13 bd
       0.0182039 0.0009385118 0.03458861 -0.036005773
000290 ac b4 84 bc 50 0f 3b 3c da 0a f0 bc fd 25 ca 3c
       -0.016199432 0.011417225 -0.02930205 0.024676317
0002a0 13 e7 5e bc db e7 c8 ba 91 ab 71 3c 04 cf b9 3b
       -0.013604897 -0.0015327887 0.014750377 0.00567043
0002b0 6d 2f fb 3c dc 1d b9 3c 99 51 59 3b 3e c8 6c bc
       0.030662263 0.022597246 0.0033160208 -0.014452038
0002c0 28 71 0c 3c 4e db d4 3a ba d1 99 bc 8b 98 24 3c
       0.0085719 0.0016239674 -0.018776763 0.010046135
0002d0 8c db ea bc 03 a3 0b 3d dc 5c 3a 3c 23 a2 96 3c
       -0.028669141 0.034091007 0.011374678 0.01838786
0002e0 ab 6d cd 3c fd 59 cf 3b c5 55 a6 bb 0d b3 6d 3b
       0.025076708 0.006327866 -0.0050761425 0.0036270053
0002f0 8a ad 8b bc d8 fb 46 bc ad 29 8f 3b 6b 7c f4 3b
       -0.017050523 -0.012145005 0.004368982 0.007461121
000300 cd 04 83 3c f7 32 0e bd f5 c5 85 bc 6f cd 0b bd
       0.0159935 -0.034716573 -0.016329745 -0.034131464
000310 1e db ff 3c 03 fc 0f bb 76 82 b9 3c f9 a4 23 3c
       0.031232413 -0.002197028 0.022645216 0.009988063
000320 5f 47 d9 3c cd cc 8a bc a6 c6 be 3c db 98 fa bc
       0.02652329 -0.01694336 0.023288082 -0.030590465
000330 7d 35 72 3c 21 36 0b bd 1f 6e e0 bc 5a 93 fe 3c
       0.01478326 -0.03398717 -0.02739626 0.031076122
000340 67 d4 2d bc 49 ab c2 bc 77 c0 01 bd 3f e7 a8 3c
       -0.010609723 -0.023763316 -0.03167769 0.02061808
000350 55 dd 95 bc db 83 ef bc 53 08 f0 3c 1f 6e b0 bc
       -0.018294016 -0.029237678 0.029300844 -0.021536885
000360 d1 0c 61 bb b5 ef 26 bc be 21 6c bc 37 d6 5a 3b
       -0.0034339915 -0.010188987 -0.014412342 0.0033391842
000370 f0 e5 c8 bc 8f 7e 54 bc 78 7f 83 bc 6d 9c 68 3c
       -0.024523705 -0.012969627 -0.016051993 0.014197451
000380 6a b4 01 bd 31 e9 d6 bc 57 49 23 3b 05 3c 87 39
       -0.031666197 -0.026234241 0.002491554 0.00025793925
000390 4b 5a bf b8 72 0c 26 bd 87 ab f7 bc fe fc ad bc
       -9.124408e-05 -0.040539213 -0.030233158 -0.0212388
0003a0 19 6d c8 bc 9f 54 ce 3c b6 b3 d8 3b 18 f3 60 bc
       -0.024466084 0.025186835 0.00661322 -0.013729833
0003b0 6b 4a 9a bb 60 20 dc bb ae 09 13 3c 34 f0 20 bc
       -0.0047085783 -0.0067177266 0.008974476 -0.009822894
0003c0 42 88 86 bc 1a b1 ad bc c2 82 f1 b8 da ba 14 bc
       -0.016422395 -0.021202613 -0.00011516131 -0.009077752
0003d0 1c c4 10 bc 39 71 bf 3c 85 53 07 bd 97 37 e1 3c
       -0.008835819 0.023369418 -0.033038635 0.027492328
0003e0 a2 97 56 3b 4b db 78 3c c5 af ca 3a c9 d7 83 bb
       0.0032744189 0.015189002 0.001546376 -0.0040235263
0003f0 76 f5 93 3c 7a 26 c7 bc 17 89 55 bb c8 1a 83 3c
       0.01806138 -0.02431034 -0.0032582933 0.016003981

output_layer.bias f4 [9]
000000 ac 86 cd be 4f 85 17 bd d7 ec 84 40 54 7c 90 40
       -0.4014181 -0.036992367 4.153911 4.515177
000010 e3 62 be 3f 26 70 58 40 45 d6 5c 40 c8 a3 3d 40
       1.4873928 3.381845 3.450578 2.9631214
000020 99 7a 9a 40
       4.8274655
