results/torch_1L_bi_lstm_model.pt (torch, 427323 bytes, 10 tensors)

lstm.weight_ih_l0 f4 [400, 28]
0.11744268 0.0044547617 0.0098600155 0.07369336 0.02494572 -0.0366947 0.008697047 0.057537314
-0.049076524 -0.07243292 -0.08369886 0.108004466 -0.008493031 -0.02705353 0.05087703 0.017513962
0.09431837 0.0025337886 0.08250107 -0.050196383 0.021464556 0.07748051 -0.013160622 0.09938056
0.02021814 -0.014887457 0.08072773 0.12538601 0.021798035 -0.02237294 0.013997016 0.014326353
-0.025168205 -0.058823723 0.110530406 -0.0478464 -0.014889598 -0.03874474 -0.02871557 0.025636865
-0.03282056 0.16960335 0.18401399 0.08921828 -0.009306732 0.03721587 -0.03015318 0.01224986
0.04635816 -0.006706322 -0.1148874 0.016952824 -0.085846126 0.012444194 -0.012886431 -0.020219143
-0.051560365 0.026816694 -0.017066669 -0.26503772 -0.35415038 -0.23797385 -0.22843646 -0.049358815
0.016454343 0.09906842 0.13721377 0.23363866 0.22648826 0.057908613 0.11498509 0.024986219
0.20384966 -0.06458382 -0.06929658 0.103509165 0.07383968 -0.06933001 -0.0017262303 0.11956971
0.050662152 -0.05250876 -0.13382074 -0.13016592 -0.030089265 -0.084033236 0.07999929 -0.035513435
-0.01773264 0.070966534 0.09692161 0.08532992 0.07328352 0.1352252 0.08745374 0.13899256
0.082059406 0.07237126 0.04932777 0.03267315 -0.050702304 0.038674433 -0.050665036 0.066315696
-0.06483606 -0.020509556 0.010081456 -0.0758431 0.026481902 0.06158201 0.09529567 0.07170335
-0.09373101 0.08708785 -0.0039065084 -0.0028979662 -0.050375883 -0.047522288 -0.14363293 0.0014046222
0.021577936 -0.10094479 -0.03659821 0.06419116 0.02070112 -0.05128486 -0.16541703 -0.13360006
-0.07868266 -0.015032653 0.044312965 -0.061110437 -0.08629622 -0.11787498 -0.18450372 -0.1726113
-0.07891564 0.050840605 0.048269697 -0.1858761 0.01693703 0.047725316 -0.13652782 -0.06288035
-0.05984605 0.027716339 0.016740631 0.039125368 -0.0678249 -0.023337048 0.042827446 -0.08361512
0.05422606 0.061048955 0.00833631 -0.07688727 -0.10051821 -0.013357916 -0.035065185 -0.081607856
-0.030491462 0.041597523 0.022106567 -0.06565881 -0.040508404 0.023533745 -0.08707937 -0.037180554
0.1049815 -0.026274558 0.0027789238 -0.003866493 0.09380308 0.040603172 0.030563498 0.05836067
-0.074227266 -0.04143017 0.07793682 0.08179505 0.058599483 0.008547184 -0.05852461 -0.03357982
0.109052934 -0.045131996 0.009866819 -0.08745913 -0.06768452 -0.08127684 -0.021519944 -0.01025306
-0.041855294 0.09439352 0.010923223 0.12598698 0.003246139 -0.029101644 0.024536766 0.058975
-0.052392583 -0.052287266 -0.09881401 -0.09028475 0.053317808 0.07893083 0.08462356 -0.016881442
-0.111132845 0.011256932 -0.044415604 -0.07087832 0.08221907 -0.0101186875 0.006540518 -0.09179118
0.10048562 0.070536256 -0.075608164 0.05739855 -0.0498492 -0.06451466 -0.119663335 -0.038628317
0.0049588843 0.18189257 0.10922437 0.22646657 0.045298494 0.06602333 -0.055320494 0.056986447
0.06017379 -0.09864707 -0.07908328 -0.0856291 -0.10030255 -0.106387205 -0.15281335 -0.1701375
-0.0035864278 -0.15058517 0.037010822 -0.00046558952 0.024860324 0.06154242 0.12041481 0.09084406
-0.00030586106 0.003587309 -0.02990516 0.049781915 -0.1907039 -0.1339187 -0.098487146 -0.016583318
00000000: ca85 f03d 40f9 913b e78b 213c 8bec 963d
00000010: f75a cc3c 2f4d 16bd 0f7e 0e3c 3fac 6b3d
00000020: 7704 49bd b657 94bd 4f6a abbd 7231 dd3d
00000030: 5b26 0bbc 5d9f ddbc 6f64 503d 7179 8f3c
00000040: fd29 c13d eb0d 263b 52f6 a83d b99a 4dbd
00000050: 70d6 af3c 1aae 9e3d a69f 57bc 0988 cb3d
00000060: 83a0 a53c 85ea 73bc 9554 a53d 3165 003e
00000070: cb91 b23c 7547 b7bc bd53 653c 14b9 6a3c
00000080: 8d2d cebc 25f1 70bd c45d e23d 96fa 43bd
00000090: 80f3 73bc ceb2 1ebd ea3c ebbc 6704 d23c
000000a0: da6e 06bd 80ac 2d3e 2a6e 3c3e 13b8 b63d
000000b0: 437b 18bc ab6f 183d cd03 f7bc a3b3 483c
000000c0: 0ee2 3d3d b5c0 dbbb 164a ebbd a6e0 8a3c
000000d0: 18d0 afbd bce2 4b3c 9c21 53bc 9ea2 a5bc
000000e0: f630 53bd afae db3c 66cf 8bbc 06b3 87be
000000f0: 3353 b5be 6baf 73be 3feb 69be 782c 4abd
00000100: 42cb 863c 62e4 ca3d c481 0c3e f93e 6f3e
00000110: 8aec 673e 9531 6d3d 4e7d eb3d e6af cc3c
00000120: f7bd 503e 8644 84bd 5eeb 8dbd 9dfc d33d
00000130: 4239 973d e4fc 8dbd ad42 e2ba f7e0 f43d
00000140: 1e83 4f3d 6d13 57bd 4e08 09be 374a 05be
00000150: c37d f6bc 9e19 acbd abd6 a33d 8976 11bd
00000160: 0b44 91bc e756 913d d67e c63d 74c1 ae3d
00000170: ac15 963d 7a78 0a3e f21a b33d 1154 0e3e
00000180: c30e a83d 6237 943d ea0b 4a3d 48d4 053d
00000190: 38ad 4fbd 1569 1e3d 2486 4fbd 86d0 873d
000001a0: c5c8 84bd a803 a8bc b12c 253c a153 9bbd
000001b0: 93f0 d83c 6b3d 7c3d 602a c33d 35d9 923d
000001c0: 0bf6 bfbd 1d5b b23d 2b02 80bb ceeb 3dbb
000001d0: f156 4ebd bba6 42bd 8314 13be 4d1b b83a
000001e0: 36c4 b03c 24bc cebd 01e8 15bd a876 833d
000001f0: 6595 a93c 1310 52bd 1563 29be 74ce 08be
00000200: 6024 a1bd 844b 76bc 8381 353d f04e 7abd
00000210: 13bc b0bd 7068 f1bd 8bee 3cbe 04c1 30be
00000220: 869e a1bd 3d3e 503d 72b6 453d 4e56 3ebe
00000230: 87bf 8a3c 9f7b 433d f3cd 0bbe 6ac7 80bd
00000240: 2221 75bd 600d e33c a623 893c ec41 203d
00000250: c8e7 8abd 562d bfbc d56b 2f3d 673e abbd
00000260: 251c 5e3d 780e 7a3d 0595 083c 1377 9dbd
00000270: 7edc cdbd 29db 5abc 83a0 0fbd 0522 a7bd
00000280: 3bc9 f9bc 2a62 2a3d d518 b53c 2078 86bd
00000290: 24ec 25bd d7c9 c03c ab56 b2bd a34a 18bd
000002a0: 8a00 d73d be3d d7bc 9b1e 363b fd64 7dbb
000002b0: d41b c03d 834f 263d 4d60 fa3c 990b 6f3d
000002c0: 7704 98bd afb2 29bd 579d 9f3d 2a84 a73d
000002d0: 0306 703d 7d09 0c3c 80b7 6fbd fe8a 09bd
000002e0: 2557 df3d 54dc 38bd 70a8 213c c61d b3bd
000002f0: 2e9e 8abd 7974 a6bd 984a b0bc 73fc 27bc
00000300: 7570 2bbd 6451 c13d 51f7 323c bb02 013e
00000310: 2dbd 543b 9266 eebc 5401 c93c c58f 713d
00000320: 9b99 56bd 2c2b 56bd 005f cabd 36e7 b8bd
00000330: c663 5a3d 7da6 a13d 1e4f ad3d f34a 8abc
00000340: 9e99 e3bd ff6e 383c 23ed 35bd a728 91bd
00000350: 7962 a83d dac8 25bc d751 d63b 04fd bbbd
00000360: 68cb cd3d 5075 903d 74d8 9abd be1a 6b3d
00000370: ad2e 4cbd 4320 84bd 0d12 f5bd ba38 1ebd
00000380: 237e a23b 0c42 3a3e 07b1 df3d dae6 673e
00000390: ea8a 393d 3d37 873d be97 62bd 9f6a 693d
000003a0: cb78 763d 7a07 cabd 6af6 a1bd 4f5e afbd
000003b0: 6c6b cdbd 89e1 d9bd 1a7b 1cbe 8638 2ebe
000003c0: 460a 6bbb 0033 1abe a998 173d 5e1a f4b9
000003d0: e1a7 cb3c e813 7c3d 0a9c f63d 730c ba3d
000003e0: fa5b a0b9 0f19 6b3b abfb f4bc 1fe8 4b3d
000003f0: e247 43be fc21 09be a1b3 c9bd bdd9 87bc

lstm.weight_hh_l0 f4 [400, 100]
-0.023675555 0.10680152 0.13623038 -0.014166893 0.07508904 -0.008903775 0.11281222 -0.04041611
-0.0047435076 0.0511157 0.06948876 -0.09632813 -0.07458605 -0.0662376 -0.00716186 0.08463251
0.050795566 -0.025318664 -0.025013302 0.0012335475 0.0011311816 -0.094238125 -0.11364563 -0.09921758
0.07326808 0.046753135 0.012504295 0.0833375 0.008539992 -0.0008985874 0.087374136 0.0066972887
-0.09376239 0.07268482 -0.06478633 0.007162865 0.0031741147 -0.0015689823 0.04136061 -0.06453976
0.030304346 -0.12228934 0.02206296 0.072380096 -0.015358963 -0.11864971 -0.024338858 -0.020379076
-0.020880263 0.10470926 -0.024868784 0.08863052 0.07173196 -0.09912306 -0.046375662 -0.0068605114
0.065537274 0.00047843257 -0.06419555 0.040632468 0.023452178 -0.044660896 0.00088537973 0.06803184
0.012025739 0.055282164 0.08212034 -0.018794412 0.052116815 -0.026422266 0.12703869 -0.10259224
-0.020103078 -0.03301779 0.07517118 -0.11828715 -0.050979845 -0.022941276 0.059590843 -0.124386825
0.007897651 0.014118943 0.03563106 -0.038496286 -0.04387012 -0.08405257 -0.000116150266 -0.031182116
0.042402424 0.109936744 -0.10315923 0.059924364 -0.093766674 0.0805374 -0.07985668 -0.07397255
-0.104355186 -0.035600107 -0.012078753 -0.06586407 -0.008832388 0.034601144 -0.038409486 -0.063412406
-0.06173737 -0.017259406 0.03687076 -0.0661075 -0.035690136 -0.07374824 0.005613841 -0.04238068
-0.040165327 0.040075477 -0.08403581 0.0752793 0.016159063 0.08005076 -0.027663428 0.032487843
0.05875013 0.06204806 -0.009984031 0.10176845 0.0344952 0.06040047 0.062262706 0.103500344
0.029500114 -0.03630708 0.15630874 -0.07941785 0.11091076 -0.027552111 0.06960255 -0.0034912042
-0.015067914 0.017241288 0.05762373 -0.12476722 -0.12776667 -0.023257453 -0.07102966 0.023752319
0.036404725 0.1334246 0.10162344 0.25507462 0.09155681 0.05439541 0.04162902 -0.00691677
-0.09980521 -0.011033087 0.09091187 0.03804025 -0.025387214 -0.08124718 0.013814247 -0.023755128
0.075325586 0.036072947 -0.036452815 -0.06573891 -0.13395809 0.12576783 -0.06322217 0.03315145
-0.011608346 -0.009791305 -0.03750623 -0.005915591 -0.06955663 -0.054997478 0.084194995 -0.10399764
0.025110599 -0.023376998 0.014371662 0.07042557 -0.026748821 -0.080473326 0.051367905 -0.013073362
0.020350788 -0.03465933 -0.10720611 0.052808374 -0.013369583 0.11320713 -0.06347352 -0.063015945
0.10658914 -0.0015397605 -0.08822726 0.09257424 -0.053154297 -0.24697383 -0.0038909446 -0.022514842
0.09782018 0.07413396 0.09382037 -0.1792606 0.10309756 -0.009006263 -0.036293905 -0.08268496
-0.15233712 -0.10630048 0.14044377 -0.10592099 -0.07541914 0.18592083 0.09527431 -0.07436837
0.19394992 0.038932946 0.22059642 -0.114482254 0.13288887 -0.049003907 -0.13868058 0.16154623
0.2764079 -0.07550789 0.1363247 -0.15949018 0.04360173 -0.13516268 -0.0056647332 0.113029405
0.0958017 -0.11042238 0.20237032 -0.09282256 -0.1427132 -0.22849135 -0.15344949 0.19307716
0.13582651 0.06552922 -0.018765347 0.11069173 0.06427515 -0.093599625 0.063253574 0.067743406
-0.033738237 -0.13555107 0.06862151 -0.012259714 -0.047912754 0.049543705 0.1043853 -0.008215002
00000000: 3df3 c1bc c1ba da3d fa7f 0b3e 421c 68bc
00000010: 48c8 993d 24e1 11bc 180a e73d 5d8b 25bd
00000020: 6d6f 9bbb b25e 513d 1f50 8e3d af47 c5bd
00000030: 92c0 98bd 94a7 87bd 09ae eabb cf53 ad3d
00000040: 030f 503d 1669 cfbc b2e8 ccbc fcae a13a
00000050: 2844 943a ebff c0bd 0abf e8bd 9632 cbbd
00000060: 930d 963d 3780 3f3d d1de 4c3c daac aa3d
00000070: 53eb 0b3c 2e8f 6bba 36f1 b23d ee74 db3b
00000080: 7f06 c0bd c7db 943d b2ae 84bd 77b6 ea3b
00000090: cf04 503b 4fa6 cdba be69 293d 6c2d 84bd
000000a0: d240 f83c d572 fabd 61bd b43c 043c 943d
000000b0: 29a4 7bbc 9ffe f2bd 4962 c7bc 05f2 a6bc
000000c0: 160d abbc cf71 d63d 9fb9 cbbc eb83 b53d
000000d0: 35e8 923d 0801 cbbd 68f4 3dbd 24ce e0bb
000000e0: 6838 863d 22d6 fa39 f578 83bd 3b6e 263d
000000f0: c81e c03c 58ee 36bd d418 683a 4754 8b3d
00000100: 9b07 453c 8d6f 623d b52e a83d bdf6 99bc
00000110: 7178 553d 8273 d8bc 6e16 023e e11b d2bd
00000120: 36af a4bc aa3d 07bd 59f3 993d 8940 f2bd
00000130: 3ed0 50bd 58ef bbbc 8715 743d 85be febd
00000140: 2665 013c 2453 673c e0f1 113d 48ae 1dbd
00000150: 28b1 33bd c123 acbd b395 f3b8 a371 ffbc
00000160: 2aae 2d3d 8426 e13d 2545 d3bd 4073 753d
00000170: be08 c0bd cbf0 a43d e68b a3bd ec7e 97bd
00000180: 2cb8 d5bd 6bd1 11bd f6e5 45bc bee3 86bd
00000190: b8b5 10bc eeb9 0d3d 4453 1dbd 5dde 81bd
000001a0: 53e0 7cbd 9963 8dbc cb05 173d 5e63 87bd
000001b0: d22f 12bd 5109 97bd 50f4 b73b 5d97 2dbd
000001c0: 6684 24bd 2f26 243d f71a acbd 092c 9a3d
000001d0: 0360 843c a7f1 a33d 6a9e e2bc f911 053d
000001e0: faa3 703d 1b26 7e3d 1094 23bc fa6b d03d
000001f0: d74a 0d3d 7c66 773d 2e07 7f3d fdf7 d33d
00000200: 39aa f13c bcb6 14bd 660f 203e d3a5 a2bd
00000210: 2e25 e33d f7b4 e1bc c88b 8e3d b0cc 64bb
00000220: 69df 76bc 9a3d 8d3c dc06 6c3d f585 ffbd
00000230: 44d5 02be 6a86 bebc 0078 91bd 3994 c23c
00000240: 1f1d 153d 75a0 083e f31f d03d 2499 823e
00000250: 2382 bb3d b9cd 5e3d 3183 2a3d 12a6 e2bb
00000260: ad66 ccbd 1fc4 34bc 0130 ba3d 18d0 1b3d
00000270: d9f8 cfbc ec64 a6bd 2755 623c 1d9a c2bc
00000280: 4d44 9a3d 3ac1 133d 8c4f 15bd 1fa2 86bd
00000290: 4f2c 09be 48c9 003e a07a 81bd d1c9 073d
000002a0: ef30 3ebc b66b 20bc 22a0 19bd 93d7 c1bb
000002b0: b573 8ebd 0945 61bd 6d6e ac3d b7fc d4bd
000002c0: beb4 cd3c 1e81 bfbc 1f77 6b3c 483b 903d
000002d0: 5820 dbbc 33cf a4bd 2767 523d a831 56bc
000002e0: b2b6 a63c f1f6 0dbd e18e dbbd 984d 583d
000002f0: 180c 5bbc 24d9 e73d 68fe 81bd 810e 81bd
00000300: 684b da3d cad1 c9ba 7eb0 b4bd 9097 bd3d
00000310: 52b8 59bd b5e6 7cbe 38ff 7ebb 0c71 b8bc
00000320: f255 c83d 8cd3 973d e524 c03d 1790 37be
00000330: d024 d33d 018f 13bc eba8 14bd bb56 a9bd
00000340: 43fe 1bbe 11b4 d9bd 7ed0 0f3e 1bed d8bd
00000350: 5a75 9abd 0862 3e3e 2d1f c33d 724e 98bd
00000360: cf9a 463e 2778 1f3d 07e4 613e ac75 eabd
00000370: 0514 083e 52b8 48bd 4802 0ebe 606c 253e
00000380: 5685 8d3e e1a3 9abd b498 0b3e 6551 23be
00000390: ba97 323d 1668 0abe 3a9f b9bb f67b e73d
000003a0: af33 c43d 2125 e2bd 2a3a 4f3e c119 bebd
000003b0: 6923 12be a3f9 69be dd21 1dbe 05b6 453e
000003c0: 1b16 0b3e 2f34 863d c9b9 99bc 59b2 e23d
000003d0: b1a2 833d 29b1 bfbd 178b 813d 0ebd 8a3d
000003e0: 1b31 0abd e6cd 0abe 6f89 8c3d f8dc 48bc
000003f0: 2a40 44bd 57ee 4a3d f6c7 d53d 3798 06bc

lstm.bias_ih_l0 f4 [400]
0.08949031 0.0076484405 -0.061658524 -0.011000297 -0.04211368 0.004286096 0.010863612 0.09653172
0.12313987 0.09092351 0.11533253 0.12245798 0.12869778 0.2585623 -0.0552097 0.15449807
-0.2291404 0.27125672 0.017676733 -0.24889164 0.13536501 -0.03637634 -0.032379415 0.04540555
0.40164706 0.047223244 0.110301584 -0.06220586 0.113274865 -0.009881647 0.4909219 0.029883528
0.10857985 0.17156474 -0.14714997 0.14045706 -0.100345895 -0.026683846 0.06773637 -0.0145765385
0.055962905 -0.027375804 0.10551624 -0.071741425 0.02706207 0.3209079 -0.23519953 0.5009635
0.078375675 0.09104815 0.31399864 -0.069233894 -0.14364421 0.13585879 0.06967074 0.015382176
0.033275906 0.0400987 -0.20804952 0.0044664727 0.046460576 0.021940505 -0.1311013 0.09622076
0.3045794 -0.020360416 -0.20890826 -0.04282671 0.12536123 0.047384612 -0.028735861 -0.0038631617
0.078686826 0.35666755 -0.07905773 0.08576819 -0.057071608 -0.0530551 -0.011603574 0.13034704
-0.2017994 0.028114326 0.045612354 0.15504824 -0.059912 0.062423937 -0.002057017 -0.045076586
-0.34896898 -0.17861767 0.16797625 -0.099300854 -0.13545485 -0.027790112 -0.21832561 0.16554113
-0.71019304 0.71298885 -0.018879471 0.06704632 0.08759951 0.33502027 0.29019457 0.11574822
0.19773912 0.14158548 0.113936655 0.08827576 -0.24128607 0.094094746 0.0442646 0.19062446
-0.044988774 0.09558859 0.12625942 0.011787778 0.3055057 0.004101416 0.4260837 0.35371828
0.3040391 0.18145698 0.27318266 0.19022946 -0.41618618 0.07416166 0.28691915 0.41021225
0.06469218 0.055467226 -0.4197111 0.14920275 0.2166087 0.08071588 0.31941244 -0.007657745
0.30017334 0.55437016 0.23003589 0.18029653 0.08677993 0.1908148 0.165893 0.30607533
0.06220857 -0.28058624 0.23955177 -0.37941968 0.10233604 0.14901972 -0.05793458 0.13692965
0.28737965 0.11725971 0.2660841 0.09991482 0.20253198 0.10137908 0.50517076 0.16242632
0.23294261 0.22457126 0.33890206 0.23421739 -0.13528937 0.013283909 0.009655891 0.20930243
0.19432613 -0.02144537 0.31748772 -0.012711486 0.05088781 -0.11064063 0.06096511 0.22823636
0.2703363 0.21862145 0.23058186 0.21098924 0.3914158 0.061693218 0.047486365 -0.022886412
0.24064259 0.0763053 0.1849839 0.13433003 0.21876672 0.09912337 -0.1578441 0.03198183
0.49593323 0.1644595 0.40149045 0.03171092 0.6392757 -0.45401385 0.1901429 -0.018749414
0.07446703 -0.18085869 -0.25418672 0.020604085 -0.14578606 -0.15549833 0.01946084 0.066637754
-0.042011578 0.12847622 -0.0042384802 0.20817071 -0.050211005 0.3591287 0.10502191 -0.018686222
-0.44039422 0.15932502 0.08050866 -0.38113043 -0.32056606 0.26376373 -0.23757337 0.16912837
-0.022434525 0.09970521 -0.019226797 0.10849808 -0.05240205 -0.1262731 -0.3947047 0.23433664
0.048091523 0.21545747 -0.3837452 -0.006558895 0.31342337 0.18594024 -0.16926357 -0.105036266
0.05470062 0.061036527 -0.19802074 -0.41863403 -0.0050867856 -1.1508957 -0.36883068 -0.9175287
-0.012534455 -0.030736608 -0.30973852 0.07363299 -0.18086445 0.048423108 -0.20111142 -0.05807245
00000000: b246 b73d c59f fa3b a68d 7cbd 973a 34bc
00000010: 657f 2cbd 6172 8c3b 4bfd 313c 6cb2 c53d
00000020: c230 fc3d 1b36 ba3d 7633 ec3d 40cb fa3d
00000030: 5ac9 033e 4762 843e 9123 62bd be34 1e3e
00000040: c8a3 6abe 29e2 8a3e ccce 903c 73dd 7ebe
00000050: 209d 0a3e 5bff 14bd 47a0 04bd 2cfb 393d
00000060: afa4 cd3e 296d 413d cce5 e13d 92cb 7ebd
00000070: a7fc e73d a2e6 21bc 1e5a fb3e 4dce f43c
00000080: 1d5f de3d abae 2f3e 7bae 16be fad3 0f3e
00000090: 2682 cdbd 1598 dabc 5eb9 8a3d 6fd2 6ebc
000000a0: 5c39 653d 3943 e0bc e618 d83d 2bed 92bd
000000b0: 46b1 dd3c 0a4e a43e 25d8 70be 253f 003f
000000c0: 6d83 a03d 7477 ba3d 6ec4 a03e 80ca 8dbd
000000d0: 7817 13be 911e 0b3e 88af 8e3d 8605 7c3c
000000e0: 514c 083d 893e 243d ef0a 55be 7d5b 923b
000000f0: 724d 3e3d 93bc b33c 6b3f 06be 640f c53d
00000100: d5f1 9b3e e3ca a6bc 0cec 55be 0f6b 2fbd
00000110: b25e 003e 5e16 423d 7867 ebbc 192d 7dbb
00000120: 8f26 a13d 219d b63e 05e9 a1bd 3ca7 af3d
00000130: ebc3 69bd 4e50 59bd eb1c 3ebc b279 053e
00000140: 80a4 4ebe 0450 e63c 05d4 3a3d f7c4 1e3e
00000150: 4966 75bd 3eb0 7f3d 05cf 06bb 3aa2 38bd
00000160: 10ac b2be 8de7 36be f701 2c3e 3f5e cbbd
00000170: adb4 0abe 17a8 e3bc c090 5fbe 9d83 293e
00000180: 36cf 35bf 7086 363f 1fa9 9abc 954f 893d
00000190: 5f67 b33d c787 ab3e 6294 943e 670d ed3d
000001a0: 207c 4a3e c9fb 103e 9f57 e93d ecc9 b43d
000001b0: b213 77be bfb4 c03d cc4e 353d 0f33 433e
000001c0: 2646 38bd f3c3 c33d 264a 013e 8621 413c
000001d0: 3e6b 9c3e 2c65 863b a527 da3e 901a b53e
000001e0: 03ab 9b3e dccf 393e 99de 8b3e 83cb 423e
000001f0: 5b16 d5be 12e2 973d 11e7 923e 5707 d23e
00000200: 557d 843d 9a31 633d 60e4 d6be 9bc8 183e
00000210: acce 5d3e 5e4e a53d 078a a33e d2ed fabb
00000220: 52b0 993e 34eb 0d3f 878e 6b3e a79f 383e
00000230: adb9 b13d f464 433e dbdf 293e e8b5 9c3e
00000240: 6ace 7e3d 00a9 8fbe 0f4d 753e 4c43 c2be
00000250: 8f95 d13d a098 183e cf4c 6dbd 4937 0c3e
00000260: 6d23 933e dc25 f03d 2d3c 883e 24a0 cc3d
00000270: 8b64 4f3e d69f cf3d df52 013f 1653 263e
00000280: 8288 6e3e 02f6 653e 9284 ad3e afd6 6f3e
00000290: 4c89 0abe c1a4 593c be33 1e3c 6053 563e
000002a0: 6efd 463e 33ae afbc c08d a23e d643 50bc
000002b0: bc6f 503d 8e97 e2bd 8db6 793d cbb6 693e
000002c0: 8569 8a3e 4dde 5f3e a71d 6c3e 900d 583e
000002d0: a767 c83e 07b2 7c3d 1081 423d 497c bbbc
000002e0: 036b 763e f445 9c3d 6b6c 3d3e d08d 093e
000002f0: 6204 603e 3201 cb3d e2a1 21be 61ff 023d
00000300: f6ea fd3e 1268 283e 2890 cd3e 4fe3 013d
00000310: 93a7 233f 8174 e8be d2b4 423e 5f98 99bc
00000320: 2c82 983d 0533 39be c324 82be e6c9 a83c
00000330: f148 15be f43a 1fbe 576c 9f3c 6079 883d
00000340: 5514 2cbd 458f 033e f3e2 8abb b42a 553e
00000350: 0eaa 4dbd b8df b73e ba15 d73d d913 99bc
00000360: 5a7b e1be 1926 233e b9e1 a43d 8723 c3be
00000370: 3c21 a4be 0a0c 873e 6f46 73be fd2f 2d3e
00000380: 9cc8 b7bc 3f32 cc3d 8481 9dbc 3e34 de3d
00000390: 88a3 56bd bc4d 01be bc16 cabe f2f5 6f3e
000003a0: 9efb 443d e2a0 5c3e 407a c4be 00ec d6bb
000003b0: 0779 a03e 1e67 3e3e 6e53 2dbe 411d d7bd
000003c0: c20d 603d 7001 7a3d f3c5 4abe 3357 d6be
000003d0: 0daf a6bb 8d50 93bf 60d7 bcbe 29e3 6abf
000003e0: 515d 4dbc 57cb fbbc 0c96 9ebe e5cc 963d
000003f0: 8834 39be 4f57 463d 27f0 4dbe 61dd 6dbd

lstm.bias_hh_l0 f4 [400]
0.043634612 -0.05413599 -0.12531014 0.10372208 -0.0382563 0.010564167 0.027493075 0.15076748
0.15824589 0.091530494 0.1405456 0.06146572 -0.00046474696 0.21361233 0.1259338 0.05489433
-0.075156935 0.2941253 0.03179407 -0.2782445 0.23819128 0.10357381 -0.089039855 0.1508031
0.5564744 0.078515016 0.076889426 0.023735465 -0.014208062 0.138306 0.50201684 0.19217424
0.08179096 0.031611953 -0.21849824 0.06151872 -0.23946309 -0.15477577 -0.036811445 0.11516083
-0.02360545 0.0098743625 0.22115439 -0.08475705 -0.026678633 0.32080388 -0.158599 0.5108102
0.11808082 -0.040713273 0.17694852 -0.04202212 -0.24612623 -0.037919503 0.10420126 0.022992874
0.17414069 -0.082479596 -0.19543792 0.07821835 0.046461776 0.09286135 -0.21755119 0.08513102
0.20845217 0.055370897 -0.15379974 -0.05029458 -0.023871657 -0.011426967 -0.08264233 0.1299221
0.07717127 0.36643705 0.019021915 0.06142857 0.036709946 0.06908036 0.028597346 0.2597882
-0.16600099 -0.06052955 0.10584794 0.19964008 0.0050670076 0.04902581 0.06128307 -0.027918417
-0.3451872 -0.19140647 0.1585082 0.015555963 0.013310351 -0.015425226 -0.043722644 0.28984505
-0.6212418 0.62896186 -0.0049423776 0.1338695 0.103270195 0.19645196 0.41665393 0.25851923
0.28429717 0.16809122 0.040883996 0.042300545 -0.36470893 0.2206674 -0.052535124 0.1879263
0.11120908 -0.007049866 0.00705872 0.12630981 0.23952164 0.067510426 0.4583631 0.30848497
0.21470606 0.103305094 0.3064396 0.110251404 -0.31768999 0.080925226 0.29363504 0.36371985
0.041960943 0.06623505 -0.39789087 0.12841453 0.28999746 0.05772062 0.2969683 0.032444242
0.26340175 0.60730267 0.28506184 0.13832124 0.11955597 0.17244247 0.20925836 0.31103384
0.17224775 -0.2355838 0.1483246 -0.3869018 0.13434722 0.084078446 0.07027656 0.20218974
0.34503058 0.16660623 0.10694212 0.19857408 0.09474166 0.04160443 0.56253844 0.08502272
0.12825727 0.20141676 0.32340175 0.1726123 -0.14601374 -0.023838006 -0.0024704533 0.22626066
0.2565028 -0.044411805 0.25370294 0.10390562 0.006380965 -0.020892106 -0.06800815 0.10516424
0.14111269 0.11028247 0.15086196 0.21178424 0.46594176 0.052976217 0.038632408 0.036416072
0.19754861 -0.03130488 0.21586968 0.09950635 0.31421593 0.18810867 -0.056403168 0.023687752
0.4338916 0.20211324 0.39119112 -0.007144961 0.55814344 -0.33300373 0.05687336 -0.006178892
0.102533415 -0.18362541 -0.31908652 0.101264924 -0.29177162 -0.21541867 0.058096923 -0.042608302
-0.1657979 0.072652616 0.16704208 0.08170506 -0.18884902 0.30174828 0.11560713 0.05591978
-0.44727838 0.13908459 0.18911666 -0.36499575 -0.16249804 0.16537733 -0.24657963 0.10033281
-0.13763863 0.09764167 0.0031362507 0.06473888 -0.0033909155 -0.08723205 -0.44174886 0.26674953
0.08250761 0.27416462 -0.3653623 -0.019399373 0.3443807 0.17618334 -0.18450809 -0.23511903
-0.11023121 0.09406005 -0.23766874 -0.32148936 -0.050077494 -1.0871273 -0.24652605 -0.97331494
-0.14623931 -0.10353973 -0.2500503 0.008483612 -0.21680912 0.21392922 -0.16632049 0.04429889
00000000: 35ba 323d b3bd 5dbd 4d51 00be 3e6c d43d
00000010: a3b2 1cbd 5415 2d3c 2839 e13c ca62 1a3e
00000020: 360b 223e 5774 bb3d 30eb 0f3e 7bc3 7b3d
00000030: 48a9 f3b9 31bd 5a3e caf4 003e e1d8 603d
00000040: e1eb 99bd 9797 963e 803a 023d 1076 8ebe
00000050: 6ae8 733e 811e d43d 875a b6bd 216c 1a3e
00000060: 1b75 0e3f 7bcc a03d 3478 9d3d e170 c23c
00000070: eec8 68bc 17a0 0d3e 2d84 003f 53c9 443e
00000080: 0582 a73d 897b 013d 01be 5fbe 0efb 7b3d
00000090: d035 75be 8a7d 1ebe 99c7 16bd 71d9 eb3d
000000a0: 3760 c1bc 14c8 213c 4c76 623e 1b95 adbd
000000b0: 268d dabc 6840 a43e c767 22be 75c4 023f
000000c0: 5bd4 f13d f6c2 26bd fe31 353e 631f 2cbd
000000d0: 8408 7cbe 7b51 1bbd 7867 d53d 8d5b bc3c
000000e0: f051 323e 10eb a8bd e120 48be f130 a03d
000000f0: b44e 3e3d 172e be3d bdc5 5ebe 2c59 ae3d
00000100: 7c74 553e 98cc 623d ae7d 1dbe b101 4ebd
00000110: 7e8e c3bc 2c38 3bbc 6240 a9bd 4d0a 053e
00000120: f90b 9e3d a39d bb3e d9d3 9b3c 869c 7b3d
00000130: 2b5d 163d 017a 8d3d fb44 ea3c f502 853e
00000140: 2afc 29be d5ed 77bd cec6 d83d 736e 4c3e
00000150: 2409 a63b 4acf 483d f503 7b3d 2ab5 e4bc
00000160: 60bc b0be 0f00 44be f94f 223e 70de 7e3c
00000170: a913 5a3c 16ba 7cbc 8416 33bd 9266 943e
00000180: b409 1fbf a503 213f abf3 a1bb 1615 093e
00000190: 537f d33d b42a 493e aa53 d53e a25c 843e
000001a0: 668f 913e 1b20 2c3e fa75 273d 5643 2d3d
000001b0: 21bb babe a3f6 613e 122f 57bd c16f 403e
000001c0: 96c1 e33d 9002 e7bb d64c e73b 5c57 013e
000001d0: 2945 753e e842 8a3d 91ae ea3e bef1 9d3e
000001e0: e8db 5b3e 9f91 d33d a7e5 9c3e 7dcb e13d
000001f0: 43a8 a2be 20bc a53d 5557 963e 7d39 ba3e
00000200: 3ddf 2b3d 3ea6 873d 5ab8 cbbe 197f 033e
00000210: 8c7a 943e 756c 6c3d 3b0c 983e 41e4 043d
00000220: 98dc 863e 3078 1b3f a0f3 913e 15a4 0d3e
00000230: c3d9 f43d c294 303e d347 563e d43f 9f3e
00000240: b761 303e e13c 71be 67e2 173e fe17 c6be
00000250: 5192 093e 5231 ac3d 28ed 8f3d d40a 4f3e
00000260: d9a7 b03e d39a 2a3e 7804 db3d 0157 4b3e
00000270: ea07 c23d 6869 2a3d 8502 103f 6420 ae3d
00000280: e055 033e 3240 4e3e ea94 a53e 47c1 303e
00000290: a084 15be ec47 c3bc 54e7 21bb e0b0 673e
000002a0: 5654 833e 27e9 35bd 5ae5 813e 78cc d43d
000002b0: 6a17 d13b ec25 abbc db47 8bbd 5960 d73d
000002c0: d87f 103e c7db e13d 8f7b 1a3e f8dd 583e
000002d0: eb8f ee3e 97fd 583d 043d 1e3d 0529 153d
000002e0: 2f4a 4a3e 8c39 00bd f10c 5d3e fcc9 cb3d
000002f0: e9e0 a03e 8f9f 403e 0207 67bd d10c c23c
00000300: 0a27 de3e c6f6 4e3e 344a c83e 4720 eabb
00000310: 7de2 0e3f 777f aabe 0af4 683d 4e78 cabb
00000320: 0afd d13d 4d08 3cbe 4f5f a3be fc63 cf3d
00000330: 1763 95be b696 5cbe 0af7 6d3d 0b86 2ebd
00000340: edc6 29be e5ca 943d 140d 2b3e fc54 a73d
00000350: a361 41be c07e 9a3e 6ec3 ec3d 240c 653d
00000360: ac01 e5be 316c 0e3e cca7 413e b9e0 babe
00000370: e365 26be ad58 293e 5f7f 7cbe 4a7b cd3d
00000380: 24f1 0cbe 5bf8 c73d 8e89 4d3b d195 843d
00000390: 1f3a 5ebb b8a6 b2bd e82c e2be 6593 883e
000003a0: c0f9 a83d 4e5f 8c3e c410 bbbe 6feb 9ebc
000003b0: ab52 b03e 6869 343e b0ef 3cbe 0bc3 70be
000003c0: e7c0 e1bd 8ea2 c03d 6f5f 73be 419a a4be
000003d0: 0f1e 4dbd fd26 8bbf 5371 7cbe 2b2b 79bf
000003e0: c2bf 15be a30c d4bd 9806 80be d9fe 0a3c
000003f0: 3603 5ebe 4310 5b3e eb4f 2abe c172 353d

lstm.weight_ih_l0_reverse f4 [400, 28]
-0.038010154 -0.08403893 -0.053441726 -0.044844154 0.0073563354 -0.045367405 -0.101068534 -0.050987307
-0.020889817 0.006370789 0.091556385 -0.096447535 0.08796798 -0.094468646 0.09730114 -0.003082789
-0.08944892 -0.082361825 0.053923022 0.06447229 0.052729424 -0.015372112 0.063288465 0.07407338
0.093063496 0.010229498 0.0071947793 0.07359969 0.08363563 -0.04798306 0.08157474 0.06493071
0.041196045 -0.039795015 0.03663862 -0.07640308 0.06058158 -0.06016398 -0.01676442 0.046737317
-0.026650393 0.08646295 0.046201006 0.030554079 -0.010038562 -0.07634407 0.07689905 -0.07947453
0.046736926 -0.04090969 -0.0030217147 -0.060713165 0.07997444 -0.037558652 0.079687536 0.02096637
0.055643827 0.099695526 -0.005369287 0.103370816 0.045621984 -0.016480844 0.01222603 -0.07578139
-0.093081705 0.10569358 0.08601436 -0.044930156 0.022981314 0.00025644404 -0.0075534424 -0.020327957
-0.021076582 -0.09388315 0.07740922 -0.04582889 -0.08421605 -0.021115249 -0.010314351 0.096175455
-0.08598229 0.04433238 -0.066203415 -0.03998006 0.09192607 -0.06235056 0.09323672 -0.06613999
-0.088861845 0.07898927 -0.02210269 -0.07354835 0.083351664 0.05248056 0.047691077 0.053542957
0.055268273 0.0791569 -0.03197625 0.09750319 0.08980944 0.06288099 -0.03987269 0.030923957
-0.07075428 0.053121768 0.091906734 -0.041447815 -0.023761721 -0.002945818 0.0022402047 0.08965384
-0.009160103 0.08644221 -0.02462013 -0.08486869 0.073686026 0.059563123 -0.04915233 0.022453878
-0.044708487 -0.091460034 0.09717286 0.056215685 -0.09266396 -0.094035864 -0.03152066 -0.010889434
-0.09157189 0.04232472 -0.057200305 -0.012304208 0.024507904 -0.049338177 -0.08762838 -0.00037231238
0.023144847 0.017426388 0.034990165 0.026063355 0.00015208898 -0.08279876 -0.0023647808 0.08233953
0.04932566 0.04754814 -0.07988597 -0.043270145 0.08128808 0.08263385 -0.04624362 -0.066935726
-0.0013403636 0.08125295 -0.058568068 0.06324151 -0.03013461 0.069669574 -0.0795671 -0.085062064
0.010935219 -0.038467772 0.051513243 0.05453693 0.038940873 -0.0043618903 -0.08417304 -0.07083061
-0.0626957 -0.0922125 -0.059261505 -0.0171592 -0.095956646 -0.03114802 0.034502238 -0.039602857
-0.018177854 -0.07904911 0.082109556 0.10393465 -0.08633571 -0.07199344 -0.017651448 0.04355621
0.048086233 0.101617776 0.0061804336 0.0993206 -0.086097084 0.09325304 0.040216047 -0.067786194
0.066071965 -0.03736213 -0.04203914 0.01610342 -0.10008072 0.07331415 -0.08220867 -0.04343992
-0.0887874 -0.0979042 0.055489015 -0.012189651 0.09993814 -0.051980462 0.08637878 0.01370849
0.010613815 -0.08347192 0.07939766 -0.0054041035 -0.01596751 -0.017182361 0.044974525 -0.08808519
0.013228893 0.04469904 0.056450903 -0.018556852 0.0225527 0.03626342 0.053504553 0.074968114
0.04784663 0.01906477 -0.053310286 0.089746684 -0.04194316 -0.06301061 -0.023480067 -0.088091925
-0.080766425 -0.086008295 -0.09993486 0.050840862 0.029635385 -0.018340738 -0.034889005 -0.075304724
-0.095340826 0.071204014 -0.09961836 -0.08129695 -0.02901477 -0.0050986144 -0.09890102 0.08618008
-0.027110092 0.015714925 -0.04733431 0.05294115 -0.0929557 0.099418394 0.016798224 -0.07490622
00000000: 89b0 1bbd 9a1c acbd b6e5 5abd 81ae 37bd
00000010: 6a0d f13b 2cd3 39bd 05fd cebd 11d8 50bd
00000020: 1f21 abbc 0dc2 d03b ea81 bb3d 4986 c5bd
00000030: 8e28 b43d c778 c1bd d245 c73d 9e08 4abb
00000040: ff30 b7bd 51ad a8bd 63de 5c3d 0c0a 843d
00000050: cffa 573d 50db 7bbc 629d 813d c9b3 973d
00000060: 1398 be3d a099 273c 2fc2 eb3b 6fbb 963d
00000070: 2849 ab3d e389 44bd a810 a73d 64fa 843d
00000080: 2fbd 283d 1900 23bd 6112 163d 3879 9cbd
00000090: 6424 783d 816e 76bd 8955 89bc a16f 3f3d
000000a0: ed51 dabc 7d13 b13d 443d 3d3d 8c4c fa3c
000000b0: c878 24bc 485a 9cbd 407d 9d3d 8bc3 a2bd
000000c0: 386f 3f3d eb90 27bd f607 46bb 5eae 78bd
000000d0: a4c9 a33d 1ad7 19bd 3833 a33d aac1 ab3c
000000e0: c8ea 633d 2b2d cc3d d8f0 afbb 14b4 d33d
000000f0: 1ede 3a3d d602 87bc b04f 483c 4633 9bbd
00000100: 9fa1 bebd e075 d83d 4c28 b03d af08 38bd
00000110: 4f43 bc3c 5673 8639 de82 f7bb d186 a6bc
00000120: cca8 acbc cf45 c0bd ba88 9e3d 13b7 3bbd
00000130: 7779 acbd e3f9 acbc 86fd 28bc a3f7 c43d
00000140: 7c17 b0bd df95 353d a895 87bd 22c2 23bd
00000150: bc43 bc3d 4d63 7fbd e5f2 be3d 6774 87bd
00000160: 33fd b5bd 20c5 a13d b310 b5bc 84a0 96bd
00000170: 47b4 aa3d dbf5 563d b857 433d dc4f 5b3d
00000180: fc60 623d 031d a23d 87f9 02bd c1af c73d
00000190: 03ee b73d c0c7 803d 8c51 23bd 3d54 fd3c
000001a0: 9fe7 90bd 3696 593d 9939 bc3d 2fc5 29bd
000001b0: f1a7 c2bc a00e 41bb 66d0 123b 6f9c b73d
000001c0: 4214 16bc 9d08 b13d 28b0 c9bc a3cf adbd
000001d0: b3e8 963d 76f8 733d f453 49bd 32f1 b73c
000001e0: 3f20 37bd 664f bbbd 9002 c73d 6b42 663d
000001f0: 9ac6 bdbd e095 c0bd cf1b 01bd 9969 32bc
00000200: 0b8a bbbd b05c 2d3d de4a 6abd 9797 49bc
00000210: cdc4 c83c d416 4abd 8276 b3bd ec32 c3b9
00000220: 439a bd3c c9c1 8e3c d951 0f3d d182 d53c
00000230: 137a 1f39 6592 a9bd 70fa 1abb a1a1 a83d
00000240: b409 4a3d d7c1 423d 419b a3bd 093c 31bd
00000250: 5d7a a63d f03b a93d f369 3dbd 9915 89bd
00000260: 24af afba f267 a63d 12e5 6fbd c484 813d
00000270: dcdc f6bc ecae 8e3d 13f4 a2bd 0535 aebd
00000280: a229 333c 6290 1dbd 8dff 523d 1e62 5f3d
00000290: 7780 1f3d 30ee 8ebb ea62 acbd a40f 91bd
000002a0: 9a66 80bd e8d9 bcbd 31bc 72bd 7391 8cbc
000002b0: eb84 c4bd 222a ffbc 3852 0d3d 9b36 22bd
000002c0: b9e9 94bc 80e4 a1bd 0e29 a83d b1db d43d
000002d0: c7d0 b0bd 4c71 93bd c599 90bc ff67 323d
000002e0: 12f6 443d fb1c d03d 3c85 ca3b 9968 cb3d
000002f0: ab53 b0bd 73fb be3d 95b9 243d 7dd3 8abd
00000300: bd50 873d 0809 19bd 3c31 2cbd 52eb 833c
00000310: 1ff7 ccbd bb25 963d 055d a8bd 0fee 31bd
00000320: 2bd6 b5bd ff81 c8bd 7348 633d 1ab7 47bc
00000330: 5eac cc3d 77e9 54bd 5ce7 b03d 9399 603c
00000340: 91e5 2d3c 53f3 aabd 3e9b a23d e814 b1bb
00000350: 4cce 82bc 06c2 8cbc 3537 383d 0266 b4bd
00000360: 00be 583c 5716 373d 1039 673d 8a04 98bc
00000370: 71c0 b83c f488 143d 9727 5b3d e288 993d
00000380: d4fa 433d b82d 9c3c e35b 5abd 1ccd b73d
00000390: 97cc 2bbd b50b 81bd 4559 c0bc 8a69 b4bd
000003a0: de68 a5bd 1e25 b0bd a6aa ccbd 823e 503d
000003b0: e8c5 f23c 513f 96bc c6e7 0ebd 5d39 9abd
000003c0: 0d42 c3bd 69d3 913d b604 ccbd 047f a6bd
000003d0: 62b0 edbc 4712 a7bb 9e8c cabd 2f7f b03d
000003e0: fc15 debc 96bc 803c 9fe1 41bd d2d8 583d
000003f0: 8f5f bebd df9b cb3d 6e9c 893c 6f68 99bd

lstm.weight_hh_l0_reverse f4 [400, 100]
-0.0560004 0.060198314 -0.04051603 0.027711026 0.09846593 -0.067124166 0.011891708 -0.07168601
-0.037377954 0.08249349 0.03272874 0.008948326 -0.046816196 -0.067365676 -0.03183029 0.0046360716
0.015603885 -0.05829152 -0.09360122 -0.09207702 0.042325176 0.033231147 -0.051842477 0.039044924
0.09691333 0.008777782 -0.026746437 -0.029646195 0.037509046 0.032655172 -0.07223104 0.09719964
-0.060064223 0.094570644 0.035895012 -0.096992426 -0.069656886 -0.039130747 -0.012335941 0.035839505
-0.018731013 -0.04214238 -0.06205249 0.07490068 -0.008440539 -0.044573154 0.07726575 0.09588327
0.053405292 -0.0663995 -0.044026304 -0.010119855 0.051731504 -0.099535994 -0.046435773 -0.03684616
0.039331444 -0.03635961 0.005030535 0.09543664 0.042472966 -0.019595481 0.09100441 -0.042241585
0.009065166 -0.04845034 -0.09916984 0.065019004 0.073610745 -0.024925388 -0.061935555 0.09631438
-0.044095196 0.014967203 -0.022369802 0.007609844 0.024186954 0.060808785 0.03702391 0.04037089
-0.02584064 -0.06799349 -0.08134191 0.015149713 -0.073564924 -0.089733064 -0.01508601 0.04163789
-0.05653707 0.055635877 -0.07773237 -0.07264684 -0.015175983 -0.040242016 0.05464714 -0.060601152
0.073886506 -0.056970503 -0.05650406 0.067944296 0.08775664 0.0782937 0.04965756 -0.042234052
0.043881603 -0.078015365 0.00028447062 0.025776692 0.034477673 0.0014088526 0.062626444 0.08078199
-0.049212944 0.028462417 -0.00880295 0.021216415 -0.07036139 0.013022676 -0.039421856 0.08410879
0.049924575 -0.061053004 0.09974044 0.00483793 -0.0602875 0.08336233 -0.08265124 0.063108124
-0.07685472 0.034738787 0.0731409 0.05802553 -0.09460831 0.04912778 0.03894145 0.010312274
0.060615502 0.094822146 0.02937036 0.00010557473 0.010892905 0.031748213 0.026648052 0.07966321
-0.09747904 -0.06477824 -0.04924321 -0.027446248 -0.042124607 0.0023517162 -0.08713936 -0.00746876
-0.012222886 -0.03592106 0.06273123 -0.05248977 0.053432055 0.018048622 -0.08573431 0.06351199
-0.08458432 -0.06707093 0.06963659 0.05196201 0.0037233457 0.09900325 0.08703058 0.050940998
0.0007731691 -0.08601651 -0.057901632 -0.020190753 0.0010888949 -0.035795152 0.0047422796 -0.07532407
-0.0025135726 -0.057335675 0.099940576 -0.015800275 -0.01841171 0.08745546 0.06638587 0.005288765
-0.033941366 -0.019391999 0.091218166 0.07838214 0.061613895 -0.007974222 0.06840115 -0.06590028
0.007092081 0.049690954 -0.0015985221 -0.04284197 0.0016194806 -0.051602066 -0.047044326 -0.00927867
-0.079307154 0.042545892 0.087654 -0.047555115 0.09355744 -0.04287622 0.07004852 -0.05070771
-0.0030012876 -0.056018975 0.0069968924 -0.06308849 -0.0025838017 0.018393055 0.031444468 -0.024138868
-0.05310289 0.07587951 -0.06484331 -0.03555526 0.05731576 -0.07218079 0.039689966 0.045680188
-0.0030594096 -0.057113566 -0.0780195 0.049782597 0.06196507 0.025043182 0.033910908 -0.057098974
-0.069759354 -0.0013852492 0.00516136 0.059629045 0.050668277 0.003972158 0.078062125 0.06643506
0.03898906 0.029601179 0.052173905 0.062009446 0.04027348 -0.069441915 -0.07915499 -0.029537514
-0.021690331 0.018067382 -0.037583865 -0.0043937787 -0.052325703 -0.0050920025 -0.08804599 0.042797215
00000000: ad60 65bd 8292 763d 23f4 25bd 3c02 e33c
00000010: 81a8 c93d 6578 89bd 70d5 423c 1dd0 92bd
00000020: a019 19bd 59f2 a83d 920e 063d 009c 123c
00000030: 57c2 3fbd 04f7 89bd 7a60 02bd 30ea 973b
00000040: 70a7 7f3c 17c3 6ebd ffb1 bfbd e092 bcbd
00000050: 2a5d 2d3d 621d 083d c758 54bd 92ed 1f3d
00000060: 7f7a c63d b0d0 0f3c 581b dbbc 94dc f2bc
00000070: 16a3 193d 6ec1 053d deed 93bd 9b10 c73d
00000080: e705 76bd 41ae c13d a606 133d f7a3 c6bd
00000090: 45a8 8ebd 9047 20bd b01c 4abc 72cc 123d
000000a0: c871 99bc 7d9d 2cbd c02a 7ebd 8765 993d
000000b0: 304a 0abc 5792 36bd 813d 9e3d 735e c43d
000000c0: 82bf 5a3d 76fc 87bd ed54 34bd c0cd 25bc
000000d0: 6ae4 533d 87d9 cbbd 7033 3ebd 00ec 16bd
000000e0: 021a 213d d0ed 14bd 30d7 a43b 4974 c33d
000000f0: 22f8 2d3d b486 a0bc 8560 ba3d 8305 2dbd
00000100: 1086 143c dd73 46bd 8f19 cbbd af28 853d
00000110: 3bc1 963d 5430 ccbc 23b0 7dbd 7940 c53d
00000120: 2a9d 34bd 0039 753c e040 b7bc 005c f93b
00000130: b823 c63c a212 793d 62a6 173d f25b 253d
00000140: c0af d3bc 2c40 8bbd 9696 a6bd 8036 783c
00000150: 35a9 96bd f8c5 b7bd 502b 77bc 7e8c 2a3d
00000160: 6a93 67bd 72e2 633d 2632 9fbd dec7 94bd
00000170: b0a4 78bc d0d4 24bd aed5 5f3d ea38 78bd
00000180: cf51 973d e759 69bd cd70 67bd 6126 8b3d
00000190: c1b9 b33d 7358 a03d ba65 4b3d 9dfd 2cbd
000001a0: 32bd 333d 85c6 9fbd 0025 9539 a429 d33c
000001b0: 7638 0d3d 40a9 b83a 4b42 803d 0771 a53d
000001c0: 8393 49bd 042a e93c 403a 10bc 0cce ad3c
000001d0: a219 90bd 105d 553c d078 21bd 3b41 ac3d
000001e0: b67d 4c3d b712 7abd b744 cc3d 8087 9e3b
000001f0: 07f0 76bd dfb9 aa3d 0e45 a9bd d53e 813d
00000200: 0266 9dbd 424a 0e3d e5ca 953d 2eac 6d3d
00000210: 00c2 c1bd 363a 493d 1281 1f3d d0f4 283c
00000220: f647 783d 1d32 c23d 1c9a f03c 0068 dd38
00000230: 2878 323c 6a0a 023d 044d da3c 7726 a33d
00000240: 17a3 c7bd 74aa 84bd 40b3 49bd f4d6 e0bc
00000250: da8a 2cbd 401f 1a3b 1f76 b2bd 80bc f4bb
00000260: 8042 48bc f621 13bd 3b79 803d 83ff 56bd
00000270: 92db 5a3d b4da 933c 7895 afbd 9312 823d
00000280: 8b3a adbd 7c5c 89bd a19d 8e3d 1ed6 543d
00000290: 6003 743b 37c2 ca3d 173d b23d 82a7 503d
000002a0: 80ae 4a3a 6d29 b0bd 432a 6dbd 1467 a5bc
000002b0: 40b9 8e3a f09d 12bd 2065 9b3b 8243 9abd
000002c0: c0ba 24bb d0d8 6abd a5ad cc3d 946f 81bc
000002d0: 28d4 96bc d91b b33d 51f5 873d 604d ad3b
000002e0: 1a06 0bbd f8db 9ebc 97d0 ba3d d186 a03d
000002f0: da5e 7c3d 50a6 02bc e715 8c3d baf6 86bd
00000300: b064 e83b be88 4b3d 8085 d1ba 107b 2fbd
00000310: c044 d43a b05c 53bd 8db1 40bd 9005 18bc
00000320: ca6b a2bd 9a44 2e3d f183 b33d 27c9 42bd
00000330: 0b9b bf3d fa9e 2fbd 9975 8f3d e3b2 4fbd
00000340: 40b1 44bb 2774 65bd 3046 e53b 8a34 81bd
00000350: 0055 29bb 08ad 963c eacb 003d e0be c5bc
00000360: 6a82 59bd b766 9b3d 92cc 84bd 64a2 11bd
00000370: eec3 6a3d 86d3 93bd f291 223d 261b 3b3d
00000380: 6080 48bb eaef 69bd b0c8 9fbd d6e8 4b3d
00000390: 16cf 7d3d 5c27 cd3c 2ae6 0a3d 9de0 69bd
000003a0: fedd 8ebd 4091 b5ba a020 a93b 963d 743d
000003b0: 8a89 4f3d e028 823b 09df 9f3d 1b0f 883d
000003c0: feb2 1f3d 2c7e f23c 4eb4 553d 9efd 7d3d
000003d0: cef5 243d 9037 8ebd 031c a2bd a8f8 f1bc
000003e0: ecaf b1bc 0c02 943c 8af1 19bd b0f9 8fbb
000003f0: 7a53 56bd d0da a6bb 7551 b4bd 224c 2f3d

lstm.bias_ih_l0_reverse f4 [400]
0.014148121 0.079325065 0.064418636 -0.08330313 0.056805894 -0.012587848 0.07196498 -0.042414833
0.05983139 -0.07242839 0.088020906 0.033505633 -0.06767889 0.07123286 -0.001804371 0.048450902
-0.047139134 -0.07476503 0.07024322 -0.02868151 -0.09020036 -0.07943745 -0.018749211 -0.02454122
0.027293375 0.096922934 0.07023026 0.05828569 0.014663841 0.056149073 0.0022246074 0.05297243
0.07457061 0.06290549 -0.07085091 0.0071166316 0.08003337 0.06612295 -0.034140635 0.09360979
0.080826975 0.0923782 -0.026338574 0.014937536 -0.004741335 -0.025324171 0.08490873 -0.03919386
0.09163073 0.048053853 0.063320175 0.053161003 -0.023848625 0.10365989 -0.055352144 0.0114688175
-0.03369973 0.07062788 0.10198401 -0.06734218 0.0206241 0.04992434 -0.018888578 -0.0011731555
0.08584721 -0.01890617 0.021364596 -0.0049496437 0.08889149 0.08476011 0.015220847 0.0065031713
0.07410101 0.05984164 0.04092269 0.06602264 0.09306262 0.078389086 -0.04841583 0.094814554
-0.068010725 0.06646601 0.09171747 0.08233473 -0.07184803 -0.06179864 0.115454786 0.09502402
-0.07850854 0.06826128 0.041346703 0.050526243 0.041964788 -0.018340532 -0.07804434 0.09188387
0.026645308 0.00955481 -0.03382572 0.05077874 -0.032246567 -0.097816445 -0.05027268 -0.069354534
-0.030035675 -0.061698474 -0.047154605 0.0982352 -0.0056494027 0.04652763 0.03766174 0.09009815
-0.076011285 0.010776028 0.043935366 -0.078367196 0.027752139 -0.09703441 0.050073005 -0.03761605
0.074280955 -0.02602005 0.073553495 -0.09404135 -0.005994439 -0.05278125 0.05135546 -0.028913438
-0.044677913 -0.057321217 -0.0038047433 -0.0039206 -0.018863201 -0.031064354 -0.091471456 0.014832899
-0.05097684 0.011243023 0.024945185 0.03084115 0.059570976 0.06016297 -0.06663741 -0.074699916
0.038064085 0.029264696 -0.04672829 0.08108563 0.075158335 -0.06225845 0.07543669 -0.08115631
0.038670696 -0.04131459 0.033252902 0.058706008 -0.026787065 0.03774243 0.030791514 0.033692963
-0.024329878 0.037634738 0.077271305 -0.045827247 0.08303403 -0.08793379 -0.034202613 -0.09372629
0.010286905 0.06961001 0.035241194 -0.027115718 -0.01837138 -0.016744792 -0.0053851157 0.057534046
0.015852585 0.09618873 0.044849806 0.0736338 0.034121938 -0.03225342 -0.0034541339 -0.04784857
0.08443131 0.085465185 -0.09333253 -0.08596907 -0.085275315 0.0027102605 0.00038455427 -0.06389178
0.04640477 0.09938521 -0.056960355 0.07786573 -0.07236408 0.08933353 0.049450524 0.04014761
0.01773351 -0.017479997 0.10805322 -0.15413241 0.07215372 -0.03651147 -0.11548291 -0.074066356
-0.048520245 -0.055735048 0.011615987 0.043443814 -0.045283232 -0.098559365 0.02732542 -0.04465645
0.06360063 -0.09431122 0.04110576 0.060074165 -0.037027963 -0.06757442 -0.08206044 0.048667096
-0.055550944 0.11288763 -0.08460879 -0.010759345 -0.13057438 -0.031746108 0.055992976 -0.054490283
-0.10033658 0.04491757 0.018555744 -0.10090902 0.043499943 -0.054113593 -0.07006244 0.060381774
-0.12159211 0.08799002 0.024918275 -0.023954483 -0.112981476 -0.086012 0.029208098 -0.14491175
0.0007044987 -0.10201134 0.028050525 0.008005232 0.053213716 0.0741937 -0.08691126 -0.0631013
00000000: 85cd 673c 2e75 a23d ebed 833d d59a aabd
00000010: 4cad 683d 433d 4ebc 6062 933d 2dbb 2dbd
00000020: c211 753d 5655 94bd 4e44 b43d 343d 093d
00000030: 3b9b 8abd 89e2 913d a580 ecba 7474 463d
00000040: f714 41bd 681e 99bd addb 8f3d 7cf5 eabc
00000050: f7ba b8bd 1ab0 a2bd f297 99bc ab0a c9bc
00000060: 5b96 df3c 887f c63d e2d4 8f3d fabc 6e3d
00000070: 9b40 703c 92fc 653d b8ca 113b 9ef9 583d
00000080: 7ab8 983d 98d4 803d 481a 91bd a232 e93b
00000090: 89e8 a33d 786b 873d 0dd7 0bbd 7db6 bf3d
000000a0: 9d88 a53d c830 bd3d fec3 d7bc 91bc 743c
000000b0: 335d 9bbb a374 cfbc a1e4 ad3d be89 20bd
000000c0: e4a8 bb3d 1ed4 443d 02ae 813d 5abf 593d
000000d0: 315e c3bc a34b d43d eeb8 62bd b5e7 3b3c
000000e0: ba08 0abd 5aa5 903d fedc d03d b2ea 89bd
000000f0: dff3 a83c 777d 4c3d 38bc 9abc 91c4 99ba
00000100: a9d0 af3d 1de1 9abc ce04 af3c 9f30 a2bb
00000110: be0c b63d b596 ad3d dc60 793c 8e18 d53b
00000120: 45c2 973d 821c 753d 8d9e 273d e136 873d
00000130: 9d97 be3d 758a a03d ad4f 46bd 222e c23d
00000140: 3549 8bbd 551f 883d 5ed6 bb3d 1c9f a83d
00000150: 0f25 93bd 9220 7dbd 8f73 ec3d f49b c23d
00000160: 16c9 a0bd 92cc 8b3d 295b 293d 9bf4 4e3d
00000170: 45e3 2b3d e23e 96bc b6d5 9fbd 9c2d bc3d
00000180: 4347 da3c c78b 1c3c d78c 0abd 5efd 4f3d
00000190: fa14 04bd fd53 c8bd baea 4dbd c009 8ebd
000001a0: 600d f6bc 8ab7 7cbd 3025 41bd 892f c93d
000001b0: a01e b9bb c293 3e3d 3243 1a3d 6185 b83d
000001c0: ceab 9bbd f08d 303c 92f5 333d fb7e a0bd
000001d0: 7458 e33c fab9 c6bd 5a19 4d3d 4a13 1abd
000001e0: 9d20 983d 0028 d5bc 37a3 963d c098 c0bd
000001f0: 006d c4bb 2731 58bd 1a5a 523d e0db ecbc
00000200: 3000 37bd a7c9 6abd 0059 79bb 6078 80bb
00000210: 0087 9abc ac7a febc 6355 bbbd b005 733c
00000220: 17cd 50bd a834 383c d859 cc3c 94a6 fc3c
00000230: b200 743d 726d 763d 3279 88bd 45fc 98bd
00000240: 16e9 1b3d 84bc ef3c 2a66 3fbd 3910 a63d
00000250: 9dec 993d b702 7fbd 8d7e 9a3d 4835 a6bd
00000260: 2a65 1e3d 7d39 29bd 3234 083d b675 703d
00000270: 8c70 dbbc ce97 1a3d 7c3e fc3c a201 0a3d
00000280: 744f c7bc e226 1a3d 6b40 9e3d 5ab5 3bbd
00000290: bf0d aa3d a216 b4bd 0a18 0cbd 92f3 bfbd
000002a0: 688a 283c b18f 8e3d 1259 103d c821 debc
000002b0: 947f 96bc 602c 89bc a075 b0bb d2a8 6b3d
000002c0: 48dd 813c 99fe c43d 6eb4 373d 51cd 963d
000002d0: 72c3 0b3d 2a1c 04bd c05e 62bb ddfc 43bd
000002e0: 53ea ac3d 5f08 af3d 2025 bfbd 8d10 b0bd
000002f0: d3a4 aebd a09e 313b 009e c939 b2d9 82bd
00000300: ee12 3e3d 798a cb3d 434f 69bd 1178 9f3d
00000310: 9e33 94bd 7ff4 b63d a28c 4a3d d271 243d
00000320: de45 913c 3632 8fbc 024b dd3d e3d4 1dbe
00000330: 54c5 933d 0d8d 15bd 4e82 ecbd 1ab0 97bd
00000340: 2abd 46bd 6f4a 64bd fb50 3e3c 24f2 313d
00000350: e97a 39bd 7ed9 c9bd 8fd9 df3c afe9 36bd
00000360: 0c41 823d 3e26 c1bd 835e 283d 5410 763d
00000370: a2aa 17bd 7564 8abd 4e0f a8bd 2657 473d
00000380: 6389 63bd a131 e73d 6047 adbd f747 30bc
00000390: 4ab5 05be 3508 02bd e458 653d 3431 5fbd
000003a0: 447d cdbd 7cfb 373d 3702 983c 63a9 cebd
000003b0: ff2c 323d 37a6 5dbd e67c 8fbd e152 773d
000003c0: 4905 f9bd 1d34 b43d 6921 cc3c 313c c4bc
000003d0: d562 e7bd 0f27 b0bd d245 ef3c bf63 14be
000003e0: 1cae 383a 52eb d0bd 37ca e53c 6028 033c
000003f0: a0f6 593d def2 973d 88fe b1bd 413b 81bd

lstm.bias_hh_l0_reverse f4 [400]
0.07411122 -0.048586413 0.09082981 0.058835775 -0.08350767 0.062001206 -0.06358957 0.07491777
0.09915759 0.079785794 0.029908098 -0.004174646 0.005098234 -0.0060657016 -0.09004372 -0.042347983
0.009519239 0.08115351 0.004872292 0.022960052 0.08325202 0.02157837 -0.07003213 0.023441235
-0.059857924 -0.042341918 -0.062920384 -0.07161089 0.08242716 -0.0705391 -0.08666204 -0.059546925
0.099551395 0.039364792 -0.06945969 0.09780949 -0.06584119 -0.09436782 0.036501486 -0.034620475
-0.03985979 -0.08507079 0.08217668 0.06465435 0.09422781 0.04342883 0.0077088173 -0.0381981
-0.042372104 -0.00073893653 0.062128644 -0.037472576 -0.042678457 0.057225563 -0.024965521 -0.08000425
0.09992913 0.024697807 0.037445717 -0.047561117 -0.05147484 0.049628 0.06534066 0.012738494
0.04031684 0.084532104 0.1010383 -0.02023249 0.04891545 -0.04946117 -0.066070825 -0.02548072
0.0319628 -0.05422885 -0.019780153 -0.06625532 -0.09561559 0.08546164 0.08481061 -0.06375174
0.05432124 0.011220926 0.0066233655 -0.019313514 -0.060259264 0.0724575 0.09873285 -0.029983751
0.053323466 -0.04725368 0.02227001 0.07350028 0.01987034 -0.07950375 0.04879278 0.04955132
-0.012649817 0.058868967 -0.032154318 0.05772773 -0.032595076 0.06491197 -0.0372473 -4.966557e-05
-0.0011559874 0.08706517 -0.09732268 -0.08208901 0.0677404 0.090761624 0.02871371 0.024449006
0.024141036 0.0519016 0.09384508 0.0790673 0.093051754 -0.028790161 -0.023608483 -0.0053995624
0.08273489 0.026028283 0.04122015 0.0013720021 -0.09563412 -0.07979913 -0.03437917 0.013847791
-0.0726826 -0.01330179 -0.053142525 0.06821225 -0.02330456 0.07373395 0.0010951161 -0.049892236
0.040420942 -0.06830386 -0.08252899 0.034348525 0.061113454 -0.06832364 0.025640659 -0.06567679
-0.050703146 -0.037063286 0.022538997 -0.047371615 0.039392523 0.09433209 0.092788495 -0.051392924
0.060573168 -0.05365796 -0.040259924 -0.056397807 -0.08416829 0.0031505674 -0.0091301575 -0.08523079
0.046680264 -0.009986535 0.0047273487 -0.038469005 -0.05296539 -0.017609596 -0.02662661 0.09395512
-0.084359266 0.080297865 0.01180806 0.004046738 -0.055754807 0.050506286 -0.07326474 -0.057581555
-0.032187477 0.082673736 -0.028620794 -0.050805617 0.09799958 -0.06958325 -0.035288133 -0.028104924
0.017217182 -0.08873389 -0.0457263 0.08620966 0.07027113 0.04525847 -0.08996749 -0.069843434
0.045715325 -0.048195627 -0.09721483 0.017132722 -0.067565836 -0.02175586 -0.08786593 0.03015823
0.0075021936 0.08768696 -0.023587152 -0.17108731 0.054218143 -0.0683267 -0.13453361 -0.07174708
-0.015214238 0.053545658 0.010206352 0.022873398 -0.08220143 0.02494594 -0.016307464 -0.080803685
-0.013480054 -0.07312022 -0.09519624 -0.051510736 0.00016906613 0.017460067 -0.14149755 0.043830305
-0.07587069 -0.0069868923 0.088615716 -0.013764423 -0.13225713 -0.113963306 0.043034114 -0.09979276
-0.11074512 0.03608291 0.06347069 -0.07196955 -0.065868884 0.026327455 -0.009610529 0.066734806
-0.15259068 -0.0535337 0.041545276 -0.00646685 -0.105379574 0.07969152 0.017599192 -0.06819639
0.041257452 0.08594808 -0.012373101 -0.072301194 0.044609845 0.15573952 -0.075334236 0.044993103
00000000: a0c7 973d 8c02 47bd fb04 ba3d c8fd 703d
00000010: 1206 abbd faf4 7d3d 403b 82bd 7d6e 993d
00000020: 2213 cb3d bc66 a33d d401 f53c 78cb 88bb
00000030: 160f a73b cbc2 c6bb d868 b8bd 1475 2dbd
00000040: 95f6 1b3c d033 a63d bfa7 9f3b b816 bc3c
00000050: 0980 aa3d 1fc5 b03c 016d 8fbd d507 c03c
00000060: 952d 75bd b86e 2dbd 67dc 80bd bba8 92bd
00000070: 92cf a83d ce76 90bd de7b b1bd 7ae7 73bd
00000080: 9ae1 cb3d fa3c 213d e240 8ebd 5850 c83d
00000090: bfd7 86bd ea43 c1bd 9582 153d 33ce 0dbd
000000a0: 0544 23bd 9839 aebd 3f4c a83d 8069 843d
000000b0: 83fa c03d 6ee2 313d 3f9a fc3b 9c75 1cbd
000000c0: 5f8e 2dbd 31b5 41ba 9b7a 7e3d d87c 19bd
000000d0: 9bcf 2ebd 5a65 6a3d 7e84 ccbc 45d9 a3bd
000000e0: a5a7 cc3d 0e53 ca3c ae60 193d 72cf 42bd
000000f0: 48d7 52bd bb46 4b3d 53d1 853d 1eb5 503c
00000100: 4523 253d 2b1f ad3d 2bed ce3d 9bbe a5bc
00000110: 915b 483d cc97 4abd 2450 87bd f1bc d0bc
00000120: 6deb 023d 121f 5ebd fd09 a2bc dfb0 87bd
00000130: 1bd2 c3bd 8306 af3d 2fb1 ad3d 4690 82bd
00000140: f37f 5e3d fad7 373c d108 d93b 6037 9ebc
00000150: 6bd2 76bd 9964 943d 7334 ca3d 7ca0 f5bc
00000160: b569 5a3d 138d 41bd 996f b63c 5187 963d
00000170: 20c7 a23c ddd2 a2bd f0da 473d 53f6 4a3d
00000180: 2e41 4fbc 9620 713d 3fb4 03bd ea73 6c3d
00000190: 6a82 05bd 91f0 843d a090 18bd 0050 50b8
000001a0: 8084 97ba 394f b23d 1d51 c7bd 481e a8bd
000001b0: 7bbb 8a3d 3be1 b93d 0439 eb3c 4849 c83c
000001c0: 6cc3 c53c c696 543d d931 c03d 09ee a13d
000001d0: eb91 be3d 58d9 ebbc 9466 c1bc d0ee b0bb
000001e0: e970 a93d 4439 d53c 76d6 283d c0d4 b33a
000001f0: d2db c3bd ba6d a3bd 2cd1 0cbd d8e1 623c
00000200: 9dda 94bd c0ef 59bc faab 59bd ddb2 8b3d
00000210: 34e9 bebc d301 973d 008a 8f3a cd5b 4cbd
00000220: 6e90 253d e5e2 8bbd f604 a9bd 0ab1 0c3d
00000230: 1a52 7a3d 44ed 8bbd 5c0c d23c 8e81 86bd
00000240: 1aae 4fbd accf 17bd b4a3 b83c bd08 42bd
00000250: 0e5a 213d 2f31 c13d e507 be3d 6381 52bd
00000260: 921b 783d 73c8 5bbd 97e7 24bd 6301 67bd
00000270: 6d60 acbd c079 4e3b a896 15bc 7b8d aebd
00000280: ce33 3f3d 909e 23bc e0e7 9a3b ad91 1dbd
00000290: 3df2 58bd 0042 90bc 0c20 dabc 8b6b c03d
000002a0: 8dc4 acbd 3573 a43d 9876 413c 809a 843b
000002b0: 275f 64bd aedf 4e3d d30b 96bd a3da 6bbd
000002c0: 04d7 03bd d950 a93d 2876 eabc 8d19 50bd
000002d0: 01b4 c83d aa81 8ebd 4a8a 10bd 4c3c e6bc
000002e0: 0c0b 8d3c 1dba b5bd 804b 3bbd b18e b03d
000002f0: 4fea 8f3d f260 393d e040 b8bd 130a 8fbd
00000300: fe3f 3b3d c768 45bd 9218 c7bd ec59 8c3c
00000310: f55f 8abd 5839 b2bc 0df3 b3bd 640e f73c
00000320: f6d4 f53b 3995 b33d d839 c1bc 8331 2fbe
00000330: d813 5e3d deee 8bbd 2ec3 09be 22f0 92bd
00000340: 2445 79bc b152 5b3d 8b38 273c fe60 bb3c
00000350: 3959 a8bd 6e5b cc3c 3b97 85bc 677c a5bd
00000360: 72db 5cbc 0ec0 95bd 3ff6 c2bd ecfc 52bd
00000370: 5847 3139 6a08 8f3c bce4 10be 6887 333d
00000380: 1862 9bbd 4df2 e4bb 287c b53d 2d84 61bc
00000390: 6a6e 07be 9865 e9bd 8a44 303d 2660 ccbd
000003a0: 56ce e2bd accb 133d ecfc 813d c564 93bd
000003b0: 44e6 86bd adac d73c 7b75 1dbc 42ac 883d
000003c0: bb40 1cbe 2746 5bbd 612b 2a3d dfe7 d3bb
000003d0: 3fd1 d7bd 4f35 a33d 2e2c 903c 8daa 8bbd
000003e0: 93fd 283d 8c05 b03d 8cb8 4abc a612 94bd
000003f0: d0b8 363d 2e7a 1f3e d648 9abd b04a 383d
