results/torch_mlp_model.pt (torch, 29959 bytes, 2 tensors)

output_layer.weight f4 [9, 784]
000000 ba 2f 36 3e 43 b5 34 3e ef 41 5b 3d 22 8d 64 3d
       0.17791644 0.17647271 0.053529676 0.055798657
000010 50 76 44 3d 7b 83 57 3e ed 45 e4 3c 96 97 75 3d
       0.047964394 0.2104625 0.027865374 0.059959017
000020 72 8e c4 3d 5a fc 37 bd b7 df 68 3e 78 e9 f5 3d
       0.09597482 -0.044918396 0.2274159 0.12007421
000030 18 15 00 3e e8 b1 8d 3d ce dd 71 3c 0c 0f cb ba
       0.12508047 0.069186985 0.014762355 -0.0015492155
000040 e4 19 72 3e 84 ff 6d 3d f6 eb 99 3d e4 88 77 bd
       0.23642689 0.058105007 0.07515709 -0.060433283
000050 03 4a c1 bc 5c 4c 39 3e 8e ba 54 3c 2c c2 1d 3e
       -0.023594862 0.18095535 0.012983931 0.15406102
000060 c8 e3 b4 3d cc 3b a5 3c 4e 4c 31 3e 6c 01 68 3e
       0.08832508 0.020170115 0.17314264 0.22656792
000070 0f 95 f2 3d f5 96 84 3d 17 c3 c7 bd db 9b 9a 3a
       0.11844837 0.06474105 -0.09754007 0.0011795716
000080 cc f4 af ba 67 b4 1f 3c d6 05 ff bd bd 4b 2e bd
       -0.0013424396 0.009747601 -0.12452285 -0.0425527
000090 05 e5 f0 3b 54 eb 68 bd 25 d8 ae 3d d2 41 72 be
       0.00735152 -0.05686505 0.0853732 -0.23657921
0000a0 b3 c7 94 bd db ec 5d bc c9 f9 3b 3d b8 46 31 3c
       -0.07264652 -0.01354524 0.04589251 0.010820083
0000b0 71 32 a2 3c 5b d2 58 bd 84 6c 0a be ec db 47 3d
       0.019799443 -0.052934986 -0.13517958 0.04879372
0000c0 ea bd 64 bd 9c c4 cd bc ee cf 94 bd d9 e9 ab 3d
       -0.05584518 -0.025118165 -0.07266222 0.08394212
0000d0 24 49 15 3b bb 4b 40 be 21 34 fd bd ec 88 24 3e
       0.002277919 -0.18778889 -0.123634584 0.16067857
0000e0 9f f8 4e 3e 22 29 22 3c 18 59 c4 3d d2 26 a2 bd
       0.20212029 0.009897502 0.09587306 -0.07917561
0000f0 16 99 e8 3c fc 85 0f be f6 1e 92 3c 2a 73 99 bd
       0.02839331 -0.14015955 0.017837029 -0.07492669
000100 7a ff 9c 3d 75 34 7d 3c cd 5a 90 3d 48 3b 92 bd
       0.07665916 0.015454401 0.07048569 -0.07140213
000110 a1 09 b3 3d 44 40 b8 3d cf 70 82 3c 32 21 b3 bd
       0.08742071 0.08996633 0.015922932 -0.08746566
000120 d9 d9 0e 3d 93 ec 02 3e 5f 6f 65 bb 54 9a 9b 3b
       0.034875724 0.12785558 -0.003500901 0.004748622
000130 d2 e5 d2 3d 5c f7 02 3e 08 81 c9 3d 02 a0 af bd
       0.10297741 0.12789673 0.09839064 -0.08575441
000140 ae 9b d4 3c 91 6d 2e 3e 63 30 b1 bb b7 91 80 3e
       0.02595314 0.17033984 -0.0054073795 0.25111172
000150 49 e3 24 3e 27 d6 93 3d 4b e8 0e 3d b4 03 20 bd
       0.16102327 0.07218581 0.0348895 -0.03906603
000160 9a 76 17 3e eb ed 93 3d 84 e0 bc 3d b6 d9 fa bc
       0.14791337 0.072231136 0.092225105 -0.03062139
000170 9c dd d6 bd c2 90 1b be f3 f0 d8 3d ed 23 20 3c
       -0.104914874 -0.1519194 0.105928324 0.00977419
000180 61 e7 de 3d 87 8a d4 bd 1a 3e 78 bd 70 65 18 3e
       0.10883976 -0.103779845 -0.0606061 0.14882445
000190 7f fb 3e bd f7 27 7d bb 98 fe c3 bd 4a a6 21 bc
       -0.046626564 -0.0038628557 -0.09570044 -0.009866307
0001a0 60 91 9a 3c 9e 8e ab 3d 34 59 1d 3c fa 4c 9f bd
       0.018868148 0.083768114 0.009603787 -0.07778354
0001b0 48 9c 19 bc b7 5c aa 3d 6f 80 82 bc fd 1d 9d bd
       -0.009375639 0.08318465 -0.015930383 -0.076717354
0001c0 dc c3 03 3d 1e 83 0b be 47 65 4a 3d 9c 92 ec bd
       0.032169208 -0.13624236 0.04941299 -0.11551401
0001d0 90 af 2f 3d 8a a1 34 3d a1 90 b3 bd 14 f3 ad 3c
       0.04289204 0.04409937 -0.0876782 0.021234073
0001e0 ba 7e b3 3d 5b 1a 94 3d 7b fa 5f bd a8 e1 a1 bc
       0.087644055 0.072315894 -0.054682236 -0.019760922
0001f0 8e 38 79 bd a5 2c 2d 3d 81 d5 cb 3d 78 ac 39 bc
       -0.06084495 0.042278904 0.09952832 -0.011332624
000200 63 a1 3a bc 70 71 cd bd a5 b4 47 3d 03 4b cd 3c
       -0.011391017 -0.10031402 0.04875626 0.025060182
000210 60 61 8e bd 03 ca f2 bd 7d ca 69 3d 14 90 a3 3b
       -0.069521666 -0.11854937 0.057077873 0.0049915407
000220 d1 ed c6 3c 87 40 ae bc 8a 15 4f 3d cc 6b 47 3d
       0.024283322 -0.021271003 0.05055765 0.048686787
000230 ca d8 31 3e 51 63 0b be 1c 1b cb 3d da 6a 31 3c
       0.17367855 -0.13612105 0.0991728 0.010828698
000240 25 3c 80 be 47 b8 07 3d a0 0d a7 3d 95 de f8 bd
       -0.25045887 0.033134725 0.08156896 -0.12151829
000250 65 c7 f4 3d 95 b5 82 3d 63 22 58 bd 12 d3 b6 3c
       0.11952094 0.0638229 -0.05276717 0.022317443
000260 8e c0 07 bd 20 27 73 bd 23 56 bb bd b8 f8 85 bd
       -0.03314262 -0.059363484 -0.09147289 -0.0654158
000270 66 67 8b 3d b5 68 49 be 90 95 b3 bd ee ba 2a 3e
       0.06806831 -0.19668849 -0.08768761 0.1667287
000280 ea f0 9e bd 13 11 9e bd 46 51 cf 3d 7a 2d 1b 3d
       -0.077607945 -0.077181004 0.101229236 0.037885167
000290 4c a6 9c 3d da 10 56 bd 95 a3 96 3d 6f d7 36 bd
       0.07648906 -0.052262165 0.073554195 -0.044639047
0002a0 c7 61 4a 3c 33 39 79 3d 7a d6 19 3e 9c f8 c5 3d
       0.0123524135 0.060845565 0.15023223 0.09666559
0002b0 c7 92 35 3d 26 6a 97 bd d4 7d 94 3d db 75 33 be
       0.04432943 -0.07393293 0.07250562 -0.17525427
0002c0 1e 80 01 be 84 86 bd bd 41 61 6f 3d 60 51 ff bd
       -0.12646529 -0.092541724 0.058442358 -0.12466693
0002d0 76 15 6d bd 3c 61 49 3c ec bd 2c 3c 7b eb 57 3e
       -0.057881795 0.012291249 0.010543328 0.21085922
0002e0 e6 73 1a bd 1d bb 20 3e ae 9a ed 3d 5d 22 16 be
       -0.037708186 0.15696378 0.116017684 -0.14661546
0002f0 03 d5 c4 3c 96 59 21 3e 00 91 70 bd 4a 04 58 bd
       0.024027353 0.1575683 -0.058732033 -0.052738465
000300 81 9d 7b 3d 43 f0 9f 3c 2d c9 17 be b2 59 15 3e
       0.061429504 0.019523745 -0.14822836 0.14584997
000310 5a 98 d0 bd f7 1d bd bb 0d 93 d7 3d 92 cd 9e bd
       -0.10185309 -0.0057713944 0.105260946 -0.07754053
000320 5c 4c 92 3d 8c 51 d3 3d a0 76 0e 3d 49 a1 6d bd
       0.07143471 0.10318288 0.0347811 -0.05801514
000330 d4 ec 86 3b 21 89 40 ba 5d 1c 19 3d 05 95 8c bd
       0.0041175876 -0.00073446525 0.037380565 -0.06864361
000340 65 7a de 3d 14 2e 29 bb ce 47 a7 bd 80 aa 26 3d
       0.10863189 -0.0025814818 -0.081679925 0.040689945
000350 04 fc 7f bd 22 35 20 be a9 82 8a bd b3 e1 fe bc
       -0.0624962 -0.15645269 -0.06763203 -0.031113481
000360 42 31 b7 bc 87 21 2b 3d b2 c6 ed bd c6 5d 86 3c
       -0.022362355 0.04178002 -0.11610164 0.016402137
000370 7c 19 3f ba 1b 2c 82 3d 8b 30 55 bc 89 6b 9c 3e
       -0.0007289869 0.06356069 -0.013012062 0.30550793
000380 de ce 62 bd 47 24 24 3e f0 a3 24 3d cd 8a 60 bd
       -0.055373065 0.16029464 0.040195405 -0.05481987
000390 f9 48 87 3c 3f c6 3e 3a 17 61 f7 bc 12 0b 04 be
       0.016514288 0.0007277466 -0.030197663 -0.12894848
0003a0 9a 35 46 3b 25 53 43 3d 19 55 bd bd 82 8b 4b be
       0.0030244351 0.047686715 -0.09244747 -0.19877437
0003b0 09 38 c5 bd c2 8d 59 bd 0d 6d 20 3d f0 bd db bd
       -0.096298285 -0.053113706 0.0391665 -0.10729587
0003c0 1d 5d 90 bd a9 ed 36 be 17 cd 45 bd 6f 2b 45 3d
       -0.0704901 -0.17864098 -0.048291292 0.048137125
0003d0 5c 57 87 3d 38 25 a4 bd d7 97 4b 3e e2 db db 3d
       0.06608459 -0.080149114 0.19882141 0.10735299
0003e0 a2 d9 02 3c 1a 8e 0b bd 2d fd 95 bd f3 ff 96 3d
       0.007986458 -0.034071065 -0.0732368 0.07373037
0003f0 1d 73 31 3d a5 c0 0d be c6 dd 11 bd 53 6f f1 bd
       0.04332267 -0.1384302 -0.03561189 -0.117888115

output_layer.bias f4 [9]
000000 0d 0c 27 c0 93 9a 81 3f 67 06 a0 40 a6 b7 ab 40
       -2.6101105 1.0125297 5.0007815 5.366168
000010 63 38 07 40 cf 91 86 40 6d 33 88 40 fb 7c 75 40
       2.1128166 4.205299 4.2562776 3.8357532
000020 48 e8 b6 40
       5.7158546
