results/torch_1L_bi_lstm_model.pt (torch, 427323 bytes, 10 tensors)

lstm.weight_ih_l0 f4 [400, 28]
00000000: 996d c1bc 2bf9 aebd c13d a33d 20c4 a83c
00000010: 34ab b1bd f0af aa3d 6653 a33a d15d a8bd
00000020: 80bc 8f3d 2ae2 0b3c c750 8a3d 44d2 553d
00000030: 53d4 06bd 65fa 6ebd ebac c5bd 426d c6bd
00000040: a262 58bd a5a7 863c 0315 213d 9b77 c4bc
00000050: 8626 d5bc 01d8 a7bd 5db8 873d 2f8b 8e3d
00000060: 4892 f3bb ef19 e53b 1024 51bd 02e8 a53d
00000070: 7cff 5fbd 1b69 4e3d 3f46 073c 7a54 b5bd
00000080: 8724 21bd 8de7 73bd d39a aa3b 1937 bcbd
00000090: afa4 96bd 75bd 47bd 608a 953c e417 edbd
000000a0: 8d26 d43c 4807 b7bd 312a c73c f86d 193d
000000b0: 4ee0 70ba 322b 98bc e53a 4dbc 45c9 1d3c
000000c0: 89f4 7cbd 5d7b 9cba 0be7 93bd eff3 633d
000000d0: 252e 4bbd 299e 9d3d 47e2 f13d c4a6 a6bd
000000e0: 910c c3bd 9511 ecbd 317a acbd 79c5 b9bd
000000f0: 7606 f7bc 0b7c f7bd e639 afbd 08d7 953c
00000100: da13 0abd c78a 163d 5ee5 543d 950e a3bd
00000110: 6536 573d d712 553c 49bc 35bd d4fc 46bd
00000120: b78e f7bd 5c9b ad3b 89f5 afbd 7d56 bdbb
00000130: 7019 cebc 0193 48bd 9f14 0bbd 08ba f33b
00000140: c8c4 4e3d 88b1 543d 8e39 773c 8ed7 c8bd
00000150: 3012 be3d 8c3d 2f3e 091e 153e 359a cb3d
00000160: a421 b33d c4ac f33d b451 043e 48e6 263c
00000170: ce74 093e 5f03 fc3d f245 763d f998 453e
00000180: 369d 653e 795d 0a3e 4358 2c3e 1661 0e3e
00000190: fffd d53d 150b 2b3e 3bd3 143e d239 debc
000001a0: d77c 093b 6b87 b9bb f960 d2bd e1da 62bd
000001b0: 710c 973c ad58 783d 39e5 583c 848d df3d
000001c0: 7625 22bd cd6e 81bd 9c4e c43c a426 253d
000001d0: 1947 a7bd 067e ffbd e155 0ebe 78c5 2e3d
000001e0: 2b32 b8bd e952 ea3b 5b43 383c adb2 aebd
000001f0: 2fff 85bd ef9f b2bd 4890 bebd e2a9 a0bd
00000200: bc0d 66bc 3e0f cbbd d700 4bbd 0623 543c
00000210: 6133 d3bd 46fc edbc 48f6 70bc 77f5 543d
00000220: e5b2 40bd 44a2 adbc d34f 8bbd d98d 2abc
00000230: 2667 4abc 02ec ef3c 61a9 ba3b d6a8 763d
00000240: 1ed1 15bd acf8 b83c e5dd 763d f2e7 b0bb
00000250: b66b 6e3c b544 56bd 0a3f 1dbd 92cd 783d
00000260: 442c 973d 2e7a 093e f7db 903d 8d4e a43c
00000270: b345 a5bc fe68 d4bc f4ca 83bd a85a 78bd
00000280: 9ba1 a23d 79f3 b5bd 4621 df3d 4fe0 03bc
00000290: faed ea3d 8738 bd3d 3720 273d 400f 5bbd
000002a0: d366 e9bb f2df 073c 45ff 83bd fcb9 65bd
000002b0: 1774 743d a73c b1bb 8cc0 913c 962b 8fbb
000002c0: 0abd 18bd 9378 7c3d 8cc8 a43d a1f2 bdbb
000002d0: a588 6a3d 4569 e0bc 08f1 31bd b55e 9cbd
000002e0: ebe8 9ebc 4f8e 65bd 1669 f73c 395b 03bd
000002f0: f0bb c7bd 7496 083d b02e 82bd 2732 e43c
00000300: 8ba4 5ebd 4779 9abd 83ab 8f3d f9d0 c83d
00000310: e0ad 43bd 6cdb 82bd 4c40 113d 1c5f cebc
00000320: 9b48 a8bd d8a2 873d fa1d 3d3d ba20 98bb
00000330: 9c5d b13d 32d2 87bd b385 8dbd d9ae 42bd
00000340: 4e99 f0bd f2d6 adbd 5911 573c f3f1 86ba
00000350: 20ec 773d 6628 84bd 0c20 37bc 28a5 d53c
00000360: 09ea a6bd 0090 8a3d e9aa 9ebd 8671 b53d
00000370: 0077 413d 1d99 a33d 4b1a 5f3d 841e 433d
00000380: ae7d 8b3d 36d7 ea3d e4d7 c23c ee1c 813d
00000390: e34f 813d de17 d03d be22 c53d e2a4 2a3d
000003a0: 4887 d53c 21d9 693c a497 263e 089f 0c3d
000003b0: ede0 2d3e 375d 063e 5be5 f13d 285b 583d
000003c0: 5317 dc3d af66 c7bc d0cf cbbd 1824 c1bd
000003d0: 7508 12bc ca79 abbb 8b12 d63c fe9f 603e
000003e0: 4d8f 723e a421 b83e a77f 6f3e 6eef 763e
000003f0: fa8c 10be a7dc f13c c09d 39be 1aba 143d
-0.02361183 -0.08543619 0.07970763 0.020601332 -0.086752325 0.08334339 0.0012460768 -0.08221019
0.070183754 0.008537808 0.06753688 0.052202478 -0.032917332 -0.058344264 -0.09652122 -0.09688808
-0.05282844 0.016437361 0.03932668 -0.023982814 -0.026019346 -0.08195496 0.066269614 0.06960141
-0.0074332096 0.006991617 -0.051059783 0.081008926 -0.05468701 0.050393205 0.008256494 -0.08854003
-0.039341476 -0.059546996 0.0052064448 -0.091901965 -0.0735563 -0.048764665 0.018254459 -0.115768224
0.025897289 -0.08936936 0.02431211 0.03745839 -0.00091886974 -0.018575285 -0.012526249 0.009630506
-0.061756644 -0.0011938621 -0.07221802 0.055652555 -0.049604554 0.07696182 0.11810737 -0.08137277
-0.09523881 -0.11526791 -0.08421744 -0.09070868 -0.030154448 -0.12084206 -0.08555965 0.018291011
-0.03371034 0.036753442 0.051976554 -0.07961766 0.05254211 0.01300498 -0.044369016 -0.04858096
-0.120877676 0.0052980613 -0.08591754 -0.0057781325 -0.025158614 -0.04896832 -0.033955213 0.007437948
0.050480634 0.05192712 0.015089406 -0.09806739 0.09280813 0.17113322 0.14562239 0.09941522
0.08746651 0.11898187 0.12921792 0.010186739 0.13423464 0.123053305 0.0601253 0.19296636
0.22423252 0.1351222 0.16830544 0.13904223 0.104488365 0.16703446 0.14533703 -0.02712718
0.0020978951 -0.005661895 -0.10272402 -0.05538452 0.01843855 0.060631443 0.013238245 0.10915664
-0.039586507 -0.06319962 0.023963265 0.040320054 -0.08167858 -0.12475209 -0.13899948 0.04266879
-0.08993944 0.007150997 0.011246528 -0.085301735 -0.06542813 -0.08721911 -0.09304863 -0.078449026
-0.0140413605 -0.099150166 -0.049561348 0.012947803 -0.10312534 -0.029050957 -0.0147071555 0.051991906
-0.047045607 -0.021195538 -0.06802335 -0.010409796 -0.012353694 0.029287342 0.005696461 0.06021961
-0.036576383 0.022579513 0.06027021 -0.005398744 0.0145520475 -0.052311618 -0.038390197 0.060742922
0.0738149 0.13425514 0.07073205 0.020056987 -0.020174837 -0.02592897 -0.064351946 -0.06063333
0.0794098 -0.08884329 0.10895018 -0.008049085 0.11471172 0.09239297 0.040802207 -0.05348134
-0.0071228533 0.008293139 -0.06445173 -0.05608557 0.059681024 -0.0054088417 0.017792009 -0.0043692095
-0.037289657 0.061638426 0.08046064 -0.005796746 0.05725922 -0.027393946 -0.043442756 -0.076352514
-0.019398173 -0.05604392 0.030201476 -0.03206942 -0.09752643 0.03334661 -0.06356561 0.027855946
-0.05435614 -0.07542663 0.07015135 0.09805483 -0.047773242 -0.06389508 0.03546171 -0.025191836
-0.082169734 0.06622857 0.046171166 -0.004642573 0.08660433 -0.066318884 -0.06910267 -0.04753003
-0.117479905 -0.08488263 0.013126695 -0.0010295495 0.06052792 -0.06453018 -0.011177074 0.02607973
-0.081501074 0.06765747 -0.07747442 0.088595435 0.047232628 0.079881884 0.054468434 0.047636524
0.06811081 0.114668295 0.023784585 0.06304346 0.06314065 0.10160802 0.09625767 0.04166115
0.026065484 0.014272959 0.16268784 0.03433135 0.16980334 0.13121496 0.11811324 0.05282131
0.10746636 -0.024340956 -0.099517465 -0.094307125 -0.008913149 -0.0052330242 0.026131889 0.21936032
0.23687477 0.35963166 0.23388539 0.24114773 -0.14116278 0.02952416 -0.18126583 0.036310293

lstm.weight_hh_l0 f4 [400, 100]
00000000: 9fe0 ad3d e731 9fbd 006b e03c e56a da3d
00000010: 0c3b 6e3d c9f9 a23d 11a9 103d 9e16 b43c
00000020: 52c7 49bd c98e 6bbc c8a1 4ebd 6566 7dbd
00000030: 247b bebc 9924 5d3d 5914 773d d0f3 443d
00000040: e45a 373d a366 8b3d 26c2 dcbd db43 44bc
00000050: c317 fd3c 3d63 2abd aa5e a1bd 1474 cebd
00000060: be73 db3d 18a3 8f3c 95ec b0bb 1b97 113d
00000070: f8fa b4bd 90dc 043d 2dfd 29bc 543c 9b3d
00000080: 8ed9 cd3a c0ef ecbc b77b 303d c816 04b9
00000090: bc1e 673b 86f1 52bd 7fe5 d0bd cd1f 51bd
000000a0: c91f 893d 35ab 46bd f491 d73d ed33 a53d
000000b0: 36a0 6b3d 0639 303d 508e a6bd 3d41 e8bd
000000c0: cbea 233d d652 12bc 9c3e 323d ce83 80bd
000000d0: 89f3 093e 5bac ea3d 9a74 ab3d 410b 4d3d
000000e0: 7d9d cc3d ca86 3ebd d98c 58bd bd19 2ebd
000000f0: 19a1 a83d 59db 763d 628f d13d 787f 9cbd
00000100: c6da e4bd c0ee 0f3d 80f0 dabd c62e 413d
00000110: 59d4 dabc e926 c73c d6b0 b4bc 1d6c eebb
00000120: 4a46 c3bc a53a acbd 9cb2 c03d 0665 d93d
00000130: 1dea de3c 1346 9abd 5048 3fbd c69d 59ba
00000140: c4a4 04bd 49e4 0cbd 1046 fe3d 30d3 0c3a
00000150: c9f6 603b de8f 21bd f14d 8cbd 3162 4b3c
00000160: 81f6 5b3a 33af d0bd 270a a53b b52f b4bd
00000170: 6886 7ebc 1fd8 70bb dd8f b43d a3ed b43d
00000180: 7417 e0bc ad6a d53d d320 edbd 6e81 6e3c
00000190: 76a6 4a3c d6ee 113d aaca 2ebc 9ea9 c33c
000001a0: 5182 75bd 4cf0 1b3b 2f91 d1bd 88c3 c33d
000001b0: 61d7 8b3c dea2 ce3d 92e7 b3bd 3e7c 923b
000001c0: 4467 da3d fa54 cebc ebcc 333d 669d 523d
000001d0: 85b7 a3bd 22eb 663c a1c8 20bd 9b1c fc3c
000001e0: 2be1 803c 9fe3 883d 4ff3 02bd 65d4 c73d
000001f0: 03f2 17bd ad38 8e3c 5cc9 f83a 9a23 153d
00000200: 1c8b ac3d a3ae bfbd 109f 4fbd bcd0 9a3d
00000210: faa6 613c 0b90 1cbd adc1 19be 28a6 4e3d
00000220: f120 8bbd d05b 42bd 6152 29bd 9e53 39bd
00000230: 53b5 133c f94d ba3d 3694 473d 5b7b 993d
00000240: 2bf1 9e3d c337 ec3c f057 903d 658b bd3d
00000250: 3d4b 2bbd e54b 993d 0c1e 6d3d b843 57bd
00000260: f0c5 163d 895b 993c 8c8a 48bd 6b98 85bd
00000270: bbf3 c8b9 b006 86bd 85b6 f9bc a7e0 9cbd
00000280: fafe afbd 1d1e 933d f2e8 8fbd d998 a8bd
00000290: 336e 2d3d 39fb a13d 8e26 8abc 85ac 0cbd
000002a0: 9ea1 54bc b650 27bd 6d24 193d a13d dfbd
000002b0: 0bf9 0d3d bc19 05bd cc92 59be ed9c cdbd
000002c0: 444b f2ba 03a9 d63d fa65 81bd 0f44 04be
000002d0: 15be 2a3c 133c 98ba b0e8 1bbd e807 1cbc
000002e0: 72ce 483c 40c5 05bc 5331 86bd c906 0f3d
000002f0: 1b36 ae3d b24e bfbd 4737 1cbc d7b4 8b3c
00000300: 1c12 b03d 81f2 973d e58c 083e d8cc ad3d
00000310: ed31 4dbb c146 203d 69d9 643d f585 a43d
00000320: 9b04 7c3d 5bb4 473d 849b 403d 6710 9e3d
00000330: 8800 b93d e62d 9fbd f46a babd 6597 013c
00000340: 3151 a8bd 7386 9d3d 3be5 ca3d 1926 d8b9
00000350: 0c83 5cbd 2f13 65bd e280 16bd e6b8 91bc
00000360: d35c b2bd 93cb e4bb f95c af3c 9217 e33d
00000370: c828 c63c 25c9 a4bd 2fb0 843d b6da b23c
00000380: 87e3 993d cb38 263d 0eba cb3d 069d 21bd
00000390: 2935 b3bd db23 91bc 3a93 743d 64ff ffbc
000003a0: fb79 7e3c 8a8c 9fbc ba27 0e3c 5ca7 8d3d
000003b0: c184 a6bd 72ef c93d e3b7 e93c 57e2 cf3c
000003c0: 3e85 8a3d 00db 183d 41bd 2a3d a4b4 a43d
000003d0: afe3 073d f327 92bd 5c3d e53c b0a3 bebc
000003e0: 612d 66bd 8402 a33d 6dc2 263d 7c96 babd
000003f0: fea8 92bd edfe 56bc 0cb1 5ebd 840e 633d
0.08490109 -0.0777319 0.027394772 0.1066492 0.05816178 0.07957799 0.035317484 0.021983441
-0.049262352 -0.014377304 -0.050447255 -0.06186523 -0.023252077 0.05398998 0.06032214 0.04808408
0.044764414 0.06806686 -0.107792184 -0.011979069 0.03089512 -0.041598547 -0.07879384 -0.10080734
0.107154354 0.017533824 -0.0053992965 0.035544496 -0.08836931 0.032436907 -0.010375303 0.07579866
0.0015705095 -0.028922915 0.043086734 -0.00012596988 0.0035266122 -0.051499866 -0.10200023 -0.05105572
0.06695516 -0.04850312 0.10525885 0.08066545 0.057525836 0.04302313 -0.08132613 -0.11340568
0.040018838 -0.008930882 0.04351674 -0.0627514 0.13471808 0.114586554 0.08371849 0.05005956
0.09990976 -0.046515264 -0.052868698 -0.042505015 0.08233852 0.06026778 0.10232426 -0.076415
-0.1117454 0.0351398 -0.10690403 0.047163747 -0.026712583 0.024310546 -0.022056978 -0.0072760717
-0.023837227 -0.08409623 0.09409067 0.10614972 0.027211243 -0.07532897 -0.046699822 -0.0008301403
-0.032383695 -0.034397397 0.12415707 0.00053720456 0.0034326783 -0.039443843 -0.06850804 0.012413547
0.0008390919 -0.101896666 0.0050366106 -0.08798162 -0.015534975 -0.0036749912 0.08816502 0.08834388
-0.027354933 0.104207374 -0.11578526 0.014557226 0.012368789 0.035628162 -0.010668436 0.02388459
-0.059938733 0.002379435 -0.1023277 0.09558779 0.017070474 0.10089658 -0.08784403 0.004470377
0.106642276 -0.025187004 0.043896597 0.051419638 -0.07993988 0.014094146 -0.039253835 0.030775359
0.015732368 0.0668404 -0.03197032 0.09757308 -0.037096035 0.01736101 0.0018980908 0.036410905
0.084249705 -0.09359481 -0.050688803 0.07559344 0.0137727205 -0.038223308 -0.15015288 0.050451428
-0.067933924 -0.04745084 -0.04133833 -0.04524576 0.009015399 0.09096903 0.04872533 0.07494231
0.07760843 0.028835183 0.07048023 0.09255103 -0.0418198 0.07485179 0.057889983 -0.052554816
0.03680986 0.018720405 -0.048960254 -0.06523212 -0.00038328566 -0.06544244 -0.03048254 -0.076600365
-0.08593555 0.07183478 -0.07026853 -0.082322784 0.042341422 0.07909245 -0.016864087 -0.034344215
-0.012977986 -0.040848456 0.037388254 -0.10900427 0.034661334 -0.032495245 -0.21247405 -0.10039697
-0.0018485566 0.10481455 -0.063182786 -0.12916587 0.010421296 -0.0011614583 -0.038063705 -0.009523369
0.012256252 -0.008164704 -0.065523766 0.03491858 0.085064135 -0.09341182 -0.0095346635 0.017054005
0.08597204 0.07419301 0.13334997 0.084863365 -0.0031310276 0.039129976 0.0558714 0.08033363
0.06152783 0.048755985 0.04702331 0.07717972 0.090333045 -0.07772426 -0.09102431 0.00790963
-0.08218611 0.0769166 0.099070035 -0.00041227115 -0.053835914 -0.055926498 -0.036744006 -0.017788362
-0.08709111 -0.0069822758 0.021406638 0.1108848 0.024189368 -0.08046178 0.06478917 0.021832805
0.075141005 0.040581506 0.099475965 -0.03945639 -0.08750374 -0.017717293 0.05971072 -0.03124971
0.015532012 -0.019476194 0.008676464 0.06916687 -0.081307895 0.09860124 0.028530067 0.025376482
0.06763695 0.03731823 0.041684393 0.08042267 0.03317612 -0.07136526 0.02798336 -0.023271412
-0.05619562 0.07959464 0.040712763 -0.09110734 -0.07161139 -0.0131223025 -0.054368064 0.055433765

lstm.bias_ih_l0 f4 [400]
00000000: 6234 e43d b0d5 4a3e 3e23 533d 1f0f f53e
00000010: 329b 00bd 1620 75bd 02a9 183e 64fc 27bd
00000020: 8c3c 9d3e 62d9 8bbe b0fa ad3b 8285 1e3d
00000030: a365 853d 59b0 61bd 442d c5be 9a8e 063c
00000040: 9815 a3bc 48cc 223e a32a da3d 9f80 033d
00000050: 1020 6a3d d7e6 293e 1ff5 56be bffe 1bbe
00000060: e28e 183e e30d 723e 58aa 5e3d 60dc fbbb
00000070: 5b6b 483e 5b0d 2b3d cdb8 103d 0e98 f83d
00000080: 5064 ee3d 0579 be3d 8fc0 9b3d 08d8 0bbd
00000090: 225a 3c3d cac4 a93d 2079 7ebe 2117 183e
000000a0: 4c96 71bd 6003 643c 1794 a63e 6d1b 043e
000000b0: 563f 0abd 5b80 c9bb abd4 6a3e b7c8 18ba
000000c0: de7a 833d e081 d5bc c6b6 d53c 1a0f cabd
000000d0: 2973 1d3e a5c7 ab3d 3ea7 80bd f6ac e13d
000000e0: dcc9 1e3d 84ad b63d e2c8 3e3d 19a5 ad3d
000000f0: 1ea3 093e bb7b 14bd d3ee b93c 0a38 003d
00000100: 6b30 ab3c f77c 5cbc 80ae 0a3e 5ff3 d23d
00000110: e04c 093e 5f4a 00bd d320 9f3d 48fe aebc
00000120: d2ce cfbd 05d2 94bd 35fa 3e3e 738e 2d3e
00000130: 19b2 253e 41bf b93d 0f16 803d 4138 7a3e
00000140: 1f3f 723d 00b4 963d 0d4f 013e 78c4 393d
00000150: 552d cf3d 9064 8539 3cb7 a03d 23c2 1e3f
00000160: a672 b33c 779b 18be 6d24 493c 2b9a 90bb
00000170: 585f 1a3e 76e5 06bd e0a5 d63c 3c7e 253c
00000180: 9d44 f6bb cda3 ab3d 5e1c 053e 160e 6c3d
00000190: 0b64 693d 6459 743e 5040 9d3d 5ab3 43be
000001a0: c2a4 373e 6604 303e 68f8 3a3e 772b af3c
000001b0: 6ffb 8fbd 4901 ee3e fdb2 d33c a0af 7b3d
000001c0: 71db 223e b224 c03e fe56 de3e 6ca5 3f3e
000001d0: aea9 ef3c 438f a43d 282a 0a3e 772d 423d
000001e0: e63c 5b3e 2bdd 583e aa1d 203e 5bda 903e
000001f0: 4c5e 573e 2633 cabd 2133 383e 2b03 173e
00000200: 4454 493e bf3d 6e3d fa76 413d 78db cc3d
00000210: d7cd 0e3d ce2c 623e e87b 833e 9848 683e
00000220: 0e1c 903e 4d91 9a3d d199 19be 7f56 3d3e
00000230: 218e 523e 9268 0a3e 2b5a 2ebe 9b5a 2e3d
00000240: e397 b93e 6dd5 d63d ff5d fc3d 6139 7b3e
00000250: e5e6 be3b 81ed 103d cb03 9b3e 5029 7b3e
00000260: 78cd 9e3e 1251 8fbb b2f7 2b3d 61be 073d
00000270: d247 9cbd fb9c ec3d 1929 5a3c 327d 2c3e
00000280: 82eb d33d 377c 1e3e 1238 5a3e 0644 ed3d
00000290: 2911 633e d46f 973e 395b 9c3d 500c 5f3e
000002a0: 88ea 003d 6f5e 7f3d 4654 2f3d a8f6 353e
000002b0: ab6e 7c3e 3fd0 333e bb1b 82bd 8d71 013d
000002c0: 6dd6 b23b 7bb7 5c3d dd32 723e 8aea fb3d
000002d0: 309a 0f3d 9c63 843d e8b2 253b 9d47 f03d
000002e0: 8fa2 633c 818a 393e 1a25 8f3c c3f7 e4be
000002f0: c126 0f3d fb0c ca3e 4c44 4e3d 79a1 8b3e
00000300: 37f8 473d 3e82 b03d b8e8 c73b 655e 3c3e
00000310: 77d5 e23d 3c95 3abc 0ad1 253e 68f0 a4bc
00000320: 6fa4 81bc 34a5 a7bb c46d 43bd 26a7 923e
00000330: c132 be3c 4c20 a73d c0ee 90bd c2ce 1abc
00000340: dc52 da3e 6ddc d4bd 4628 d6bb 8ba3 bb3d
00000350: 9ede 273f ebe1 93be fb25 c8bc 9fc3 77bd
00000360: f43b 933d e206 453d d633 ccbc e46a 3b3e
00000370: c9b2 d4bd e297 de3c 2810 4d3e af22 683e
00000380: 09ce 2e3e 48bd dd3d 4ddd 2fbe b72b 2d3e
00000390: ee79 46be c31d debd 9bc0 68bc 7abc 0c3c
000003a0: 2d38 27be 8698 82bd 3c73 f03b 1cb8 903e
000003b0: a607 bf3c d5fc ef3d 6d3a dabe d608 5b3d
000003c0: 8fa1 42bf db16 c03d bdf7 9b3e 3e96 9bbb
000003d0: 8bf7 58bd 0665 933d 55a5 42be d9bf 6c3d
000003e0: 6666 bd3d ada9 13be 59d4 99bc 804d 9fbe
000003f0: 07a8 61be 9a4f c83e 2ba3 723d ad57 37bc
0.11142804 0.19808078 0.05154728 0.478631 -0.031398006 -0.059845053 0.14908221 -0.041012183
0.30710256 -0.27314287 0.0053094253 0.03870154 0.06513526 -0.05509982 -0.38511097 0.00821271
-0.019907758 0.1589824 0.106526636 0.032105085 0.057159483 0.16591965 -0.20991944 -0.15233897
0.14898255 0.2363811 0.05436167 -0.007686183 0.19572203 0.041760784 0.03533249 0.12138377
0.11640227 0.093004264 0.07605087 -0.03414157 0.045984395 0.08289488 -0.24850893 0.14852573
-0.058981225 0.01391682 0.3253486 0.12901087 -0.033751808 -0.0061493344 0.22932689 -0.00058282487
0.064199194 -0.026062906 0.02608813 -0.09866162 0.15375961 0.083876885 -0.06281899 0.11019318
0.038766727 0.08919814 0.046578296 0.084787555 0.1344113 -0.03625081 0.022696888 0.031303443
0.02089711 -0.013457528 0.13543129 0.103003256 0.13408232 -0.031320926 0.077699326 -0.021361485
-0.1014687 -0.072666205 0.18650134 0.16948871 0.1618122 0.09069682 0.06254207 0.24435522
0.05914223 0.07358551 0.12627812 0.045353383 0.10116068 0.00025442662 0.07847449 0.6201498
0.021905255 -0.14903055 0.012276751 -0.0044129095 0.15075433 -0.032933675 0.026202142 0.010100897
-0.0075155036 0.08380852 0.12999102 0.05763062 0.056980174 0.23862225 0.07678282 -0.19111386
0.17933944 0.17189178 0.18258822 0.02138303 -0.07030379 0.46485355 0.025842184 0.061446786
0.15904023 0.37527996 0.43425745 0.18715447 0.029255714 0.080351375 0.13492644 0.04740664
0.2140995 0.21178119 0.15636316 0.28291592 0.21032065 -0.09873037 0.17988254 0.14747302
0.19661051 0.058164354 0.047232606 0.10002798 0.034864273 0.22087404 0.2568047 0.22683942
0.28146404 0.07547245 -0.15000083 0.18490027 0.2056203 0.13516453 -0.17026584 0.042566877
0.36248693 0.104899265 0.12322616 0.24533607 0.0058258646 0.03538275 0.3027633 0.24527478
0.31016135 -0.004373678 0.041984268 0.033140544 -0.07630886 0.11553379 0.0133154625 0.16844633
0.10347654 0.15477072 0.21310452 0.1158524 0.22174515 0.29577506 0.07634587 0.2178204
0.031473666 0.06234592 0.04280498 0.17769873 0.24651591 0.17559908 -0.063529454 0.03160243
0.0054576905 0.053885918 0.23652215 0.12300594 0.035059154 0.064643115 0.0025283638 0.11732409
0.013893737 0.18119241 0.017473746 -0.44720277 0.034949068 0.39463028 0.0503581 0.2727163
0.0488207 0.08618592 0.0061007403 0.18395384 0.110758714 -0.011388119 0.16193023 -0.020134166
-0.015825478 -0.0051161293 -0.047712103 0.2864315 0.02321756 0.08160457 -0.07076788 -0.009448709
0.42641342 -0.103936054 -0.0065355627 0.09162053 0.6557406 -0.288833 -0.024432173 -0.060489293
0.071891695 0.048102267 -0.024927061 0.18302494 -0.10385663 0.027172033 0.20025694 0.2266948
0.17070784 0.10827118 -0.17174263 0.16911207 -0.1938245 -0.1084552 -0.014206077 0.008589858
-0.16330023 -0.06376748 0.0073379558 0.28265464 0.023319077 0.11718146 -0.426227 0.053475223
-0.7602777 0.09379359 0.30462447 -0.004748135 -0.05297045 0.07197003 -0.19008382 0.057800148
0.092480466 -0.14420195 -0.018778013 -0.31113815 -0.22036754 0.3912323 0.05923764 -0.011190337

lstm.bias_hh_l0 f4 [400]
00000000: f57c cbbb e409 c83d 2676 3c3d c794 e53e
00000010: e586 15bd 0498 aa3d 2c19 3f3d 2458 283d
00000020: 590b 833e c07f c7be 96ba 39bd d29e 293d
00000030: 9404 f2bc dbcb 2cbe 2214 dcbe ad4f 5ebd
00000040: ce0c 5d3c 24bb 353e eec1 b63c 3c5c 293e
00000050: b05b 4e3d 0903 c83d dbfe 17be e590 3cbe
00000060: 5521 803e bbc0 8a3e e0e6 38bc dea6 213e
00000070: 572e b23d 5376 56bd 499d d03d 5120 723d
00000080: 2c4a d03d 6f4c f03d 4164 303e df09 35bb
00000090: 5e64 b63d 86ea b73d f430 94be 6df5 603e
000000a0: 193e eb3d 966e fbbc 7103 dd3e 4eb6 80bc
000000b0: 1e8f 523d 8bd6 8e3b 7e07 873d fee2 333c
000000c0: fe1c 793d 6000 f33c 4a30 2a3e 0e24 c0bd
000000d0: 69ba 813d cbfb a43d c761 66bb ba08 99bc
000000e0: f214 e6bc e600 32bd 3e3a c9bc 5beb 9a3d
000000f0: 09a8 433d e112 0ebd be2a 823d bff2 a2bc
00000100: 6220 5c3d d3a6 943d 490a 323e 3ba9 06bc
00000110: e402 1a3e d719 133e a888 463e 75fa 45bd
00000120: 3c14 59be 7092 8dbc da31 8e3e e392 a73c
00000130: 2306 763d 8db8 813d 8ccf a93d c9cf a33e
00000140: 7b8d 213e 065c 75bd 61e9 233e 9aa2 ea3c
00000150: 86da 163e 666e c83c 16a2 2c3e 418e 253f
00000160: 871c 083e 856f 50be 4213 253e 09d8 52bc
00000170: 6ec4 a03d 4c66 e23d df02 023d bb04 0e3e
00000180: 82c9 c73d e263 513e 48d9 c63d 71ee 9d3c
00000190: 801a 513e fe4a 033e 6000 193d 92fe 94bd
000001a0: 4a41 8d3e 21cd 9b3e 2e86 253e 163b c23d
000001b0: 2945 fbbd 0f66 ee3e ba6f 263e 7dff e23d
000001c0: b31d 1e3e 2e7c b83e 0c5f e23e 340b 6d3d
000001d0: f95a 073d 6cdc 7b3c 9c19 033e 005c ce3d
000001e0: 82eb 233e 8383 823d 4df1 e33d 0def bc3e
000001f0: 565c 4e3e 8e2f bfbc ae62 6e3d 033f ad3d
00000200: fe8e ae3d 1345 013e 33b8 cb3d 1dac 543e
00000210: 242f db3d b38f 963e 0ac0 153e 406c 823e
00000220: d397 453e 8e67 153e 7dac e8bd b350 323e
00000230: ed68 fa3d 14a6 073e 7350 27bd 2671 633e
00000240: e13a 813e 063d 7b3e b5aa 013e 2b4c 133e
00000250: 8468 eb3d 1991 483e 25fe a93e d25c 233e
00000260: fede 5a3e e6af 8abd 43f1 0abc a0f2 463e
00000270: 4a4c cf3d 1b8c df3d 2a9d 143e f6ac f83d
00000280: a907 343e 421a 8ebc b42f b23d f429 54bd
00000290: 553e 183e 92d9 d53d 5ba8 743d 788a e73d
000002a0: 2146 653d b73b 263d ff2a b63b fe97 2e3e
000002b0: b321 673e 9fd1 053e 6265 a6bc 6c33 c13d
000002c0: 12df 1a3d b7ac ea3d 007c 9d3e 86a7 683d
000002d0: 2423 183d 4cda 803e c668 8f3d 22fe 8b3e
000002e0: e4fc 923d 1d47 503e 6461 473d 7d6a efbe
000002f0: 8ebc 373e 3b0f c83e e905 283e a1e6 843e
00000300: 20e0 8b3d 4f0f 2cbd bf8f 3a3d 22fb bc3d
00000310: cf45 d03d 91b7 8ebd 70f0 633e ad30 303d
00000320: c68b 543d 2ae2 81bd 7c49 27bd fa69 a63e
00000330: cc77 dabd 8313 583e 8e62 a5bd 5a0b a03c
00000340: 2c5c ff3e 35bc 963d af87 f83d a59e 093e
00000350: 50ae 363f 6ffe adbe c461 873d b648 c8bd
00000360: 713d 05bd a04c 0a3c ec05 813d 00e4 153e
00000370: a98b 11bd 5461 d7bd ec3a 1e3e 0d35 bd3e
00000380: 016f e23d 945d 173e b7cc 95be 9ba3 2e3e
00000390: 3ee6 7ebd b95a 1b3d 80f0 333e cdba 11bd
000003a0: a5ef 91be 2bc4 843d e55c 64bd dc63 bd3e
000003b0: 1832 b63d 382c 0b3d 67ea febe de56 c53d
000003c0: 4b9b 1fbf bb5b abbc 2b53 873e 4d32 c2bc
000003d0: 1390 b13c a40e 1f3b 8d8e 87bd d8cd 40bc
000003e0: 02bc f13d 4690 003d c130 98bd 9812 a4be
000003f0: 7f86 0dbe b824 a33e 88cd 63bc b226 b93d
-0.0062099644 0.097675115 0.046011113 0.4484007 -0.0365056 0.08329776 0.046654865 0.041099682
0.25594595 -0.38964653 -0.045343958 0.04141123 -0.029543199 -0.1687464 -0.4298411 -0.054275203
0.013491822 0.1774717 0.02230927 0.16539091 0.05038041 0.09766204 -0.14843313 -0.18414648
0.2502543 0.27100167 -0.011285514 0.15786311 0.08700245 -0.052358937 0.1018625 0.05911285
0.10170397 0.117333286 0.17225744 -0.0027624292 0.08905862 0.08980279 -0.28943598 0.21968623
0.114864536 -0.03069238 0.43166688 -0.01571193 0.05140602 0.0043590716 0.06593226 0.010979412
0.060818665 0.029663265 0.16619983 -0.09381877 0.06334383 0.08055838 -0.0035153495 -0.018680919
-0.02808616 -0.043457888 -0.024563905 0.07564422 0.047767673 -0.034685973 0.06355809 -0.019891141
0.05374182 0.07258382 0.17386736 -0.008219059 0.15040165 0.14365326 0.19388068 -0.048334558
-0.21199125 -0.01728174 0.2777241 0.020455783 0.060064446 0.063340284 0.082915395 0.31994465
0.15776627 -0.059902214 0.16006996 0.028641988 0.14731798 0.024466705 0.16858706 0.6467019
0.13292132 -0.20355041 0.16120628 -0.01286889 0.07849966 0.11054668 0.03174102 0.13868992
0.097552314 0.20448259 0.09709412 0.019278737 0.20420265 0.12821576 0.037353873 -0.07275118
0.27588874 0.30429938 0.16164467 0.09483926 -0.12269051 0.4656224 0.16253558 0.11083887
0.15441017 0.36032242 0.4421314 0.057872012 0.033045743 0.015372377 0.12802738 0.10076141
0.16007808 0.0637274 0.11130009 0.3690113 0.20152411 -0.023338106 0.058199577 0.08459284
0.08523367 0.12624006 0.099472426 0.20768781 0.10702351 0.2940651 0.14624038 0.25473213
0.19296198 0.14590284 -0.113610245 0.17413597 0.12227044 0.13246948 -0.040848207 0.22211131
0.25240234 0.24534997 0.12662776 0.14384525 0.11494544 0.195866 0.3320171 0.15953377
0.21374127 -0.06771831 -0.008480373 0.19428492 0.10121973 0.10915395 0.14513078 0.12142365
0.17581047 -0.017346505 0.08700505 -0.051797822 0.14867528 0.10441889 0.05973087 0.11305708
0.055975083 0.040584292 0.0055593248 0.17050168 0.22571449 0.13068245 -0.020312015 0.09433636
0.037810393 0.11458724 0.30758667 0.056800388 0.037142888 0.25166547 0.07002406 0.27342325
0.07177141 0.20339628 0.048676863 -0.46760932 0.17943022 0.3907412 0.16408505 0.25957206
0.06829858 -0.042006787 0.045547243 0.09227587 0.10169565 -0.06968606 0.22259688 0.04301517
0.05189111 -0.063419655 -0.040841565 0.3250273 -0.10667381 0.21101193 -0.080754384 0.019536663
0.4987501 0.073601164 0.121352546 0.13439424 0.7135973 -0.3398318 0.06610444 -0.097794935
-0.0325293 0.00844112 0.06299958 0.14637756 -0.03553358 -0.10516611 0.15452164 0.36954537
0.110563286 0.14781791 -0.29257748 0.17054598 -0.062231295 0.037928317 0.17572212 -0.035578538
-0.28503147 0.064827286 -0.055752654 0.3699025 0.088962734 0.033977717 -0.4978821 0.09635709
-0.62346333 -0.020917764 0.2643064 -0.023705626 0.021675145 0.00242702 -0.06618986 -0.011767827
0.11803438 0.03138759 -0.07431174 -0.32045436 -0.13820837 0.31863952 -0.013903983 0.09040584

lstm.weight_ih_l0_reverse f4 [400, 28]
00000000: 0bdf b33b d944 323d 7b43 8d3d 93ea a1bd
00000010: 6133 c23d 043d 43bb bf3e 613a 9a2d 74bb
00000020: 8421 0dbc 9239 a53d 1123 ac3d 1e20 553d
00000030: e73a cb3c 95dc 71bd 6c9c c2bd d748 033d
00000040: 183e 31bd 33cf f7ba d60f b2bd e8ab 37bd
00000050: 9d38 2bbb ebdd 2b3d 43eb c8bd ba0d 0e3d
00000060: 46ce b7bd 3134 b0bd 55ce 85bd 105c a53d
00000070: 2cfb 24bc faf2 253d 1f27 273b eff6 013d
00000080: 9dcb 5d3c 2c0f be3c 30f8 173d 9e37 7f3d
00000090: 53b1 e2bb 4175 8cbd ca60 cb3d 4610 2c3d
000000a0: f3c8 bf3c 8b37 583d 10d8 25bc 4083 e2bb
000000b0: 5ffd ad3d 9745 cd3d 1bd9 c93d 388a 743d
000000c0: 5ad2 333d 5e05 a2bd e51d 973d 5b2a aa3d
000000d0: fccc adbd e3e4 de3c 44ff 30bc 6cdd b43d
000000e0: d28c 783d 5516 853d 8856 14bd 7286 9f3d
000000f0: 448c a43d 69b5 983d d4a1 1f3d 36d0 b3bc
00000100: 2d32 b1bd 6a75 55bd da31 e5bc fa09 cf3d
00000110: 4ebb 5d3d adcc b43d 55f5 d93c 8df3 9bbd
00000120: ecfc b63d eb1a d23d 2dd6 80bc aa8a 92bc
00000130: b21e 4f3d 525c 13bd cd68 69bd 84b7 763c
00000140: 25ff abbd e9bc 903d 6524 21bd bd53 a33a
00000150: 0f86 b6bd 1eb0 803d 9e72 9fbd a1a1 4d3d
00000160: 3452 c03d 58d6 b9bd fe0b 93bd ed3e 733d
00000170: 2d14 ae3d 5d60 9a3c 7b80 b5bd 2272 4cbd
00000180: 4bdf 583d 4b4a 64bd 91d3 2b3d 576b 80bd
00000190: a18c acbd 7b57 95bd b9fd 2f3d 96b8 2f3d
000001a0: 6438 aebc c56a fe3b 7e3c 553d 60c7 113d
000001b0: d07f 70bd 2786 adbd c0e5 68bd 7741 babd
000001c0: 7653 c93c 94fe a6bd 0720 95bd 24e3 c6bd
000001d0: ce5a a8bd a80c d0bb 4251 c9bc d2db 2bbc
000001e0: 76af fb3c 5608 c93d 5f36 893d 78d8 23bd
000001f0: 55f0 48bc b984 a2bd bc8f 93bd bc52 1fbd
00000200: 9ad6 b43d 3453 a63b dd8b 4ebd 362f c8bd
00000210: 32fa c13d f399 bdbd a85a b9bd 2f9c 513d
00000220: 98b2 61bd 653f b43d c635 843b ed03 d1bc
00000230: 82f8 14bd 8cdb 7a3c 62f5 4ebd c836 bfbd
00000240: 1c19 6b3d 6dff f13c b926 193d 9879 713d
00000250: c6bf 78bc a7c6 3dbd 5d5a 5fbb 2124 48bd
00000260: 12d0 233b 1426 a6bd 9aa5 a73d 0296 35bd
00000270: 1ffe d6bc b765 c63d ada1 a0bd 4717 9d3b
00000280: 0c59 a23d 6940 923b 73c4 5ebd 44aa 41ba
00000290: ca96 453b 2716 8a3b 8ab4 19bd 1fe0 9bbd
000002a0: 1ac1 293c d8b6 8dbd 3d7c 893d 6fef 85bd
000002b0: 4a12 88bd a60a 29bd 9034 7c3d e043 bbbd
000002c0: 0103 ffbb 1098 713d 75d0 f7bc a531 5d3d
000002d0: 7f77 c13d 81df 78bd 5e53 9fbd 4b52 6b3d
000002e0: 97f1 c83d db6e 9fbd ba64 aebd 634b 563c
000002f0: 3839 723d 95cf 883d 1e96 773c 941d 5d3d
00000300: 0326 663c ded1 543d d8a1 113d 43ee 26bc
00000310: 9599 ca3d 48bd a1bd a20e 52bd d04d 2abd
00000320: 97f1 8abd 1d7c 63bd 77f5 b4bd 3931 90bd
00000330: 102c 12bd 0b6e 78bd c17a b5bd 4668 b93d
00000340: 2323 353c 1d26 833c aeea 493d d1ba e43b
00000350: 832b 4f3d 3cb9 50bd d035 9fbd 4575 2c3d
00000360: 5d5a 56bd 4b3a 5fbc ccbf bf3b 63c8 7f3c
00000370: 9a55 79bd 019b a43d f8a3 bfbc ae24 aabd
00000380: 9f8b 483d 421e b6bd 70b3 c9bd 9002 c73d
00000390: ebe7 cc3d 6090 663d 5b89 82bd ea33 24bc
000003a0: f243 19bd 0342 96bd 579d b53d 674d e33c
000003b0: 863b 723d 9b4a cd3d 0ad7 97bd 273c deba
000003c0: af2a 06bd 1c84 653d 6ec5 c63b 8e19 6fbc
000003d0: 1ba9 e13c 6218 c23d 407b b83d 48b6 aa3d
000003e0: 11ba afbc c1fc c13d f700 933b 560a 93bd
000003f0: 8148 adbd 964a c6bd 8a84 3b3d 74cb 1bbc
0.0054892353 0.04352269 0.068976365 -0.079060696 0.09482456 -0.0029791007 0.0008592419 -0.0037258626
-0.008613948 0.08067621 0.08405126 0.052032582 0.02480836 -0.059048254 -0.09502491 0.032051887
-0.043272108 -0.0018906355 -0.08694427 -0.044841677 -0.0026126273 0.041959684 -0.098104976 0.03468106
-0.089748904 -0.08603705 -0.06533495 0.080742 -0.01006965 0.040514924 0.0025505496 0.031729635
0.013537315 0.023200594 0.037101924 0.0623089 -0.0069181114 -0.06858302 0.099305704 0.042007707
0.02341125 0.052787345 -0.010122314 -0.006912619 0.08495592 0.10023039 0.09855863 0.05970213
0.04390178 -0.0791118 0.07378749 0.0830886 -0.08486363 0.027208751 -0.010803048 0.08831295
0.06068117 0.064984 -0.036215335 0.07789315 0.08034566 0.07456476 0.03897269 -0.021949869
-0.086521484 -0.052113928 -0.027977873 0.10109325 0.054133706 0.08828101 0.026606241 -0.07614813
0.0893496 0.102590404 -0.015727127 -0.017888386 0.050566383 -0.035976715 -0.05698471 0.015058402
-0.08398274 0.07067282 -0.03934135 0.0012460869 -0.089122884 0.06283592 -0.07785533 0.05020297
0.09390679 -0.09074086 -0.07180022 0.059386183 0.08499942 0.018844778 -0.08862396 -0.049913533
0.052947324 -0.055734914 0.041949812 -0.062704735 -0.0842526 -0.07292076 0.04296658 0.042900644
-0.021267124 0.0077641928 0.052059643 0.03559053 -0.05871564 -0.08472853 -0.05685973 -0.09094518
0.02457593 -0.08154026 -0.07281499 -0.097112924 -0.082204446 -0.006349165 -0.02457488 -0.010489421
0.030723315 0.09816043 0.066998236 -0.040001363 -0.012264331 -0.07935471 -0.072051495 -0.03889726
0.088299945 0.0050758366 -0.050426353 -0.0977463 0.09471549 -0.09257879 -0.090504944 0.05117434
-0.05510196 0.08801154 0.0040347306 -0.025514567 -0.036369808 0.015311133 -0.050526984 -0.093366206
0.057396993 0.029540742 0.037390444 0.05895385 -0.015182441 -0.046332028 -0.003408096 -0.04886258
0.0024995846 -0.081127316 0.08185883 -0.04433251 -0.026244221 0.09687369 -0.07843337 0.0047940346
0.079271406 0.0044632447 -0.054386567 -0.0007387737 0.0030149692 0.0042140665 -0.03752569 -0.07611107
0.01036098 -0.0691964 0.0671315 -0.06539809 -0.06644113 -0.04126992 0.061573565 -0.091438055
-0.0077823405 0.05898291 -0.030250767 0.054002423 0.0944662 -0.060760025 -0.07779573 0.057451528
0.098117046 -0.07784816 -0.08515306 0.013079497 0.0591366 0.06680218 0.015111474 0.053983286
0.014047149 0.051957957 0.035554737 -0.010188642 0.09892575 -0.07897431 -0.051283486 -0.041578114
-0.06784361 -0.055538286 -0.08835881 -0.070406385 -0.035686553 -0.06065182 -0.08861304 0.09053092
0.0110557405 0.016009385 0.049296074 0.006980278 0.050578605 -0.050957903 -0.07773936 0.042104024
-0.05233227 -0.013624738 0.0058517214 0.015611741 -0.06087265 0.08037377 -0.023393616 -0.08307777
0.048961278 -0.0889249 -0.09848678 0.09717286 0.10005172 0.05629003 -0.06373855 -0.010022143
-0.037418313 -0.073368095 0.08867901 0.02774687 0.059138797 0.100239955 -0.07414062 -0.0016955183
-0.03275555 0.056034192 0.006066016 -0.014593495 0.027546456 0.09477307 0.09007883 0.08335549
-0.021451028 0.09472037 0.004486199 -0.07179706 -0.08461095 -0.09682195 0.045780696 -0.009508956

lstm.weight_hh_l0_reverse f4 [400, 100]
00000000: c1b5 c03d 8e40 5c3d a711 39bd c8d3 cdbc
00000010: 1e8c 513d fda1 59bd 6841 a7bd 3e4d 3b3d
00000020: f535 a2bd 662c 673d a92c 9d3d a035 ac3c
00000030: 641f ee3c 5011 aabb 68d8 63bc 0d35 3bbd
00000040: ca1c 37bd 2563 873d 8d84 7abd 5874 afbc
00000050: 2dae 78bd 9f6b c2bd b510 aa3d d20b 1c3d
00000060: d920 ad3d 1097 28bc 9617 a3bd 68b6 523c
00000070: 8e20 aabd e094 71bd d262 663d 7227 043d
00000080: 7d0c 98bd 5eea 013d 576a ba3d 6067 b1bc
00000090: 46e9 84bd 6e49 183d 1895 acbc 827f 3f3d
000000a0: 483b 94bd ed51 57bd f9bf 893d b0e3 9dbb
000000b0: 5f50 b3bd d3e5 55bd 3445 fe3c 4eb1 273d
000000c0: fb01 c53d 30f8 b0bd 4f48 ba3d 9fad 943d
000000d0: 6fc8 c63d e40b 02bd fd61 29bd 4017 52bd
000000e0: ede1 c9bd 4633 0ebd e3e2 62bd 6f0b 9d3d
000000f0: 34df 8bbc 6cde 84bc a31e 66bd 8c45 97bc
00000100: fae2 243d 97ed 74bd 68ff 073c 2b11 b9bd
00000110: a0d6 c43b 2004 bfbd 27cd cbbd cf6b ad3d
00000120: 961f 543d 5080 113c a093 d73b 1841 e0bc
00000130: 2406 f53c 0050 5fba f057 5f3c 6c9c 893c
00000140: 5d73 8c3d b04c 19bd 8ec7 5b3d d41f 9abc
00000150: fc43 16bd f244 93bd 965f 503d 80e2 cd3b
00000160: 7208 773d dc30 dc3c 11bc ae3d 749e fe3c
00000170: 665a 283d e746 ccbd bac1 323d ded9 583d
00000180: 4a84 adbd a040 84bd a853 053c 1c80 d53c
00000190: 26b0 13bd 1010 8ebd 4d23 863d 5a2a 39bd
000001a0: 3eeb 343d 6769 903d 20ab 9ebc fa33 5fbd
000001b0: 80ac ff3b 725d 6a3d c81e ebbc f4fd ee3c
000001c0: d7bf 64bd 790b 903d 80c1 96bd 10dd 21bc
000001d0: 8090 c53c 9348 4abd f214 b0bd fa81 513d
000001e0: 4041 7b3b 81e5 923d dba0 b3bd 1377 a83d
000001f0: 1ff4 933d 028f 6d3d 7459 abbc 34f8 893c
00000200: 758b a8bd b0de 41bd 989a a03c 17e6 a93d
00000210: 981e 98bc 929a 7d3d 80ae df3b c985 a73d
00000220: 0ab3 45bd 603c b3bc 220a 373d c46f dc3c
00000230: 387c bfbd 417b b63d 5f40 b8bd 50d8 dc3b
00000240: 74e6 88bd 31d2 b63d b7a7 31bd 9eaf 7b3d
00000250: d081 3dbc 22d8 0b3d 5de2 adbd a0c2 23bb
00000260: 09f4 813d 192f 9c3d b010 8b3b c79e 75bd
00000270: 7b8a 96bd c518 a6bd ea53 6dbd ba51 013d
00000280: 559d bb3d ecda f8bc 7fa1 b6bd acfe 81bd
00000290: 60e5 9e3b 71d8 b33d 699b 883d d3c0 35bd
000002a0: 88a6 f8bc 107a 213c 95ed 92bd ace5 80bc
000002b0: 22c4 713d a94e a93d 868a 003d 08dd 99bd
000002c0: 82c4 663d 7d32 2ebd 542b eb3c 8e31 4b3d
000002d0: 86e3 203d 7a95 6c3d 7bc5 9d3d 0c7b 9abc
000002e0: b0bb 05bd b2ea 433d c454 fa3c 40f7 0c3b
000002f0: a85f 5ebc 6eeb 7a3d 74ed 8bbd 6071 a9bb
00000300: 006d 90bb 69e4 ad3d e074 b6bc f2d8 0f3d
00000310: 0014 e83b 3037 24bd 8490 d33c bc47 e93c
00000320: 61d2 ae3d a81f 3cbc 6874 e4bc b6bb 3d3d
00000330: 7e6f abbd 5db6 9ebd 860a 6f3d dae6 83bd
00000340: 2251 7d3d 09c0 903d b350 1fbd 70e9 7dbd
00000350: 1a4b 46bd f303 34bd 1abb 76bd c477 d73c
00000360: 9ea7 633d c57f c3bd ebe9 a8bd f874 9fbc
00000370: 4cb5 febc 907e 03bd c2f3 543d c766 6ebd
00000380: f083 c0bd a4df f23c a13a ae3d 4021 093b
00000390: 3b61 9cbd e2a1 533d 2bca b73d 6c5e a5bc
000003a0: e0a4 f2bc 8f98 bb3d 00e7 fe3b 5495 b13c
000003b0: a21f a9bd 1e69 7f3d 6542 a03d adbe 27bd
000003c0: 417d c43d 3696 9fbd 837f c8bd a0d5 17bb
000003d0: 0ae9 b5bd 207d d4bb b7b2 b73d fb08 b23d
000003e0: cd7f 8a3d 37f1 5abd f8ac 953c 9444 c4bc
000003f0: 9739 5abd 5c6c ef3c a812 0bbc 6820 9cbc
0.09409667 0.0537725 -0.04518285 -0.0251254 0.051159017 -0.053133 -0.08166772 0.04572796
-0.07920448 0.056438826 0.07674534 0.021021664 0.029067703 -0.005190052 -0.013906576 -0.04570489
-0.04470519 0.06610707 -0.061161567 -0.021417782 -0.060712982 -0.09493183 0.08303968 0.03809721
0.08453531 -0.010289922 -0.07963483 0.012860872 -0.083069906 -0.05897987 0.056246586 0.03226418
-0.07424257 0.03171765 0.09102314 -0.021655738 -0.06489806 0.037179403 -0.021067187 0.04675246
-0.072378695 -0.052568365 0.06726069 -0.004818402 -0.08755564 -0.05222113 0.031038858 0.040940575
0.09619518 -0.08641088 0.09095823 0.07259678 0.097061984 -0.03174962 -0.041353215 -0.051291704
-0.09857545 -0.034716867 -0.055392157 0.076681964 -0.017074205 -0.01621934 -0.05618156 -0.01846578
0.040255524 -0.059796896 0.00830064 -0.09036478 0.0060070306 -0.09326959 -0.09951239 0.084678285
0.051787935 0.00888069 0.0065788776 -0.02737479 0.029910155 -0.0008518696 0.013631806 0.01679822
0.06857941 -0.03742665 0.053657107 -0.018814005 -0.03668593 -0.07190885 0.050872408 0.0062831044
0.06031079 0.026878767 0.085319646 0.031081416 0.041101836 -0.09974461 0.043641783 0.05294215
-0.08472498 -0.06457639 0.008137621 0.026062064 -0.03605666 -0.069366574 0.06549702 -0.045206405
0.044169657 0.07051354 -0.019368708 -0.054492928 0.007802546 0.057218023 -0.028701201 0.029173829
-0.055847015 0.07033438 -0.07361126 -0.009879366 0.024116755 -0.04938562 -0.08597745 0.051149346
0.0038338453 0.07172681 -0.08770915 0.082258366 0.07224297 0.05799771 -0.020916678 0.016841985
-0.08229724 -0.047331512 0.019604966 0.08295839 -0.018569276 0.061914988 0.006826222 0.08179814
-0.048266448 -0.021879375 0.044687398 0.026908763 -0.09349865 0.089102276 -0.08996653 0.0067396536
-0.066845804 0.089268096 -0.043372836 0.06144678 -0.011566594 0.034141667 -0.08490441 -0.0024987832
0.06345374 0.07626171 0.0042439327 -0.059965875 -0.07350632 -0.08110193 -0.057941355 0.03157208
0.09160868 -0.030377828 -0.08917522 -0.06347403 0.004849121 0.08781517 0.06670267 -0.044373345
-0.030352846 0.009855762 -0.071742214 -0.015734516 0.059024937 0.08266956 0.031382106 -0.075128615
0.05633975 -0.042528618 0.028707184 0.049607806 0.039279483 0.05775974 0.07703682 -0.018857501
-0.032649696 0.047831245 0.030557998 0.0021509677 -0.013572611 0.06125968 -0.068324 -0.005170986
-0.004407525 0.084908314 -0.022272527 0.035119005 0.0070824623 -0.040091693 0.025825746 0.028476588
0.0853622 -0.011482157 -0.027887538 0.046321593 -0.08370875 -0.07749627 0.058359645 -0.06440516
0.061844952 0.07067878 -0.03889532 -0.0619902 -0.048411466 -0.04394908 -0.060237028 0.026302226
0.055579774 -0.095458545 -0.08247741 -0.019464955 -0.031092308 -0.03210312 0.051990278 -0.058203485
-0.09400165 0.029647656 0.08507276 0.002092436 -0.07635733 0.051668055 0.08974107 -0.020186625
-0.029619634 0.091599576 0.007779002 0.02167765 -0.082579866 0.062356107 0.07825164 -0.040953327
0.09594203 -0.07792322 -0.09789946 -0.0023168102 -0.08882339 -0.0064846426 0.08969634 0.08693119
0.06762657 -0.053452697 0.018270954 -0.023958482 -0.05327758 0.029226474 -0.008488335 -0.019058421

lstm.bias_ih_l0_reverse f4 [400]
00000000: 60d9 383b c25e 81bd 9ee9 a23d eeae 5f3d
00000010: 03d0 bb3d 19ba ddbc 87c4 67bd 1788 86bd
00000020: e692 5b3d a74a debc 205f 15bd 3ae7 23bd
00000030: 504b a53d d3bc 40bd faed 3bbd 8030 a13d
00000040: e9db 823d 561e a7bd 3bc8 8ebd 849e 803d
00000050: 962e 45bb 6392 edbc 5647 2f3d 8e24 e8bc
00000060: 0308 6fbd cf5f 033d 1e75 bebd 8261 e4bc
00000070: 26ef a43d e87d 003d 9041 923d b626 9bbd
00000080: 9b65 3cbd 437c cd3d f6b9 21bc 8e31 73bc
00000090: 8df6 853d dd64 d13c 5eae 9f3d b9f1 90bd
000000a0: 2ba5 b3bd 8ab5 11bd b211 67bd 40b8 8cbb
000000b0: 2510 7abc 6a05 d33c e4d1 04bd ad07 bcbd
000000c0: 9e2f 6f3d d8d2 37bb f893 69bc 75cc cc3d
000000d0: f7c8 b13d 5faf de3b a827 4f3a 4d36 40bd
000000e0: 7c2d 403d 5dcb 833d f9c7 2dbd 4775 6ebd
000000f0: 1ea8 42bd b1f8 a7bd 4c62 8abd 783f 443c
00000100: 548d 3abb aaa6 0dbd 32c5 bb3a c39f fabb
00000110: 40f1 90bd f3fe 7a3d a50f 09bd db68 66bd
00000120: 06c5 1f3c 6b67 0ebb d178 d9bb d5e5 803d
00000130: 985d cf3d 9475 96bc 8593 e9bc c283 86bd
00000140: 46fe 8d3d b9fc 93bc 25c1 a43d ef7d 5f3d
00000150: 7246 2c3d 49ee 74bc a5bd 03bd 8726 1c3c
00000160: 4655 9f3d ef0f 89bc e5b1 b93d 84bd 163b
00000170: 3fda 933b 4e63 8bbd c2d1 983d e58d a43d
00000180: 89e8 b03d 2d44 0a3c 9b5c a53d 5e10 9d3d
00000190: 2de7 2fbd b0de 51bc e288 013d 372e 56bd
000001a0: 63fa 903d 6386 903d f38c a43d 0191 c53d
000001b0: 5a6b 0fbd b261 acbd bb8a cb3d 00a0 a537
000001c0: d8b0 abbd 909d 463c 28e5 753c e7f3 ba3d
000001d0: acc3 aa3c 1a1e 4ebd 9857 94bc 5859 ebbc
000001e0: 8820 bebd 8055 29bd c465 8bbd 8dd5 68bd
000001f0: b7f7 b63d 3299 5e3d b343 cbbd c025 00bb
00000200: cea3 1e3d b94d 833d b28a 553d 8feb c13d
00000210: e9f4 c93d a325 2dbd 9b5f c73d 8646 1d3d
00000220: 69dd a73d 80d9 55ba a32f aa3d 0052 be39
00000230: 1d90 52bd 699b c33d 238a c8bd 5192 ae3d
00000240: 97ee c9bd 0d67 b1bd 7d15 6fbd b90b 823d
00000250: 8dbd c33d e202 c4bd adf1 59bd a016 e6bb
00000260: cd3f 77bd cd3f 5cbd 9733 2bbd aa7d bdbd
00000270: d5bd b2bd b2b8 663d 8501 b3bd 4dde 87bd
00000280: d012 923b 7457 acbc 7622 593d ebc5 943d
00000290: 99c5 923d 8b0f 943d 7e98 633d e0c4 b0bc
000002a0: e781 5dbd ffb8 a03d 40a4 38bc 9839 a13c
000002b0: 18eb aebd 1913 843d 0d45 1abd 0fa8 b5bd
000002c0: 4175 a03d 72a7 91bd 2035 a43b 05d2 c03d
000002d0: bf07 853d 60b5 17bd 374b a53d 9aa7 83bd
000002e0: dcc5 0abd e311 a43d dea1 1b3d c7e3 b7bd
000002f0: 1810 4fbc 40a1 36bc e081 c3bd d04b e83b
00000300: 3064 8abb aa33 3dbd d717 65bd 4072 92bd
00000310: ce36 99bd 255d c1bd 0975 973d e830 133c
00000320: 3f53 1fbe 019e c23d 891f 90bd 318d f53d
00000330: 88a0 633d 98a3 223c 8c9a a83d c575 173e
00000340: 30ad f9bd b4ca a13d 2453 74bc 6292 10bd
00000350: 3045 1ebd ef35 943d 77be 9bbc 58e5 ee3c
00000360: a3e0 6abc fe55 dc3d 39ec 443d 9c75 a5bd
00000370: 8cdb 49bd 381c 1ebe 0197 7d3c 08e2 83bd
00000380: 1e19 fb3d 591a bb3d d7c7 2b3c a7cf 4b3c
00000390: aa7a 53bd e373 5ebd 6566 c0bd 78b2 1ebd
000003a0: 43be 06bd eb5b 46bd 3d2a 023d 59d2 723d
000003b0: b2ba a0bc 9dcd 8fbd 5071 f1bc 36d1 963d
000003c0: b4cc 213d 715c 913d d968 2ebd bfc9 20bd
000003d0: 569d 89bd 0cea a23c dff3 29bd 6783 eb3d
000003e0: ffc2 f13c 9e72 58bb e355 843d 8035 ccbd
000003f0: b5ef 873c a3f1 a1bd f543 2a3d a2b6 ca3d
0.0028205737 -0.06316902 0.07954715 0.054610185 0.091705345 -0.027066277 -0.056583907 -0.06568926
0.05360689 -0.027135206 -0.03646767 -0.040015437 0.08071005 -0.047055077 -0.04588125 0.07870579
0.06389601 -0.08160083 -0.06971785 0.062802345 -0.0030087582 -0.029000467 0.04279264 -0.028337743
-0.05835725 0.032073792 -0.09299682 -0.027878527 0.080534264 0.031370074 0.07141411 -0.07575743
-0.045995336 0.10033467 -0.009870997 -0.014843358 0.065411665 0.02556079 0.0779693 -0.07077355
-0.08771738 -0.03557352 -0.05641336 -0.0042944252 -0.015262638 0.025759418 -0.03242673 -0.091811515
0.05839502 -0.0028049257 -0.01425647 0.099999346 0.08680909 0.006795808 0.00079023326 -0.046926785
0.046918377 0.06435273 -0.042427037 -0.058217313 -0.04752361 -0.08201731 -0.0675703 0.011978023
-0.0028465586 -0.03458277 0.0014325737 -0.0076484396 -0.07077265 0.061278295 -0.033462185 -0.05625234
0.009751564 -0.0021729122 -0.006636717 0.06293837 0.101252735 -0.018366612 -0.028512726 -0.065680996
0.069332644 -0.018064843 0.08044652 0.05456346 0.04205937 -0.01494939 -0.03216328 0.00953067
0.077799365 -0.01673123 0.09067134 0.0023001144 0.004512101 -0.0680605 0.07461883 0.08034877
0.086381026 0.008439106 0.08074304 0.076691374 -0.042945076 -0.0128094405 0.031624682 -0.052290168
0.070790075 0.07056882 0.080346964 0.09646798 -0.035014488 -0.084170714 0.0993857 1.9744039e-05
-0.0838334 0.012122527 0.015008248 0.09128552 0.020845257 -0.050321676 -0.018108174 -0.028729126
-0.092835486 -0.041341305 -0.0680652 -0.056844283 0.089339666 0.054345317 -0.09925022 -0.001955375
0.038730435 0.06411309 0.052134223 0.09468757 0.09861166 -0.04227222 0.09735032 0.038397335
0.081965275 -0.0008157715 0.08309867 0.0003630072 -0.05140697 0.095511265 -0.097919725 0.085240014
-0.098599605 -0.086622335 -0.058370102 0.06349892 0.09557638 -0.09570862 -0.053208996 -0.00702174
-0.06036358 -0.053771783 -0.041797247 -0.09252484 -0.08727614 0.056328483 -0.08740524 -0.066341974
0.004457809 -0.021037795 0.05301138 0.07264312 0.07166595 0.07229527 0.05556535 -0.021578252
-0.054078963 0.07847785 -0.011269629 0.019680783 -0.08540934 0.06448955 -0.03766351 -0.08869945
0.078348644 -0.07112016 0.005011216 0.09415058 0.06495618 -0.037038207 0.08070987 -0.06428452
-0.0338801 0.08011224 0.037996165 -0.08978992 -0.012638114 -0.011146843 -0.09546256 0.0070891157
-0.004223369 -0.04619185 -0.05593094 -0.07150698 -0.07481156 -0.09441594 0.073953696 0.008983828
-0.155591 0.09502793 -0.07037265 0.11989821 0.055573016 0.009926699 0.082326025 0.1479102
-0.12191236 0.07899991 -0.0149124 -0.03529585 -0.0386402 0.072368495 -0.01901172 0.029162094
-0.014335784 0.10758589 0.048076842 -0.08079073 -0.04928164 -0.15440452 0.015477897 -0.064395964
0.1226065 0.09135885 0.010484657 0.012439645 -0.051630653 -0.054309737 -0.0939453 -0.03874442
-0.03289629 -0.048427504 0.031778563 0.059282634 -0.019620273 -0.070216395 -0.029472977 0.073641226
0.03950186 0.0709771 -0.04258046 -0.0392549 -0.067194626 0.019886993 -0.04149234 0.114996724
0.029511927 -0.0033027302 0.06461694 -0.09971142 0.016593793 -0.07907417 0.041568715 0.09898116
