results/torch_1L_lstm_model.pt (torch, 214455 bytes, 6 tensors)

lstm.weight_ih_l0 f4 [400, 28]
00000000: 65eb 30bc 6545 533d fd4a 0a3d 14f1 983d
00000010: cf04 9d3c cdf0 b23d fc95 4b3d e0a2 a2bc
00000020: 7b6b bcbd b762 9d3b 0641 13bd 692b debd
00000030: 80f1 77bd f4d1 f9bc 9c1a a6bc 3fc1 cabd
00000040: ae03 79bd 0172 98bd 6ee9 743d 7788 39bd
00000050: a778 13bd d8e7 d3bd c33f 913d 47c2 8dbd
00000060: d94d 83bd c807 03bd 1880 aebd 5e42 843d
00000070: ee5d 10bc 1da4 71bd 5516 d13c 9afc 1fbd
00000080: cac8 5c3d 96f0 80bc 7c74 d23d 1bb5 883d
00000090: cd73 64bd 0ec0 48bd b9a6 56bc 581a 8cbc
000000a0: 0cbd de3c bd83 e63c 7805 e7bc ad5b 9b3d
000000b0: 8b72 8f3d 0b7e beba 965e 9abd f708 dabd
000000c0: 5f5a bcbd dd85 b6bd ba9f 1a3d e923 aabd
000000d0: 4865 3a3d 3018 4ebd 7a76 83bd bca1 b0bc
000000e0: 3c2f a23e b692 a03e a02e 1a3e cf98 563e
000000f0: 3ee7 033d d94e 063d fec9 c6bc 0531 8ebd
00000100: f47c cb3d c257 cc3d 6f60 3abd 2b42 b73d
00000110: b4de 6fbd df9f 783c 2d74 b33d 60b0 0a3e
00000120: 4d95 173e ea1c 363e 32ba f73d e166 193e
00000130: c970 c13c 3d6d 733d b428 193e 78bd 2e3d
00000140: 14f7 2c3d fe01 363e 9e24 063e a1e7 d73a
00000150: 72d5 04bd 094f 273d 76bb 843d 76b6 5bbc
00000160: 3259 ec3d 835c 943d e583 fdbb 77f0 f5bc
00000170: bbf9 0bbd 57d1 73bd d74f 83bd e225 4e3d
00000180: 7d80 86bd e88b 49bd d9d2 2dbd e767 b2ba
00000190: 811b d2bc 4e00 b73d 07ae d83a a73e 783d
000001a0: 8e34 733d 48b0 4bbd 5b33 283d 4e6e 233c
000001b0: 0736 b53d 4ff2 e33c ebd8 a93d 3321 52bd
000001c0: 757f 983a 2525 fcbc d7b7 013c b0eb b6bd
000001d0: 1b08 4e3b 0743 03bd 1850 4a3d c2c1 be3d
000001e0: dfe7 cb3c c49e b43d 975b 1bbd e9d4 5d3d
000001f0: 23f8 27bd db2f 923d 4b91 17bd 6303 dd3b
00000200: 5873 443b c54a e23c 391c 35bd 204f 95bd
00000210: 6f66 c03d 4954 e33c 7230 66bc 2db6 9dbd
00000220: e2ec bf3d 5390 893d 00e2 d2bb 6354 cb3d
00000230: 6c36 923d 3566 e7bd d95c 0ebe 5c6f bcbc
00000240: c5d5 4abc 11bb 3bbd 04d0 ebbb ccc9 08bd
00000250: 46f2 02be 677e 9abd d320 b23c d79d e2bc
00000260: 5fa1 843b 57e0 c7bd 9561 cebc 78ce eebc
00000270: 2ae0 d6bd 561c bebd 7254 3dbd 9992 6ebd
00000280: cfe3 09bd cb15 573d c62d 9fbd 146c 8f3c
00000290: 4993 5bbb 9eae 08be 548c 67bd 40f2 f3bd
000002a0: 087c 223d 345a 003e 5a27 3c3e 6d3a 3c3c
000002b0: 8921 9bbd c8c2 b93d 9c96 243a 1788 8dbd
000002c0: 69e6 53be a682 8dbd aadd 3abe b4b6 c2bd
000002d0: 7c06 33bd 31bb e93d fa38 b83c ea7f 6ebd
000002e0: f0da 87bc dce2 8f3e adff 373c 42a4 90bd
000002f0: 6c8d 4f3d 3020 8f3d 3076 38be c580 ecbc
00000300: 73b1 4fbd 6704 8b3d 3663 b03d e3c2 90bc
00000310: 0358 8d3e 3ad2 2b3e 5f3e 853e d17c 083e
00000320: 1d53 f03d bf15 d13d 8333 4bbc 0f95 893c
00000330: 1f77 b8bc 52c1 fdbd b78f e2bd 0e5a d9bd
00000340: b73d 0fbc 72f2 1f3e 8923 bfbb 656a 303e
00000350: c79e bf3d 2514 083e 6c00 843d 18ba bd3d
00000360: 761e 293d d1ec 033e e250 383d c4b6 b13c
00000370: 6417 8f3d eb24 4cbb cab3 50bd 4483 33bd
00000380: dad2 98bd 90e8 bc3d e281 d33d 0bc0 70bc
00000390: 5789 58bd 7b10 6fbd 961a 26bd c2e7 bcbb
000003a0: 516b 25bd 79e7 b3bc 1fd0 a3bd 8c9b ad3d
000003b0: b842 ed3d f2af 183e a564 d53d 5cd3 043d
000003c0: 0a7a f6bb ac6b 1bbd dc4f db3c ab85 183d
000003d0: fa27 2dbd ecc2 443c 3dbd db3a aaa6 e83c
000003e0: a97d 83bd 1b27 a5bb f0b0 8cbb db5e e7bc
000003f0: f2d0 b2bd 1b0d d9b9 13a7 a5bd 6811 823d
-0.01079831 0.05157985 0.03376292 0.07467857 0.019167332 0.08737335 0.049703583 -0.019853055
-0.09200188 0.0048030275 -0.035950683 -0.108481236 -0.060533047 -0.030495621 -0.02027636 -0.0990014
-0.060794525 -0.074436195 0.05979293 -0.04529616 -0.036003735 -0.10346955 0.0709224 -0.06921821
-0.06411333 -0.031989843 -0.08520526 0.06457971 -0.008811457 -0.0589944 0.025523344 -0.03905926
0.053902425 -0.01573972 0.10276124 0.06675168 -0.0557745 -0.049011283 -0.013101273 -0.017102405
0.027189754 0.02813899 -0.02820085 0.07585845 0.07004269 -0.0014533413 -0.07537572 -0.10646241
-0.091969244 -0.08912251 0.037749983 -0.083076306 0.045506746 -0.050316036 -0.06419082 -0.021561496
0.31676662 0.31361932 0.15056849 0.2095673 0.03220295 0.03279004 -0.02426624 -0.069429435
0.09935942 0.09977676 -0.045502122 0.089481674 -0.058561996 0.015174835 0.08762393 0.13543844
0.14803047 0.17784467 0.12096061 0.14980651 0.02361335 0.05943035 0.14956933 0.04266116
0.04222782 0.17774197 0.13099906 0.0016472229 -0.03243012 0.04084686 0.06481068 -0.013410201
0.1154045 0.07244208 -0.0077366703 -0.03002189 -0.03417371 -0.059525814 -0.064117126 0.050329097
-0.06567476 -0.04920569 -0.042437408 -0.0013611288 -0.02564788 0.08935605 0.0016531356 0.060606625
0.059376292 -0.04972866 0.0410646 0.009975029 0.088481955 0.027825503 0.08293327 -0.051301192
0.0011634665 -0.03077943 0.007917366 -0.089316726 0.0031437937 -0.032046344 0.04939279 0.093143
0.024890838 0.08819345 -0.037929144 0.054158125 -0.041008126 0.07138034 -0.037003797 0.0067447885
0.0029975977 0.027623544 -0.04421637 -0.072904825 0.09394538 0.027750151 -0.014049636 -0.07700763
0.09371354 0.06716981 -0.0064356327 0.09928205 0.071392864 -0.11298791 -0.13902606 -0.023002319
-0.012380068 -0.045832697 -0.0071964283 -0.033395573 -0.12787732 -0.075436406 0.021744167 -0.027663155
0.0040475572 -0.09759586 -0.025193015 -0.029151186 -0.10491975 -0.092827484 -0.04622311 -0.058245275
-0.03366452 0.052511018 -0.077724025 0.01750759 -0.0033504537 -0.13347861 -0.05653031 -0.1191144
0.039669067 0.1253441 0.18374386 0.011488539 -0.07574756 0.09070355 0.0006278546 -0.06910723
-0.20693363 -0.06909685 -0.1824862 -0.09507504 -0.043707356 0.11412657 0.022488106 -0.058227457
-0.01658389 0.28102767 0.011230391 -0.0706258 0.05067198 0.06988561 -0.18013835 -0.028869996
-0.05070634 0.06787949 0.08612673 -0.017671054 0.2760621 0.16779414 0.26024148 0.13328864
0.117346026 0.10209226 -0.012402418 0.01679471 -0.022517739 -0.123903885 -0.11062568 -0.1061288
-0.008742741 0.1561983 -0.0058330935 0.17228086 0.09356456 0.13288935 0.06445393 0.0926401
0.041288815 0.12883307 0.04499901 0.021693595 0.06986883 -0.0031149935 -0.05095271 -0.043826357
-0.07462092 0.09224045 0.103275076 -0.014694224 -0.052865352 -0.058365326 -0.040552698 -0.0057649324
-0.040385548 -0.02196096 -0.0799868 0.08476934 0.11584991 0.14910868 0.10419587 0.03242813
-0.0075218724 -0.03794448 0.026771478 0.03723685 -0.042274453 0.012009364 0.0016764771 0.028399784
-0.06420452 -0.005040062 -0.0042935535 -0.028243473 -0.087312594 -0.0004139923 -0.080885075 0.06350976

lstm.weight_hh_l0 f4 [400, 100]
00000000: a69b d83b 392d a23d 8205 4c3c bde6 0c3d
00000010: 662d 97bd f41b 353d 018e 75bd 1ca6 b7bd
00000020: bade 4bbb d324 b7bd 01c1 34bc 0a0f bfbd
00000030: 5881 b03c eeef 75bc f543 aabd ebe3 a93d
00000040: 7c9f d33d 14dc 923c 6ac7 b1bc 6ed7 1c3d
00000050: 8fc1 cdbc affb d3bc a86d 943d 8ed4 65bd
00000060: 17c3 483d b91d d43c 15a8 22bd 186f 5fbc
00000070: 37e9 a83d 6ace bbbd a9e1 3fbd 97b9 cfbd
00000080: ec39 98bc 7410 203d 9db8 2d3d abd1 003e
00000090: e109 3c3d f313 88bd 9d8c 9c3d 59ab 0cbc
000000a0: 7d7c 9fbd d38d eb3c 47d3 50bd cf9f 013d
000000b0: 735e 823d 79e1 aabd 9289 713d 69e8 8e3b
000000c0: f8d6 a33c 241a cfbc a293 eabc 4b22 92bd
000000d0: 188e f53c 5e8c bcbd 090f b839 00a8 bd3c
000000e0: e81a 1ebc 3362 3b3b c05f eabd b90e b8bc
000000f0: 6709 aebd 9e30 a73a ab6d 0a3d 6779 89bd
00000100: d13e cb3d 7a97 8fbd da3c 6e3c eeea 4e3d
00000110: 1a6e 36bd 585c 57bd 818e ffba 7058 83bd
00000120: 7573 42bd 8b68 8c3d 095a 113d 938c 8b3d
00000130: c0b1 c93d 2fef dbbc 4d40 3fbd b84a 803d
00000140: 6382 c2bd 1584 81ba bbb2 413d 2efc cabc
00000150: 7fc6 193d 3683 7c3c 5fa9 99bd 78a1 3bbd
00000160: 135a e03d db29 4cbd c2aa 60ba ab2d 2bbb
00000170: 8436 473c 58b4 00be 379e eabc 59d2 98bd
00000180: 267e 4b3a 52e0 9b3d 02dd 543d 70b7 2bbc
00000190: 6a07 4abd 16ab efbd 29bb 493d 6ae8 81bd
000001a0: 342b 82bd 3a4c 79bd 2465 ffbc dfa4 a9bd
000001b0: 61af 2b3d 817a 8d3d ee8d 973b 6e1e d3bd
000001c0: f821 babb 696b ee3b 8528 e4bd ecb3 53bd
000001d0: 3f30 aabd 2dc1 83bb e4a1 a73d 432a 1b3d
000001e0: 7561 51bc 7b83 d2bc 575a 78bd c83d aebc
000001f0: 400c 3b3d f7e7 50bd 9e2d 913d 6877 11bd
00000200: b5a4 bf3d 4a90 ed3b 1387 8abc dad6 a53d
00000210: d515 f73c 5a00 16bd 9d41 46bd e763 763d
00000220: 1509 cf3d b9f3 a23d 2650 b2bd bea0 823d
00000230: 7b41 d8bd 5ddb adbd 061f 653d 1b54 86bd
00000240: 9c1a 05bc f5e2 6ebc b41e 80bd e1b7 823c
00000250: 7e66 fdbc 25eb 6ebd 1a7e b7bd 883d c8bd
00000260: f540 dabd cc67 44bc 94dd 74bd e43e 8fbd
00000270: fe01 dbbd 0a43 923d b7c0 fa3b b41c 733b
00000280: bdd1 94bd 61cd 823d 5a69 a8bc 0280 713d
00000290: f01d 843d d593 f13d 8388 d33d 6df5 bfbc
000002a0: 2a4a ec3c b9c0 8a3c c56e fb3c 74d5 313b
000002b0: f3b1 36bd 372c cbbd b176 adbb 4f3e 4ebb
000002c0: 95ee 2e3b 95be 58bd bb7b 12bc 6776 cf3d
000002d0: e21c 113c 71b5 01be 7023 00bd b9f9 1fbd
000002e0: e10d 023d 1933 1bbc 8e3a 363d dc2c a8bd
000002f0: 9fd0 0f3c 31b4 93bd a1ea 4cbd 5ef1 6abd
00000300: fab5 9cbd 5b15 66bd 84bf 72bd ad13 86bd
00000310: 1194 91bd d4e5 62bc 4d49 7dbc 0eb3 9d3c
00000320: 0ff8 2d3c c7b3 ca3d 6422 d8bb 7beb 3abc
00000330: f013 453c 455e 713c cdb7 0b3b 8fe7 833d
00000340: cc3b 19bd 88de a3bd 6fc9 963d 95e8 e9bd
00000350: 8f72 c53d 36b4 c8bd dec4 16bc bb22 e7bd
00000360: c65c 183d 6e5e e13c b691 0bbc 1088 c5bc
00000370: 171a 94bc 880a 7dbd b3da cc3c 6b50 6c3d
00000380: 98a8 363d 91f4 13be e8c5 3fbd 9d65 86bd
00000390: a373 3abd 4ff9 973d 03eb 053e 8dfe 0cbd
000003a0: 73c6 273d 0fd2 573c f681 283b 1879 7abd
000003b0: d7ee 3b3e c4a1 31be 0553 863d d1a2 a9bd
000003c0: f17e 98bc 561e f73c 55ea 43bd 572b aabd
000003d0: 543b 183d 8006 813d 4268 2e3d 981c 3b3c
000003e0: d035 76bd 1ae3 cd3c cbc7 b6bc 6d0f be3d
000003f0: 0497 6c3c f6e1 713d b202 4f3d 7f3b be3c
0.0066103516 0.07918782 0.012452485 0.034399737 -0.07381706 0.04421611 -0.05994988 -0.0896723
-0.0031108097 -0.089425705 -0.011032344 -0.0932904 0.02154605 -0.015010817 -0.08313743 0.08295425
0.103331536 0.017927207 -0.021701533 0.038291387 -0.02511671 -0.025876848 0.07247478 -0.05611091
0.049014177 0.02589308 -0.039711077 -0.013637327 0.08247607 -0.0917023 -0.046846066 -0.1014282
-0.018582307 0.03907819 0.04241239 0.12579982 0.04590786 -0.0664443 0.07644007 -0.008585774
-0.07787416 0.02875415 -0.05098274 0.031646546 0.06365671 -0.08343787 0.058969088 0.0043612015
0.019999966 -0.02528102 -0.02863485 -0.07135447 0.029974982 -0.092064604 0.00035106417 0.023151398
-0.00964997 0.0028592467 -0.11444044 -0.022467958 -0.08497887 0.0012755578 0.033795994 -0.06712609
0.09924091 -0.07011314 0.014540875 0.050517015 -0.044538595 -0.0525783 -0.0019497426 -0.064133525
-0.04747339 0.068558775 0.035486255 0.06813922 0.09848356 -0.02684745 -0.04669218 0.062642515
-0.094975255 -0.0009881282 0.04728959 -0.024778452 0.037542816 0.0154121425 -0.07503008 -0.045808285
0.1095468 -0.049844604 -0.0008570367 -0.002611975 0.012158994 -0.12568796 -0.028639896 -0.07461996
0.0007762633 0.07611145 0.051968582 -0.010480747 -0.049323477 -0.11702554 0.049250755 -0.063431576
-0.063558966 -0.06086371 -0.031176157 -0.082834 0.0419153 0.069081314 0.0046250736 -0.103085384
-0.005680319 0.007275988 -0.11140541 -0.05168526 -0.083099835 -0.004020831 0.08185175 0.0378821
-0.012779583 -0.02569746 -0.06063303 -0.021269694 0.04566598 -0.05100247 0.07088779 -0.035514265
0.09357587 0.0072498666 -0.016910112 0.0809762 0.030161778 -0.03662143 -0.048402417 0.060153868
0.10109154 0.07956643 -0.08706693 0.063783154 -0.105593644 -0.08489106 0.05593779 -0.065590106
-0.00812402 -0.014580478 -0.06255856 0.01595682 -0.030932661 -0.05832972 -0.08959599 -0.09777361
-0.10656921 -0.011987638 -0.059781626 -0.06994417 -0.10693739 0.07141693 0.007652368 0.0037095966
-0.07266567 0.06386829 -0.020558048 0.05895997 0.064510226 0.11795775 0.10328772 -0.023432458
0.028843958 0.0169376 0.030692467 0.0027135285 -0.0446033 -0.09920543 -0.00529369 -0.0031470244
0.00266925 -0.05291613 -0.008940632 0.10130005 0.008856984 -0.1266687 -0.031283796 -0.039056513
0.031751517 -0.009472632 0.044489436 -0.08211681 0.0087777665 -0.07212103 -0.050028447 -0.057359092
-0.07651897 -0.05617271 -0.059264675 -0.065467216 -0.071083196 -0.013848741 -0.015459371 0.019250419
0.010618224 0.09897571 -0.0065958966 -0.011408682 0.012028679 0.014731948 0.002131927 0.06440651
-0.037410542 -0.08001429 0.07362639 -0.114213146 0.09640991 -0.097999975 -0.00920221 -0.11285921
0.03719785 0.027510848 -0.008518627 -0.024112731 -0.018078847 -0.06177762 0.025006628 0.05769388
0.044594377 -0.14448763 -0.046819597 -0.0656235 -0.045520436 0.07420599 0.13077931 -0.034422446
0.04096074 0.01317264 0.0025712228 -0.06115064 0.18352829 -0.17346865 0.065588035 -0.08283008
-0.018615218 0.030165832 -0.0478309 -0.08309048 0.037165955 0.06300068 0.042579897 0.0114203915
-0.060109913 0.025132705 -0.022312066 0.09280286 0.014440302 0.059053384 0.05053968 0.02322173

lstm.bias_ih_l0 f4 [400]
00000000: a204 d13d d627 2f3d e46d 203e b2d5 c53d
00000010: d37c 763d 9e39 533d 3424 15bd 1d44 8d3e
00000020: 9bbd 1a3d 2ca1 52bb 8343 1cbe 9ddd 50bd
00000030: 3751 c23d 321d c13b 22d6 bc3e 9017 993d
00000040: db17 a13d 01ef 413e 6bc5 dcbc 2d89 0c3e
00000050: ca3f dd3d cc9d 963d a9db 0c3e a11b 83be
00000060: 36b4 d8bc 695a 943e 3c12 843d cd43 e33d
00000070: e086 9a3d dfe8 603d 45d5 8f3e dcf5 9e3e
00000080: 6175 ad3d 0961 ab3d 7d73 57be 46cf 263e
00000090: adc5 a83e ba91 fdbd a41e dc3d 9767 88be
000000a0: b17a f53d d1a7 8e3d 1f06 393e c961 073e
000000b0: 9ec9 8f3a 7ace 1a3e 26c3 4a3d 5f4b c73d
000000c0: 28d8 b13c 0a01 033e 1ef2 1d3e 330e 673e
000000d0: 31e8 92bc 4290 063e 2318 013e c06f 0eb5
000000e0: 5530 c03d 2c85 133d 95a9 893d b158 48bc
000000f0: d5f7 b43c 7682 c23a 21dd aa3e 8ac5 2d3e
00000100: 783f abbc 2ebc 433c 519c 7d3d 6531 9f3e
00000110: d68e 9e3b 8035 ec3d 5192 d03e 98e9 f4bc
00000120: a3c4 513d 4b0b 20bd 2223 de3d e465 c9bd
00000130: 6705 8e3d 77a3 973d d3a0 c33e 2a1e 8f3d
00000140: 88ee 4d3e 8b70 dabd 4e05 c83c 54ef d93c
00000150: 933f 2d3d 0abb 193d 876e a73c 2967 093e
00000160: ebc9 4c3e 4b67 733c f275 743d 0520 333e
00000170: e4d6 263e 9a77 f03d 154c f1bd dc42 2a3b
00000180: 5540 db3d 8d18 3abc ef44 e7bc a90a 443e
00000190: c2e8 113d e0ce 7d3e 6be8 dcbd d8f4 453e
000001a0: cbdd 213d eef5 2e3e 6b0f 453e 5dc3 fdbd
000001b0: 9fff 0c3e dcd8 c8ba ce0e e73e 362f 913e
000001c0: 889f 503e 40f3 883d 8ad9 cdbe 6918 6d3e
000001d0: 5fed ee3d ce90 183e 5d10 893e 3321 693d
000001e0: d327 033e b034 1f3e ace2 9d3e 6b3f a43e
000001f0: 9044 583e f30a 953b e216 8d3d ea17 a63c
00000200: 59a0 e9bc 228c 563e f426 7f3e cfd7 bebc
00000210: 704b a43e 0d67 e83d fb6c 203f 7cfb 953e
00000220: ead5 80be dd2d 3c3e 8ebf 463e 683a 163f
00000230: 42bc 9c3d 3643 3e3e 0099 2b3e a4fa 21bc
00000240: cc78 5d3e fc1d 30bd 0527 e93d b8b5 813e
00000250: d2b9 863e 5769 fe3d 2a25 a73d ad50 bebb
00000260: 211e f63e 334c f63d ebfa 753e 5e0d 853d
00000270: 0cb7 023c 2f5b 923d 32b1 c33d 58b2 04bd
00000280: b8d6 193e 539a 903e 1822 91be 479d 363e
00000290: b5e6 843c 92c9 833e e4dc 0a3e 4ad2 56be
000002a0: d3b0 a63d 8582 9a3d 7185 57be 25f5 9c3d
000002b0: afd0 3e3e 4fc6 aa3e ac83 123e 40ae bd3e
000002c0: 96b5 983e 6187 2c3e 136e c9be 65fb 513e
000002d0: d353 bd3d 3911 223e 6ba2 2b3e 8d13 8b3e
000002e0: 3785 b5be c09f 3b3e 4468 9e3e 8c6b 333e
000002f0: fbb4 c3bd 72d2 1a3e 26d0 463e d3ef 393e
00000300: 8058 c43d 1d64 5d3e b6ea 853e d632 f53d
00000310: c324 013d b4b0 213e 4cf3 943e 3215 1a3e
00000320: 5e68 f03d fc63 44bd 9532 b6be 8086 ad3d
00000330: 76b6 783c 7e66 d13d 58db 9dbd f579 a63e
00000340: c996 013d b10e e63d 53a0 2cbd afb7 6bbe
00000350: f539 003d 3003 0d3d b570 85be 241c d43d
00000360: e7ad 963d 52ea 7c3e a7c6 04bc 9c84 ef3d
00000370: 2636 a63e bcc0 72ba cc08 cfbd d5e8 cabe
00000380: 5201 2b3d c7fc a93e a3c4 69be a471 1b3e
00000390: b354 0e3e 7d01 41bd 8c19 253f a738 9e3e
000003a0: 1190 afbd 672d e1bb c8cc 4b3e d6ec 4c3f
000003b0: e115 c43e 9679 76bc 89ed c23d 1ebb bf3e
000003c0: 5c68 30be 38e5 b63d 4e92 2e3c 3438 813e
000003d0: 69e4 d2bd b11e 3ebe 56c2 bc3b 0522 26be
000003e0: d0ff 0c3e 6e3e 8a3d 04b5 1cbe 864d 41bd
000003f0: 0245 c9bd 4b34 c2bd 3d13 debe 2429 a13d
0.10205962 0.0427626 0.1566692 0.096599 0.060177635 0.05156862 -0.03641148 0.2759103
0.037778478 -0.0032139523 -0.15260129 -0.050992597 0.09488147 0.005893373 0.3688212 0.07475197
0.07865878 0.18938829 -0.026949605 0.13724203 0.108031824 0.07354316 0.13755669 -0.25607017
-0.026453119 0.28975227 0.064487904 0.11096916 0.075452566 0.054909583 0.280924 0.3104695
0.08469654 0.08368117 -0.21040149 0.16290006 0.32963315 -0.12381311 0.10748032 -0.26641533
0.11986292 0.06965602 0.18068741 0.13220896 0.0010970121 0.15117827 0.049502514 0.09731173
0.021709517 0.12793365 0.15424392 0.2256401 -0.017932983 0.13140967 0.12606864 -5.306174e-07
0.093842186 0.036015674 0.06721798 -0.012228177 0.022090832 0.0014839906 0.33371833 0.16969886
-0.020904288 0.011946721 0.061916653 0.31092373 0.0048388047 0.11533642 0.4073663 -0.029896542
0.051212918 -0.03907327 0.10846545 -0.09833887 0.06934624 0.07404225 0.38208637 0.06988175
0.20110524 -0.10665997 0.024416592 0.026603378 0.042296957 0.03753189 0.020438446 0.13418259
0.199989 0.01485617 0.059682794 0.17492683 0.16292912 0.11741562 -0.117820896 0.0025979793
0.1070563 -0.011358392 -0.028231112 0.19144692 0.035622366 0.24785948 -0.10786518 0.19331682
0.03951816 0.17086002 0.19244163 -0.12390778 0.13769387 -0.0015323418 0.45128483 0.28356332
0.20373356 0.06687021 -0.40205032 0.23153843 0.11666369 0.14898989 0.26770297 0.056916427
0.1280816 0.15547442 0.30837 0.32079634 0.21119905 0.0045484244 0.0688913 0.020275075
-0.028518843 0.20951894 0.24917203 -0.023296265 0.32088804 0.113477804 0.6266629 0.2929343
-0.25163203 0.1837687 0.1940901 0.5868287 0.07653095 0.18580326 0.16757584 -0.009886418
0.21628112 -0.042997345 0.113843955 0.25333953 0.26313645 0.12422436 0.08161385 -0.005807957
0.48069862 0.120262526 0.24021499 0.0649669 0.007978212 0.07146298 0.09555282 -0.032396644
0.15023315 0.2824274 -0.28346324 0.17833434 0.016223291 0.25739723 0.13560826 -0.20978656
0.08139195 0.07544426 -0.21046998 0.07663945 0.18634294 0.33354422 0.14308041 0.37047005
0.2982604 0.16848518 -0.39341792 0.20506056 0.09244504 0.15826882 0.16761176 0.27163354
-0.35453197 0.18322659 0.30938923 0.17521495 -0.09556004 0.15119341 0.1941534 0.18157892
0.095871925 0.21620221 0.26155633 0.11972587 0.0315292 0.15790063 0.2909187 0.15047148
0.117386565 -0.047946915 -0.35585466 0.084729195 0.015180221 0.10224627 -0.07707852 0.3251492
0.03163794 0.11233271 -0.042145085 -0.23019288 0.031305272 0.034426868 -0.2606255 0.1035693
0.07357388 0.24698761 -0.008104003 0.11695215 0.32463187 -0.0009260287 -0.101091 -0.39630762
0.041749306 0.33200666 -0.22828917 0.15180069 0.13899498 -0.04712056 0.64492106 0.30902597
-0.085724 -0.0068718675 0.19902337 0.8004888 0.38297942 -0.015043637 0.095179625 0.37447447
-0.1722731 0.08930439 0.010654999 0.25238192 -0.10297472 -0.18566395 0.0057604713 -0.16223915
0.1376946 0.06750189 -0.15303427 -0.047193073 -0.09827615 -0.0948263 -0.43374053 0.07869175

lstm.bias_hh_l0 f4 [400]
00000000: b62a 88bb c3fa 2d3e b6e9 163e 6573 023e
00000010: b368 183e 941d 943d 8cc0 cdbd ebbf b13e
00000020: 6001 1b3e 7643 bb3c 4e8a 3cbc c4e0 00be
00000030: 09c7 d33d c561 12bd e63b e83e 22d0 1b3e
00000040: 0c38 0d3d 6898 d93d 1097 b33d 1753 4b3e
00000050: 1cb5 ac3d 5833 cf3d 660b 963d 1bfb 69be
00000060: f560 21bd f7c7 b73e a45a 283d 3f92 753c
00000070: f1f1 f03c 8045 6d3d d757 403e 2e86 a53e
00000080: 3977 1fbd 7093 2a3e 5b20 42be 25a0 9e3d
00000090: d978 b23e 3cdd 03be 3e9d 193d 0bd4 89be
000000a0: b72a c23d e218 07bd 7591 913d d3c7 8dbc
000000b0: 1301 35bc 2864 72bc e332 d53d d988 273e
000000c0: 856d 99bb 9071 2b3e ff70 353d 0da4 6e3e
000000d0: 8cd9 c3bd dc60 003e e805 b33d bdfe 30bb
000000e0: f30a 843b 6c9a 043d 1e46 e93c 08df b93d
000000f0: 433b 383d e66b f5bd 8f6c de3e b270 623d
00000100: 87f5 273d 54ac bdbd a5bb bcbc cd2c d03e
00000110: 351c a2bd 4af8 e33d 77e9 c43e 3be6 1d3e
00000120: 3f2a 623b c8ab f4bc 2f94 153e 9238 c13d
00000130: a8f8 a9bc 621d 453e 3fd7 b93e f289 39bc
00000140: 1c2c 2d3e d9b8 043d a375 1a3e 29d7 f43d
00000150: 7217 b8bc 7f60 8d3c 6315 873d 1083 d63c
00000160: 8a7e 973d 0fe4 153e 8c46 5bbd a084 ef3d
00000170: 3a0e 543d cc89 da3d 735c 8bbd cce3 ef3d
00000180: 91cd 3d3d 5de2 d83b 62f8 ea3d 42c4 003e
00000190: 96a1 853a 05b3 fa3d bf1e 98bd 4865 c53d
000001a0: 7555 a03d 534f 2f3c b742 673e 2fc8 30be
000001b0: 1cc8 833e d670 1d3e 4e79 ec3e b24e cc3e
000001c0: 627c 673e 82f6 543d 4c39 9abe 515a 593e
000001d0: 1d4f 7a3e 3b8f 633d ee67 013e 1083 b8bb
000001e0: 5c27 e73d 30af 813e b214 a83e 6112 183e
000001f0: 8eb2 6e3e d8f4 a6bd 2f3f 6f3e 549f 9a3d
00000200: 53a5 dd3b f256 893e e8f7 9e3e fcb0 963b
00000210: c037 633e c34c 193e 0524 0a3f 820d 8a3e
00000220: 58fb 96be cc47 963e 79d3 aa3d 8ca7 133f
00000230: 054c 313e 86fc 383e 863f 8a3d 5ba5 0b3e
00000240: 9060 3b3e 1087 afbc 7d0d 3b3e 5ebe 863e
00000250: ef8f 7b3e 8d5b f53d de1d 123e bbaa a6bd
00000260: d575 da3e cc22 363e 4d50 9a3e 6174 9d3d
00000270: 4765 d23c 08fe 6b3d 5391 7d3e 3e70 82bd
00000280: 4408 113e c707 973e 5e77 b7be 6759 6d3e
00000290: 1b8c a73d 57e6 903e 60e6 063e b3b9 1abd
000002a0: 26b4 133e bddd 963d 4efb a3be 8bf7 e23d
000002b0: 0aff c93d 4571 ab3e 9497 6f3e 7cbd af3e
000002c0: 6a17 903e 55bc c33d a920 c2be da33 973e
000002d0: a092 3e3e 213b 8f3e 0372 563e d74d 313e
000002e0: 3b3d a1be 71ab 833e 7882 343e 7064 463e
000002f0: d629 53bd d35f 8c3c be8a 633e 4d81 2e3e
00000300: afa5 243e e5ec 9d3e d4e0 9f3e 50b6 773e
00000310: 334e a23b cc25 9e3d 0473 123e 6eb7 4e3e
00000320: c1c1 073e 6cd0 243d 37f1 abbe a9a1 373e
00000330: 2cc6 9abc f0c5 023e 9740 72bd fd40 ad3e
00000340: b3f2 673d 15d4 fc3c 916e 9b3d a41c 82be
00000350: 954a 4abd 64d8 ad3d a8e1 acbe 70e9 3b3e
00000360: 4443 2c3d d43a 613e c8ae e8bc 7228 b53d
00000370: 2e9f a93e 7845 72bc 419a f4bd fb4b b7be
00000380: bce3 653e d60a 823e 4dd1 09be 8bf6 c33d
00000390: a7af a03d 6095 163e 02c3 323f ccf4 7f3e
000003a0: 5f19 b3bd a00b 77bd 60d0 0f3e ce66 353f
000003b0: e395 da3e cb35 b53d 85d6 193e c48b a03e
000003c0: 3408 d8bd 1c06 3a3d 3e64 713d 0404 5f3e
000003d0: 7de1 6ebe 9757 51bd c2c4 b9bd 45e2 c7bd
000003e0: 02a0 a0bc ff21 9c3c 8b0f f0bd 9632 5abe
000003f0: c19d 6fbe e342 ecbd 7dae bfbe 4941 233e
-0.004155482 0.16990189 0.14737591 0.12739332 0.1488369 0.07232204 -0.10046491 0.34716734
0.15137243 0.022859316 -0.011507584 -0.12585741 0.10340697 -0.03573777 0.453582 0.15216115
0.03447728 0.10624772 0.08769047 0.19855915 0.08432981 0.10117215 0.07326393 -0.22849695
-0.039399106 0.3589475 0.041102067 0.014988481 0.029412242 0.05792761 0.18783508 0.32328933
-0.03893206 0.16657805 -0.18957655 0.07745389 0.34857824 -0.12877363 0.037503473 -0.26919588
0.094808035 -0.032982714 0.07107822 -0.017307198 -0.011047619 -0.014794387 0.104100965 0.16360797
-0.004682245 0.1674254 0.044297215 0.23304768 -0.09562978 0.12536949 0.08741361 -0.0027007305
0.0040296256 0.03237383 0.028475817 0.09075743 0.04497839 -0.119834706 0.434422 0.055283256
0.041005637 -0.092613846 -0.023038695 0.4065918 -0.07915536 0.11131342 0.3845937 0.15419857
0.0034510044 -0.029867068 0.14607309 0.09434618 -0.020748451 0.1924949 0.36297032 -0.011324393
0.16911358 0.032402847 0.15083937 0.11955101 -0.022472117 0.017257927 0.06595876 0.026185542
0.07397182 0.14637779 -0.053534076 0.11695218 0.05177138 0.10670814 -0.06804743 0.11713371
0.04633862 0.0066187815 0.114731565 0.12574866 0.0010195251 0.122411765 -0.07427739 0.096384585
0.078288 0.010700065 0.22584043 -0.17263864 0.2573861 0.15375075 0.46186298 0.3990379
0.22606042 0.0519929 -0.3012184 0.21225859 0.24444242 0.055556517 0.12637302 -0.0056308582
0.11286804 0.2532897 0.3282829 0.14850761 0.233103 -0.08152169 0.23363946 0.07549921
0.006764093 0.26824147 0.31048512 0.004598735 0.22189236 0.14970689 0.5396121 0.2696343
-0.29488635 0.29351652 0.083411165 0.5767753 0.17314155 0.1806508 0.067503974 0.13637297
0.18298554 -0.021426708 0.18266864 0.26317114 0.24566625 0.119803526 0.14269206 -0.08138033
0.42668024 0.17786711 0.3013939 0.07688213 0.025683058 0.05761531 0.24762468 -0.06369065
0.1416331 0.2949812 -0.35833257 0.23178636 0.0818102 0.28300735 0.13173819 -0.037774753
0.1442419 0.07366512 -0.32027668 0.11082371 0.09863098 0.33484855 0.23397666 0.34324253
0.28142864 0.09557406 -0.37915543 0.29531747 0.1861062 0.279748 0.2094193 0.1731485
-0.31492028 0.25716737 0.17627895 0.19374251 -0.05155357 0.017135536 0.22220895 0.17041512
0.16078828 0.308448 0.31226218 0.2419064 0.0049531697 0.07722053 0.14301687 0.2018716
0.13257505 0.04023783 -0.3358247 0.17932762 -0.018893324 0.1277082 -0.05914363 0.33838645
0.05662794 0.030862847 0.07589448 -0.25412476 -0.049387533 0.08488539 -0.33765912 0.18350768
0.042056337 0.21995097 -0.028403655 0.08845605 0.33129257 -0.01478707 -0.11943484 -0.35800156
0.22450155 0.25398892 -0.13458748 0.09568509 0.07846003 0.1470542 0.6982881 0.24995726
-0.087450735 -0.06031382 0.14044333 0.7085999 0.4269248 0.08848151 0.15023239 0.31356633
-0.105484396 0.045415983 0.05893349 0.21778876 -0.23328204 -0.051108923 -0.09070732 -0.09759954
-0.019607548 0.01905918 -0.117217146 -0.2130836 -0.23400022 -0.11536195 -0.37437811 0.15942873

fully_connected.weight f4 [9, 100]
00000000: 9580 45bd fa82 8b3e e06d d13e 2313 26be
00000010: b9b3 173e 18ca 06be bef7 d9be 34f3 b93d
00000020: e16e 873e edc1 99bc 0afd 43be 403d ac3e
00000030: f386 05be 7912 14be 955d 533c 859e 263d
00000040: d076 9d3e 011f 5bbe c5ed 91bd 3ce4 0cbe
00000050: 1109 f23e 624c 26be 958f 0ebe 0c87 4dbf
00000060: 8b87 fc3d da68 58be 1dc0 9cbd ba18 cfbd
00000070: a762 7fbd 2ea7 4bbe 12f5 4dbe 5555 8b3e
00000080: 70c8 423e 29f0 033e 427d 4d3d 5c36 3e3e
00000090: 79bd 85be 192b e73d 84bd 113e 3b06 803e
000000a0: 172e 653e 86d6 45be 74c2 49be 9cb8 abbe
000000b0: 24c5 353d d611 9bbd 1fba 3e3c 61d9 cdbd
000000c0: aa36 3e3e 333e c6bd a58b 263e b5c9 e93d
000000d0: 7f3f 2bbf 57cc b2bd 7ade 163f 0a0c d93d
000000e0: f685 1e3e e3eb 87bd 1080 d13b 794b 1ebe
000000f0: 8542 80be 5288 57bd 5e88 be3d d656 babd
00000100: 06fa 79be 9ddc cfbe f267 403c 50fc 063c
00000110: d6d4 24be 9ee5 243d c984 463e d578 acbd
00000120: a08a 9f3d 468d 943d f3e0 473d 7fa5 133e
00000130: e79c 36be 7459 0dbe e264 a5bd 2690 9ebe
00000140: 1a4e f33d d7ba ef3e 0a21 56be 308a c5bd
00000150: abf5 c23e aa84 9abc 1d6e 0f3f 8c3b 9abd
00000160: 9431 443f 6611 73be 8cfb f8be 4c89 e13d
00000170: cff3 a63d d45c 303d 4599 20be 0fc2 4c3d
00000180: 5e45 4b3e 8c2b 3cbd beae 8abe b7f7 313e
00000190: 13f9 563e 629f 95be 4bb6 8dbe 3010 f5be
000001a0: 08fc 5f3e 9a3c 333e 42a7 9a3e 3c73 47be
000001b0: e481 e2bc 2eb3 f33e 4733 84be 94a7 233e
000001c0: 8517 2abe 66f7 cf3d 76af 0fbe bae5 01be
000001d0: d63e e6be 78d3 b7bb df78 383c 4d0b 793e
000001e0: b8d7 323e 5a49 723d 4285 04bf 6d72 09bf
000001f0: 0919 c33d 0911 b1be 17b7 97be 79e3 aa3e
00000200: d5fe 14bd 26a0 28bd f843 133e a6fe 0bbe
00000210: 2001 74be d943 0abe bb8b 22bf 1e33 e73e
00000220: 72d8 ec3e 8761 e43e 4f73 d1be a546 08bf
00000230: 361d 733d 4322 ca3c 28c7 693b 4bdc 8b3d
00000240: 3311 1b3f 2c30 ca3d 7616 a33e 2c1d 24bf
00000250: b516 8c3e 538b e1bd 10d6 89be 670e 073e
00000260: ed1a 2f3e 19d8 513f c30f 40bd 9608 c93e
00000270: c78f d13d 5ac9 933d f919 743e d8b1 3b3e
00000280: 16a0 4abe 184b 97bd b888 ba3d 80a2 093f
00000290: 13f7 b8bd e200 3abe 02e3 43be 8bd8 02be
000002a0: 111e 0d3f 28c2 a2be 025f ca3e 9e2f 0bbf
000002b0: 18c7 c93e 8608 25bf 68c0 003e 38cd a63e
000002c0: 14ae 8f3d d7b2 063e fe09 20bf 91de 903d
000002d0: cb05 0fbe cada fd3c 5d61 e83d cc65 9fbe
000002e0: 6fee e03c b256 7c3e 4c7b 87be 6898 9abe
000002f0: 1338 eb3e 1889 b53e 05cd 15be 0069 db3e
00000300: 423d cdbd 22ee 92bc 00c6 c5be d38f aabd
00000310: e0fe 32be 5835 573c af73 3bbe 0608 333d
00000320: 2431 303e 1ed7 e5be 3dd1 9abd e87a 20be
00000330: dc54 6cbe 0896 543e c3f4 b33d da69 0bbe
00000340: eb5d 953d 9a68 463d ef5a 533e d1f0 43be
00000350: d95c 6f3e e9b4 3f3e 7830 b2be e3b5 ff3e
00000360: 65bf c8bd 4fd4 8c3e 2e40 e33d 71bf dc3e
00000370: 025e 223e 2552 78bd 29d0 2ebe 5ae5 023f
00000380: d4f9 433d 5632 ea3d 5ed6 553e 9c39 8b3d
00000390: f6af 76be d323 1dbe 411b 013f 0d5c 16be
000003a0: 4716 f5be 3c57 8dbe 5d44 e73d e6a1 723f
000003b0: 43ee 713e 9c49 0bbf a5d5 2f3e 9f26 26be
000003c0: 4bdc 9abe f5ec cd3e afa1 913e d11f 493e
000003d0: 2ad8 d93d bcb6 a5bc 9618 c2be b10a acbd
000003e0: c45c 8dbe f1cc a53e f2b1 e0bb 2807 9abd
000003f0: dfb5 7abc ab25 f3bc 2dd2 cfbd 0f9f 2abe
-0.04821833 0.27248365 0.4090414 -0.16218238 0.14814653 -0.1316303 -0.42571825 0.090795904
0.2645178 -0.018769229 -0.19139495 0.3364048 -0.1303976 -0.14460172 0.01290073 0.04067852
0.3075471 -0.21398546 -0.07125429 -0.1375894 0.47272542 -0.16240075 -0.1392196 -0.8028419
0.1233054 -0.21133748 -0.0765383 -0.10112138 -0.06234994 -0.19887993 -0.20113018 0.2721354
0.19021773 0.12884583 0.050168283 0.18575424 -0.2612112 0.11287517 0.1423245 0.25004753
0.22380863 -0.19320115 -0.19703084 -0.33539283 0.04437746 -0.07571761 0.011641054 -0.10051227
0.1857554 -0.09679832 0.16264208 0.11415426 -0.6689376 -0.08730381 0.5893322 0.105979994
0.1548079 -0.06636789 0.00639344 -0.15458478 -0.2505075 -0.05262024 0.09303354 -0.09098594
-0.24411783 -0.40598002 0.0117435325 0.008238867 -0.16096815 0.040258043 0.19386591 -0.084214844
0.077901125 0.07253508 0.048798513 0.144186 -0.17833291 -0.13803655 -0.080758825 -0.30969352
0.11880131 0.46822235 -0.20911041 -0.09645498 0.38078055 -0.018862087 0.56027395 -0.07530889
0.7663815 -0.23737106 -0.48629415 0.110125154 0.081519715 0.043057278 -0.15683468 0.049989756
0.1985068 -0.045939967 -0.27086443 0.17379652 0.20993452 -0.29223162 -0.2767814 -0.47863913
0.21873486 0.17503586 0.30205733 -0.19477552 -0.027649827 0.4759764 -0.25820372 0.15981895
-0.16610534 0.101546094 -0.14031777 -0.1268529 -0.44969815 -0.005609926 0.011259287 0.24320717
0.17465103 0.059151985 -0.51765835 -0.53690225 0.095262595 -0.3458331 -0.29631874 0.33376673
-0.03637584 -0.041168354 0.14381397 -0.1367136 -0.23828554 -0.13502444 -0.6349446 0.45156187
0.46258885 0.44605657 -0.40908286 -0.53232795 0.05935403 0.02467454 0.0035671685 0.06829127
0.6057312 0.09872469 0.31853074 -0.6410701 0.27361074 -0.11012902 -0.2692113 0.13189088
0.17100115 0.81970364 -0.04689003 0.39264363 0.102325015 0.07216139 0.23838033 0.18329561
-0.1978763 -0.0738737 0.09108108 0.5376358 -0.09031501 -0.181644 -0.19129565 -0.12777917
0.55124 -0.31788754 0.3952561 -0.54369533 0.3940971 -0.6446613 0.12573397 0.32578444
0.07015625 0.1315416 -0.62515247 0.07073701 -0.13967054 0.030988116 0.113466956 -0.31132352
0.027457444 0.24642447 -0.26461256 -0.30194402 0.4594122 0.35456157 -0.1462899 0.42853546
-0.100214496 -0.017935816 -0.38627625 -0.083282135 -0.1748004 0.013135277 -0.18305849 0.043708824
0.17206246 -0.44890684 -0.0755944 -0.15671885 -0.23079246 0.20760357 0.08786919 -0.13614598
0.07293304 0.0484396 0.20640157 -0.19134833 0.23375262 0.18721355 -0.34802604 0.49943456
-0.098021306 0.2750573 0.11096226 0.43114808 0.15856174 -0.060625214 -0.17071594 0.5113121
0.047845677 0.11435382 0.20882556 0.067980975 -0.24090561 -0.15345697 0.5043221 -0.14683552
-0.4786856 -0.27605617 0.11292336 0.9477829 0.23626046 -0.54409194 0.17171343 -0.1622567
-0.30246195 0.40219846 0.28443667 0.19641043 0.10636933 -0.020228736 -0.37909383 -0.08400477
-0.27609837 0.3238292 -0.0068571502 -0.07520896 -0.0153021505 -0.029681047 -0.1014751 -0.16662239

fully_connected.bias f4 [9]
00000000: 0417 e0be 9767 863f 141d cd3f 60cc f63e
00000010: 12ef 2b3f efdc 483f 7ffc 653e 55f7 b23e
00000020: bda6 593f
-0.4376756 1.0500363 1.6024499 0.482028 0.6716167 0.7846212 0.22459601 0.34954324
0.8502005
