results/torch_mlp_model.pt (torch, 29959 bytes, 2 tensors)

output_layer.weight f4 [9, 784]
00000000: cff6 443e c5de 0c3e 325f c93c ae53 e1bb
00000010: e5e4 f63c 8438 703e 62fc 3abc d1b0 b73c
00000020: af97 d93d a419 50bd c82f 633e d239 243d
00000030: a441 803d 6675 003e 44aa 053b f9d5 b3bc
00000040: 1a22 3d3e 9d3e bb3d 54e6 c83d ad5d 15bd
00000050: 88c0 ddbc 6b30 473e bec5 403b 3e14 003e
00000060: c5ed ff3c 5cd9 ae3d 4446 e53d 4140 8b3e
00000070: ab0e c83d 803f 2bbd 553b 0cbe 40b3 7d3d
00000080: 38f0 12bd 2852 cc3d fd5b 08be 4b14 81bb
00000090: e5f4 6e3d 1023 d7bd ab8b 573d ed60 4dbe
000000a0: d0a4 99bd efca 1bbc 0f9d 303d 859e 313c
000000b0: 6aca 0bbd 9203 b0bd 2fed f5bd 0f73 1ebc
000000c0: 2487 15be 044f b2bd 7826 0fbe c269 4d3d
000000d0: 3ea8 09bd 0a81 23be 7844 11be 1e53 173e
000000e0: efe3 bc3d 8eb4 873c 1e18 e33d c5b3 76bc
000000f0: 297c 27bc 1d79 3bbd 1a98 433d 33f9 f0bd
00000100: 14af 863d 3f81 2b3d 0202 2a3d ac04 083d
00000110: 42ad e33d c33f 133d 9aca 523d 75cc d6bd
00000120: 53ac 0d3e cbd3 9c3d efaa d03c 5f15 103d
00000130: be01 353d 27f2 143e 84fb b13c dc13 0ebd
00000140: a9af 12bd 659d 443e 5370 6ebc a10f 5d3e
00000150: 0d9d 523e bda4 1bbd 4ddc 48bb 6628 5d3c
00000160: 6984 c13c 6af8 a63d 279d c53d cda7 68bd
00000170: 8ddb c3bc 2256 78be b946 bc3d 67b1 9fbc
00000180: 5300 893d 85ae ccbd 843a 50bd d147 093e
00000190: 6aa2 29bd b304 1d3c 203a d2bc d336 d7bc
000001a0: 834d 3bbd 844d eb3d 2986 893c df9b 2dbc
000001b0: 9d9c 83bc 18da 143e 2609 0dbe 6b7a c8bd
000001c0: 3e52 1c3d c8bf 24be be67 103e a990 3cbe
000001d0: 1203 973d 9d34 013d 4ca3 acbd 2a97 763b
000001e0: 60fd 053d cd54 dd3d 7c18 06bd 949c 523d
000001f0: 99b8 1e3d 135a ac3d 57c4 f73c 375f 2f3d
00000200: 3fb2 e93c 3061 83bd 4fb2 073d 86ce 043e
00000210: 3b74 32bd 0879 86bd 6882 f63d 6684 cfbc
00000220: 9808 1bbc 1854 a3bd 3638 3c3d e1f7 a13d
00000230: 4325 573e 9a90 18be 1ce3 d43d 31c4 b4bc
00000240: 46b9 70be 27eb 913d 5afb cc3c 0559 1b3d
00000250: 5b76 d73d 3679 a73b 7c8a ddbc b805 883d
00000260: 1457 a3bd a0a2 b1bb 1b0d a2bd a6f2 75bd
00000270: 4e59 bf3d b4d2 f1bd 28ae dfbd d093 803d
00000280: f626 30bd bf9e dcbd f504 9c3d a4fb e43d
00000290: 6541 ee3d a05d f8bc c632 b2bb 4f8c 513d
000002a0: c443 07bd 3657 c83d 1ca9 833d 0224 503d
000002b0: cdde a43d 5eb4 a1bd 91e2 bc3d 0a03 23be
000002c0: be08 31bd 94d4 f3bd a3c7 7f3d 82c3 c7bd
000002d0: cb32 a1bd 5f10 103d 6596 04bd 42ce 0c3e
000002e0: 7681 e5bd f8f4 0a3e 4e36 ba3d e42b a7bd
000002f0: 25a3 ed3d 3ac9 1e3e 3dc9 e9bd cac8 52bd
00000300: 8c00 b0bc 091f 393d 6ffb 35be adc7 f83d
00000310: b2a0 ddbd f2a9 0f3d f6b5 533d 092e d4bd
00000320: 061d 883d c197 2e3c 232e 8c3d ba8d 9ebc
00000330: 3617 47bc 0fe1 e33d d03c e73c 110a d03c
00000340: d1ec 183e 9702 153c f829 bbbc 6fd3 8f3d
00000350: 5753 5bbc 4b94 d7bd 7a59 c3bb 0bc2 bdbc
00000360: 1174 ac3c 024f 393c b2f0 82bd b0c6 753c
00000370: 8dab 85bd e7a5 bf3d 40e1 3e3d 0546 883e
00000380: 53b9 5a3d e125 393e 4cb6 79bc 1077 bf3a
00000390: c8f6 08bb 62f3 33bd 6f35 b1bc 5131 cebd
000003a0: 77de b6bc a4df 043c bda9 89bd 6f17 c1bd
000003b0: 7d37 92bd 841f 8bbc fc73 103e f90a d4bd
000003c0: 0fd4 ebbc 35a0 c4bd 7214 15bd 374f 393d
000003d0: 0b64 1d3d aea1 fdbd e690 303e 8313 d53d
000003e0: 42e7 353c a2e0 55bd cc0b dabd 9e22 283d
000003f0: 280f e1b9 07e2 0dbe f89b 23bc 861c 89bd
0.19234775 0.13756855 0.024581525 -0.0068764305 0.030138442 0.23459059 -0.011412712 0.02242318
0.106246345 -0.050805703 0.22186196 0.040094204 0.0626252 0.12544784 0.0020395676 -0.021952616
0.1847004 0.09142802 0.098095566 -0.03646629 -0.027069345 0.19452064 0.0029414739 0.12507722
0.031241307 0.08537552 0.11195043 0.2719746 0.09768423 -0.041808605 -0.13694508 0.061938524
-0.03587362 0.099766076 -0.1331634 -0.0039391867 0.05833902 -0.105047345 0.052623432 -0.20056506
-0.075021386 -0.009508832 0.043118533 0.010841017 -0.034128584 -0.08594431 -0.1200813 -0.009670987
-0.14602333 -0.08706477 -0.13979518 0.050149687 -0.033607714 -0.15967193 -0.14186275 0.147778
0.092231624 0.016565587 0.11088584 -0.015057509 -0.010222473 -0.0457698 0.047752477 -0.11766281
0.06576362 0.041871306 0.04150582 0.03320758 0.11117031 0.03594948 0.051462747 -0.10488216
0.13835268 0.07657584 0.025472132 0.03517663 0.044191115 0.14545499 0.021726377 -0.034686908
-0.035812054 0.19200666 -0.014553147 0.21587993 0.20567723 -0.037998904 -0.0030648888 0.013498401
0.023622708 0.0815285 0.09649115 -0.056800652 -0.0239084 -0.24251607 0.09193177 -0.019493772
0.06689515 -0.099942245 -0.050837055 0.13406302 -0.041414656 0.00958364 -0.025662482 -0.02627126
-0.045728218 0.11489394 0.016787605 -0.010596245 -0.01606589 0.14536321 -0.13773021 -0.097889744
0.03816437 -0.16088784 0.14102075 -0.18414558 0.073736325 0.031544317 -0.08429584 0.0037626722
0.03271234 0.1080719 -0.032738194 0.051418856 0.038750265 0.08415618 0.03024499 0.042815413
0.028527377 -0.064150214 0.033129033 0.12969407 -0.043567877 -0.06566054 0.12036592 -0.025331687
-0.009462498 -0.07975024 0.045952044 0.07908607 0.21010308 -0.14898911 0.1039488 -0.022066208
-0.23508176 0.0712493 0.025022198 0.037926693 0.105206214 0.005110885 -0.027043574 0.06641716
-0.07975593 -0.0054209977 -0.07912656 -0.06004586 0.093432054 -0.118077666 -0.109218895 0.06278193
-0.043005906 -0.10772466 0.07618133 0.11180809 0.11633567 -0.030318081 -0.0054381816 0.0511592
-0.03302361 0.09782259 0.064287394 0.05081559 0.080503084 -0.078957304 0.092229016 -0.15919128
-0.043221228 -0.119057804 0.062446248 -0.09754087 -0.07871016 0.035171863 -0.03236999 0.13750556
-0.11206333 0.1357001 0.09092389 -0.08162668 0.11603383 0.1550645 -0.11415336 -0.05146102
-0.021484636 0.045195613 -0.17771696 0.1214746 -0.10821666 0.03507418 0.051687203 -0.10360343
0.06646161 0.010656298 0.068447374 -0.01935469 -0.01215153 0.11126911 0.02822724 0.025395425
0.14934088 0.009094856 -0.02284716 0.0702275 -0.013386569 -0.105263315 -0.005961594 -0.023163816
0.021051439 0.011310341 -0.06393565 0.015000984 -0.06526861 0.09357815 0.046601534 0.2661592
0.053399395 0.18080856 -0.015241217 0.0014607627 -0.0020899046 -0.04393328 -0.021631924 -0.10068
-0.022322876 0.008109961 -0.06721828 -0.09428298 -0.0713949 -0.016982801 0.14106745 -0.10353655
-0.02878764 -0.096008696 -0.03639645 0.04524156 0.038425487 -0.123843536 0.17242774 0.10404112
0.011102499 -0.05221618 -0.10646781 0.04104864 -0.00042926637 -0.13855754 -0.009985916 -0.066948935

output_layer.bias f4 [9]
00000000: 922a 0bc0 8497 1e40 bafa b040 cc5c be40
00000010: fc5f 3040 ea5f 9840 978e 9940 98a0 8e40
00000020: d803 c840
-2.1744733 2.4779978 5.5306063 5.9488277 2.7558584 4.7617083 4.798656 4.4571037
6.250469
