results/torch_naive_mlp_model.pt (torch, 29959 bytes, 2 tensors)

output_layer.weight f4 [9, 784]
00000000: 8a19 843b 5cb0 293c 13ed 183a 1e0f cebc
00000010: 9629 c13b 11e6 383c fd8d 9fbc 2675 e4bc
00000020: babb 82bc 23a6 a73c 98f9 233c bb3f 153c
00000030: a621 1ebb a29c 403c 4f5b a3ba 8c43 09bb
00000040: 60b9 fb3b a06b c8bc f350 96bc 1109 2c3c
00000050: cc92 db3c 8df5 873b 9bd9 c3bc 399b 94bc
00000060: ae9c ba3c 7ccc 40bc d3df ed3c 060f 17bd
00000070: b513 f6bb fe36 403c f808 d1bc a9ff 963c
00000080: 7459 e1bb 966b bfbb 82db 37bb e57c e33c
00000090: c19b 2d3b 1cf3 233c 88fa 29bc 0454 b6bc
000000a0: 5691 4abc 3303 16bc 0c34 de3b 990d 913c
000000b0: ae36 f4bc 676a 86bc 5b25 0b3d fc21 8b3b
000000c0: 752d 163b 0358 7b3c 9e94 113c 185c 02bc
000000d0: 8a3d 96bc 9dc7 92bc 6721 593c b48d 033c
000000e0: 6940 49bb 68b0 c33b 9679 aabb 4586 adbc
000000f0: 57b4 ae3c d923 883c 9274 afbc 7722 093c
00000100: b4e5 e6ba d447 143c 6b3c e8bb 3b39 8cbc
00000110: 7cf9 3c3c ad96 fb3b abef c63c 82e6 1d3a
00000120: f994 c3ba 4192 6ebc 00c5 8cbc 6805 d4bc
00000130: 5e71 613c ff54 acbc f961 c2bc 3623 5a3c
00000140: 101e 733c 2e74 c5bb 30db 9abc f9ba 353c
00000150: ec64 903c 7dc9 77bc a7bb edbc 342a e4bc
00000160: 5835 c8bc 40a9 393c 66fe 0d3b 027c e6bc
00000170: 009d d3bb 7373 13bd ef46 cfbc 2485 be3c
00000180: 0509 a6bb f254 b1bc c460 23bc 0e60 0bbc
00000190: b64b c0bb 7bc6 0c3d 7ff9 843b b7ea ec3c
000001a0: 0e98 19b7 f052 90bc a551 33bc 0d8e ae3b
000001b0: 6c55 743c 07c2 8f3b 79f2 bc3b ff37 fdbb
000001c0: f552 96bc 9a12 053c 89d3 c93c 33b5 8e3c
000001d0: 283d 0c3b 1a18 683c 31a0 803b ca9f e8bb
000001e0: e6ce 0c3c 106a 103a c2f0 9a3c 2e44 e03b
000001f0: 0734 203c 48ce dfbc 9942 7ebb 0173 b23c
00000200: 1948 e2bc 8fd3 82bc 91e5 e7bc c9b4 9b3a
00000210: 5a8a d0bb 364f dabc 9222 bd3c 19c8 303c
00000220: f2d5 ad3c 3c32 febb a54a 3f3c f7bf 76bc
00000230: 29ac 333c a68c 02bd 6fc2 38bb 94d2 ca3c
00000240: 46e7 893b 47b3 e73b 432c b33c 2845 a63b
00000250: 7d85 fd3b ddd7 fd3b a6db 403c d5ef 94bc
00000260: c9bd 843a fb6c 8d3c de2d d33c e55a 20bc
00000270: 1945 61bc 7515 89bc 8697 72bc 18f9 1d3c
00000280: 6c2f 743b dae9 f33b 5137 87bc 40f6 1bbb
00000290: 328a 2b3c 9c7d b13c eb4e a9bc 047f fabc
000002a0: d7f6 d7bc 2d8e e43c 7e76 9cbb a81f c2bb
000002b0: d010 2abc ef8d faba d1ef 52bc 525d 00bd
000002c0: 709a 7fbc 61b6 e63b 507c 8a3c 55f7 433b
000002d0: 9c78 87bc 4794 fcbc 5822 c83b 59a6 b33b
000002e0: 17d8 c23b 90b7 3a3c f773 83bc 2367 7ebc
000002f0: 8e0f c13c ee51 d83c f24c 0fbc 8cc3 ed3c
00000300: a900 f9bc 71c7 eb3c 43c7 0cbc 670c d53c
00000310: eb67 ae3c 5b33 51bc acd3 9b3c 77b1 0f3c
00000320: 7e88 8a3b 5594 933c 8df5 c93c 4090 b03b
00000330: 02c2 3d3c 7ea3 72bc d916 a73c b9d4 8cbc
00000340: d7c8 663c f5d2 fe3c 5057 a9bc adca b93c
00000350: 25bc 1cbb d484 e8ba 3541 c43c fa15 483c
00000360: 3202 00bd 93d5 fcbc 2de1 933b 7f66 87bc
00000370: f53c efbc a194 d1bc 6c48 17bc 347e f0bc
00000380: 3042 c2bc 3ce1 9ebc 2004 c8bc 2566 23bc
00000390: 61f3 ecbc 02e1 dc3b f17c adbc 3159 e8bc
000003a0: 5266 bdbc a6b9 febc 1273 7dbc 44e0 b73c
000003b0: 92d3 08bd 0005 9bbc 153b 613c 6ac3 9a3c
000003c0: dc4f e3bc e006 6dbc 5eca e33c 9826 df3b
000003d0: 6031 303c 09ce aa3c c647 8abc 6bd0 82bc
000003e0: 67e4 a1bc 1c7b a83c b0ce cb3c 2747 33bc
000003f0: 24c5 cabc 9f01 d1bb b373 c53c aaae 7ebb
0.004031365 0.010356989 0.00058336667 -0.025153693 0.00589485 0.011285321 -0.019476885 -0.027887892
-0.015958656 0.020464962 0.010008238 0.009109433 -0.0024128943 0.011756094 -0.0012463125 -0.0020944802
0.0076820105 -0.024465382 -0.018349146 0.0105002085 0.026803397 0.004149145 -0.023907473 -0.018140422
0.022779789 -0.011767503 0.029037392 -0.03687956 -0.0075096735 0.011731861 -0.025516972 0.018432455
-0.0068771187 -0.0058416827 -0.002805442 0.027769515 0.0026490542 0.010006692 -0.010374673 -0.022256859
-0.012363752 -0.009156036 0.006781107 0.01770668 -0.02981123 -0.016408158 0.03397117 0.0042459946
0.0022915278 0.015340808 0.008885531 -0.007956527 -0.018339891 -0.017917449 0.013252593 0.00802939
-0.0030708557 0.005971957 -0.0052024825 -0.021182189 0.021326227 0.016618656 -0.02141789 0.008370033
-0.0017616064 0.009050328 -0.0070872805 -0.017117133 0.011534091 0.007677874 0.024284204 0.0006023423
-0.0014921717 -0.014561237 -0.01718378 -0.025881484 0.013759939 -0.021036623 -0.023728358 0.013314059
0.01483871 -0.0060258126 -0.018903345 0.011091941 0.017626248 -0.015123722 -0.029020144 -0.027852155
-0.024439499 0.011331856 0.0021666526 -0.028135303 -0.006457925 -0.035998773 -0.025302378 0.023256846
-0.005066993 -0.02164695 -0.009971801 -0.008506788 -0.0058684004 0.034368973 0.0040580626 0.028920515
-9.154914e-06 -0.017617673 -0.010944759 0.0053269924 0.014912944 0.0043871435 0.0057662097 -0.0077276225
-0.018350104 0.008122111 0.024637 0.017420387 0.0021398757 0.0141659025 0.0039253463 -0.0070991265
0.00859425 0.00055089686 0.01891363 0.006844065 0.009778029 -0.027320042 -0.003879702 0.021783354
-0.02762227 -0.01597002 -0.028307708 0.001187944 -0.006364149 -0.026649099 0.023087773 0.0107898945
0.021220181 -0.0077574532 0.0116755115 -0.015060416 0.010966339 -0.031872414 -0.0028192063 0.024758615
0.004208478 0.007070932 0.021871692 0.005074162 0.0077368603 0.00774668 0.011771118 -0.018180767
0.0010127361 0.01726388 0.025778707 -0.009787296 -0.013749384 -0.016733864 -0.014806634 0.009641908
0.003725971 0.0074436488 -0.01650587 -0.00237979 0.01046996 0.02166634 -0.020667514 -0.030578144
-0.02636282 0.027899826 -0.0047748676 -0.005924184 -0.010379985 -0.0019115786 -0.0128745595 -0.031338997
-0.015600786 0.007040784 0.01690498 0.002990206 -0.016537003 -0.030832423 0.0061076097 0.0054824767
0.00594617 0.011396304 -0.016046507 -0.015527519 0.023566987 0.026406255 -0.008746373 0.029023908
-0.030395823 0.028781625 -0.00859243 0.02600689 0.021289786 -0.012768592 0.019021831 0.008770338
0.004227697 0.018015066 0.02465322 0.0053882897 0.0115819 -0.014809487 0.020396637 -0.017191278
0.01408597 0.031106452 -0.020671517 0.022679651 -0.0023915854 -0.0017739781 0.023956874 0.012212271
-0.031252094 -0.030863559 0.004512927 -0.016528366 -0.029203871 -0.025583567 -0.009233575 -0.029357053
-0.023713201 -0.01939451 -0.02441603 -0.009973084 -0.028924646 0.00674069 -0.02117774 -0.028362842
-0.02312008 -0.031094383 -0.015469329 0.022445805 -0.033404894 -0.018923283 0.013746996 0.018892009
-0.02774804 -0.014466971 0.027806457 0.0068100207 0.010753959 0.020850198 -0.016879927 -0.015968522
-0.019762231 0.020566516 0.02487883 -0.010942257 -0.024752207 -0.006378367 0.024103021 -0.0038861432

output_layer.bias f4 [9]
00000000: 2b90 4fbe 5c8c 2dbf 2e37 2740 75fc 3940
00000010: ceaf e93d 057f ed3f 47cb e93f 53d2 2ebe
00000020: 1af3 4f40
-0.2026984 -0.67792296 2.612743 2.9060338 0.11410485 1.8554388 1.826516 -0.1707242
3.2492127
