results/torch_cnn_model.pt (torch, 74647 bytes, 6 tensors)

convolutional_layer_1.0.weight f4 [16, 1, 5, 5]
0	0x3d05f4fe	0.032704346
1	0xbde78006	-0.113037154
2	0x3c166964	0.0091804005
3	0x3e1b9703	0.15194325
4	0x3aa027ba	0.0012218871
5	0x3da7a790	0.08186257
6	0xbd6e2a1c	-0.058145627
7	0xbf12aa95	-0.5729154
8	0xbf3ee4e4	-0.7456801
9	0xbdfc8e0d	-0.123317815
10	0x3e19e419	0.15028419
11	0x3f0ed571	0.55794436
12	0x3e84a5c8	0.2590773
13	0xbc2d5ed9	-0.0105816955
14	0x3ea055fd	0.31315604
15	0x3d265442	0.0406077
16	0x3ec827f6	0.39092988
17	0x3f524e16	0.821504
18	0x3f4074fc	0.75178504
19	0x3e97f464	0.29678643
20	0xbf3a5387	-0.727837
21	0xbf52523a	-0.8215672
22	0xbe94cd64	-0.2906295
23	0xbf188f5c	-0.5959375
24	0xbf163786	-0.5867847
25	0xbcac50b9	-0.021034585
26	0xbdf6451f	-0.120249026
27	0x3e1ffc01	0.15623476
28	0x3e900cab	0.28134665
29	0xbe9fb864	-0.31195366
30	0x3e89aa40	0.26887703
31	0x3b380384	0.0028078267
32	0xbf9af1d2	-1.2105048
33	0xbe4a7d0a	-0.19774261
34	0x3f0a4e9b	0.5402619
35	0xbe876c30	-0.26449728
36	0x3ff9d7a2	1.9518931
37	0x40206fda	2.5068269
38	0xbea40472	-0.32034642
39	0xbf1dcf31	-0.61644274
40	0xbed5a7ec	-0.41729677
41	0xc03ffafc	-2.9996939
42	0xbfdd8731	-1.7306882
43	0x3fb32588	1.3995829
44	0x3f01bd5f	0.5067958
45	0x3e97daa5	0.29659
46	0x3fd1f51b	1.6402925
47	0xbda6e249	-0.08148629
48	0xbf7706b6	-0.96494615
49	0xbe0167e7	-0.12637292
50	0x3f783282	0.9695207
51	0xbe46f390	-0.19428849
52	0x3ee5be33	0.44871673
53	0xbfa0d52a	-1.2565053
54	0xbb12a983	-0.002237887
55	0xbf8374c7	-1.0270013
56	0xbf7e519c	-0.99343276
57	0xbf1b2041	-0.6059609
58	0x3fd5a69d	1.6691471
59	0x3f4e089a	0.80481875
60	0x3efd62ed	0.49489537
61	0x3f95953c	1.1686168
62	0x3f8033aa	1.0015767
63	0xbfb509b8	-1.4143591
64	0xbfe2d59a	-1.7721436
65	0x3e686784	0.22695738
66	0xbf13af81	-0.5768967
67	0xbf8db319	-1.1070281
68	0x3f42b14b	0.7605178
69	0x3fba0548	1.4532862
70	0xbcfee117	-0.03111319
71	0xbdee4620	-0.11634469
72	0x3f55313e	0.8327826
73	0xbeb98357	-0.36233017
74	0xbf5e6562	-0.8687345
75	0xbe9ca00a	-0.3059085
76	0xbf3a98b0	-0.7288923
77	0xbeec9e9c	-0.4621476
78	0xbe1bc9dd	-0.15213723
79	0x3db9b7e2	0.09068276
80	0xbf0fd444	-0.56183267
81	0xbf64afd8	-0.89330816
82	0xbf6fe132	-0.93702996
83	0xbf0121bd	-0.50442106
84	0x3cd68d19	0.026190327
85	0xbebee034	-0.37280428
86	0xbec0f19b	-0.3768433
87	0xbf464b80	-0.77458954
88	0xbf1e4242	-0.6181985
89	0x3e28674d	0.16445656
90	0xbdb1f2d7	-0.08688896
91	0x3d738f31	0.05946273
92	0xbdbb616d	-0.09149442
93	0xbed9d500	-0.4254532
94	0x3a01d82f	0.00049531733
95	0xbda81129	-0.08206398
96	0xbdda457f	-0.106577866
97	0x3d2b5e33	0.041837882
98	0xbdc8f3fb	-0.098121606
99	0xbe1d7d08	-0.15379727
100	0x3f2b727a	0.6697155
101	0x3f3bf2fb	0.73417634
102	0x3deb26b2	0.1148199
103	0xbd0c9a0f	-0.03432661
104	0xbea8cc95	-0.32968584
105	0x3f6532ea	0.89530814
106	0x3f8234e5	1.0172392
107	0x3f6a572a	0.9153925
108	0xbcf670e3	-0.030083125
109	0xbf273bdd	-0.6532572
110	0x3f102615	0.5630811
111	0x3f68859d	0.9082888
112	0x3f0a26f9	0.5396572
113	0xbf52b392	-0.8230525
114	0xbf16e318	-0.5894027
115	0xbbc82f14	-0.006109128
116	0xbe06af78	-0.13152874
117	0xbf31b3ca	-0.6941496
118	0xbf6cbb85	-0.9247363
119	0xbe7a0934	-0.24417573
120	0xbeb6457f	-0.35599896
121	0xbf175530	-0.5911436
122	0xbf2a06f7	-0.6641688
123	0xbe610d88	-0.21977818
124	0xbe841373	-0.2579609
125	0xbe8e41f6	-0.277847
126	0xbf0fd83c	-0.5618932
127	0x3e595de4	0.21227223
128	0xbdcbcf4a	-0.099516466
129	0x3d0daea2	0.03459037
130	0x3fb74ba0	1.4319954
131	0x3ee7b2e9	0.45253685
132	0x3d66e8ff	0.056374546
133	0x3f18d188	0.5969472
134	0x3e56fe8d	0.20995541
135	0xbf8d7ed8	-1.1054335
136	0xc0188212	-2.3829389
137	0x3f3d0a25	0.73843604
138	0xbf1bf731	-0.6092406
139	0xbf072aae	-0.527995
140	0xbfd32b6f	-1.649763
141	0x3f3c25c6	0.7349514
142	0x3fa30044	1.2734456
143	0xbf06bb33	-0.52629393
144	0x3f25d1da	0.64773333
145	0x3f35b273	0.70975417
146	0x3f72d9c8	0.9486356
147	0xbf10d4f9	-0.5657497
148	0xbe9a8f9b	-0.30187687
149	0x3dc4d16d	0.09610257
150	0x3b5e64f2	0.003393468
151	0x3f165531	0.5872374
152	0x3f135e02	0.5756532
153	0x3f2abec1	0.6669732
154	0x3ee65097	0.4498336
155	0xbec71471	-0.38882783
156	0x3e9a632f	0.30153796
157	0x3f378e18	0.7170119
158	0x3f267142	0.6501657
159	0x3f2c7d39	0.67378575
160	0xbf4166c8	-0.75547457
161	0xbe89ac89	-0.26889446
162	0x3ef94974	0.48688853
163	0x3eff059c	0.49808967
164	0x3f22c050	0.63574696
165	0xbed0aee6	-0.40758437
166	0xbed33eb7	-0.41258785
167	0xbd28d400	-0.041217804
168	0x3e9218ac	0.28534448
169	0x3ed99657	0.42497513
170	0xbf2319a1	-0.6371098
171	0xbee5b50a	-0.44864684
172	0xbf213b68	-0.6298127
173	0xbeedbaa1	-0.4643145
174	0xbe3d401c	-0.18481487
175	0xbe266b46	-0.16251859
176	0xbc922e49	-0.017844336
177	0xbeb3f506	-0.35147876
178	0xbf5aa914	-0.8541424
179	0x3e20a744	0.15688807
180	0x3d366d7e	0.044538014
181	0x3d824a46	0.06361823
182	0x3f1c1916	0.6097578
183	0xbf80428e	-1.0020311
184	0xbfbac6ae	-1.4591882
185	0x3e2648f0	0.16238761
186	0xbcad1095	-0.021126071
187	0x3f1ab45f	0.60431474
188	0x3f360a05	0.7110904
189	0xbf4105ae	-0.7539929
190	0x3dfcf3b0	0.12351167
191	0x3e5ec8a0	0.2175622
192	0x3e5d78cc	0.21628112
193	0x3f687b52	0.9081317
194	0x3f09a8e5	0.5377334
195	0x3dd8dbad	0.10588775
196	0x3da864ee	0.08222376
197	0x3e1f4c23	0.15556388
198	0x3c6dd03f	0.014514982
199	0x3db3b0b8	0.08773941
200	0xbede6989	-0.43439892
201	0xbf23dc8a	-0.6400839
202	0xbe155596	-0.1458343
203	0xbe8f57b5	-0.27996603
204	0xbf0faef2	-0.5612632
205	0x3f09d2c2	0.53837216
206	0x3fbb00a7	1.4609574
207	0xbd85a5f3	-0.06525793
208	0x3f0c7d06	0.5487827
209	0x3f45f2fc	0.7732389
210	0xbf3eb2fb	-0.7449185
211	0xc0137503	-2.3040168
212	0x3ef31c54	0.4748255
213	0xbfbdbe9a	-1.4823792
214	0xbef1d01c	-0.47229087
215	0x3fb9039e	1.4454229
216	0x3e4a8be6	0.1977993
217	0x3fba3be5	1.4549528
218	0x3cb96333	0.02263031
219	0x3f2c0d40	0.6720772
220	0xbf98a87d	-1.1926419
221	0x3ed9d786	0.42547244
222	0xbfa3f192	-1.2808096
223	0x3f01eb36	0.5074953
224	0xbee89518	-0.4542625
225	0xbc1752fe	-0.0092360955
226	0xbdba0517	-0.09083002
227	0xbcaa2b9e	-0.020772751
228	0x3e8a9c9c	0.27072608
229	0x3e0bf710	0.13668466
230	0x3e0d0b69	0.13773884
231	0xbf820c2b	-1.0159963
232	0xc00bad9a	-2.1824708
233	0xbefe50a1	-0.4967089
234	0x3e0fa05d	0.14026017
235	0xbdcc19d4	-0.09965864
236	0xbf1c5c73	-0.61078566
237	0xbfc4f869	-1.5388309
238	0xbf3e2e60	-0.7428951
239	0x3dba5d33	0.090998076
240	0x394b1487	0.00019367236
241	0x3ed63fdc	0.41845596
242	0x3eabda9f	0.33565232
243	0x3c3c6dab	0.011500756
244	0x3cdb43a0	0.026765645
245	0x3e459b44	0.1929751
246	0x3e33af39	0.17547311
247	0x3e69c9f7	0.2283095
248	0x3d80ce46	0.062893435
249	0x3d51558b	0.05110697
250	0xbe09a430	-0.13441539
251	0xbd0ec82d	-0.03485887
252	0xbe54a7a8	-0.20767081
253	0x3e872c39	0.26400927
254	0xbe4f2852	-0.20230225
255	0x3d9eaf38	0.07748264

convolutional_layer_1.0.bias f4 [16]
0	0x3d086b0a	0.033305205
1	0xbe395852	-0.18100098
2	0xbdf5f178	-0.12008947
3	0xbee1dbab	-0.44112906
4	0xbe864a06	-0.2622835
5	0xbe516f68	-0.20452654
6	0xbfa08d89	-1.2543193
7	0xbe24d66c	-0.1609742
8	0xbd32cf5c	-0.043654785
9	0x3d02ad22	0.031903394
10	0xbe973edd	-0.29540148
11	0xbe6fffe3	-0.23437457
12	0xc0540cf4	-3.3132906
13	0x3ef9c3e7	0.48782274
14	0xbf39f85b	-0.72644585
15	0xbd250d28	-0.04029575

convolutional_layer_2.0.weight f4 [32, 16, 5, 5]
0	0xbda423da	-0.08014651
1	0xbe022d8f	-0.12712692
2	0xbc21c9ba	-0.0098747555
3	0x3d384828	0.04499069
4	0x3b7ce402	0.0038588052
5	0x3c395089	0.011310705
6	0xbb41d9e5	-0.0029579338
7	0xbd74605f	-0.05966222
8	0xbd98e06a	-0.074646786
9	0x3c58325e	0.013195602
10	0xbd2c3ef3	-0.04205222
11	0x3d11c2af	0.035586055
12	0xbdaa5780	-0.083174706
13	0xbd8f5c58	-0.07000035
14	0xbc8ca024	-0.017166205
15	0xbd0895b0	-0.033345878
16	0xbddfef4b	-0.109343134
17	0xbccf6ace	-0.025319483
18	0x3c865b8b	0.016401073
19	0x3daa9539	0.08329243
20	0x3cee686a	0.029102523
21	0xbca40a17	-0.020024342
22	0x3cc64012	0.024200473
23	0xbc92ad19	-0.017904805
24	0xbd81ffdd	-0.0634763
25	0x3d2305ff	0.03980064
26	0xbcc9492c	-0.024571024
27	0x3dc133ac	0.09433684
28	0x3e30cc16	0.17265353
29	0x3da5e84f	0.0810095
30	0x3dbdca2e	0.09267078
31	0x3d9b7db0	0.07592332
32	0x3c95b1a5	0.018273184
33	0x3cae8f01	0.021308424
34	0x38d5d366	0.000101960075
35	0xbd9811ba	-0.07425256
36	0xbde29184	-0.11062911
37	0xbd9a039c	-0.0752022
38	0xbda255ca	-0.07926519
39	0xbd472962	-0.04862345
40	0xbd8efd59	-0.06981916
41	0xbe1211fe	-0.14264676
42	0xbe51466e	-0.20437023
43	0xbdfd4fae	-0.12368713
44	0xbb6916af	-0.00355665
45	0xbe0778d6	-0.13229689
46	0x3d45190f	0.0481196
47	0x3c69064e	0.014222695
48	0xbe0cd9d7	-0.13754974
49	0xbc0c48f7	-0.008562318
50	0x3be9ba22	0.0071327845
51	0x3cc6ad88	0.024252668
52	0x3da8a11d	0.08233855
53	0x3defb774	0.11704913
54	0x3c78c4d0	0.0151836425
55	0x3e1c04c6	0.15236196
56	0x3c56daa4	0.013113651
57	0x3d8fb9ae	0.070178375
58	0x3cf8af98	0.030357167
59	0x3d27c495	0.04095896
60	0xbcb91b4a	-0.02259602
61	0x3d26c141	0.040711645
62	0x3dcb0fae	0.099151
63	0x3d5b0807	0.053474452
64	0xbc32b158	-0.01090654
65	0x3c8065d7	0.015673561
66	0x3dcd1894	0.100144535
67	0xbce18374	-0.027528502
68	0x3d2958e3	0.041344535
69	0xbdc6a7a0	-0.09699941
70	0x3dcbd6d2	0.09953083
71	0x3b999728	0.0046872087
72	0x3da8ab72	0.082358256
73	0x389c16b1	7.442886e-05
74	0x3d1bad45	0.03800704
75	0xbc9905d1	-0.018679531
76	0xbbb6366c	-0.005560687
77	0xbc66d0f4	-0.014087904
78	0xbcbdbf96	-0.023162644
79	0xba791ee9	-0.0009503202
80	0xbd85c92e	-0.065325126
81	0x3c3510d2	0.011051374
82	0xbd0eb3c9	-0.034839425
83	0xbce5c455	-0.02804772
84	0xbca8fbea	-0.020627934
85	0xbcedad6a	-0.029013354
86	0x3d754db9	0.059888575
87	0x3c86811a	0.016418982
88	0xbd07ae82	-0.033125408
89	0xbb80ed70	-0.0039345548
90	0xbd267c66	-0.04064598
91	0xbbc041a5	-0.0058672004
92	0xba71158d	-0.0009196632
93	0xbcb52919	-0.022114323
94	0x3d1e19d4	0.03859885
95	0x392868ff	0.00016060843
96	0x3bdf4acf	0.006814338
97	0xbbf352f4	-0.0074256603
98	0x3d037535	0.0320942
99	0xbccde070	-0.025131434
100	0x3e2ce932	0.16885832
101	0x3e20a9e2	0.15689805
102	0x3e983500	0.29727936
103	0x3e241e71	0.16027237
104	0x3dae811e	0.08520721
105	0x3e1a6532	0.15077665
106	0x3ce03024	0.027366705
107	0x3db2188f	0.086960904
108	0x3d820f4e	0.063505754
109	0x3d3090e5	0.043106932
110	0x3d8b4181	0.06799603
111	0x3e5671d9	0.20941867
112	0xbd90bf44	-0.07067731
113	0x3ce9e4e7	0.028551532
114	0xbe24584f	-0.16049312
115	0x3db73cf4	0.08947173
116	0x3d12ca0d	0.035837222
117	0xbe333d53	-0.17503862
118	0x3df9bf79	0.12194724
119	0xbd4f675e	-0.050635688
120	0x3bf25fdc	0.0073966812
121	0x3e27525a	0.16340008
122	0x3dad683b	0.08467146
123	0x3d957370	0.072974086
124	0xbe2f923e	-0.1714563
125	0x3c74464a	0.014909336
126	0xbb9b23fb	-0.004734514
127	0x3d48a903	0.048989307
128	0x3d7b4292	0.061342783
129	0xbd9c0aa3	-0.07619216
130	0xbd198c9c	-0.03748761
131	0x3ddbeeea	0.107389286
132	0xbcb4d6ad	-0.022075022
133	0xbdbb4240	-0.091434956
134	0xbe316bbb	-0.17326252
135	0x3d743490	0.05962044
136	0x3c50cc5c	0.012744036
137	0xbdadc236	-0.084843084
138	0xbe4a05f6	-0.19728836
139	0x377d0c70	1.5082871e-05
140	0x3d025b76	0.031825505
141	0x3c84563c	0.016154401
142	0xbcebcbcd	-0.028783703
143	0xbd97d8d4	-0.074144036
144	0xbd6c2c9c	-0.05765973
145	0x3d96192c	0.0732902
146	0xbe0c5142	-0.13702872
147	0xbdb43de0	-0.08800864
148	0x3dc9b1b8	0.0984835
149	0x3e1ab7b0	0.15109134
150	0xbd96bfce	-0.073608026
151	0x3cad078d	0.021121765
152	0xbcaedb2c	-0.021344744
153	0x3ddb3447	0.107033305
154	0x3dee7e72	0.11645211
155	0xbdb493b5	-0.088172354
156	0xbdc0984f	-0.094040506
157	0xbd2f6db4	-0.04282923
158	0xbc83a179	-0.016068207
159	0x3da31e72	0.07964791
160	0x3c773119	0.015087389
161	0xbda3fed6	-0.080075905
162	0x3d9f38c3	0.07774498
163	0x3e08dc14	0.13365203
164	0x3e0a86cf	0.13527988
165	0x3d6bd5d0	0.057576954
166	0xbd5b1c34	-0.053493693
167	0xbc97cc77	-0.018530114
168	0x3d613702	0.0549841
169	0x3da17e8e	0.078854665
170	0x3d56ae7a	0.052412488
171	0x3d5a40b0	0.053284347
172	0xbd962338	-0.07330936
173	0xbd92b281	-0.07162953
174	0x3e4d14d4	0.20027477
175	0xbb6d133d	-0.0036174797
176	0xbd453d02	-0.048153885
177	0x3cfce58b	0.030871173
178	0xbd0279ed	-0.03185456
179	0x3df70820	0.120620966
180	0xbd5d5b78	-0.05404231
181	0xbdb09f1e	-0.08624099
182	0xbdc3b06a	-0.09555133
183	0xbd5b1072	-0.05348248
184	0xbc1e8fc9	-0.009677836
185	0xbc9eb34e	-0.019372609
186	0xbd765da0	-0.06014788
187	0xbcacbe23	-0.021086758
188	0x3d92f3bb	0.07175394
189	0x3d3f0aab	0.046641033
190	0x3cb0c1f2	0.021576855
191	0xbd439c2f	-0.04775637
192	0xbdc74354	-0.09729639
193	0xbe043699	-0.12911452
194	0x3dc25a36	0.094898626
195	0xbd08ada3	-0.033368718
196	0x3da342dd	0.079717375
197	0x3e1bc81e	0.15213057
198	0x3dbd4240	0.09241152
199	0x3d1cc235	0.038271148
200	0xbe13f92a	-0.14450517
201	0xbdc2d83b	-0.09513899
202	0xbdd7d24e	-0.10538159
203	0xbd8d6eec	-0.06905922
204	0xbdfa04d1	-0.1220795
205	0xbdab6fca	-0.083709314
206	0xbdf09a18	-0.11748141
207	0xbd62a47b	-0.055332642
208	0xbdad20f7	-0.08453553
209	0xbdf480e4	-0.119386464
210	0xbd4349bd	-0.047677744
211	0xbd49c2c0	-0.049257994
212	0x3c696b02	0.014246704
213	0xbdc51b3e	-0.09624337
214	0xbd4a4b79	-0.049388383
215	0xbdc36ef2	-0.095426455
216	0xbdade40f	-0.08490764
217	0xbdf5eaa8	-0.12007648
218	0xbcfd126d	-0.030892575
219	0xbda4623d	-0.0802655
220	0xbc9b02f1	-0.018922301
221	0x3d4610e9	0.04835597
222	0xbc901114	-0.017586268
223	0xbb9f1741	-0.004855067
224	0xbe127cb7	-0.14305387
225	0xbe88d638	-0.26725936
226	0xbe2f46b9	-0.17116822
227	0x3b849f5f	0.004047319
228	0xbd6e4254	-0.058168724
229	0xbd01c853	-0.031685185
230	0xbe379b55	-0.17930348
231	0x3d33ee33	0.043928336
232	0xbde4255e	-0.1113994
233	0xbe71e4ba	-0.23622409
234	0xbe403cbf	-0.18773173
235	0xbe001d44	-0.12511164
236	0xbe2c6c91	-0.1683829
237	0xbe056d21	-0.1302991
238	0xbdd36911	-0.10322774
239	0xbda0c94a	-0.07850893
240	0xbe21dc21	-0.15806629
241	0xbe081afb	-0.13291542
242	0x3d307e75	0.04308935
243	0xbcc7a578	-0.024370894
244	0x3c2c4e5d	0.01051673
245	0xbe358299	-0.177256
246	0x3caee887	0.021351112
247	0x3d869917	0.06572168
248	0x3c420da5	0.011844073
249	0x3d396c10	0.045269072
250	0x3d8d13bd	0.068885304
251	0xbd9bce3c	-0.076076955
252	0xbd2164ec	-0.039402887
253	0x3d682702	0.056677826
254	0x3c4566a7	0.0120484
255	0xba7f228b	-0.00097326253

convolutional_layer_2.0.bias f4 [32]
0	0xbd8bdf43	-0.06829693
1	0xbcbeea43	-0.023305064
2	0x3e30628a	0.1722509
3	0x3e27dd98	0.16393125
4	0x3ddea03c	0.10870406
5	0x3fad0ca5	1.3519484
6	0x3fbd42ab	1.478597
7	0x3ec458cc	0.38348997
8	0xbd8224d1	-0.063546784
9	0xbfc623c7	-1.5479668
10	0xbb9f52d9	-0.004862171
11	0x3f17e2f2	0.59330666
12	0x3ff5f581	1.9215547
13	0xbeb9219c	-0.36158454
14	0xbf9be314	-1.2178674
15	0x3f221ba7	0.63323444
16	0x3ef642d3	0.48097858
17	0xbf347f0d	-0.70506364
18	0x3cd90f6e	0.026496615
19	0x3fb59e08	1.4188852
20	0x3f12a492	0.57282364
21	0x3ee2b177	0.4427602
22	0x3e80fe37	0.2519395
23	0xbc0a59b0	-0.008444235
24	0x3ee5151a	0.44742662
25	0x3eda0de5	0.42588726
26	0xbfde8e85	-1.7387244
27	0xbdfd7049	-0.12374932
28	0xbf5e773e	-0.869007
29	0x3f7ad355	0.9797872
30	0x3e527d57	0.20555626
31	0x3a843866	0.0010087609

fully_connected.weight f4 [9, 512]
0	0x3d3fc68d	0.046820212
1	0x3de1c34b	0.11023577
2	0x3d89c2dc	0.067266196
3	0x3e601436	0.2188271
4	0xbcb6f336	-0.022332769
5	0x3d82e237	0.06390803
6	0xbc8c45ac	-0.017123066
7	0x3d6cf3ea	0.057849802
8	0xbcb9e5d3	-0.022692597
9	0x3c141a5f	0.0090394905
10	0x3dceafda	0.10092135
11	0x3d9ef049	0.077606745
12	0x3dedb524	0.116068155
13	0x3d5756ad	0.052572895
14	0x3e09ab10	0.13444161
15	0x3e81525e	0.25258154
16	0x3da6e952	0.08149971
17	0xbe56f9d8	-0.20993745
18	0xbd845d6b	-0.064631306
19	0xbdd86b71	-0.10567368
20	0x3b9262a5	0.0044673258
21	0xbdc8065a	-0.097668365
22	0x3cdc081f	0.026859341
23	0xbe150288	-0.14551747
24	0x3c8d3f66	0.017242145
25	0xbdaa56f0	-0.08317363
26	0xbd7201a2	-0.05908359
27	0x3d9b512c	0.07583842
28	0x3de36937	0.111040525
29	0xbc242045	-0.010017459
30	0xbd4594d5	-0.04823764
31	0xbe1fe631	-0.15615155
32	0x3ec7be2d	0.3901228
33	0x3e4c7fae	0.19970581
34	0x3e1e552d	0.1546218
35	0x3ede677c	0.43438327
36	0x3e2a09b9	0.16605271
37	0x3e0cf691	0.13765933
38	0x3e406a2c	0.18790501
39	0x3e72429b	0.2365822
40	0x3e343df6	0.17601761
41	0x3d4a764a	0.049429215
42	0xbbd9d69b	-0.0066478974
43	0x3e5a5ff3	0.21325664
44	0x3e88c98e	0.26716274
45	0x3e86c255	0.2632014
46	0x3e817653	0.25285587
47	0x3ec02994	0.37531722
48	0x3efa59aa	0.48896533
49	0x3ee8133b	0.45327172
50	0x3ee8e6bb	0.45488533
51	0x3ef7238a	0.48269302
52	0x3ebcb10d	0.3685383
53	0x3dccc450	0.09998381
54	0x3e08048c	0.13282984
55	0x3e891530	0.26773977
56	0x3e6d97cd	0.23202439
57	0x3e1b71ec	0.15180176
58	0x3e5cb084	0.2155171
59	0x3eb1d5a9	0.34733322
60	0x3e9e79be	0.30952257
61	0x3e876577	0.264446
62	0x3e9574f8	0.29190803
63	0x3f0f5d5f	0.5600185
64	0xbd2a6d87	-0.04160836
65	0x3d1e318f	0.03862148
66	0x3c81acef	0.015829531
67	0x3d0fb1ec	0.03508179
68	0x3d37aee4	0.044844523
69	0xbcc95f6d	-0.024581635
70	0xbd8ba086	-0.06817727
71	0xba0f0fb4	-0.0005457357
72	0xbd750d28	-0.059827
73	0xbd85383a	-0.06504865
74	0x3a8ca7de	0.0010731181
75	0x3cbf6b04	0.023366459
76	0xbcd59a23	-0.026074475
77	0xbd07f207	-0.0331898
78	0xbb677410	-0.0035316981
79	0xbe09df9d	-0.13464208
80	0xbd8fff2a	-0.070310906
81	0xbd7f6552	-0.062352486
82	0xbe0c505b	-0.13702528
83	0xbdd5535f	-0.104162924
84	0xbda473b7	-0.08029883
85	0xbe18f713	-0.14938001
86	0xbdd9cac6	-0.10634379
87	0xbe30c6c1	-0.17263319
88	0xbe0eada0	-0.1393342
89	0xbe476b61	-0.19474556
90	0xbdffe7a1	-0.124953516
91	0xbe828546	-0.25492305
92	0xbe432f79	-0.19061078
93	0xbe083c35	-0.13304217
94	0xbe66cb1d	-0.22538419
95	0xbe97315d	-0.2952985
96	0x3ed8204d	0.42212144
97	0x3eb3de8e	0.35130733
98	0x3eae97e5	0.3410026
99	0x3edb685a	0.4285305
100	0x3e6039fa	0.21897116
101	0x3d9a74b7	0.07541793
102	0x3e6c6002	0.23083499
103	0x3e6da15f	0.2320609
104	0x3e89d89c	0.26923072
105	0x3e5c3acb	0.21506803
106	0x3e6d2c3e	0.23161408
107	0x3e917d0a	0.2841571
108	0x3ee2ad17	0.44272682
109	0x3e8d25b4	0.27567828
110	0x3ed988d3	0.424872
111	0x3f3a5382	0.7278367
112	0x3e57abd8	0.21061647
113	0x3e3a7e51	0.18212248
114	0x3d90c305	0.07068447
115	0x3e884c57	0.26620743
116	0x3e32b8dd	0.17453332
117	0xbd5cd213	-0.05391128
118	0x3bd5b59e	0.0065218946
119	0x3debd447	0.11515098
120	0x3e2968cc	0.16543883
121	0x3d955986	0.07292466
122	0xbdddaf05	-0.10824398
123	0x3e889bc5	0.26681343
124	0x3e214ead	0.15752669
125	0x3dfb8c60	0.12282634
126	0x3dc82d5b	0.09774276
127	0x3ed3b75c	0.4135083
128	0x3e976934	0.2957245
129	0x3e7b463b	0.2453851
130	0x3e542c25	0.20719965
131	0x3ea27088	0.3172648
132	0x3e4a5dc7	0.19762336
133	0x3e0b496c	0.13602227
134	0x3dff741d	0.12473319
135	0x3e9d41cd	0.30714265
136	0x3e84b550	0.2591958
137	0x3db277fc	0.087142915
138	0x3d6fed93	0.058576178
139	0x3e2d9c7b	0.16954224
140	0x3ecf4126	0.40479392
141	0x3e5fafd8	0.21844423
142	0x3e832156	0.2561137
143	0x3ec4c595	0.38431993
144	0xbe9b351c	-0.30313957
145	0xbe98c3d3	-0.29836902
146	0xbddb00ec	-0.10693535
147	0xbefb5465	-0.49087825
148	0xbda02ae6	-0.07820682
149	0xbdf1cc27	-0.11806517
150	0xbd313393	-0.043262076
151	0xbe694799	-0.22781219
152	0xbe6da969	-0.23209156
153	0xbe2e1633	-0.17000656
154	0x3d25d56f	0.04048675
155	0xbe98843c	-0.29788387
156	0xbdecbffa	-0.11560054
157	0xbe013be0	-0.12620497
158	0xbe0e83cd	-0.13917466
159	0xbe945430	-0.2897048
160	0xbeba47c9	-0.36382893
161	0xbe60f336	-0.21967778
162	0xbdded79c	-0.10880968
163	0xbe8693bd	-0.2628459
164	0xbe7153ee	-0.23567173
165	0xbe1e2fbc	-0.15447897
166	0xbde30e8a	-0.110867575
167	0xbd5df1ce	-0.05418568
168	0xbe111efa	-0.14171973
169	0xbdb54642	-0.08851291
170	0xbd6d30e3	-0.05790795
171	0xbe1ead72	-0.15495852
172	0xbe22bd9c	-0.15892643
173	0xbe303ae4	-0.17209965
174	0xbe3aa8a9	-0.18228401
175	0x3da971ea	0.082736805
176	0x3e2600c1	0.16211225
177	0x3b02b9bf	0.001994714
178	0x3d433671	0.04765934
179	0x3de2afbd	0.11068676
180	0x3d990902	0.07472421
181	0xbcddf236	-0.027093034
182	0xbe07a85b	-0.13247816
183	0x3cf52621	0.029925408
184	0x3dbb009f	0.09130978
185	0xbd18a189	-0.037263427
186	0xbc4b7560	-0.012418121
187	0x3d72d2d1	0.05928308
188	0x3e512d2d	0.2042739
189	0x3cdc7b7e	0.026914354
190	0x3e04a5d2	0.1295388
191	0x3d92098d	0.07130728
192	0xbf0a54f4	-0.5403588
193	0xbe13d449	-0.14436449
194	0xbda3764e	-0.07981549
195	0xbe89c18f	-0.26905486
196	0xbe7e8df7	-0.24858843
197	0x3d1f8687	0.038946655
198	0xbd215ccf	-0.03939515
199	0xbe34c0c1	-0.17651655
200	0xbe315480	-0.1731739
201	0xbd785d13	-0.060635637
202	0xbde30f5b	-0.11086913
203	0xbe65732c	-0.22407216
204	0xbeca5ec5	-0.39525428
205	0xbe237d50	-0.15965772
206	0xbe270527	-0.16310559
207	0xbea07c9c	-0.3134507
208	0x3e0c5874	0.13705617
209	0x3dc2d0cc	0.09512481
210	0x3e2657be	0.16244408
211	0x3e1669b0	0.14688754
212	0x3d7f8973	0.06238694
213	0xbd835333	-0.06412353
214	0x3e236663	0.15957026
215	0xbd9ed4a3	-0.07755401
216	0x3d886ba6	0.06661157
217	0x3de9021f	0.11377358
218	0x3ccc6307	0.024949564
219	0xbceaabd1	-0.028646382
220	0x3d004c38	0.031322688
221	0x3ce5f3b5	0.02807031
222	0x3df301a9	0.11865551
223	0x3de4dce6	0.111749455
224	0x3d2a3538	0.04155466
225	0x3d23ef79	0.0400233
226	0xbd86021b	-0.0654337
227	0x3d9d5150	0.07681525
228	0xbe351f58	-0.17687738
229	0xbe99bb21	-0.3002558
230	0xbe8e4ecc	-0.27794492
231	0xbe13ea18	-0.14444768
232	0x3caaa557	0.020830793
233	0xbe468887	-0.19388019
234	0xbdd1459b	-0.10218354
235	0x3cdbc96b	0.026829442
236	0x3caf2e0f	0.021384267
237	0xbdd199af	-0.10234391
238	0xbe672ce4	-0.22575718
239	0xbe10fade	-0.14158198
240	0xbe00a594	-0.12563163
241	0xbd6ea9da	-0.05826745
242	0x3db010b6	0.08596937
243	0x3db7ba2e	0.08971058
244	0xbdafa2f1	-0.085760005
245	0x3d4570ca	0.048203267
246	0x3da97382	0.082739845
247	0xbd8ac9e9	-0.067767926
248	0x3c14fba2	0.009093197
249	0x3deffea0	0.11718488
250	0xbca711c6	-0.020394217
251	0xbd967e19	-0.0734827
252	0xbf0319a2	-0.5121099
253	0xbe448487	-0.1919118
254	0xbdc9d1e4	-0.098544866
255	0xbe2106e3	-0.15725283

fully_connected.bias f4 [9]
0	0x3d0f088e	0.034920268
1	0xbd7a1741	-0.061057333
2	0x3e0d401e	0.1379399
3	0xbe6a75e4	-0.22896534
4	0x3ef7aa60	0.48372173
5	0xbf0cde59	-0.55026776
6	0xbccdb9af	-0.025112955
7	0xbcf90a41	-0.030400397
8	0x3f99d041	1.2016679
