results/torch_deep_mlp_model.pt (torch, 440191 bytes, 6 tensors)

hidden_layers.0.weight f4 [128, 784]
0	0xbdff25e7	-0.12458401
1	0xbd7c1ec1	-0.061552767
2	0x3c63908d	0.013889444
3	0x3dd5eda6	0.104457185
4	0xbda68144	-0.08130124
5	0xbcb25371	-0.021768304
6	0x3d3f34ad	0.046681095
7	0xbd1afe93	-0.037840437
8	0x3d31caf8	0.043406457
9	0xbbb7681f	-0.005597129
10	0xbd7f2bce	-0.062297635
11	0x3da323e7	0.07965832
12	0x3d179cc0	0.037014723
13	0xbdc8a2ef	-0.09796702
14	0xbccf9266	-0.025338363
15	0x3d0fad52	0.0350774
16	0x3c25133b	0.010075386
17	0x3da74e28	0.08169204
18	0xbcc42f30	-0.023948282
19	0xbd749633	-0.059713554
20	0x3da18e68	0.0788849
21	0xbd0902e8	-0.033450037
22	0xbd18a0af	-0.037262615
23	0xbd104aba	-0.035227515
24	0x3e2265da	0.15859166
25	0xbd46b938	-0.048516482
26	0xbd9fbf46	-0.078001544
27	0x3d49e0ed	0.04928677
28	0xbd6c6689	-0.057714973
29	0xbce3a898	-0.027790353
30	0x3c48b24b	0.01224954
31	0x3dc3f577	0.09568303
32	0xbdf491c6	-0.119418666
33	0xbdb1aff2	-0.08676137
34	0x3d95f8ff	0.07322883
35	0xbd1a3e17	-0.03765687
36	0xbd4cce25	-0.050001282
37	0x3d0a5c3f	0.03377938
38	0x3c58f570	0.013242111
39	0xbb48e532	-0.003065419
40	0x3c25dea7	0.010123885
41	0x3bf156a1	0.0073650633
42	0x3cc311b5	0.023812154
43	0xbd0cd447	-0.03438213
44	0xbd4802b8	-0.048830718
45	0xbd1bb08e	-0.038010173
46	0x3d1d1273	0.038347673
47	0x3c9b5f98	0.018966481
48	0x3dba9c81	0.09111882
49	0xbcba2c4c	-0.0227262
50	0x3c1e8e11	0.009677426
51	0x3d56bef3	0.052428197
52	0x3de98823	0.11402919
53	0xbd29c891	-0.04145104
54	0xbcb86c02	-0.02251244
55	0x3d7679eb	0.060174864
56	0xbd906838	-0.07051128
57	0xbd5fb511	-0.054616038
58	0x3c3aea96	0.011408469
59	0x3de8d0ac	0.11367926
60	0x3cb21513	0.021738565
61	0xbd054059	-0.03253207
62	0x3d9c4783	0.07630827
63	0xbd7ac89c	-0.061226472
64	0xbd5b8f4e	-0.053603463
65	0x3bd56000	0.006511688
66	0xbd2c742c	-0.042102978
67	0x3cf26b7b	0.029592266
68	0x3d2eb2b2	0.042650886
69	0xbd2ece5d	-0.042677272
70	0xbcde688c	-0.027149461
71	0xbc92e873	-0.017933106
72	0x3d3ee67d	0.04660653
73	0xbd89c8e9	-0.06727774
74	0x3dc07545	0.093973674
75	0xbcbc737a	-0.023004282
76	0xbc60a907	-0.013712174
77	0xbde5ffcd	-0.11230431
78	0xbc8d3ee7	-0.017241908
79	0xbcf528f7	-0.02992676
80	0x3cb68608	0.022280708
81	0xbd9637ce	-0.07334863
82	0xbd9ace78	-0.07558912
83	0xbc343770	-0.010999545
84	0xbb250f7f	-0.0025186238
85	0xbd8d05ff	-0.06885909
86	0x3d858c80	0.06520939
87	0x3c952415	0.018205682
88	0x3d07e915	0.03318127
89	0x3cd9e056	0.02659623
90	0xbd009b6f	-0.031398233
91	0xbcfceb76	-0.030873995
92	0x3d8183b3	0.06323948
93	0xbc201bf2	-0.009772288
94	0xbde03603	-0.10947802
95	0xbd741de4	-0.05959882
96	0x3d7638c8	0.060112745
97	0x3cb879ea	0.02251907
98	0xbc8df114	-0.01732687
99	0x3d2c5e97	0.042082395
100	0x3c00d587	0.007863409
101	0xbda9469c	-0.08265421
102	0x3d7a7c8f	0.061153945
103	0x3db4ae57	0.08822315
104	0x3b7cc2e1	0.0038568305
105	0xbd6b0190	-0.057374537
106	0xbdd12711	-0.102125295
107	0xbd67913a	-0.056534983
108	0x3d55be4f	0.052183446
109	0x3d8c698e	0.068560705
110	0xbd6db4d0	-0.058033764
111	0xbd141195	-0.03614958
112	0x3cfc839d	0.030824477
113	0xbb63b626	-0.003474602
114	0xbc177874	-0.009245027
115	0x3c3839ea	0.011244277
116	0xbdd2c2f2	-0.10291089
117	0xbd033190	-0.03202969
118	0xbd02dbf4	-0.031948045
119	0xbc308d5d	-0.010775891
120	0x3dee8fd5	0.116485275
121	0xbd3c76be	-0.04601168
122	0xbdd6c63f	-0.10487031
123	0xbd528394	-0.051395014
124	0x3d867672	0.065655604
125	0x3dc17c6b	0.09447559
126	0xbc7690b1	-0.015049146
127	0xbc3f2788	-0.01166714
128	0xbd21ffd4	-0.039550617
129	0xb9eb92b0	-0.00044931984
130	0x3db55233	0.08853569
131	0xbd55edce	-0.05222874
132	0xbd1c26bd	-0.03812288
133	0x3bc134cf	0.005896188
134	0xbd71d5e9	-0.05904189
135	0xbd45de06	-0.04830744
136	0x3d8e5a57	0.06950825
137	0x3da4fbbf	0.08055829
138	0xbd68da3e	-0.056848757
139	0x3bb5d889	0.0055494946
140	0x3dc17752	0.09446587
141	0x3c984d79	0.01859163
142	0x3ced9d71	0.029005738
143	0x3d630c5b	0.055431705
144	0xbe13b52c	-0.1442458
145	0xbdcf2861	-0.101151235
146	0x3de1f4bc	0.110330075
147	0x3dfadd46	0.12249236
148	0x3d2ba58a	0.041905917
149	0xbd4f68ef	-0.05063718
150	0x3c82ff66	0.015990924
151	0xbcab8cd8	-0.020941183
152	0x3e056952	0.13028458
153	0x3dca7d44	0.09887174
154	0xbcb7b0e8	-0.022423223
155	0xbdac6abe	-0.08418797
156	0xbd8c1dd6	-0.06841628
157	0x3ca829f1	0.020527812
158	0x3d8d304a	0.06893976
159	0xbdd60487	-0.10450082
160	0xbd9fd994	-0.078051716
161	0x3d88f5ea	0.066875294
162	0x3d90404a	0.07043512
163	0xbcd90d91	-0.026495727
164	0xbd0d2b91	-0.034465376
165	0x3d8f5372	0.06998338
166	0x3cddcce2	0.027075235
167	0x3d632e1f	0.055463906
168	0x3c0463a3	0.008080396
169	0x3cf9f493	0.03051213
170	0x3d35051f	0.044194337
171	0xbcaddd32	-0.021223638
172	0xbdb8c7ad	-0.0902246
173	0xbd9f44bf	-0.07776784
174	0x3cbbfcbf	0.022947667
175	0x3dbe9464	0.09305647
176	0x3da0ceac	0.078519195
177	0xbdae9167	-0.08523827
178	0xbd8d3bff	-0.06896209
179	0x3ca09a54	0.01960484
180	0x3cb6cdb1	0.022314878
181	0xbc5bfa94	-0.013426442
182	0xbd780ed0	-0.060561
183	0xbd9e8bb0	-0.07741487
184	0xbc9009f8	-0.017582878
185	0x3ca7991a	0.020458747
186	0x3e159340	0.14606953
187	0xbd790da0	-0.06080401
188	0xbdb9deca	-0.09075697
189	0x3c2da017	0.01059725
190	0x3e0f5be9	0.13999905
191	0x3c8c4abd	0.017125482
192	0xbd62dc55	-0.055385906
193	0xbd608e0b	-0.054822963
194	0x3c1ce7a6	0.009576714
195	0xbc50602a	-0.01271824
196	0xbd64b703	-0.055838596
197	0x3d80ab1d	0.06282637
198	0xbc9ce15e	-0.019150432
199	0xbd8ec472	-0.06971063
200	0x3ccac8c0	0.024753928
201	0x3c2d7b97	0.010588548
202	0x3ca38f10	0.019965678
203	0x3d03f926	0.03222003
204	0xbccfd2e9	-0.025369124
205	0xbdbfddc3	-0.093684696
206	0xbe16d1b3	-0.14728431
207	0x3cd20c33	0.025640583
208	0x3d3a0617	0.045415964
209	0xbac92c48	-0.001534828
210	0x3cc281c3	0.023743516
211	0x3bc98d1d	0.006150855
212	0x3cd1b858	0.025600597
213	0xbc53def8	-0.012931578
214	0x3e0f34fd	0.13985057
215	0xbd7a93eb	-0.06117622
216	0xbe02c905	-0.12771995
217	0x3c5397d6	0.0129146185
218	0x3dde3609	0.1085015
219	0x3d80a876	0.062821314
220	0xbde5f02f	-0.11227452
221	0xbde059d3	-0.109546326
222	0xbd098e97	-0.03358325
223	0x3c308202	0.010773184
224	0xbd72734e	-0.059191994
225	0x3da57aaf	0.08080041
226	0xbcd98952	-0.026554737
227	0xbcc7e81f	-0.024402676
228	0x3d856600	0.065135956
229	0xbcdd4c6f	-0.027013985
230	0xbdf196c1	-0.11796332
231	0x3cbae01b	0.02281194
232	0x3d7fe78a	0.062476672
233	0xbd98b6c6	-0.07456736
234	0xbceadbde	-0.028669294
235	0x3d5bef52	0.05369503
236	0x3d040106	0.03222754
237	0xbcdc5853	-0.026897585
238	0xbc2368db	-0.00997373
239	0xbcaa8b42	-0.020818356
240	0x3d932991	0.071856625
241	0xbc918970	-0.01776573
242	0xbc519b2a	-0.012793342
243	0x3c14ca13	0.009081381
244	0xbd80c87d	-0.0628824
245	0xbce7cb02	-0.028295044
246	0x3d356228	0.044283062
247	0x3c570374	0.013123382
248	0x39f264c0	0.00046232902
249	0x3c509ff7	0.012733451
250	0x3d2b30dd	0.041794647
251	0x3dadb6d1	0.08482135
252	0xbd040652	-0.03223259
253	0x3d0e78bf	0.03478312
254	0xbabf6e3f	-0.0014605
255	0xbd161b4c	-0.036647126

hidden_layers.0.bias f4 [128]
0	0xbc891b32	-0.0167366
1	0x3d21d2bd	0.039507616
2	0x3cd2cd12	0.02573255
3	0xbed827ae	-0.42217773
4	0xbe00d386	-0.1258069
5	0xbd3596af	-0.044333156
6	0xbe5afabd	-0.21384712
7	0xbc8bd49c	-0.017069153
8	0xbd2f0dca	-0.04273776
9	0x3c09b20b	0.008404265
10	0xbcdf3781	-0.027248146
11	0x3c841c35	0.016126731
12	0xbd1b8a18	-0.037973493
13	0xbf87ffd4	-1.0624948
14	0xbdf5606e	-0.11981283
15	0xbeec2ab2	-0.46126324
16	0xbda0ccc6	-0.078515574
17	0xbd0c5530	-0.03426093
18	0xbe040a7f	-0.12894629
19	0x3c954134	0.018219568
20	0xbda3e05c	-0.080017775
21	0x3d1fc586	0.039006732
22	0xbd12c5f7	-0.035833325
23	0xbdea3816	-0.11436479
24	0x3d8c0170	0.06836212
25	0xbf78ef86	-0.97240484
26	0xbf024dfb	-0.5090024
27	0xbd24d594	-0.040242746
28	0xbea83161	-0.32850173
29	0x3d40c26c	0.047060415
30	0xbcb672cd	-0.022271538
31	0x3bd398f7	0.006457444
32	0xbdf9fd38	-0.12206501
33	0xbdb51eef	-0.08843791
34	0x3cadc088	0.02120997
35	0xbd63469f	-0.05548727
36	0xbdbecb44	-0.093161136
37	0xbb1aa204	-0.0023595104
38	0xbcfd5b54	-0.030927338
39	0x3f08fbe8	0.5350938
40	0x3d87d75e	0.06632875
41	0x3d872c44	0.0660024
42	0xbf541f58	-0.82860327
43	0xbe2c93ee	-0.16853306
44	0x3ef7b840	0.4838276
45	0xbdb6b4f1	-0.089212306
46	0x3d1cbf5e	0.03826844
47	0x3e18c6bc	0.14919561
48	0xbf1588f8	-0.5841212
49	0xbcdbcdcc	-0.02683153
50	0xbf20c41b	-0.62799233
51	0xbe358f7d	-0.17730518
52	0xbdbfe8ef	-0.093706004
53	0xbc0b6b3a	-0.0085094515
54	0xbd890653	-0.066906594
55	0x3d10c36d	0.035342623
56	0xbdf7d723	-0.12101581
57	0x3cb32f7f	0.021873234
58	0xbd28c907	-0.04120734
59	0x3e38a983	0.18033414
60	0xbd7ba1af	-0.06143349
61	0xbe04819e	-0.1294007
62	0x3db11c4b	0.086479746
63	0xbe09ddfe	-0.1346359
64	0xbd0c449d	-0.034245122
65	0xbce15a2f	-0.027508823
66	0x3e2876c9	0.16451563
67	0x3ec662cc	0.3874725
68	0x3d65b6be	0.05608248
69	0xbd994731	-0.07484282
70	0xbd87cb36	-0.06630556
71	0xbddcfae0	-0.10790038
72	0x3eef7267	0.4676697
73	0x3d5b58f2	0.05355162
74	0xbebe13cc	-0.3712448
75	0x3d37c461	0.044865016
76	0xbea7ec12	-0.32797295
77	0xbf450297	-0.76957077
78	0xbe4b7811	-0.1987002
79	0xbd6012e2	-0.054705508
80	0x3b118e9c	0.0022210246
81	0xbe116077	-0.14196955
82	0xbd424af8	-0.047434777
83	0xbe090ea5	-0.13384493
84	0xbd8fddae	-0.07024704
85	0x3d428aac	0.04749553
86	0xbf8a4a55	-1.0803934
87	0x3d7c2c72	0.061565824
88	0xbd910e1d	-0.0708277
89	0xbce3a5cf	-0.027789025
90	0x3dd0c3ac	0.101935714
91	0xbad5f6ec	-0.0016324199
92	0xbe614acd	-0.2200119
93	0xbdaca13c	-0.084291905
94	0xbf9439b8	-1.1580114
95	0x3e4c8487	0.1997243
96	0xbc0374e6	-0.008023476
97	0xbc015c55	-0.007895549
98	0xbe6c0d59	-0.23051967
99	0xbd6bcd13	-0.05756862
100	0xbec86a84	-0.39143765
101	0xbd4c1dc8	-0.04983309
102	0x3bd3057f	0.006439864
103	0xbd78208d	-0.060577918
104	0xbd1757c2	-0.036948927
105	0xbd90f5a6	-0.07078104
106	0xbda07687	-0.07835107
107	0x3d5c4312	0.0537749
108	0xbc92141c	-0.017831855
109	0xbdc25e07	-0.094905905
110	0xbb9d8781	-0.004807413
111	0x3c78e986	0.015192395
112	0xbd4dd77a	-0.050254323
113	0x3f738b67	0.95134586
114	0xbe16ef37	-0.1473969
115	0x3de23884	0.11045936
116	0xbcd3b0d6	-0.025841158
117	0x3cae8c6f	0.021307198
118	0xbdf86f5e	-0.121306166
119	0xbf2550f5	-0.64576656
120	0x3e05d3ab	0.13069026
121	0xbbdc8919	-0.0067302105
122	0x3b634072	0.0034675864
123	0xbbe68e6d	-0.0070360214
124	0xbd7aee60	-0.06126249
125	0x3e2d008e	0.16894743
126	0xbc1ed6b5	-0.009694745
127	0x3f67b4b4	0.90510106

hidden_layers.1.weight f4 [64, 128]
0	0x3e30461b	0.17214243
1	0xbbe82174	-0.007084066
2	0xbbd81e8c	-0.0065954383
3	0xbc98f208	-0.018670097
4	0xbd3460c5	-0.0440376
5	0x3c95b11e	0.018272933
6	0x3dd58eef	0.10427653
7	0x3de2a93a	0.11067434
8	0x3ddf7319	0.10910625
9	0xbdd0cd14	-0.101953655
10	0x3dc6279d	0.096755244
11	0x3e0a597c	0.13510698
12	0xbdaa04fc	-0.08301732
13	0x3d8fb67e	0.070172295
14	0x3d803fe6	0.06262188
15	0x3c5c6f2e	0.013454242
16	0x3d9a85b6	0.075450346
17	0x3cc888a0	0.02447921
18	0xbde5bfc5	-0.11218218
19	0x3e1a97ac	0.1509692
20	0xbe72141b	-0.23640482
21	0x3e36062f	0.17775796
22	0x3c6822d5	0.014168461
23	0xbdafc601	-0.08582688
24	0xbdf35b6b	-0.11882671
25	0x3dad0b67	0.084494404
26	0xbd729ec1	-0.05923343
27	0x3df5ed4c	0.120081514
28	0x3d31420a	0.04327587
29	0x3b0bfe5b	0.0021361324
30	0x3d82f84b	0.063950144
31	0xbdc43ee7	-0.0958231
32	0x3dc2ed87	0.09517961
33	0xbcbe740a	-0.023248691
34	0xbc3698d6	-0.011144837
35	0x3da008fb	0.07814213
36	0x3b41954e	0.0029538455
37	0xbdbbad32	-0.09163894
38	0x3d43d48d	0.047810126
39	0x3df81342	0.12113048
40	0x3dcf6094	0.10125843
41	0xbd9674f2	-0.07346524
42	0x3d583729	0.05278698
43	0x3b85f61f	0.004088178
44	0x3ddaabe6	0.10677318
45	0x3c8afae2	0.016965333
46	0xbd6ed03b	-0.058304053
47	0xbd0c4ca7	-0.03425279
48	0x3bb0d83a	0.00539687
49	0x3d93d8b1	0.07219065
50	0xbcc67c53	-0.024229204
51	0xbd928f5f	-0.07156252
52	0xbdc9b6ea	-0.09849341
53	0x3d92f8fb	0.071763955
54	0x3d4aad49	0.049481664
55	0x3d8838c2	0.06651451
56	0xbbb4a8f4	-0.005513305
57	0xbdbdad3c	-0.092615575
58	0x3d3ec10e	0.04657083
59	0xbd32606e	-0.043548994
60	0x3e6ab89a	0.22921982
61	0xbcf8bef0	-0.030364484
62	0xbdbfa451	-0.09357513
63	0xbd899950	-0.06718695
64	0x3e435efa	0.190792
65	0xbd991f77	-0.074767046
66	0x3ceef303	0.029168611
67	0x3d8e6d96	0.069544956
68	0xbc537417	-0.012906096
69	0x3cc08bdd	0.023504192
70	0x3d299f48	0.041411668
71	0xbda80686	-0.08204369
72	0xbe35c5b1	-0.17751195
73	0x3cf7348e	0.030176427
74	0x3dacd6a7	0.08439379
75	0x3d4eb975	0.050469834
76	0x3d5d6074	0.054047063
77	0x3c72c32f	0.014817043
78	0x3d949f48	0.07256943
79	0xbca54d0f	-0.020178346
80	0x3d74579e	0.05965387
81	0xbe0176a1	-0.1264291
82	0xbd534b77	-0.05158564
83	0x3d1d8756	0.038459145
84	0x3d06247f	0.03274965
85	0x3cf4be6a	0.029875953
86	0x3d411b3c	0.047145113
87	0xbdaf68f9	-0.08564944
88	0xbdcdba7d	-0.100453354
89	0x3e2f4b96	0.17118677
90	0x3d8d0cf1	0.06887234
91	0x3e2c5e72	0.16832903
92	0xbe0d90c1	-0.1382475
93	0x3dba3fdc	0.090942115
94	0x3da943b7	0.08264869
95	0xbdac39c0	-0.084094524
96	0x3d06a56b	0.0328726
97	0x3ad16e43	0.0015978295
98	0xbdcd0b6e	-0.10011946
99	0xbd27ea82	-0.04099513
100	0x3b3c7642	0.002875701
101	0xbc9b18b0	-0.01893267
102	0xbdab2f36	-0.08358614
103	0xbde1c5d3	-0.1102406
104	0x3cc23d49	0.023710864
105	0xbddbb793	-0.107283734
106	0xbd246683	-0.040136825
107	0x3d82ac4f	0.063805215
108	0x3d86649d	0.06562159
109	0xbd9f3a93	-0.07774844
110	0x3d3f0adc	0.046641216
111	0xbd36fa96	-0.04467257
112	0xbc8faacb	-0.017537495
113	0x3d81fda2	0.06347205
114	0xbd065eff	-0.03280544
115	0x3de5c935	0.11220018
116	0x3d98b16e	0.07455717
117	0x3d1c4718	0.038153738
118	0xbdf9e668	-0.1220215
119	0x3b1d4d19	0.0024002253
120	0xbdadb520	-0.084818125
121	0xbd2fada4	-0.042890206
122	0x3d9ef921	0.07762361
123	0xbc87407c	-0.01651024
124	0x3df1ae94	0.11800876
125	0xbd5c33a7	-0.053760197
126	0xbd4be1aa	-0.049775757
127	0x3e0be2bd	0.13660713
128	0x3d8e29b1	0.06941546
129	0xbd5a0709	-0.053229365
130	0x3df7927b	0.12088486
131	0xbd9dc6b6	-0.07703917
132	0x3e3baa5b	0.18326704
133	0x3e2f9367	0.17146073
134	0xbd0403ed	-0.032230306
135	0xbb684c99	-0.0035446046
136	0xbc836815	-0.016040841
137	0x3de94a3b	0.113911115
138	0x3d85408d	0.06506453
139	0xbb4c6058	-0.0031185355
140	0x3e225203	0.15851597
141	0x3daafa3b	0.08348509
142	0x3dd8def8	0.10589403
143	0x3d6941fc	0.056947693
144	0x3d8ffe46	0.07030921
145	0xbd48184c	-0.048851296
146	0x3d89cf65	0.067290105
147	0xbd733e1b	-0.0593854
148	0x3e13ab76	0.14420876
149	0xbc6140ff	-0.013748406
150	0x3d5c9cc4	0.05386044
151	0x3cc96bd9	0.024587559
152	0xbcf67cf0	-0.030088872
153	0xbdb28606	-0.08716969
154	0xbd2c9753	-0.0421365
155	0xbd983bf1	-0.07433308
156	0x3c939f40	0.018020272
157	0x3d872136	0.06598131
158	0x3db35bd5	0.0875775
159	0x3e0081e1	0.12549545
160	0xbc6e49c9	-0.014543959
161	0x3e41a61b	0.1891102
162	0x3e23bc7d	0.15989871
163	0xbdd593b9	-0.104285665
164	0x3e0a79bd	0.13523002
165	0x3db98361	0.09058262
166	0x3db65f5e	0.089049086
167	0xbd1869c1	-0.03721023
168	0xbdb5ba7b	-0.08873459
169	0x3d849591	0.0647384
170	0x3d3ce1c1	0.046113733
171	0x3d1affdc	0.037841663
172	0xbc65a99c	-0.014017489
173	0x3e0fabbf	0.1403036
174	0x3dd90a4e	0.105976686
175	0x3dc4b767	0.09605294
176	0xbc5b89f7	-0.013399593
177	0x3deddf2b	0.116148315
178	0xbd13dcb2	-0.036099143
179	0x3e2e7475	0.17036612
180	0x3e0769b6	0.1322392
181	0xbc7dc781	-0.01548946
182	0x3e3a6e6b	0.18206184
183	0x3dbb77aa	0.091536835
184	0x3deb8337	0.114996366
185	0x3e153204	0.1456986
186	0x3dce2a7c	0.10066697
187	0x3d907cbb	0.070550404
188	0xbdd44789	-0.10365207
189	0x3df4d2fc	0.119543046
190	0x3deb5ca5	0.1149228
191	0x3d540032	0.051758
192	0x3c80d7fc	0.01572799
193	0x3d8186fc	0.06324574
194	0x3d2cd64b	0.042196553
195	0x3bb6166b	0.0055568716
196	0x3dcd80c6	0.10034327
197	0x3de57d35	0.11205522
198	0x3d8e3032	0.06942786
199	0x3e09f431	0.13472058
200	0x3dd878fb	0.1056995
201	0x3d06dcb7	0.032925334
202	0x3bcb0495	0.0061956146
203	0xbd9bdfce	-0.07611047
204	0x3c3369e3	0.010950538
205	0x3d144cb6	0.03620597
206	0x3d9f2eef	0.07772624
207	0x3d32edec	0.04368393
208	0x3cd53021	0.026023926
209	0xbce38625	-0.027773926
210	0x3ce17ac9	0.027524369
211	0xbd78c9a7	-0.060739186
212	0x3d92b117	0.071626835
213	0x3b5e2b48	0.003390031
214	0x3c41bf5d	0.01182541
215	0x3d64e45c	0.055881843
216	0x3d0d3027	0.03446975
217	0xbd85f3a2	-0.0654061
218	0x3dc026c0	0.09382391
219	0x3daa4135	0.083132185
220	0x3d99e442	0.0751424
221	0xbde67337	-0.11252444
222	0xbc66bdd3	-0.014083344
223	0x3e0d4f93	0.13799886
224	0xbcc6ada0	-0.024252713
225	0x3d183e24	0.037168637
226	0x3d6e3aac	0.058161423
227	0x3d8cfe8d	0.06884489
228	0xbd9a3d54	-0.07531229
229	0x3e058ae3	0.13041262
230	0x3db6ccb8	0.08925766
231	0x3de325af	0.11091172
232	0x3dc9f63e	0.0986142
233	0x3ce85af0	0.028363675
234	0x3e25ce7e	0.16192052
235	0xbd25006f	-0.040283617
236	0x3d2425ed	0.04007523
237	0x3dee55ec	0.11637482
238	0x3d5c6ff1	0.053817693
239	0x3dcb03e4	0.099128515
240	0x3c44b0a1	0.012005002
241	0xbdadafa3	-0.08480766
242	0x3dd75a10	0.10515225
243	0xbd988215	-0.07446686
244	0xbc35a684	-0.011087064
245	0x3dbaf725	0.0912917
246	0x3d69e376	0.05710169
247	0x3c2a7c64	0.010405634
248	0xbc4b65ca	-0.012414405
249	0x3dbc7342	0.09201671
250	0x3c8c2e80	0.017112017
251	0xbcd5dff3	-0.026107764
252	0xb8654310	-5.466031e-05
253	0x3dbbf175	0.09176914
254	0x3d84ee5e	0.064907774
255	0xbe085854	-0.13314945

hidden_layers.1.bias f4 [64]
0	0x3ee59d5b	0.44846615
1	0xbc06355a	-0.008191431
2	0xbe23dda2	-0.16002515
3	0x3d428100	0.047486305
4	0xbd2dbe94	-0.042418078
5	0x3d842557	0.064524345
6	0x3d1e9d8a	0.03872446
7	0x3d975c01	0.07390595
8	0xbf00ba15	-0.5028394
9	0xbcddf248	-0.027093068
10	0x3eaf74a2	0.3426867
11	0xbf08c540	-0.5342598
12	0x3f196e69	0.599341
13	0x3eef4f0e	0.4674
14	0x3d6b556f	0.057454523
15	0xbf5dbd11	-0.8661662
16	0x3d75424e	0.059877686
17	0xbd51f515	-0.05125912
18	0x3eb66454	0.3562342
19	0xbe7abd4a	-0.2448627
20	0xbe1e1ae9	-0.15439953
21	0xbc9825eb	-0.018572768
22	0xbe98ba63	-0.29829702
23	0xbd79adc5	-0.060956735
24	0x3e4816ef	0.19539998
25	0xbf153b18	-0.58293295
26	0x3b68582e	0.003545295
27	0xbf33e1c7	-0.70266384
28	0xbebd4a0d	-0.3697056
29	0xbce47f5c	-0.027892761
30	0x3fdd0f43	1.7270283
31	0x3dab41b4	0.08362141
32	0xbd433d42	-0.047665842
33	0x3ea4eef7	0.32213566
34	0x3fd7a64f	1.6847628
35	0x3fe4bdc3	1.7870411
36	0x3e9d87f2	0.3076778
37	0x3e92ed5c	0.28696716
38	0xbd3d9075	-0.046280343
39	0x3f4137cb	0.7547576
40	0x3e531bdc	0.20616096
41	0x3fa3a081	1.2783357
42	0xbd864538	-0.06556171
43	0x3f2ca0c7	0.67432827
44	0xbeaabe09	-0.3334811
45	0xbf0958d4	-0.53651166
46	0x3f64cd99	0.8937622
47	0xbd845165	-0.06460837
48	0x3f711129	0.9416681
49	0x3ce16e00	0.027518272
50	0xbd4443ad	-0.047916103
51	0xbf085916	-0.53260934
52	0xbe9aca9e	-0.3023271
53	0xbd6874c2	-0.056751974
54	0x3f019336	0.5061525
55	0x3f4614cc	0.77375484
56	0xbf1203f2	-0.5703727
57	0x3eb78a8b	0.35847887
58	0xbd522ca8	-0.05131212
59	0xbc17ddf8	-0.00926923
60	0xbd01c2af	-0.031679805
61	0xbcd88f25	-0.026435444
62	0x3ea33d73	0.3188282
63	0xbdc025b3	-0.093821906

output_layer.weight f4 [9, 64]
0	0x3ec1f768	0.37884068
1	0xbe2a161c	-0.16609997
2	0x3ebb15e9	0.36540154
3	0x3e9f471a	0.31108934
4	0xbc641349	-0.013920614
5	0x3df9f8eb	0.122056805
6	0x3e3fb1ea	0.18720213
7	0xbda5f755	-0.081038155
8	0x3eac3b8c	0.3363918
9	0xbc869be0	-0.016431749
10	0xbd9a9c36	-0.07549326
11	0x3b338a31	0.00273956
12	0xbe74b3dd	-0.23896737
13	0x3e127113	0.14300947
14	0xbdbc4984	-0.091937095
15	0x3a2f88a4	0.0006696081
16	0xbe6a445b	-0.22877638
17	0x3d6eaf51	0.058272664
18	0xbd3622a2	-0.044466622
19	0x3d90a731	0.07063139
20	0x3c5a51ba	0.013325149
21	0x3d5c70af	0.0538184
22	0xbc512db2	-0.012767242
23	0x3d2fadbd	0.0428903
24	0x3d8a94ae	0.0676664
25	0x3ecba342	0.39772993
26	0xbe00fe66	-0.12597045
27	0x3e46975c	0.19393677
28	0x3daad050	0.08340514
29	0xbdbc8462	-0.092049375
30	0xbf9d182f	-1.2273005
31	0x3dd1964f	0.10233747
32	0xbd137f7c	-0.03601025
33	0xbd7438d8	-0.059624523
34	0xbec8191b	-0.39081654
35	0xbf908275	-1.1289812
36	0x3c4bfabc	0.012449916
37	0xbe3d8b8f	-0.18510269
38	0xbda137b1	-0.078719504
39	0x3e20892f	0.15677331
40	0x3e107cb3	0.14110069
41	0xbf5ef5bb	-0.87093705
42	0x3da67e77	0.0812959
43	0x3ea852a3	0.32875547
44	0x3e3922d8	0.18079698
45	0x3ed2fa0b	0.41206393
46	0xbe59085c	-0.21194595
47	0x3e017cd4	0.12645274
48	0x3e33ca47	0.17557631
49	0x3da72585	0.08161453
50	0x3da0fa8e	0.078602895
51	0x3d8e8c76	0.069603845
52	0x3e43c484	0.19117934
53	0xbd6b9c89	-0.05752233
54	0x3e6070d9	0.21918048
55	0xbf0b3839	-0.54382664
56	0x3e0a65b1	0.13515355
57	0xbd5d77b0	-0.05406922
58	0x3ec349e4	0.38142312
59	0x3ce11d95	0.027479926
60	0x3d1b1505	0.037861843
61	0x3c62828b	0.013825069
62	0x3e1456a8	0.14486182
63	0x3e91a39f	0.28445145
64	0xbd577fdd	-0.052612174
65	0x3ef34d2f	0.47519824
66	0x3eabe176	0.3357045
67	0x3e4160d0	0.18884587
68	0xbd8a464d	-0.0675169
69	0x3ace3dd2	0.0015734977
70	0x3d243ce1	0.04009712
71	0x3e6acd97	0.22929989
72	0x3f10aaa6	0.5651039
73	0xbcc0f453	-0.023554003
74	0x3ea8a5c3	0.32938966
75	0x3ea20f88	0.31652474
76	0x3f2160fc	0.6303861
77	0xbeb837bf	-0.3598003
78	0x3d258d13	0.040417742
79	0x3ef0816d	0.46973744
80	0x3e0e5fc5	0.1390372
81	0x3c461b10	0.012091413
82	0x3ef172da	0.47157937
83	0x3c860014	0.01635746
84	0xbda11f3b	-0.07867285
85	0xbd8a6834	-0.067581564
86	0x3e37a92d	0.17935629
87	0x3da9416e	0.08264433
88	0x3d504076	0.050842725
89	0x3eabe453	0.33572635
90	0x3ce88834	0.02838526
91	0x3ee21154	0.44153845
92	0x3ebafe63	0.36522207
93	0x3ddc9d15	0.107721485
94	0x3c5b6bc5	0.0133923935
95	0x3e6e082a	0.23245302
96	0xbdd899d9	-0.10576219
97	0x3ef85cb7	0.48508236
98	0x3f44d561	0.7688809
99	0x3f547495	0.8299039
100	0x3e0c5356	0.13703665
101	0xbdedaa6b	-0.1160477
102	0xbd1cb5b3	-0.03825922
103	0xbece6358	-0.40310168
104	0xbcd93110	-0.026512653
105	0x3f12c109	0.573258
106	0xbc019d15	-0.007910986
107	0x3dea0eb3	0.11428585
108	0x3ee2c88b	0.44293627
109	0x3ebd32bc	0.3695277
110	0x3f12465e	0.5713862
111	0x3eeb1e9d	0.45921794
112	0xbf452851	-0.7701464
113	0x3eb084fe	0.34476465
114	0x3e67c889	0.22635092
115	0x3ee0a318	0.4387443
116	0x3ed123b6	0.40847558
117	0x3c683a06	0.01417399
118	0xbe2b9930	-0.16757655
119	0x3eb39170	0.35071898
120	0x3ee80ea0	0.45323658
121	0xbea10804	-0.31451428
122	0x3e9ac55f	0.30228707
123	0x3e5c2aca	0.21500698
124	0xbd985d98	-0.074397266
125	0x3c529adf	0.012854307
126	0xbe154679	-0.14577664
127	0x3dd731fa	0.10507579
128	0x3e19d462	0.15022424
129	0x3eaf0522	0.34183604
130	0xbdaeb0de	-0.085298285
131	0xbddceeea	-0.10787757
132	0xba8f2d04	-0.001092345
133	0xbcb7fac5	-0.022458443
134	0x3c645112	0.013935344
135	0xbd551aa6	-0.052027367
136	0x3e445c10	0.19175744
137	0x3dd8873a	0.105726674
138	0x3e0a711f	0.13519715
139	0x3e101c63	0.14073329
140	0x3e878ba6	0.2647373
141	0x3c5afebe	0.013366399
142	0xbdec0070	-0.11523521
143	0x3de0e0a6	0.10980348
144	0xbdbd0078	-0.09228605
145	0x3e00cfeb	0.12579314
146	0x3e78ba78	0.24289882
147	0x3e87ccaf	0.2652335
148	0x3dc8d04d	0.09805355
149	0xbe03008b	-0.12793176
150	0xbdc3bd32	-0.095575705
151	0x3cadcc2a	0.021215517
152	0x3d5bbac4	0.05364491
153	0xbe08eced	-0.1337163
154	0x3dc9eeb5	0.09859983
155	0x3df331a4	0.118747026
156	0x3e0dff95	0.13867028
157	0x3df384be	0.11890553
158	0x3ecd7c87	0.4013407
159	0x3e21d717	0.15804707
160	0x3e8248d7	0.25446197
161	0x3c9e693b	0.019337287
162	0x3f4d8651	0.80283076
163	0x3e6f17ea	0.23348966
164	0x3e725a94	0.23667365
165	0x3e8a98f1	0.2706981
166	0xbe0903ae	-0.1338031
167	0x3e3b24e5	0.18275793
168	0x3e0851a9	0.13312401
169	0xbbf4e980	-0.0074741244
170	0x3e3ce6ed	0.18447466
171	0x3e0f495d	0.1399283
172	0x3ea9dfcc	0.33178556
173	0x3d8a72bc	0.06760165
174	0x3f2e6da0	0.68136024
175	0x3ee21545	0.44156852
176	0x3c4a8572	0.012360917
177	0xbc4af099	-0.0123864645
178	0x3e478684	0.19484907
179	0x3e4f5eee	0.20251057
180	0x3cce7559	0.02520244
181	0xbd250f6a	-0.040297903
182	0xbd8b6fc1	-0.06808425
183	0x3e7042b9	0.23462953
184	0x3e4ba5e1	0.19887497
185	0xbe1bec92	-0.15226963
186	0x3dd203d9	0.1025464
187	0x3e3a0557	0.181661
188	0x3de48798	0.11158675
189	0x3e16c491	0.14723422
190	0xbd9ef898	-0.07762259
191	0xbd4d03ff	-0.05005264
192	0x3ef89b2d	0.4855589
193	0xbead4d0f	-0.33847854
194	0xbf201181	-0.6252671
195	0xbf0a6fd5	-0.5407689
196	0xbd31b384	-0.04338409
197	0xbca91cd0	-0.020643622
198	0xbd3d57d5	-0.04622634
199	0x3e2d28ef	0.16910146
200	0xbe841024	-0.25793564
201	0x3de00b1d	0.1093962
202	0xbedabab6	-0.42720574
203	0xbe210833	-0.15725784
204	0xbd55dd1e	-0.052212827
205	0xbdb71a57	-0.08940571
206	0x3e212131	0.15735318
207	0x3d348a4c	0.044077203
208	0x3ed34465	0.41263118
209	0xbc972989	-0.018452423
210	0xbe43bca5	-0.19114931
211	0xbe804c28	-0.25058103
212	0x3da3e4a6	0.080025956
213	0xbe112fc4	-0.14178377
214	0xbda4d9f4	-0.08049384
215	0x3f5a0f49	0.85179573
216	0xbef8f7b3	-0.4862648
217	0xbeaadf35	-0.33373418
218	0xbef7ca72	-0.4839664
219	0xbe729d76	-0.23692879
220	0x3d77a4b4	0.060459808
221	0xbd9bbc25	-0.07604245
222	0x3ee4c1c5	0.44679084
223	0x3ebedaaf	0.37276217
224	0xbe9f90f6	-0.31165284
225	0xbe9b6eb0	-0.30357885
226	0x3ef73fa5	0.48290744
227	0x3e0c9a65	0.13730772
228	0xbe8a1e32	-0.26976162
229	0x3e874790	0.26421785
230	0x3ebd602a	0.3698743
231	0x3e6deccb	0.2323486
232	0x3e9a070a	0.30083495
233	0xbf130496	-0.5742887
234	0xbe6a7e17	-0.22899662
235	0xbefaa852	-0.48956543
236	0xbdde8a5a	-0.10866232
237	0xbe32d483	-0.1746388
238	0x3e2767bc	0.16348165
239	0xbe8897ef	-0.26678416
240	0x3dc8be91	0.09801973
241	0x3e06e1a7	0.13172017
242	0xbe0d55f4	-0.1380232
243	0x3de71252	0.11282791
244	0xbeee94e2	-0.46597964
245	0x3d667b60	0.056270003
246	0x3f3d225b	0.7388055
247	0x3f46e6e9	0.7769609
248	0xbf1f6d7a	-0.6227642
249	0x3f7aa456	0.97907007
250	0xbf5f5382	-0.872368
251	0xbe7976e9	-0.24361767
252	0x3dfed420	0.124428034
253	0x3dbb5b1e	0.091482386
254	0x3f4a8f93	0.79125327
255	0xbf40a712	-0.7525493

output_layer.bias f4 [9]
0	0xbf189767	-0.5960602
1	0xbf78ade5	-0.9714034
2	0x3f2a1f33	0.66453856
3	0x3f77d529	0.9680963
4	0x3f196f3b	0.5993535
5	0x3edf7e39	0.43650988
6	0x3ecee343	0.40407762
7	0x3f943595	1.1578852
8	0x3f25b148	0.64723635
